app/src/main/assets/mixed_augmented.tflite (tflite, 720912 bytes, 16 tensors)

arith.constant6 f4 [300, 128]
0.16964486 -0.23857194 0.023900028 -0.03751621 -1.1146357 -0.056463934 0.07630847 -0.18766731
-1.0078939 -0.21577622 -0.12330347 -0.22459735 -0.0059122997 0.06946838 -1.0286701 -0.90666956
0.014649521 0.0026059975 -0.11194653 -1.2247202 -1.3613406 -1.3207791 -0.79421425 -0.11379914
-0.729261 0.113281384 -0.61309767 0.13340564 0.013906687 0.037298378 -0.49988 -0.62508905
0.17834789 -0.4072542 0.13916306 -0.11678133 -0.9188391 -0.09043584 -0.005834194 0.08001479
-0.37924 -0.759739 -0.7957139 -0.6281024 -0.21702361 -0.72789216 -0.5458903 0.10790713
-0.31032076 -0.305942 -0.053027514 -0.32075235 -0.25346634 0.14918847 -0.015609071 -0.13212779
-0.32501158 -0.060823802 -0.32333788 0.0755943 -0.37721434 -0.35280743 -0.5019701 -0.76373124
-0.027005015 -0.3356322 -0.79930806 -0.64482087 -0.40744707 0.14498976 0.18950236 0.15047319
-0.025991412 0.24318916 -0.16411228 0.09020903 -0.014260921 0.1177311 0.10940951 0.18860582
-0.16682057 -0.72378105 0.07058798 0.12884155 -0.7330525 0.06970143 -0.844545 -0.36560845
-0.054267425 -0.48742855 -0.9264037 -1.0832857 -0.35043138 0.036157116 -0.5903056 -0.30601466
-0.6819793 -0.43826696 0.13359958 -0.27942145 -1.1425174 -0.1331006 0.17402314 -0.6591556
-0.39657706 -0.7813804 -0.7485019 0.039818615 -0.4882324 -0.5750972 -0.078151345 -0.74121684
-0.60068125 -0.05736949 0.30841708 -0.3105003 -0.04600657 0.12963112 -0.087651506 0.17555185
0.10388019 -0.38413757 0.21760309 0.06892741 -0.056730464 -0.5182299 0.16433121 -0.22883539
0.16227366 0.1543613 -0.14680706 0.18278731 0.036324505 0.10739729 -0.03777439 -0.88360715
-0.17473361 -0.5428707 -0.05223841 -0.8672747 0.18348104 -0.37566707 -0.1973635 0.08489452
-0.30816218 -0.15978226 -0.51104665 -1.0598594 -0.009750005 0.03371785 -0.33596513 -0.13981614
0.23476388 -0.43653837 0.0660852 -0.49427882 -0.25235674 -0.69834614 -0.1558585 -0.089769304
-0.115482084 -0.233853 -0.13146904 0.0164463 -0.13374598 -1.0415556 -0.6324876 0.041454457
0.21945696 -0.26430893 -0.27701065 -0.38141873 -0.30693483 -0.60863715 0.1994184 -0.6942156
-0.4509346 -0.05337612 -0.58040017 -0.73459893 0.20317459 0.07255423 -0.3345684 -1.0709563
-1.5982531 -0.3431313 -0.18211274 0.17779246 0.18996204 -0.5809587 -0.12101857 0.1339433
0.19612467 -1.5672507 0.123940594 -0.08089939 -0.26577917 -0.8638666 -0.76880944 0.09760087
-0.0024214308 -0.31486362 -0.13804866 -0.6427345 0.037463572 -1.8159266 -0.52138114 -0.07379735
-0.25107914 0.1003487 -1.081866 0.26143292 0.017656524 -0.27947676 -0.8082421 -0.030186057
-1.1312783 -0.20527554 0.17123704 -0.36080042 -0.47026053 -0.3325057 0.058274865 -0.2556861
-0.117318034 0.25602612 -1.1142406 0.13795727 -0.6317287 -0.9985081 -0.29898885 -0.24372701
-0.7768751 -0.074418575 -0.3017826 -0.5168294 -0.014042643 -0.3026966 -0.2094639 -0.6425281
-0.5192144 -0.6192994 -0.10636667 0.14273551 0.19321784 -0.7137503 -0.07229341 0.22388029
0.09969952 -0.49332815 0.09898114 -0.12797302 0.060576223 -0.48324832 -0.5749217 0.25027815
00000000: 62b7 2d3e 344c 74be fec9 c33c 99aa 19bd
00000010: 62ac 8ebf ba46 67bd 9d47 9c3d dc2b 40be
00000020: ab02 81bf 71f4 5cbe 8886 fcbd d9fc 65be
00000030: f7bb c1bb 7045 8e3d 76ab 83bf 7f1b 68bf
00000040: 8b04 703c 62c9 2a3b 3944 e5bd a2c3 9cbf
00000050: 6940 aebf 4a0f a9bf a051 4bbf 860f e9bd
00000060: d9b0 3abf 1200 e83d f8f3 1cbf 7d9b 083e
00000070: dfd8 633c 2fc6 183d 45f0 ffbe d605 20bf
00000080: d4a0 363e 9f83 d0be c380 0e3e 0d2b efbd
00000090: 0a39 6bbf 6d36 b9bd c42c bfbb cbde a33d
000000a0: bf2b c2be 417e 42bf e8b3 4bbf 52cb 20bf
000000b0: 703b 5ebe 2457 3abf 77bf 0bbf 6afe dc3d
000000c0: 5de2 9ebe 6ea4 9cbe 6133 59bd a739 a4be
000000d0: 57c6 81be ddc4 183e 30bd 7fbc 824c 07be
000000e0: eb67 a6be 6122 79bd 8b8c a5be 2fd1 9a3d
000000f0: 3d22 c1be 2da3 b4be 1d81 00bf e483 43bf
00000100: 9f39 ddbc fcd7 abbe 749f 4cbf fb12 25bf
00000110: e79c d0be 3278 143e e80c 423e a515 1a3e
00000120: f1eb d4bc 9406 793e 0d0d 28be 83bf b83d
00000130: a3a6 69bc 011d f13d 1812 e03d e221 413e
00000140: 03d3 2abe b749 39bf 6e90 903d 0aef 033e
00000150: 54a9 3bbf a0bf 8e3d 1a34 58bf 0831 bbbe
00000160: 8547 5ebd 3c90 f9be cb28 6dbf 1ba9 8abf
00000170: be6b b3be 7c19 143d 451e 17bf f4ad 9cbe
00000180: 3296 2ebf 8764 e0be 54ce 083e 5410 8fbe
00000190: 033e 92bf 864b 08be 1f33 323e 6cbe 28bf
000001a0: 260c cbbe 8c08 48bf d29d 3fbf d818 233d
000001b0: 99f9 f9be 9239 13bf d00d a0bd 63c0 3dbf
000001c0: 3fc6 19bf 45fc 6abd d8e8 9d3e e5f9 9ebe
000001d0: 6371 3cbd 05be 043e a282 b3bd ddc3 333e
000001e0: 23bf d43d aead c4be 58d3 5e3e d029 8d3d
000001f0: 345e 68bd b7aa 04bf 7146 283e d353 6abe
00000200: 112b 263e e310 1e3e 9754 16be 992c 3b3e
00000210: 01c9 143d 1cf3 db3d 52b9 1abd 1434 62bf
00000220: 5eed 32be 93f9 0abf f1f7 55bd b705 5ebf
00000230: 74e2 3b3e 6f57 c0be a819 4abe 2edd ad3d
00000240: 6fc7 9dbe f69d 23be f4d3 02bf 79a9 87bf
00000250: 7cbe 1fbc ba1b 0a3d 9f03 acbe f62b 0fbe
00000260: f165 703e f581 dfbe ad57 873d 1d12 fdbe
00000270: e734 81be d0c6 32bf 5f99 1fbe f8d8 b7bd
00000280: df81 ecbd 2977 6fbe d29f 06be 64ba 863c
00000290: b5f4 08be b251 85bf b5ea 21bf 26cc 293d
000002a0: 53b9 603e 8053 87be 57d4 8dbe 5149 c3be
000002b0: 9026 9dbe a5cf 1bbf 5634 4c3e 1db8 31bf
000002c0: e6e0 e6be eba0 5abd 1b95 14bf ad0e 3cbf
000002d0: 000d 503e 5097 943d 8d4c abbe 1915 89bf
000002e0: 8f93 ccbf e8ae afbe c37b 3abe 3a0f 363e
000002f0: 6985 423e b6b9 14bf 96d8 f7bd 6f28 093e
00000300: e8d4 483e ac9b c8bf 91d4 fd3d 94ae a5bd
00000310: 3514 88be 5d26 5dbf b2d0 44bf f7e2 c73d
00000320: deb0 1ebb ce35 a1be a15c 0dbe 408a 24bf
00000330: 6773 193d 4870 e8bf 3c79 05bf 1123 97bd
00000340: 728d 80be 9f83 cd3d 967a 8abf 89da 853e
00000350: 6aa4 903c 9417 8fbe f4e8 4ebf c048 f7bc
00000360: bacd 90bf c033 52be c358 2f3e d5ba b8be
00000370: fdc5 f0be 303e aabe a0b1 6e3d 4ae9 82be
00000380: 7044 f0bd db15 833e 709f 8ebf ac44 0d3e
00000390: f9b8 21bf 3a9e 7fbf 1115 99be 9393 79be
000003a0: 49e1 46bf c468 98bd 4083 9abe ee4e 04bf
000003b0: 1d13 66bc 0cfb 9abe b47d 56be b97c 24bf
000003c0: 3ceb 04bf 688a 1ebf c5d6 d9bd 4229 123e
000003d0: e6da 453e 57b8 36bf 910e 94bd e040 653e
000003e0: 432f cc3d 8295 fcbe a0b6 ca3d 5c0b 03be
000003f0: c61e 783d 536c f7be 122e 13bf 7524 803e

arith.constant7 f4 [128, 64]
0.14362974 -1.096005 0.20586972 0.32473794 0.520467 0.025681237 -0.2013345 -0.47612858
0.061479602 0.25001523 0.60393465 -0.23931049 -0.8267475 0.14164908 -0.03773864 0.16551831
-0.12887901 0.053978037 0.19781402 -0.06665396 -0.23674268 -0.4368871 -0.22649673 -0.2876854
0.30647802 0.0021521887 -0.08158296 0.20779777 0.08833545 0.2325772 0.05213646 -0.09368985
0.21665245 0.16428326 0.29372975 -0.21994513 0.10153194 0.055514116 0.010329391 -0.0796719
0.026830157 -0.34146002 0.23776564 -0.16787775 0.05264498 0.25145265 0.019797351 -0.053220585
0.08202236 -0.5159525 -0.08321873 0.24054563 0.022729948 -0.19012205 -0.80938345 -0.09823929
0.5889096 0.48823416 -0.1855973 0.6612472 0.45392805 0.36281663 -0.3699763 -0.010310142
-0.22504522 0.10443396 0.29368117 0.13701445 0.20797873 0.16100442 0.16100532 -0.019376313
0.4003391 -0.033980723 0.40308535 -0.87150776 -0.3842906 0.04741852 0.07249547 0.10517418
0.086587004 -0.17512254 0.071720056 0.115152776 -0.007545587 0.021302428 -0.15668654 -0.0731589
0.550096 0.20464249 -0.073903345 -0.14136787 0.8461101 0.16750199 -0.026961682 0.34172815
0.2299157 -0.29155788 0.5278866 -0.3026615 -0.18879023 0.10910429 -0.0851196 0.08735092
-0.00058932125 -0.3769838 0.18956885 -0.14229855 0.32532418 0.15885808 0.030176517 0.6058921
-0.21442734 0.1654245 -0.0694275 -0.3514458 -0.016529493 -0.10797277 -0.09412212 -0.48671243
0.1447743 0.0914842 -0.25702664 -0.22450072 -0.11360675 0.00033765228 0.603733 0.5686999
-0.3891607 -0.24696043 0.22948825 -0.028732916 0.38795525 0.33977428 -0.15397626 -0.20678622
0.05124041 -0.32484275 -0.1118488 0.23643339 0.22227162 1.0435567 0.25565594 -0.06970576
0.15355358 -0.15741348 -0.28237402 -0.14462665 0.07135515 -0.036448963 0.19115847 0.0040532127
0.05118085 0.30265749 0.13532165 -0.08020924 -0.18426347 -0.28860036 0.016612727 -0.122480586
-0.2817561 0.6353138 -0.12971924 -0.03608832 0.19800201 -0.08081752 0.12518984 -0.15025015
-0.43719456 -0.17060797 0.046550244 0.023623645 -0.36462834 0.12141551 -0.076318376 -0.74504304
0.28734946 -0.4848001 0.040922087 0.1776643 -0.09268473 -0.023121899 0.23851159 0.65499717
-0.5224849 0.115965895 0.07238604 0.06595074 -0.048035316 -0.08111864 -0.13002591 -0.4448073
-0.1255173 -0.6160165 0.09452431 0.3755624 0.03507212 -0.08493804 0.0001146702 -0.06055623
-0.24147221 -0.5997799 0.5322634 0.14199461 -0.19832705 0.015738085 -0.15693374 0.49493542
0.2620206 -0.25608566 0.59283537 0.33420706 -0.67780364 -0.52285576 -0.08382096 -0.29225776
0.36450702 -0.061463334 -0.56347483 0.15940881 0.018576905 -0.10641591 -0.1821017 0.26418316
-0.23351245 0.15453479 -0.16890262 0.056185473 0.07630324 0.12603134 0.10076935 0.5937852
-0.1332474 -0.09162925 -0.081175 -0.09845168 -0.3790943 0.114172466 0.25817946 -0.035688683
0.07795897 0.091014974 0.55165714 0.68391997 -0.34954166 0.2930692 -0.149426 -0.3008803
-0.14329758 -0.03911481 -0.25598606 -0.19400635 0.017141052 0.13522948 0.12646988 0.20706218
00000000: ad13 133e e449 8cbf 83cf 523e 0d44 a63e
00000010: 533d 053f 7561 d23c a22a 4ebe 20c7 f3be
00000020: 09d2 7b3d ff01 803e 769b 1a3f cf0d 75be
00000030: b9a5 53bf 750c 113e d593 1abd a27d 293e
00000040: dcf8 03be 1318 5d3d c28f 4a3e df81 88bd
00000050: ac6c 72be aaaf dfbe c2ee 67be 804b 93be
00000060: b0ea 9c3e bc0b 0d3b f814 a7bd f0c8 543e
00000070: 37e9 b43d b828 6e3e 0a8d 553d 77e0 bfbd
00000080: 24da 5d3e df39 283e bf63 963e 4c39 61be
00000090: faef cf3d c562 633d 9b3c 293c 052b a3bd
000000a0: ebca db3c d9d3 aebe d678 733e 25e8 2bbe
000000b0: 43a2 573d 67be 803e 0e2e a23c d4fd 59bd
000000c0: 57fb a73d 7715 04bf 956e aabd 9851 763e
000000d0: 2834 ba3c 5baf 42be c133 4fbf ae31 c9bd
000000e0: c8c2 163f d4f9 f93e 380d 3ebe 7f47 293f
000000f0: 4269 e83e 1ac3 b93e 896d bdbe dfeb 28bc
00000100: 4172 66be 79e1 d53d 615d 963e 844d 0c3e
00000110: 60f8 543e 58de 243e 94de 243e 13bb 9ebc
00000120: 3ff9 cc3e 5f2f 0bbd 3461 ce3e 221b 5fbf
00000130: bdc1 c4be ec39 423d 8178 943d 8f65 d73d
00000140: 8754 b13d 5353 33be f7e1 923d 38d5 eb3d
00000150: f940 f7bb 6e82 ae3c 7072 20be 55d4 95bd
00000160: 17d3 0c3f cd8d 513e a35a 97bd bdc2 10be
00000170: ac9a 583f a485 2b3e bfde dcbc fef6 ae3e
00000180: 056f 6b3e 1347 95be 9423 073f 73f6 9abe
00000190: 3a52 41be 1272 df3d 2f53 aebd 0ae5 b23d
000001a0: ae7c 1aba 0504 c1be 561e 423e b6b6 11be
000001b0: e490 a63e b1ab 223e be34 f73c bf1b 1b3f
000001c0: d792 5bbe 0a65 293e 0130 8ebd b4f0 b3be
000001d0: dc68 87bc d420 ddbd 19c3 c0bd 5f32 f9be
000001e0: b73f 143e 115c bb3d ff98 83be 84e3 65be
000001f0: a8aa e8bd ec06 b139 3f8e 1a3f 5196 113f
00000200: 1240 c7be 32e3 7cbe f8fe 6a3e 4b61 ebbc
00000210: 12a2 c63e e5f6 ad3e f4ab 1dbe c4bf 53be
00000220: 77e1 513d ca51 a6be fc10 e5bd 981b 723e
00000230: 2c9b 633e 4493 853f 56e5 823e e5c1 8ebd
00000240: 263d 1d3e 0031 21be 5493 90be 0219 14be
00000250: a622 923d 824b 15bd 0cbf 433e d0d0 843b
00000260: 03a3 513d ecf5 9a3e c291 0a3e be44 a4bd
00000270: 90af 3cbe 6dc3 93be 6a17 883c 1ad7 fabd
00000280: 5642 90be eda3 223f 1fd5 04be 59d1 13bd
00000290: 0ac1 4a3e a883 a5bd c431 003e 2ddb 19be
000002a0: f7d7 dfbe dbb3 2ebe 78ab 3e3d 6086 c13c
000002b0: 91b0 babe b2a8 f83d cf4c 9cbd 24bb 3ebf
000002c0: 781f 933e b837 f8be eb9d 273d a1ed 353e
000002d0: 7ed1 bdbd 236a bdbc 623c 743e e5ad 273f
000002e0: 92c1 05bf 877f ed3d 223f 943d 2e11 873d
000002f0: aec0 44bd 8821 a6bd 8325 05be c8bd e3be
00000300: 9b87 00be 42b3 1dbf f695 c13d b749 c03e
00000310: c9a7 0f3d fff3 adbd 187b f038 cf09 78bd
00000320: 7e44 77be 2d8b 19bf 6a42 083f 0967 113e
00000330: 3f16 4bbe 28ed 803c 3db3 20be 2d68 fd3e
00000340: 9027 863e a91d 83be 0fc4 173f 301d ab3e
00000350: 8a84 2dbf e0d9 05bf 53aa abbd cfa2 95be
00000360: aaa0 ba3e fac0 7bbd e33f 10bf 103c 233e
00000370: 982e 983c 96f0 d9bd de78 3abe 0443 873e
00000380: e31d 6fbe 5e3e 1e3e cff4 2cbe bd22 663d
00000390: e044 9c3d 5c0e 013e 2960 ce3d 4f02 183f
000003a0: 0272 08be 1ea8 bbbd 143f a6bd 09a1 c9bd
000003b0: a618 c2be 41d3 e93d 1930 843e 4c2e 12bd
000003c0: f4a8 9f3d 0f66 ba3d 6739 0d3f 6115 2f3f
000003d0: 20f7 b2be 2b0d 963e 2103 19be fc0c 9abe
000003e0: 9abc 12be da36 20bd 9b10 83be 9aa9 46be
000003f0: 646b 8c3c 9979 0a3e 5281 013e 1c08 543e

arith.constant8 f4 [256, 128]
0.05753709 0.04871038 0.054793786 -0.128772 -0.16281883 -0.5762077 -0.047461536 0.07429293
-0.055731915 0.3854472 0.05637317 0.0007483326 0.10340747 0.05442281 -0.06756321 -0.1810798
-0.07657108 0.20227979 -0.25963145 0.13947135 -0.0944283 0.08756742 0.06746133 0.03679573
0.0080895955 -0.12381503 -0.16444233 -0.09776554 -0.036736228 -0.07435291 0.10416042 0.080647625
0.5436182 -0.5916098 0.022503154 -0.07483772 0.12109322 0.033595152 0.3082652 -0.17790031
0.27823052 -0.21723859 0.08169035 -0.18014891 0.12078682 -0.11942203 -0.20862484 0.0350363
0.41189972 -0.603528 0.07710391 0.11786381 1.0444343 -0.26875728 -0.06793186 1.1099615
-0.07029756 0.18840052 0.043362807 -0.19613558 -0.015208514 0.021788301 0.56098884 0.04997947
-0.092356496 0.55969864 -0.65726143 0.032461558 0.031509522 -0.1542859 -0.09568316 -0.30053008
0.002383011 0.09898084 0.24903159 0.92547923 0.48301938 -0.1630628 0.15777323 -0.08707497
-0.0639339 0.26893178 0.06266449 -0.103681944 0.024324998 -0.08615064 -0.03904275 -0.11260937
-0.09852712 0.032734185 0.14360912 -0.17238784 -0.5039035 -0.0996812 0.30177656 0.082075395
0.3193502 -0.5087215 -0.15506022 -0.08937101 0.036653113 0.11077767 -0.029477611 -0.05120823
-0.01298035 -0.029489664 0.16158088 -0.04916972 0.37172863 -0.022233652 0.073628806 -0.013434501
0.09146521 0.08304074 0.06492242 -0.0901295 -0.25744933 -0.012569894 0.05554078 0.03624396
-0.19362956 0.042532824 -0.29389495 -0.07717408 0.03836609 -0.21795504 0.01649697 0.86373556
-0.06497203 -0.19276965 -0.055557158 0.31413975 -0.18822204 -0.24915098 0.20914565 0.15389496
-0.0038867474 0.06871161 -0.19855136 0.026679616 0.07987156 0.18922256 -0.10455091 -0.23152764
-0.05743033 -0.035592616 -0.5327712 -0.05877643 -0.18860424 -0.025626384 0.09607182 0.124521226
0.053425822 -0.10659641 -0.36155123 0.1958312 -0.14322127 -0.028403804 0.13193135 -0.094566695
-0.1618642 0.33426213 0.10943766 0.1295597 0.12761019 -0.29213503 0.047848925 -0.104433626
-0.30825266 0.0381327 -0.1448241 -0.02448168 -0.10455503 -0.07804151 -0.030781208 0.14347723
-0.16644035 -0.01949119 -0.07566167 -0.01060217 -0.025634514 -0.07340074 -0.17781623 -0.029456407
-0.13575315 -0.077934414 0.18404226 -0.2548662 0.07643135 -0.32971317 -0.09635983 -0.14746726
-0.1085427 0.07735603 0.079492964 0.06612403 0.03458743 -0.04256219 -0.18499291 0.123679824
-0.00693737 -0.28489855 0.2231413 0.056662243 0.02053035 0.10444971 0.05193404 -0.13377103
0.15654756 -0.10726801 -0.031683337 0.15696032 -0.025456805 -0.06559044 0.05145334 -0.10462966
-0.1411121 0.22456408 -0.33424413 -0.13346183 0.08644157 0.11177777 -0.8796277 0.13803871
0.16452509 0.08773433 0.19394462 -0.32888284 0.45279753 -0.10095352 -0.047325972 0.2356913
-0.037639145 0.111378014 0.089811355 -0.100795835 0.31696436 0.14687401 0.10115517 -0.0954541
-0.057906922 0.22505996 0.087957755 0.059397966 -0.13791554 -0.025325095 0.08233292 0.135639
0.3473782 0.015507959 -0.42016497 -0.02818105 0.04504363 0.12185985 -0.28846124 0.070672534
00000000: 03ac 6b3d 8984 473d 736f 603d cfdc 03be
00000010: fbb9 26be 5982 13bf 0767 42bd e426 983d
00000020: 2647 64bd 5659 c53e 8ee7 663d c02b 443a
00000030: 4cc7 d33d 74ea 5e3d 955e 8abd fc6c 39be
00000040: 4cd1 9cbd 6f22 4f3e 6aee 84be 94d1 0e3e
00000050: a063 c1bd 8c56 b33d 2a29 8a3d 1fb7 163d
00000060: 398a 043c bc92 fdbd 9263 28be 4d39 c8bd
00000070: ba78 16bd 5746 98bd 0f52 d53d 952a a53d
00000080: 902a 0b3f bd73 17bf 8958 b83c 8544 99bd
00000090: b9ff f73d 129b 093d f0d4 9d3e 802b 36be
000000a0: 3b74 8e3e cb73 5ebe 454d a73d f578 38be
000000b0: 155f f73d 8a93 f4bd c0a1 55be 3982 0f3d
000000c0: 85e4 d23e d080 1abf a8e8 9d3d 9562 f13d
000000d0: 06b0 853f 8e9a 89be dc1f 8bbd 3813 8e3f
000000e0: 2bf8 8fbd 11ec 403e 339d 313d c4d7 48be
000000f0: 222d 79bc 617d b23c f79c 0f3f 46b7 4c3d
00000100: 6725 bdbd 6948 0f3f 4942 28bf 69f6 043d
00000110: 2110 013d 1ffd 1dbe 88f5 c3bd 14df 99be
00000120: 4a2c 1c3b 77b6 ca3d 2302 7f3e 35ec 6c3f
00000130: 514e f73e eff9 26be 4e8f 213e 5d54 b2bd
00000140: c7ef 82bd 6db1 893e 3d56 803d 3357 d4bd
00000150: 3845 c73c bf6f b0bd 4aeb 1fbd be9f e6bd
00000160: 96c8 c9bd 4814 063d 450e 133e 7086 30be
00000170: d2ff 00bf a825 ccbd 7582 9a3e 2517 a83d
00000180: df81 a33e 923b 02bf 1bc8 1ebe 2608 b7bd
00000190: 9321 163d 67df e23d 087b f1bc b9bf 51bd
000001a0: 89ab 54bc 4f94 f1bc 7575 253e 3066 49bd
000001b0: 3753 be3e 5923 b6bc b3ca 963d 621c 5cbc
000001c0: 1d52 bb3d 4311 aa3d 0cf6 843d d195 b8bd
000001d0: 66d0 83be f5f1 4dbc bb7e 633d 8c74 143d
000001e0: d446 46be e636 2e3d 6679 96be 720d 9ebd
000001f0: c325 1d3d 9b2f 5fbe a724 873c c61d 5d3f
00000200: 0e10 85bd 6865 45be e78f 63bd edd6 a03e
00000210: 47bd 40be 6f21 7fbe 472a 563e a496 1d3e
00000220: cdb8 7ebb acb8 8c3d 0c51 4bbe 368f da3c
00000230: b393 a33d 8fc3 413e ca1e d6bd 9515 6dbe
00000240: 113c 6bbd 90c9 11bd b263 08bf 8ebf 70bd
00000250: 7821 41be 6cee d1bc 4dc1 c43d fc04 ff3d
00000260: 09d5 5a3d 384f dabd 3e1d b9be f987 483e
00000270: 99a8 12be 18af e8bc 0319 073e 2fac c1bd
00000280: bbbf 25be 6824 ab3e da20 e03d 4cab 043e
00000290: 3fac 023e b992 95be 3cfd 433d 4ce1 d5bd
000002a0: 4bd3 9dbe 0931 1c3d c54c 14be ce8d c8bc
000002b0: f320 d6bd 3ad4 9fbd df28 fcbc b2eb 123e
000002c0: 576f 2abe fdab 9fbc 81f4 9abd b9b4 2dbc
000002d0: 79ff d1bc 2153 96bd 7515 36be 904e f1bc
000002e0: e002 0bbe 149c 9fbd 9375 3c3e d37d 82be
000002f0: 0a88 9c3d 2ad0 a8be 4d58 c5bd a801 17be
00000300: a34b debd d76c 9e3d 35cd a23d 096c 873d
00000310: 8dab 0d3d b155 2ebd c86e 3dbe d94b fd3d
00000320: e152 e3bb 39de 91be 277f 643e ab16 683d
00000330: 442f a83c bbe9 d53d cab8 543d 46fb 08be
00000340: 014e 203e 55af dbbd 63c6 01bd 35ba 203e
00000350: ca8a d0bc 4854 86bd bdc0 523d 1348 d6bd
00000360: b17f 10be 20f4 653e 0c22 abbe 38aa 08be
00000370: 4708 b13d beeb e43d 482f 61bf 055a 0d3e
00000380: 4479 283e 0eae b33d 6b99 463e 5563 a8be
00000390: 14d5 e73e b8c0 cebd e1d8 41bd 0f59 713e
000003a0: 812b 1abd 281a e43d 04ef b73d 0c6e cebd
000003b0: 2749 a23e 2466 163e 712a cf3d 707d c3bd
000003c0: cf2f 6dbd 1e76 663e 3223 b43d 484b 733d
000003d0: bb39 0dbe 9376 cfbc 299e a83d f3e4 0a3e
000003e0: 8edb b13e 1815 7e3c dd1f d7be f2db e6bc
000003f0: ab7f 383d a891 f93d 31b1 93be c3bc 903d

arith.constant9 f4 [256, 64]
0.61963046 0.36797923 -0.18807484 0.16983312 0.2277849 -0.50240326 -0.02415594 -0.14067484
0.6119098 0.049928132 0.01486224 0.49927023 0.040209908 -0.6913727 -0.6979449 0.620323
-0.0006643667 0.62609327 -0.2943034 -0.030424474 0.47833046 -0.57991964 -0.18590413 -1.2154617
0.37562925 0.14457886 -0.010546731 -0.37792256 -0.19711047 -0.404882 -0.26176313 -0.5122741
0.3465191 -0.17357793 0.6321848 -0.012002466 -0.45077494 0.23465608 0.34939736 -0.40672603
0.33771366 0.77402866 -0.16827053 -0.275242 -0.057479057 -0.025099028 0.6925097 -0.259615
0.6674348 0.20430088 0.08815609 -0.06848781 0.29346853 -0.6504931 0.22152546 0.56235844
-0.2812454 0.1998666 0.049716525 -1.038178 0.1315715 0.3334955 0.47910368 -0.26046535
0.18019849 -0.2532264 -0.6168659 0.25312865 0.29556593 0.41402212 -0.33575374 -0.02474737
0.09922493 0.20425211 -0.2694648 -0.0895993 0.13371341 0.033198714 0.09364904 0.08257433
0.10609758 0.34937444 -0.19053453 0.2811286 0.20516665 -0.26092187 0.0742082 -0.3987797
0.015953204 0.088968 -0.375749 -0.13083708 0.16735952 0.14733964 -0.026860781 -0.37550548
0.14296947 0.3148039 0.5266083 0.49157044 -0.2681817 -0.11197116 -0.07400224 -0.10540003
0.09966414 0.34762904 -0.2894512 -0.3810083 0.2567262 -0.012003541 -0.00290977 0.026934933
0.7934007 0.2488105 0.30769938 -0.26096126 -0.41616675 0.0841191 -0.29086885 -0.17276253
-0.18643151 -0.030633703 0.37656456 -0.13601695 -0.060942065 0.3919247 0.34759685 -0.20659682
0.22556937 -0.109812625 -0.44467065 -0.0015500933 -0.28123182 -0.06273661 0.026030313 0.15350334
-0.18580735 0.13051324 -0.12601882 -0.07611011 0.10046589 -0.42649403 -0.27768737 0.16710874
0.007828077 -0.016792677 -0.3747587 -0.33722883 -0.25338787 0.21796468 0.051429305 -0.11427963
0.38678628 0.37526137 -0.038122524 0.10785156 -0.11563531 -0.2329464 -0.27459764 -0.48617378
-0.23421112 0.21548055 0.12834904 -0.31389397 0.1084901 -0.10682963 0.15381572 -0.6214422
0.36705023 0.33625844 -0.22285934 -0.17328842 0.089225836 0.20451275 -0.051593807 -0.078125276
-0.06875518 -0.048539903 -0.043963693 0.05733412 0.056547824 0.1377173 0.33906826 0.016983619
-0.32482386 -0.27544528 -0.014789232 0.22279009 -0.7043527 0.11459386 0.09420422 -0.1166893
0.40450454 0.22955662 -0.26930183 -0.033401694 0.3313057 0.095006935 0.3283192 0.043797556
-0.009923188 0.031193528 0.0895886 -0.21818687 0.4349566 -0.39685854 0.24533826 0.41620806
0.26480344 0.11732905 -0.25800377 -0.13719344 -0.15897772 -0.2680074 0.32492656 -0.20416562
0.08419784 0.11362199 -0.022163443 -0.20072106 0.0002667516 0.111714356 -0.17266294 -0.6498658
-0.2207504 0.1496096 0.3493486 -0.05811761 0.10637148 -0.30262497 0.2221699 -0.33265647
0.34702933 0.3479732 -0.2670601 -0.3511816 0.4270302 -0.05038497 0.22581738 -0.6775884
0.3653407 -0.23762089 -0.033899564 -0.104683146 0.20558473 0.16170715 0.13602999 0.011532495
0.07545936 0.14377499 0.34250888 -0.07691241 0.13116041 0.12441426 0.23140635 0.15542416
00000000: 1aa0 1e3f c667 bc3e b196 40be bce8 2d3e
00000010: 7240 693e 809d 00bf aee2 c5bc 110d 10be
00000020: 1fa6 1c3f 7181 4c3d c180 733c 59a0 ff3e
00000030: 25b3 243d cdfd 30bf 84ac 32bf 7dcd 1e3f
00000040: e528 2eba a647 203f efae 96be bf3c f9bc
00000050: bbe7 f43e 9d75 14bf a75d 3ebe 4094 9bbf
00000060: 7a52 c03e 7b0c 143e 32cc 2cbc 117f c1be
00000070: 54d7 49be b24c cfbe d105 86be 6524 03bf
00000080: f46a b13e 6abe 31be ddd6 213f fea5 44bc
00000090: f9cb e6be af49 703e 36e4 b23e 653e d0be
000000a0: cee8 ac3e be26 463f 1c4f 2cbe 85ec 8cbe
000000b0: 296f 6bbd 7a9c cdbc 5148 313f 42ec 84be
000000c0: 02dd 2a3f 4034 513e 2e8b b43d 5643 8cbd
000000d0: 8241 963e b786 26bf 92d7 623e b9f6 0f3f
000000e0: 66ff 8fbe d4a9 4c3e 8ea3 4b3d 04e3 84bf
000000f0: aeba 063e ecbf aa3e 144d f53e b75b 85be
00000100: f485 383e e4a6 81be ecea 1dbf 149a 813e
00000110: 6b54 973e b5fa d33e eae7 abbe ffba cabc
00000120: 7136 cb3d 7727 513e 4af7 89be d67f b7bd
00000130: 2bec 083e 60fb 073d 11cb bf3d bb1c a93d
00000140: b049 d93d 35e1 b23e 7c1b 43be 16f0 8f3e
00000150: 3517 523e 8d97 85be 78fa 973d da2c ccbe
00000160: 4bb0 823c db34 b63d 2c62 c0be 28fa 05be
00000170: 4b60 2b3e 34e0 163e 240b dcbc 4142 c0be
00000180: 9766 123e fa2d a13e cdcf 063f 1faf fb3e
00000190: 1d4f 89be 2351 e5bd 7d8e 97bd f9db d7bd
000001a0: b61c cc3d 6ffc b13e f332 94be 8513 c3be
000001b0: 9e71 833e 80aa 44bc d7b1 3ebb a6a6 dc3c
000001c0: 4f1c 4b3f 2ec8 7e3e c68a 9d3e b79c 85be
000001d0: cf13 d5be a246 ac3d c3ec 94be a9e8 30be
000001e0: e7e7 3ebe 88f3 fabc 12cd c03e 0748 0bbe
000001f0: 639e 79bd 5baa c83e 37f8 b13e 1e8e 53be
00000200: a8fb 663e 71e5 e0bd dfab e3be 802c cbba
00000210: 9efd 8fbe 0d7c 80bd 863d d53c fb2f 1d3e
00000220: 4844 3ebe 43a5 053e 140b 01be 9edf 9bbd
00000230: 0fc1 cd3d 6d5d dabe 0a2d 8ebe 8e1e 2b3e
00000240: 5641 003c cc90 89bc 5fe0 bfbe 42a9 acbe
00000250: 0ebc 81be 2232 5f3e 89a7 523d 700b eabd
00000260: da08 c63e 4222 c03e 5d26 1cbd 47e1 dc3d
00000270: 35d2 ecbd 8089 6ebe 1098 8cbe c5eb f8be
00000280: 0ad5 6fbe efa6 5c3e ee6d 033e b6b6 a0be
00000290: 0f30 de3d 7ec9 dabd de81 1d3e d616 1fbf
000002a0: 02ee bb3e 112a ac3e 3d35 64be 8572 31be
000002b0: 09bc b63d ca6b 513e 0754 53bd 2500 a0bd
000002c0: 84cf 8cbd c7d1 46bd 4613 34bd 2fd7 6a3d
000002d0: b19e 673d c405 0d3e 5b9a ad3e 3b21 8b3c
000002e0: 504f a6be 2a07 8dbe 894e 72bc 1623 643e
000002f0: 7550 34bf 30b0 ea3d 24ee c03d cdfa eebd
00000300: 381b cf3e e410 6b3e eee1 89be 37d0 08bd
00000310: e7a0 a93e ff92 c23d 7419 a83e 1165 333d
00000320: de94 22bc 9289 ff3c 3a7a b73d 616c 5fbe
00000330: a2b2 de3e 0b31 cbbe f439 7b3e 3919 d53e
00000340: 5194 873e 374a f03d 1219 84be 707c 0cbe
00000350: 0ecb 22be 4438 89be c65c a63e cb10 51be
00000360: eb6f ac3d a5b2 e83d 1c90 b5bc d289 4dbe
00000370: cbda 8b39 7fca e43d 8ece 30be 9b5d 26bf
00000380: 650c 62be 4233 193e d2dd b23e bb0c 6ebd
00000390: 4ad9 d93d a9f1 9abe 8280 633e f351 aabe
000003a0: d4ad b13e 8b29 b23e 1abc 88be 13ce b3be
000003b0: b4a3 da3e 7860 4ebd ac3c 673e 6f76 2dbf
000003c0: f00d bb3e e452 73be 45da 0abd 1e64 d6bd
000003d0: ce84 523e 8f96 253e 724b 0b3e caf2 3c3c
000003e0: 708a 9a3d c039 133e 535d af3e 4184 9dbd
000003f0: ea4e 063e e7cc fe3d c9f5 6c3e 8327 1f3e

arith.constant10 f4 [512, 20]
-0.1155738 -0.18266323 0.013213547 0.027029648 -0.0010067538 0.07336253 -0.06521077 -0.0016954645
-0.07447903 0.020820538 -0.097784765 0.04321689 -0.102262326 0.0018729699 0.048345342 -0.031366847
-0.04733166 0.026953697 0.014037025 -0.05085199 0.0670446 0.108266436 0.080937 0.15420458
0.08645181 -0.03136266 -0.2660693 -0.3554059 -0.32446414 -0.1122075 -0.05579277 -0.116640836
-0.2955894 -0.4108256 -0.115672246 -0.021958124 -0.06391022 -0.09366387 -0.2637857 -0.20015182
0.054273404 -0.1068727 -0.00011494311 0.10987781 -0.113082595 -0.15019988 -0.17331138 -0.022142349
0.04452693 -0.14358929 0.30376536 0.44632217 -0.11659286 -0.09388027 -0.23550126 0.09938167
0.23315953 0.027272727 -0.36403906 0.11980068 -0.037759945 -0.34779015 0.41629535 -0.17623757
0.036781564 0.11474716 -0.09835341 -0.37636942 -0.13563938 0.0874541 -0.10579924 0.060032878
0.36786574 -0.6282767 0.08470857 -0.058203697 -0.19897278 -0.31193006 -0.104975425 -0.30852264
-0.017905716 0.011055608 0.17153639 0.051916834 0.26727712 0.38070095 0.38147888 0.20336808
0.111053556 -0.091533825 0.06671407 0.019630201 0.06710913 -0.17605063 0.07827905 -0.014371173
0.1765405 -0.15451895 0.034181505 0.3180743 -0.037640046 0.07566735 0.17480643 0.33065027
-0.18846545 0.47434866 0.57690656 0.42452097 0.13364364 0.42795172 0.31925935 0.055027146
-0.17288564 0.27052888 -0.16020238 0.32100224 -0.016328221 -0.21436381 -0.082874194 0.27083418
0.114726596 0.003243739 -0.21232808 -0.21072714 -0.04129788 -0.19871674 -0.06319017 0.07413949
-0.095874034 0.15664335 0.37220138 0.36016065 0.15065815 0.038736966 0.12077071 0.053144015
-0.04411759 -0.06810574 -0.034123514 -0.023965688 -0.15245853 -0.05951859 -0.15890917 -0.1146647
0.029863788 -0.14481233 -0.01804692 0.017769348 -0.07508085 -0.039174203 -0.106917664 -0.044726584
-0.08439539 -0.015595928 -0.030175002 -0.046179123 -0.08177015 0.05119056 -0.05355658 -0.04292846
-0.07811926 -0.16898331 0.012168743 0.055744838 0.0694201 0.3354261 0.08774466 -0.06960729
-0.03201428 0.22483191 -0.28547007 -0.14581089 -0.32513615 -0.03596183 -0.1857137 0.06539002
-0.18878102 -0.14975573 -0.005587524 -0.12235537 0.09014766 -0.09054626 0.46212995 0.108349904
0.2043843 -0.07018506 0.3380026 0.05469459 -0.25062773 0.4024033 -0.16823532 -0.2796451
-0.38238025 -0.0045426684 -0.1463232 0.037212905 -0.24654305 -0.19196752 0.066627085 0.24318545
-0.13159204 0.11321168 -0.04549676 0.044011105 0.1295654 0.4665333 0.20344551 -0.1304523
-0.22893351 0.0034310957 0.047680084 -0.073218405 0.2512137 0.25041795 -0.1305693 -0.21171866
-0.2597699 -0.31754127 0.012016569 0.43206432 -0.08405155 0.010167988 -0.22964513 0.110497095
0.0978746 -0.119199514 -0.027797092 0.06512812 0.133568 -0.033364378 -0.18340354 -0.34086868
-0.046525393 -0.14892645 -0.13358766 -0.1850144 -0.21724881 0.11445852 0.18192449 -0.07308493
-0.07058439 -0.04099723 -0.027699161 0.0807248 0.071470626 0.26790774 0.45757085 0.26527506
0.029296072 0.06503187 0.13966638 0.17625763 0.15252921 -0.3952537 0.15387149 0.024628282
00000000: f5b1 ecbd 120c 3bbe a27d 583c 486d dd3c
00000010: 0df5 83ba 183f 963d 398d 85bd 593a deba
00000020: 7688 98bd d58f aa3c 6143 c8bd 3204 313d
00000030: e96e d1bd 717e f53a c405 463d 867a 00bd
00000040: d8de 41bd 00ce dc3c 8dfb 653c 2d4a 50bd
00000050: ae4e 893d cbba dd3d 4cc2 a53d cee7 1d3e
00000060: a60d b13d 2276 00bd 3c3a 88be c3f7 b5be
00000070: 2a20 a6be 0ccd e5bd f686 64bd 64e1 eebd
00000080: 7e57 97be bc57 d2be 92e5 ecbd 86e1 b3bc
00000090: 5de3 82bd d8d2 bfbd eb0e 87be 99f4 4cbe
000000a0: ca4d 5e3d 13e0 dabd 9d0d f1b8 9e07 e13d
000000b0: d997 e7bd ffcd 19be 8a78 31be df63 b5bc
000000c0: df61 363d 1209 13be 2287 9b3e 5784 e43e
000000d0: 3dc8 eebd 4d44 c0bd 3e27 71be 9e88 cb3d
000000e0: 5fc1 6e3e 0e6b df3c 5463 babe 0f5a f53d
000000f0: 2caa 1abd 8d11 b2be aa24 d53e 9f77 34be
00000100: 44a8 163d 8f00 eb3d 836d c9bd 7eb3 c0be
00000110: 0de5 0abe 231b b33d 46ad d8bd 09e5 753d
00000120: e658 bc3e bed6 20bf b07b ad3d 0067 6ebd
00000130: 85bf 4bbe 4cb5 9fbe 5bfd d6bd aef6 9dbe
00000140: 02af 92bc 9522 353c 3ca7 2f3e bfa6 543d
00000150: 8cd8 883e 3ceb c23e 3351 c33e b93f 503e
00000160: 0c70 e33d 1676 bbbd 63a1 883d 84cf a03c
00000170: 8370 893d 9e46 34be c450 a03d 1275 6bbc
00000180: 08c7 343e 373a 1ebe e801 0c3d a2da a23e
00000190: 732c 1abd 7cf7 9a3d 7500 333e fe4a a93e
000001a0: 16fd 40be d4dd f23e 26b0 133f d05a d93e
000001b0: e1d9 083e 7d1c db3e f675 a33e 2564 613d
000001c0: ef08 31be c382 8a3e 180c 24be 685a a43e
000001d0: c3c2 85bc 3082 5bbe f2b9 a9bd c7aa 8a3e
000001e0: c7f5 ea3d e994 543b 886c 59be dbc8 57be
000001f0: f727 29bd 677c 4bbe d969 81bd 72d6 973d
00000200: 9b59 c4bd 1d67 203e 2e91 be3e fa66 b83e
00000210: 2146 1a3e a7aa 1e3d a256 f73d 8aad 593d
00000220: a5b4 34bd 067b 8bbd 19c5 0bbd b153 c4bc
00000230: 171e 1cbe c4c9 73bd 16b9 22be 54d5 eabd
00000240: e7a4 f43c af49 14be 22d7 93bc 0691 913c
00000250: fdc3 99bd 2175 20bd a6f7 dabd 3933 37bd
00000260: 7dd7 acbd 1086 7fbc 9131 f7bc 5226 3dbd
00000270: 1c77 a7bd 31ad 513d 255e 5bbd c1d5 2fbd
00000280: fefc 9fbd f609 2dbe 685f 473c b354 643d
00000290: 202c 8e3d f8bc ab3e 79b3 b33d 448e 8ebd
000002a0: 6821 03bd 563a 663e 2229 92be 734f 15be
000002b0: 3f78 a6be b64c 13bd bb2b 3ebe 34eb 853d
000002c0: d04f 41be 9159 19be 8c17 b7bb 7495 fabd
000002d0: 569f b83d 5170 b9bd 4c9c ec3e 8ee6 dd3d
000002e0: 1e4a 513e 2fbd 8fbd ad0e ad3e 6f07 603d
000002f0: 4752 80be ce07 ce3e e145 2cbe a42d 8fbe
00000300: 58c7 c3be aada 94bb c0d5 15be 8f6c 183d
00000310: c875 7cbe 2293 44be c873 883d 9b05 793e
00000320: 10c0 06be 86db e73d d05a 3abd fd44 343d
00000330: cbac 043e 74dd ee3e 0554 503e 4a95 05be
00000340: 8c6d 6abe 3cdc 603b 314c 433d 88f3 95bd
00000350: 159f 803e c836 803e f5b3 05be c7cc 58be
00000360: 8f00 85be c594 a2be 25e1 443c 8937 dd3e
00000370: 3823 acbd a297 263c 1828 6bbe 4d4c e23d
00000380: 7a72 c83d e01e f4bd bab6 e3bc e461 853d
00000390: 0dc6 083e 16a9 08bd 23ce 3bbe 5786 aebe
000003a0: 6991 3ebd 2d80 18be 34cb 08be 6a74 3dbe
000003b0: 7976 5ebe 3b69 ea3d 6a4a 3a3e 8dad 95bd
000003c0: 8c8e 90bd b6ec 27bd 5ae9 e2bc 0b53 a53d
000003d0: 315f 923d 342b 893e ba46 ea3e 22d2 873e
000003e0: 51fe ef3c 6e2f 853d b404 0f3e e17c 343e
000003f0: 9e30 1c3e b15e cabe 7d90 1d3e 40c1 c93c

arith.constant11 f4 [512, 128]
0.047972515 0.048261236 -0.03218391 -0.031377275 0.085295126 -0.08374158 -0.035271462 -0.049560957
-0.040777076 -0.006513998 -0.045953065 0.010592801 -0.0025270297 0.019099854 0.01844594 -0.05435594
0.03916807 -0.0032502392 -0.049250357 0.009343566 -0.033102434 -0.009827925 0.06452241 0.04368898
0.01216342 0.0002746929 -0.018478416 -0.0020415431 -0.038690556 -0.047507405 0.05394988 -0.11520692
0.0028405362 -0.04873599 -0.016035484 0.044355873 0.04223022 0.025167946 0.069279484 0.0032602712
0.0008276113 -0.058226556 0.009296261 0.014794487 0.023253873 0.052447252 -0.0811715 0.011972626
-0.0003972187 0.00055799336 -0.05327069 -0.044035744 -0.01662362 -0.029086806 -0.02070631 -0.005135628
0.0062763067 0.024393464 -0.042730562 0.024869232 -0.0038796128 -0.055976562 -0.0064705815 0.0011501237
0.078403406 0.012698034 -0.020592142 0.04217379 0.00025633842 0.030596176 0.020404931 0.087989606
-0.038630724 0.029329343 -0.008699834 -0.050833117 -0.012562319 -0.026066054 0.04009449 -0.015034007
0.029990556 0.016547674 0.008301503 -0.027586306 0.029844496 -0.020086823 0.048384722 -0.026465029
-0.017801149 -0.0092845345 -0.044285286 -0.07633239 0.0052345954 -0.030908216 0.0018171999 -0.0013835644
-0.013271961 0.0183453 0.013337893 -0.063940555 0.07645614 -0.049503006 0.020270566 -0.07770969
0.057672016 -0.03657847 0.0013120362 -0.010106292 0.008585654 -0.07492323 -0.0294262 0.06560439
0.024602335 -0.010296472 -0.02393325 0.0029806693 -0.0488058 -0.1311767 0.030035686 -0.014323182
0.036842592 0.09332391 -0.021767281 0.084596336 -0.008219922 0.047200695 -0.06263989 0.017210048
-0.14140908 0.665786 0.2117797 -0.22987093 0.08746541 0.43495512 0.23122993 0.07320117
-0.1155702 0.5025865 -0.4475892 0.28827304 -0.81300485 0.85030174 -0.1493186 -0.36818597
-0.048418578 -0.77475226 0.05331233 -0.07230814 -0.11512792 0.031003024 0.80669034 0.01152144
-0.44476902 -0.13161679 -0.2613631 -0.049739033 -0.15095748 0.028390115 0.28630278 0.0018843295
-0.44401872 -0.9161725 0.20908351 0.54938763 -0.027707297 -0.03553442 0.5240234 0.3151212
-0.30829373 0.12350326 0.03305883 0.027942115 -0.11151294 0.012507999 0.27386954 0.057126977
0.059196744 0.2472892 -0.056428947 0.04487284 -0.69511014 0.0495941 -0.44394478 -0.14998512
-0.040131014 -0.567297 0.033415675 -0.69779277 0.11432338 0.16224495 -0.41965958 0.6539437
-0.05131845 0.0071435394 0.21459797 -0.018054366 0.02816405 -0.10103398 -0.0609001 0.15395135
0.5191971 0.22597945 -0.2423128 0.24318969 -0.1959566 0.009361458 -0.033677824 -0.16743061
0.2704206 -0.4651863 -0.076515 -0.10026907 0.75197065 -0.6018264 0.79923946 0.16318627
-0.55713695 -0.57520735 0.074763775 -0.1768755 0.32597312 -0.18570235 -0.5921708 0.055808675
-0.4171394 0.04201398 -0.32887793 -0.66035783 0.19103286 0.7358596 -0.2557136 -0.0069345655
-0.15473232 -0.008083802 0.099139296 0.081116684 -0.38084608 0.019041937 0.017208105 0.032148536
-0.6593402 0.030262884 0.06104745 0.027578024 -0.12429602 -0.061080176 0.7400424 0.06054193
2.4738307 -0.08049529 -0.3227749 -0.8450571 0.016525341 0.045868877 0.020490535 -0.04058709
00000000: d47e 443d 93ad 453d 47d3 03bd 7585 00bd
00000010: 36af ae3d b580 abbd cf78 10bd 6e00 4bbd
00000020: dd05 27bd 6073 d5bb 4839 3cbd 6d8d 2d3c
00000030: 869c 25bb 4c77 9c3c f11b 973c 56a4 5ebd
00000040: b36e 203d f701 55bb beba 49bd c215 193c
00000050: 6b96 07bd 4e05 21bc 5324 843d 37f3 323d
00000060: 1549 473c a804 9039 0c60 97bc 69cb 05bb
00000070: fd79 1ebd 2097 42bd 8dfa 5c3d 9bf1 ebbd
00000080: 4a28 3a3b 649f 47bd d95c 83bc 81ae 353d
00000090: 98f9 2c3d 022d ce3c 67e2 8d3d 46aa 553b
000000a0: 0ef4 583a f87e 6ebd 584f 183c 9364 723c
000000b0: e87e be3c eed2 563d 3e3d a6bd d528 443c
000000c0: cb41 d0b9 4d46 123a 5e32 5abd d35e 34bd
000000d0: 422e 88bc 7447 eebc 48a0 a9bc c548 a8bb
000000e0: 7aa9 cd3b cdd4 c73c 3e06 2fbd 8fba cb3c
000000f0: 1a41 7ebb ae47 65bd 2c07 d4bb bfbf 963a
00000100: f791 a03d 6a0b 503c dab0 a8bc 6dbe 2c3d
00000110: 2965 8639 d5a4 fa3c 3e28 a73c e533 b43d
00000120: 403b 1ebd 1744 f03c c089 0ebc 6336 50bd
00000130: 2fd2 4dbc 7a88 d5bc 1f3a 243d 3251 76bc
00000140: c1ae f53c fd8e 873c 0703 083c adfc e1bc
00000150: 727c f43c 1f8d a4bc 0f2f 463d 30cd d8bc
00000160: b7d3 91bc 291e 18bc 7d64 35bd 2854 9cbd
00000170: f886 ab3b 3a33 fdbc 1c2f ee3a b858 b5ba
00000180: a472 59bc e248 963c 2e87 5a3c 44f3 82bd
00000190: 0995 9c3d aac3 4abd 750e a63c 4226 9fbd
000001a0: 7e39 6c3d 4ed3 15bd a1f8 ab3a dc94 25bc
000001b0: d8aa 0c3c 5a71 99bd 370f f1bc 985b 863d
000001c0: d68a c93c 89b2 28bc aa0f c4bc 5557 433b
000001d0: 97e8 47bd 2f53 06be 660d f63c c8ab 6abc
000001e0: 42e8 163d 9b20 bf3d 4c51 b2bc d840 ad3d
000001f0: daac 06bc 8455 413d 5849 80bd 16fc 8c3c
00000200: 8bcd 10be f470 2a3f c7dc 583e 4963 6bbe
00000210: 1121 b33d 70b2 de3e 8ac7 6c3e 7fea 953d
00000220: 12b0 ecbd 82a9 003f 692a e5be 8698 933e
00000230: 1621 50bf 60ad 593f fae6 18be df82 bcbe
00000240: 8f52 46bd 2a56 46bf 085e 5a3d 4a16 94bd
00000250: 30c8 ebbd 0efa fd3c 4283 4e3f 6cc4 3c3c
00000260: c4b8 e3be 8dc6 06be 62d1 85be 28bb 4bbd
00000270: 9994 1abe 6392 e83c 4796 923e 9bfb f63a
00000280: 6c56 e3be 488a 6abf fd19 563e aba4 0c3f
00000290: 6afa e2bc 8a8c 11bd 6626 063f 9157 a13e
000002a0: add8 9dbe 47ef fc3d b268 073d dde6 e43c
000002b0: e560 e4bd 5aee 4c3c a138 8c3e fafd 693d
000002c0: 4978 723d 6139 7d3e 0a22 67bd 95cc 373d
000002d0: bdf2 31bf 2f23 4b3d bb4c e3be b395 19be
000002e0: 6b60 24bd 603a 11bf e0de 083d 8ca2 32bf
000002f0: 6022 ea3d 8a23 263e 9fdd d6be db68 273f
00000300: 4c33 52bd 5a14 ea3b 92bf 5b3e c0e6 93bc
00000310: 4bb8 e63c e7ea cebd 6272 79bd 6ca5 1d3e
00000320: 1aea 043f 2867 673e d920 78be b806 793e
00000330: d9a8 48be cd60 193c c2f1 09bd ee72 2bbe
00000340: 9274 8a3e e62c eebe e5b3 9cbd df59 cdbd
00000350: 2681 403f 4c11 1abf f59a 4c3f 4d1a 273e
00000360: 87a0 0ebf ca40 13bf c01d 993d da1e 35be
00000370: f3e5 a63e c228 3ebe 8198 17bf a397 643d
00000380: 4c93 d5be da16 2c3d b062 a8be 360d 29bf
00000390: 1e9e 433e 4b61 3c3f e5ec 82be 5a3b e3bb
000003a0: 2672 1ebe ec71 04bc 8b09 cb3d 8120 a63d
000003b0: 42fe c2be d6fd 9b3c 03f8 8c3c 2fae 033d
000003c0: 85ca 28bf dee9 f73c e40c 7a3d 4feb e13c
000003d0: e98e febd 352f 7abd 6b73 3d3f d1fa 773d
000003e0: 3e53 1e40 b7da a4bd c042 a5be a955 58bf
000003f0: 2760 873c 01e1 3b3d c4db a73c a63e 26bd

arith.constant12 f4 [512]
0.0026112592 0.08094206 -0.32428455 0.121483095 -0.15037932 -0.6233721 0.026833372 0.0866245
0.17307355 0.17151628 0.0038897702 0.07326506 -0.13117601 -0.56724954 0.058998678 -0.05799542
-0.04502669 -0.044155106 -0.7220096 0.2088338 0.007926804 -0.0054794396 0.2389719 0.41081998
-0.25421992 0.10433343 0.16153927 -0.1435426 -0.0077842195 -0.14696108 0.080518484 -0.027492568
0.05820159 0.5643302 0.23677082 0.2540374 0.045170926 0.038344964 -0.05472811 0.06695929
0.025641588 -0.015154114 -0.016388983 -0.033381615 0.017731361 -0.101267844 -0.19503573 0.1347815
0.079753384 0.64768106 -0.00043560786 -1.6329953e-06 0.04263819 -0.047791142 0.549056 -0.028378991
0.24385563 0.17870079 0.06987 0.042594064 0.05811522 0.02711596 0.06543881 -0.11426319
-0.010995535 0.030228578 0.005209472 -0.03939258 -0.005692313 -0.007986903 0.06599732 0.041464705
-0.34195504 0.28095222 0.08070778 0.78158695 0.01571941 0.72822756 -0.058941577 0.008968381
0.0013380802 -0.09444855 -0.0007677965 0.056866344 0.2989325 0.05747321 0.095353365 0.11434934
0.1721509 -0.2947094 0.5791308 0.08007191 0.060102105 -0.020498682 -0.31336263 0.069069885
0.6474198 0.087596945 -0.5293923 -0.15278228 0.21985112 0.036464762 0.02472888 -0.77412987
0.028305642 0.8014531 -0.049941506 0.090317965 0.4462716 0.0103375735 0.15488845 -0.007845183
0.041108534 0.10540096 0.14514963 -0.005380507 -0.009881702 -0.113273874 -0.4003587 0.5541693
0.030523418 -0.10446273 -0.033305403 -0.38928354 -0.004864031 -0.13826595 0.06437103 0.62637407
1.0132625 0.94798803 0.8825942 1.0200858 1.1987728 0.75516087 0.9610589 1.0330148
1.2752104 0.92043024 0.98927295 1.0549709 1.0254653 1.0842557 1.0688236 1.3723576
0.9182982 1.0523887 0.9335429 1.2139928 1.2056242 0.99872303 1.0280368 1.0232867
1.2788888 1.005526 0.9148942 1.0230345 1.0102732 0.70934844 1.2120138 0.9997318
1.1737975 1.0101871 1.2657651 0.9612485 1.0421163 0.96856856 1.1142397 0.8964003
1.0457222 0.94544643 0.9999958 0.93334544 1.0025053 1.0410684 0.9050185 1.1179614
0.9963843 1.1391299 1.0000017 0.99987465 1.1380224 1.0507874 1.1103412 0.8557542
1.0711004 0.98844266 1.3573303 1.1492758 1.0225033 0.94675285 0.94606864 1.0172435
0.9976928 1.0388942 0.9760995 0.9785953 0.9974125 0.994019 0.88879454 1.0120288
0.94896346 1.1157099 1.0786327 1.2693447 1.0141019 1.2234448 1.011833 1.0032818
1.0033745 0.95663065 1.0 0.9752883 1.1294357 1.0809724 1.0405073 1.013138
1.0563333 0.7870615 1.0437373 1.0056381 1.1007651 0.91080415 0.9760624 1.0746821
0.7682537 1.2520982 0.9112026 1.1313312 1.031235 0.9836928 0.9212043 0.8023433
1.0313281 1.3620502 1.0526458 0.9713648 1.1862879 0.9671357 1.289085 0.9967233
0.9793687 1.0533198 1.0637187 0.99797845 1.0871325 0.9505005 1.0209981 1.0274284
0.97541887 0.9220263 0.9379253 1.0448897 0.9975326 1.0815235 1.0296298 1.202357
00000000: a921 2b3b f3c4 a53d a008 a6be 21cc f83d
00000010: 09fd 19be 5095 1fbf a9d1 db3c 3068 b13d
00000020: 313a 313e f7a1 2f3e 84eb 7e3b fe0b 963d
00000030: 0153 06be 4437 11bf 99a8 713d 9b8c 6dbd
00000040: e86d 38bd fcdb 34bd 9fd5 38bf 87d8 553e
00000050: 6ddf 013c df8c b3bb 0db5 743e ff56 d23e
00000060: 1d29 82be c4ac d53d 8d6a 253e d5fc 12be
00000070: c412 ffbb f77c 16be e0e6 a43d 1838 e1bc
00000080: ca64 6e3d f277 103f 0d74 723e 3111 823e
00000090: 2605 393d 9c0f 1d3d 952a 60bd f421 893d
000000a0: 4f0e d23c f648 78bc 3042 86bc 29bb 08bd
000000b0: 5c41 913c 8465 cfbd 72b7 47be 2904 0a3e
000000c0: be55 a33d 6dce 253f 4c62 e4b9 4b2d dbb5
000000d0: 62a5 2e3d a5c0 43bd ef8e 0c3f 0f7b e8bc
000000e0: 4ab5 793e 57fd 363e 0118 8f3d 1d77 2e3d
000000f0: 3a0a 6e3d 4a22 de3c c804 863d d202 eabd
00000100: 9e26 34bc eca1 f73c 38b4 aa3b 1d5a 21bd
00000110: 9586 babb 80db 02bc 9a29 873d e5d6 293d
00000120: bb14 afbe f8d8 8f3e 1f4a a53d 1516 483f
00000130: fec5 803c 1f6d 3a3f b96c 71bd 1ef0 123c
00000140: 8562 af3a 3e6e c1bd f345 49ba afec 683d
00000150: ae0d 993e 0769 6b3d a048 c33d fd2f ea3d
00000160: 5348 303e 27e4 96be eb41 143f befc a33d
00000170: a02d 763d daec a7bc 1171 a0be 8374 8d3d
00000180: 4ebd 253f 0766 b33d 4186 07bf f572 1cbe
00000190: a720 613e 135c 153d 3894 ca3c 602d 46bf
000001a0: 3ce1 e73c 082c 4d3f 778f 4cbd a0f8 b83d
000001b0: b67d e43e ed5e 293c 149b 1e3e 1589 00bc
000001c0: 6c61 283d 75dc d73d 1ba2 143e f74e b0bb
000001d0: dde6 21bc 22fc e7bd d1fb ccbe 0ade 0d3f
000001e0: 3f0c fa3c 8ef0 d5bd 3f6b 08bd 2c50 c7be
000001f0: 7362 9fbb 9795 0dbe f5d4 833d 0d5a 203f
00000200: 96b2 813f 58af 723f b2f1 613f 2c92 823f
00000210: 6371 993f 3952 413f f507 763f d439 843f
00000220: 183a a33f 51a1 6b3f fe40 7d3f 4909 873f
00000230: 7242 833f e4c8 8a3f 36cf 883f 6aa9 af3f
00000240: 9715 6b3f acb4 863f abfc 6e3f 1e64 9b3f
00000250: e551 9a3f 50ac 7f3f b696 833f 0ffb 823f
00000260: a1b2 a33f 13b5 803f 8236 6a3f cbf2 823f
00000270: a250 813f dc97 353f 4523 9b3f 6cee 7f3f
00000280: ff3e 963f d04d 813f 9704 a23f 6214 763f
00000290: 1164 853f 1cf4 773f 689f 8e3f 7d7a 653f
000002a0: 3ada 853f c708 723f baff 7f3f baef 6e3f
000002b0: 1852 803f bb41 853f 4baf 673f 5c19 8f3f
000002c0: 0b13 7f3f 02cf 913f 0e00 803f c9f7 7f3f
000002d0: b8aa 913f 3480 863f a91f 8e3f b512 5b3f
000002e0: d119 893f 940a 7d3f 00bd ad3f 781b 933f
000002f0: 63e1 823f 655e 723f 8e31 723f 0935 823f
00000300: cc68 7f3f 7cfa 843f a8e1 793f 3985 7a3f
00000310: 6d56 7f3f 0778 7e3f 0a88 633f 298a 813f
00000320: 45ef 723f 95cf 8e3f a310 8a3f e379 a23f
00000330: 17ce 813f d799 9c3f be83 813f 8a6b 803f
00000340: 936e 803f bfe5 743f 0000 803f 7eac 793f
00000350: 5991 903f 4e5d 8a3f 582f 853f 82ae 813f
00000360: ee35 873f dd7c 493f 2f99 853f c0b8 803f
00000370: dfe5 8c3f 762a 693f 3adf 793f 2f8f 893f
00000380: 46ac 443f c144 a03f 9344 693f 76cf 903f
00000390: 82ff 833f 4bd3 7b3f 0cd4 6b3f 5f66 4d3f
000003a0: 8f02 843f a957 ae3f 19bd 863f 5dab 783f
000003b0: 48d8 973f 3596 773f bd00 a53f 4229 7f3f
000003c0: e8b7 7a3f 2fd3 863f ef27 883f 847b 7f3f
000003d0: 2827 8b3f 0054 733f 11b0 823f c682 833f
000003e0: 0db5 793f ea09 6c3f df1b 703f f2be 853f
000003f0: 4c5e 7f3f 5d6f 8a3f e9ca 833f d6e6 993f

arith.constant13 f4 [256]
-0.49779603 -0.54582524 -0.46922177 -0.59642947 -0.2851353 -0.6867427 -0.18822357 -0.36147708
-0.5121508 -0.48793337 -0.58048725 -0.35924843 -0.7572999 -0.5113793 -0.041111495 -0.3063139
-0.32142508 -0.28043744 0.17753483 -0.12589806 -0.48024017 -0.21589057 -0.3374026 -0.4509157
-0.49481633 0.11538752 -0.3116364 -0.46967053 -0.25697955 -0.6005273 -0.5142016 0.020221531
-0.47325334 -0.7932806 -0.5422986 -0.50225365 -0.34826782 -0.28652215 -0.18941985 -0.5047739
-0.45460165 -0.22256407 -0.4009899 0.27405247 -0.24818994 -0.43834808 -0.22093987 -0.37665007
-0.09349351 -0.4929142 -0.59324646 -0.08119137 -0.32064566 -0.3847826 -0.47058362 -0.40090036
-0.27292702 -0.4843885 -0.66650516 -0.58557564 -0.45071194 -0.2643206 -0.44026583 -0.36696735
1.0844111 1.2667098 1.2289934 1.1750009 1.1083167 1.1243687 1.1344854 1.2330133
1.129104 1.2913334 1.1740278 1.1897398 1.1820248 1.1502634 1.0789467 1.1227906
1.2573309 1.11793 1.3150446 1.227059 1.23663 1.1768066 1.1538787 1.1000836
1.1662748 1.1712923 1.2031313 1.1968961 1.1318027 1.1873983 1.1876007 1.185278
1.2183769 1.233628 1.1896926 1.2349541 1.2594155 1.0932362 1.1293557 1.3068331
1.1410832 0.9838283 1.1938822 1.4578377 1.2646548 1.2802013 1.214808 1.1017116
1.1082867 1.2692611 1.2168672 1.2472175 1.1099321 1.0844895 1.2013855 1.1305012
1.1350112 1.1995655 1.1680914 1.0109836 1.2749943 0.9304731 1.1939263 1.1531506
-0.04456991 0.08300972 0.14168198 0.036749676 0.02427478 -0.0018874384 -0.034580495 0.12171943
-0.11402723 0.16524218 -0.25526908 0.008410959 -0.029587112 0.071927816 0.10709403 0.060863882
-0.032087874 -0.001016886 0.20169318 -0.1154926 0.058393292 -0.065197326 -0.1361027 0.09731154
0.04860611 -0.15854168 -0.030552842 -0.09007675 0.0140081365 0.07457849 -0.12278847 0.078967005
-0.051508132 0.29532441 0.038837332 -0.06727839 0.16753756 -0.067213364 0.001623869 -0.009480973
0.035455097 0.10487616 0.07883066 0.27761513 -0.12211954 0.10317273 -0.17903201 0.006022045
-0.21106255 0.056625374 0.08112448 -0.050815254 0.054444764 -0.095349036 -0.19466656 -0.023736885
0.020493617 -0.03301848 -0.10040858 0.120193884 -0.09159363 -0.2394177 -0.07223471 -0.0017251513
0.15779792 0.11915331 0.18500286 0.020875707 0.10347545 0.11706245 0.10477108 0.124035366
0.10614874 0.13331173 -0.063851014 0.11580483 0.08817634 0.062243696 0.14234386 -0.0024527917
0.33180162 -0.14697261 0.20419067 0.090730146 0.11079758 -0.3533354 0.0014746977 -0.33527076
0.12249748 0.2411863 0.27804488 -0.20478651 0.02669435 0.13668004 0.21078593 0.380906
0.015425948 0.17601809 0.10657222 0.10022114 0.20128843 0.078290895 0.06024962 -0.092876606
-0.22185661 -0.21536164 -0.009256401 0.34123427 0.3034297 -0.07039804 0.11553954 -0.066725545
0.08002713 0.14336808 0.07116426 0.2221767 0.20601441 -0.10909167 -0.07609682 0.04848584
0.07810628 0.10990829 0.033753335 -0.11729162 0.058349084 0.04597494 -0.0293891 0.24213643
00000000: 1fdf febe 34bb 0bbf d63d f0be 9aaf 18bf
00000010: 41fd 91be 5fce 2fbf aebd 40be 8613 b9be
00000020: 511c 03bf 67d2 f9be d09a 14bf 69ef b7be
00000030: 68de 41bf c1e9 02bf 8764 28bd 2dd5 9cbe
00000040: d491 a4be 7f95 8fbe b1cb 353e 6ceb 00be
00000050: 0ae2 f5be 6b12 5dbe 09c0 acbe 6cde e6be
00000060: 9158 fdbe 4b50 ec3d ce8e 9fbe a878 f0be
00000070: d392 83be 28bc 19bf b7a2 03bf a0a7 a53c
00000080: 434e f2be 7014 4bbf 15d4 0abf b293 00bf
00000090: 2950 b2be 08b3 92be 47f7 41be dd38 01bf
000000a0: 8cc1 e8be d6e7 63be 8c4e cdbe 9b50 8c3e
000000b0: 8125 7ebe 296f e0be 103e 62be 47d8 c0be
000000c0: 8679 bfbd 405f fcbe 00df 17bf a947 a6bd
000000d0: ab2b a4be 3a02 c5be 56f0 f0be d042 cdbe
000000e0: 17bd 8bbe c501 f8be 15a0 2abf 49e8 15bf
000000f0: b7c3 e6be 0855 87be 866a e1be 25e3 bbbe
00000100: fccd 8a3f 8c23 a23f a84f 9d3f 6e66 963f
00000110: 52dd 8d3f 50eb 8f3f d136 913f 61d3 9d3f
00000120: 7b86 903f 6a4a a53f 8b46 963f 6549 983f
00000130: 974c 973f d53b 933f ed1a 8a3f 9ab7 8f3f
00000140: 38f0 a03f 5518 8f3f 6253 a83f 4510 9d3f
00000150: e449 9e3f 99a1 963f 4cb2 933f 8acf 8c3f
00000160: 7e48 953f e8ec 953f 3500 9a3f e433 993f
00000170: e9de 903f abfc 973f 4d03 983f 31b7 973f
00000180: c6f3 9b3f 86e7 9d3f d947 983f fa12 9e3f
00000190: 8734 a13f 2aef 8b3f ba8e 903f 4f46 a73f
000001a0: 040f 923f 2cdc 7b3f 22d1 983f 6d9a ba3f
000001b0: 35e0 a13f a3dd a33f d47e 9b3f e304 8d3f
000001c0: 57dc 8d3f 2677 a23f 4ec2 9b3f d3a4 9f3f
000001d0: 4112 8e3f 8dd0 8a3f 00c7 993f 43b4 903f
000001e0: 0c48 913f 5d8b 993f 0584 953f e967 813f
000001f0: 0333 a33f 7c33 6e3f 94d2 983f 709a 933f
00000200: f08e 36bd 0001 aa3d 1515 113e d486 163d
00000210: e7db c63c ec63 f7ba 47a4 0dbd 0948 f93d
00000220: 1c87 e9bd 3f35 293e a1b2 82be 1ece 093c
00000230: ac60 f2bc e44e 933d 1d54 db3d 684c 793d
00000240: 936e 03bd 0849 85ba a888 4e3e 6287 ecbd
00000250: ce2d 6f3d 2d86 85bd 825e 0bbe 464b c73d
00000260: 3317 473d c058 22be f449 fabc 297a b8bd
00000270: 6282 653c 9bbc 983d 8578 fbbd 74b9 a13d
00000280: 31fa 52bd c334 973e e513 1f3d 41c9 89bd
00000290: f78e 2b3e 29a7 89bd 00d8 d43a 1556 1bbc
000002a0: 5d39 113d 50c9 d63d f871 a13d 9223 8e3e
000002b0: cf19 fabd 394c d33d 2b54 37be 9354 c53b
000002c0: c820 58be 02f0 673d 9724 a63d a823 50bd
000002d0: 7901 5f3d 5b46 c3bd ac56 47be db73 c2bc
000002e0: 3be2 a73c 633e 07bd 03a3 cdbd 3628 f63d
000002f0: 7195 bbbd ea29 75be cbef 93bd 791e e2ba
00000300: c795 213e a706 f43d 6471 3d3e 8803 ab3c
00000310: f0ea d33d 70be ef3d 3892 d63d 4106 fe3d
00000320: 8364 d93d df82 083e 52c4 82bd 152b ed3d
00000330: cc95 b43d 3ff3 7e3d 97c2 113e 04bf 20bb
00000340: e7e1 a93e fd7f 16be 5c17 513e bad0 b93d
00000350: d7e9 e23d 61e8 b4be a54a c13a 9ca8 abbe
00000360: f5df fa3d 8bf9 763e e65b 8e3e 8eb3 51be
00000370: 1cae da3c daf5 0b3e 44d8 573e 1c06 c33e
00000380: 1ebd 7c3c 163e 343e 8942 da3d be40 cd3d
00000390: 8e1e 4e3e fa56 a03d 4ec8 763d 1736 bebd
000003a0: 612e 63be c387 5cbe 29a8 17bc 42b6 ae3e
000003b0: 235b 9b3e d92c 90bd ff9f ec3d 67a7 88bd
000003c0: 44e5 a33d 15cf 123e 91be 913d 4a82 633e
000003d0: 71f5 523e 746b dfbd a6d8 9bbd 1799 463d
000003e0: 2ff6 9f3d 9917 e13d f040 0a3d 9736 f0bd
000003f0: 73ff 6e3d 3850 3c3d 69c1 f0bc 9df2 773e
