app/src/main/assets/model.tflite (tflite, 571280 bytes, 16 tensors)

arith.constant6 f4 [10, 128]
000000 0d b7 4a be 9d 9d 6d 3e 1f 53 20 3e 36 7e e1 bd
       -0.19796391 0.23204656 0.15656708 -0.11010401
000010 34 31 4c be 26 64 6f be b1 d3 66 3e 6d 82 d8 3d
       -0.19940645 -0.23378047 0.22541691 0.10571752
000020 10 1d 9f 3d 51 06 1a be 00 a4 d4 3d 49 d3 6f 3e
       0.07769215 -0.15041472 0.10382843 0.23420443
000030 6a 97 29 3d 6c ca 0f 3e b1 99 4a be 0e 01 f8 3c
       0.041404165 0.14042062 -0.19785191 0.03027394
000040 3b 56 3d be c4 3e 49 3d 34 eb 0b 3e 2b c5 43 bd
       -0.18489926 0.049132124 0.13663942 -0.047795456
000050 1f 96 23 bd 69 41 46 3e 22 58 59 3d e8 6e 28 be
       -0.03993809 0.1936089 0.053062566 -0.16448557
000060 9f ee 31 be 06 b6 a8 3d 3f e4 5b be 12 a0 13 3e
       -0.17376183 0.08237843 -0.21473788 0.1441653
000070 b6 1f 1a be ac 2a 58 3e 5f 29 c4 bd 07 9d 55 be
       -0.1505116 0.21110028 -0.095782034 -0.20860682
000080 0e 84 6e 3e 80 1f 83 bd ee ac 59 3e e4 62 51 be
       0.23292562 -0.064024925 0.21257374 -0.2044788
000090 8c 5e 1e be 67 a3 08 be d6 e4 60 bd 91 4e 66 be
       -0.15465754 -0.13343583 -0.054905735 -0.22490908
0000a0 58 a7 e8 3d a2 23 7a be d1 7c 02 be 9c 70 61 be
       0.11360043 -0.24427655 -0.12742926 -0.22015613
0000b0 cd 42 96 3d d4 8b 9b 3d 24 8b 75 3e 6e 1a 1e 3e
       0.0733696 0.075950295 0.23978859 0.1543977
0000c0 0f 71 15 3e c6 cb b3 bd 80 38 db bb de 34 35 bc
       0.1459391 -0.08779101 -0.006690085 -0.011059968
0000d0 d8 60 0d be 2d 64 07 be b9 fc b5 3d 03 43 ba bd
       -0.13806474 -0.13221808 0.08886094 -0.09094813
0000e0 66 a2 23 3e f8 4f cd 3d 30 8b d2 3c f9 3d 01 be
       0.15979919 0.100250185 0.025701135 -0.12621297
0000f0 ac 1d 85 bd 2c 27 67 3d dd fb 11 3d 96 f4 b5 3d
       -0.064998 0.05643384 0.035640586 0.08884542
000100 c4 ad 54 bc a9 8d 7c 3e cc b5 34 3e 2d 7b 66 3e
       -0.012980882 0.24663414 0.17647475 0.22507925
000110 65 b4 72 3e 78 94 fd bd 58 0f 79 3e b0 05 7a be
       0.23701628 -0.12381834 0.2432226 -0.24416232
000120 4e f8 88 bd a4 b8 58 3c 5a c8 de bd 1c 6c e3 bd
       -0.06687985 0.0132276155 -0.10878058 -0.111046046
000130 72 f8 2d 3d e5 96 05 3e ce ab 38 3e e7 bb 13 be
       0.042473264 0.13045843 0.18034288 -0.14427148
000140 e5 4a 19 be 37 dd 60 bd 23 60 9a 3d 95 41 35 3e
       -0.14969976 -0.054898467 0.07537868 0.17700799
000150 0d 95 1b be 4d a6 7a bd b3 13 55 be 2b cf 53 bd
       -0.15193577 -0.061193753 -0.20808296 -0.051711243
000160 01 5d 7a bd 5f 66 a5 bd 3d 1b 7e 3e 0d 13 6f be
       -0.06112385 -0.08076166 0.24815078 -0.23347111
000170 11 d4 2e be 6b 2b df bc ae 69 85 be 4f 2a 8b 3c
       -0.17073084 -0.027242383 -0.2605719 0.016987948
000180 90 d4 78 be fb 99 ca bd 01 ee 07 3d a5 1b f1 bd
       -0.24299836 -0.09892651 0.033185963 -0.11772851
000190 d1 68 c2 3d 0e 0a 93 3c 7b 3b a1 be 76 cb 17 3e
       0.094926484 0.01794913 -0.31490692 0.14823708
0001a0 51 27 5a bd 84 56 a8 bd 2d ff a6 3c 98 e2 8f be
       -0.05326015 -0.082196265 0.02038535 -0.28102565
0001b0 40 42 1f be e8 33 2a be 0b 01 71 bc 02 8b 8d be
       -0.15552616 -0.16621363 -0.014709721 -0.27645117
0001c0 13 ca ed bd c1 d6 11 3d 96 78 38 3c f3 bc d5 3d
       -0.11610808 0.035605196 0.011259219 0.1043643
0001d0 95 8a 68 be f0 0d 84 3e d5 6e 99 be 85 26 7f 3c
       -0.22709115 0.25791883 -0.2996737 0.015573149
0001e0 74 87 a1 ba a6 90 a9 bd d6 26 74 3e de 9a 0b 3d
       -0.0012323693 -0.082795426 0.2384294 0.03408324
0001f0 c2 f9 2b 3d d7 57 3c be 9d 22 35 3d 49 4e 50 be
       0.041986234 -0.18392883 0.044222463 -0.20342363
000200 39 a5 0f 3e d6 43 2f be 29 69 17 3e 8a d6 ad 3d
       0.14027871 -0.17115721 0.14786209 0.08488186
000210 77 6d 94 be fe 02 13 3e 15 26 12 3d 3d bc 3a 3e
       -0.28989765 0.1435661 0.03568085 0.1823587
000220 f5 d0 09 be b1 58 83 3d 45 a8 70 bc 67 8e b4 3c
       -0.13458617 0.06413401 -0.014688556 0.022040559
000230 4c a8 15 3a 4e 5e 2d be 91 e9 27 3e 71 17 8a 3c
       0.0005708977 -0.16930506 0.16397692 0.01685688
000240 b3 e2 e3 3b dd a5 77 3e f7 87 0b 3e 38 eb 56 3d
       0.006954515 0.24184366 0.13626085 0.052470416
000250 2c f6 0c 3e dc 4d 5d 3d d9 8f 9d bd ef 27 a4 3d
       0.13765782 0.05402933 -0.076934524 0.08015429
000260 ca a3 96 bd 63 d6 b9 bd 9a d6 52 3d f6 3c 9e be
       -0.07355459 -0.09074094 0.05147419 -0.30905885
000270 49 10 9c 3c 1b b9 30 be 8b 97 25 3e 8a 21 84 3e
       0.019050734 -0.17258112 0.1617109 0.25806838
000280 d4 ac 96 be 68 5c 95 bd 4a c8 11 bd 7f 84 de 3d
       -0.29428732 -0.07293016 -0.0355914 0.108651154
000290 35 06 0c be b6 4d f4 bd 57 53 7d 3e 5d ad 0f 3e
       -0.13674243 -0.11928885 0.24738823 0.14030977
0002a0 f1 46 5d be 80 b2 61 3e 91 e0 f6 bd ec 3e 99 3d
       -0.21609093 0.22040749 -0.120545514 0.074827045
0002b0 3f 80 b3 3d 05 df 14 be 75 a5 89 bd 01 ea 19 be
       0.087646954 -0.145382 -0.067210115 -0.15030672
0002c0 3b bf 19 3e 82 3e c5 3d f8 00 cd bd d5 ca 2e be
       0.15014355 0.09631063 -0.100099504 -0.17069562
0002d0 8d e1 27 be fa 9e 1e be c0 ea 50 3e 05 4a ce 3d
       -0.16394635 -0.15490332 0.2040205 0.10072712
0002e0 24 05 19 3e ec 8f 0e be 06 35 bb bd 3b aa 14 3e
       0.14943367 -0.1392209 -0.09140973 0.14518063
0002f0 1a 6d 94 3d 40 51 92 3d 9c e1 56 be b7 01 17 3d
       0.07247372 0.071444035 -0.209845 0.03686687
000300 e6 04 68 3d 9f 68 5f be 55 d8 70 be 5e a6 ac bd
       0.056645297 -0.21817254 -0.23520024 -0.084301695
000310 03 5f 62 be 89 6b 11 be e1 98 d1 3d 7a 1c 7f bd
       -0.22106557 -0.14201178 0.102342375 -0.062283017
000320 db a2 b3 bd 0f eb df 3d 79 1d 3a be 27 fb 5a be
       -0.087712966 0.10933506 -0.18175305 -0.2138487
000330 2e 67 76 3e 65 e7 01 3e f0 9d 54 be 8e 71 09 3e
       0.24062797 0.12685926 -0.20763373 0.13422224
000340 b4 24 6a 3e 62 87 59 3e af 22 86 be 2e 70 99 3c
       0.22865564 0.2124305 -0.26198336 0.01873025
000350 1e 6c 07 3d c2 ae 8a bd 3c 03 8d be f9 c7 e2 3a
       0.033062093 -0.06771614 -0.2754153 0.0017302028
000360 19 07 eb bd ea a9 45 3d 50 82 8c be 4a 4c 87 bc
       -0.11475963 0.048257746 -0.2744317 -0.01651587
000370 47 ba 6a be 8c 6a 7a 3e 35 e7 12 3e 21 06 b2 3d
       -0.22922622 0.24454707 0.14346011 0.08692575
000380 09 a6 70 be 62 65 f6 bd ed 99 c3 bd fc 14 f4 bb
       -0.23500837 -0.12031056 -0.095508434 -0.0074487906
000390 12 85 41 be 0d 69 67 be c3 8b 85 3e 2e 55 16 3e
       -0.18898419 -0.22598667 0.26083192 0.14680931
0003a0 7d 8a 2b be 90 21 b2 bc 1f 48 83 bd dd c5 a6 3d
       -0.16752048 -0.02174452 -0.064102404 0.08143208
0003b0 c2 99 c1 3d b4 62 7c be 3e 43 1c be 3a dc 4a 3c
       0.09453155 -0.24647027 -0.15260026 0.012381608
0003c0 a1 b6 a5 bd e1 5b 53 be f1 50 9d 3d 01 33 9a 3d
       -0.08091474 -0.20640518 0.07681454 0.075292595
0003d0 67 2a a0 bc 7c 9b d8 bc 89 86 c1 3d 7e 53 1a be
       -0.019551469 -0.026441328 0.09449489 -0.15070912
0003e0 03 bb 45 3e 6d 9a 64 be 6b 37 e0 3d b7 53 e5 3d
       0.1930962 -0.22324534 0.1094807 0.11197608
0003f0 d2 6a 4c be b1 7e cb 3b e8 4c b2 bd c5 3b f5 3c
       -0.19962624 0.006210171 -0.08706075 0.029935727

arith.constant7 f4 [128, 64]
000000 53 d2 23 bd 7d 51 e4 3d d2 cd 2d 3e 48 c4 be 3d
       -0.039995503 0.11148355 0.16973045 0.093147814
000010 dc 33 94 be 87 e0 8b bd 6d 7b 1b be 11 2b d5 bc
       -0.28945816 -0.068299346 -0.15183802 -0.026021512
000020 8f 3a f2 3d 52 93 d2 3d 06 5d 10 3e d8 9f 41 bd
       0.118275754 0.10282005 0.14097986 -0.04727158
000030 ce 8c 9e bd e8 c1 ac bb ec d8 9e 3c 4c 49 4e 3d
       -0.077417 -0.005272139 0.019390546 0.05036287
000040 77 31 57 3d 72 a8 34 3e b1 27 16 bd a5 66 af 3d
       0.052537408 0.17642382 -0.036658946 0.085645
000050 08 f8 22 be 9b c4 e4 bd 47 c7 6e 3d 78 ea 64 bd
       -0.15914929 -0.11170312 0.058295514 -0.05588767
000060 d9 ef f4 3d e8 cd 1a 3d 13 3f 60 bd a9 10 92 bd
       0.1195981 0.037794024 -0.054747652 -0.07132084
000070 bc ff f7 bc c2 28 52 be 77 cb df bd 63 1a c4 3d
       -0.03027331 -0.2052336 -0.1092748 0.09575345
000080 4c 92 f0 3d bb f3 4b bc 09 18 45 bd 01 49 da bd
       0.11746654 -0.012448247 -0.048118625 -0.10658456
000090 7f c4 05 3e ef 23 fc bc a9 79 4f 3b 25 40 09 3d
       0.13063239 -0.030778853 0.0031658208 0.03350844
0000a0 2d 81 c7 3c 41 bf 74 3e 76 6e 96 3c b8 b3 54 bd
       0.024353588 0.23901083 0.018363219 -0.051929206
0000b0 39 0e 97 bd bf 9f 27 bd d3 c6 fa bd 10 aa 73 be
       -0.0737576 -0.04092383 -0.12244954 -0.23795342
0000c0 31 92 3d 3c d1 f9 bb bd 70 c6 04 be 41 27 3a be
       0.011570499 -0.09178508 -0.12966323 -0.18179037
0000d0 09 c8 01 be 5c df af 3d 76 f8 de bc 33 16 fc 3d
       -0.12673964 0.08587524 -0.027218085 0.12308922
0000e0 9e 83 7e bd 75 e4 e8 bd 14 5e ce 3d 8f 63 c1 3d
       -0.06213724 -0.113717 0.10076538 0.094428174
0000f0 fe e3 be bd 36 65 2b 3e b9 49 69 be 87 ed 46 3d
       -0.0932083 0.16737828 -0.22782029 0.048566367
000100 b6 a3 ba 3d 15 cd cd 3d ee 1e ce 3d 79 86 2e be
       0.09113257 0.10048882 0.10064493 -0.17043485
000110 a1 20 fe bc f0 65 7c bd e8 ec 22 3d a7 04 93 bd
       -0.031021418 -0.061620653 0.039776713 -0.07178622
000120 83 04 15 3c f1 bb 9c 3d 33 a9 0a 3e 5e f4 7a 3d
       0.009095314 0.076530345 0.13541107 0.061268203
000130 6a ba 26 be dc 34 66 3c 3d 20 07 be e8 8f c3 bd
       -0.16282049 0.014050689 -0.13195892 -0.09548932
000140 99 68 af 3b b6 65 15 be d0 5c 08 3e 65 c3 20 be
       0.005353045 -0.14589581 0.13316655 -0.15699537
000150 55 bd 4a be fa 3e 20 3e 18 8c 88 3d a9 c1 59 3b
       -0.19798787 0.15649024 0.06667346 0.0033227003
000160 3f 1d 30 3e 7f ca d8 3d 6a 4c be 3d a9 5b 27 be
       0.17198656 0.10585498 0.092919186 -0.1634356
000170 ae 05 4a be b0 4f 3c bd c6 62 d9 bc ee a0 39 3d
       -0.19728729 -0.045974433 -0.026536357 0.04531949
000180 b5 08 06 bd 58 3f 59 3e 9f 61 77 bd 39 b3 b2 bd
       -0.032723147 0.2121557 -0.060395833 -0.0872559
000190 35 2f c1 3d a1 e9 9d bc 60 b4 30 3e f6 4d 2d 3e
       0.09432832 -0.019276442 0.17256308 0.16924271
0001a0 69 ae 44 bc 11 b4 bd bd 81 42 6d bd 30 ac d5 bd
       -0.012004473 -0.092628606 -0.05792475 -0.10433233
0001b0 6e eb d1 3d b9 1b 0b 3e 3c 4a 83 3d 33 0c 92 bd
       0.10249983 0.13584794 0.064106435 -0.07131233
0001c0 3a 68 05 3e 76 7c 23 be 7f 6d 27 3c bd 59 1e 3e
       0.1302804 -0.15965447 0.010218977 0.1546392
0001d0 68 c9 3c 3d 63 50 da bd 55 da 06 3e 25 bd a6 3c
       0.046090513 -0.10659864 0.13169225 0.020353863
0001e0 53 24 15 3e e8 c0 fd bd 8c 85 56 be 6b 9e 2d be
       0.14564638 -0.123903096 -0.20949382 -0.16954963
0001f0 75 3e a9 3d fd 64 13 be dd 37 54 3e 2d 02 07 3e
       0.08263866 -0.14393993 0.20724435 0.13184424
000200 16 13 db 3d ef 36 58 3d 0d 19 4e 3e 66 a5 fe 3d
       0.10697 0.052786764 0.20126744 0.12433891
000210 3d 0c 52 be d1 37 01 be 37 17 d5 bc bb 1d f6 3d
       -0.20512481 -0.12618949 -0.026012046 0.120173894
000220 65 13 70 be e1 26 82 3d 7a f9 c6 3d da 3e 26 3e
       -0.23444898 0.06355072 0.09715553 0.16234913
000230 28 2b 89 bc 14 9d 89 bc 67 72 52 bd 1d 0a 91 3d
       -0.016744211 -0.016798533 -0.051378634 0.07082007
000240 3c d9 1c be b4 36 b4 3a 44 2a 46 3e b4 24 76 bc
       -0.15317243 0.0013749213 0.1935206 -0.015023399
000250 27 f0 00 be bf 5a b3 bd e2 42 39 bc b8 8e 51 bd
       -0.12591611 -0.08757543 -0.01130745 -0.051161498
000260 2c 05 4c be c0 b5 15 3d 27 f8 25 bd 07 57 da 3d
       -0.19923848 0.036550283 -0.04051986 0.106611304
000270 04 a9 86 bd 83 de 3e bd c2 b6 55 3d 09 c8 17 be
       -0.06575206 -0.046598922 0.052176245 -0.14822401
000280 02 0c ad 3c 20 18 a9 bd 10 45 f9 bb 00 0b 20 be
       0.02112389 -0.082565546 -0.00760711 -0.15629196
000290 f9 d1 0f be 47 3f 76 3b 31 7a 7e bd b8 6d 70 bd
       -0.14044942 0.0037574337 -0.06212825 -0.058698386
0002a0 f0 a6 f4 bd 54 b7 81 3e 98 3c 10 3d d0 a3 fa bd
       -0.11945903 0.2533518 0.035214037 -0.12238276
0002b0 45 13 df 3d 13 99 49 be aa 95 31 bd c6 f6 05 be
       0.10892347 -0.196873 -0.04335562 -0.13082418
0002c0 31 37 80 bd 59 b1 76 3c d1 66 14 be 19 c1 27 3e
       -0.06260527 0.015056931 -0.14492346 0.16382255
0002d0 ec 55 6a be c8 4e 24 3e f7 8c 2b be d8 33 e1 3d
       -0.22884339 0.16045678 -0.16752993 0.109962165
0002e0 97 66 06 bd 4e 81 89 3c 51 3c 39 be 6c e2 96 bc
       -0.03281268 0.01678529 -0.18089415 -0.018418513
0002f0 b2 de 67 3d f9 53 8b bd 3a 6c 63 3d 5a 53 2d be
       0.056608863 -0.06803126 0.055523135 -0.16926327
000300 ed 48 2e 3e e0 a9 06 3c f3 44 29 3e 7f 27 51 bd
       0.17020006 0.008219212 0.16530208 -0.051063057
000310 d6 75 6b bb ef 39 37 be 65 c0 65 be ba 82 e4 bc
       -0.003592839 -0.17893194 -0.22436674 -0.027894367
000320 7c f9 12 bd 5d b2 2c be f4 a2 4a be 5e b6 87 3d
       -0.035882458 -0.16864915 -0.19788724 0.06626581
000330 a9 96 5a 3d 0a 4e ee bb 27 46 94 3c ff ef 6b 3d
       0.053366337 -0.0072724866 0.018099857 0.057601925
000340 48 33 53 bd b7 3e 5b 3d ec 3c 13 3e 92 82 f9 bd
       -0.051562577 0.053526606 0.14378709 -0.121831074
000350 e1 86 85 bd b9 7b 16 3e 40 c2 15 3e 8c 2a 85 3d
       -0.06519867 0.14695634 0.14624882 0.06502256
000360 a4 b4 4f be 03 7d 76 bd 5d a4 25 be 96 30 11 3d
       -0.20283753 -0.060177814 -0.16175981 0.035446726
000370 6d 82 1a 3e 59 6c 62 be 67 b8 f4 bd 06 6c a2 3c
       0.15088816 -0.22111644 -0.119492345 0.0198269
000380 26 cb 24 bc 32 cd 10 3e ce ed 5e be a2 f3 40 3d
       -0.0100582 0.14140776 -0.21770403 0.047107346
000390 6e 35 00 bc b1 91 fb bb b8 44 0d be bf d8 34 3b
       -0.007825239 -0.00767728 -0.13795745 0.002759501
0003a0 13 56 ba 3d 08 87 30 be df 98 04 bd 84 c7 b1 3d
       0.090984486 -0.1723901 -0.03237235 0.08680633
0003b0 0d 98 5e bd 8c 06 2f 3d 84 45 0c 3c 4a 7f 9e 3e
       -0.054344226 0.042730853 0.008561496 0.3095649
0003c0 aa 13 1e be 67 10 66 be 80 02 d1 3b 67 76 59 bd
       -0.15437189 -0.22467194 0.006378472 -0.053091433
0003d0 a6 38 91 bb 80 f6 36 be ea c8 21 be 92 c4 e3 3c
       -0.004431802 -0.1786747 -0.15799299 0.027803693
0003e0 71 18 05 3e 99 2f 85 bd 97 93 59 3c 67 93 21 bd
       0.12997605 -0.06503219 0.013279817 -0.039447214
0003f0 40 8b 61 bd 54 b8 78 be b9 5f 50 be 5f 68 08 3e
       -0.05506444 -0.24289066 -0.20349015 0.13321064

arith.constant8 f4 [256, 128]
000000 ac 0c e7 3d 13 57 ab bd 22 20 cd 3d a7 ea 22 3d
       0.11281714 -0.083662175 0.100158945 0.039774563
000010 bd 30 46 bb bb d1 90 bd 3f 81 43 3d 32 3c ec 3d
       -0.0030241453 -0.07071253 0.04773068 0.11534919
000020 0b 6a f5 bd d1 da 02 be 4f 75 00 bd c4 11 b3 bd
       -0.11983117 -0.12778784 -0.031361874 -0.08743623
000030 24 75 8d bd 42 76 41 bd 86 b0 3c bd 8a c9 50 3d
       -0.069071084 -0.04723192 -0.046066783 0.050973453
000040 b7 c6 ef bd c9 99 3d 3d 92 cc 38 bc 44 bc a1 3d
       -0.11707824 0.04628924 -0.011279242 0.07897237
000050 c1 6d 33 be 6a be 19 bd 00 18 c1 bd 79 e2 41 bd
       -0.17522337 -0.03753511 -0.09428406 -0.04733512
000060 cf 11 c6 3b 6d f9 10 be 28 3e 7f 3d 9a 24 3a bd
       0.0060446034 -0.14157648 0.062315136 -0.045445062
000070 2a 50 55 bd 67 0e cb bd 5c c3 bf bc a0 4f fd 3d
       -0.052078404 -0.099148564 -0.023408584 0.12368703
000080 a4 fe 94 bd a7 7f c3 bb db 9a e9 3b dc 60 86 3d
       -0.07275131 -0.005966145 0.007129056 0.06561443
000090 08 6c 0c 3c bb 13 f1 3c 81 c5 d3 3c a9 15 19 bd
       0.0085706785 0.029428354 0.025851013 -0.037374172
0000a0 75 52 b6 3c e8 78 8d 3d be 58 b1 3d 89 27 f2 3d
       0.022256115 0.06907827 0.08659504 0.11823947
0000b0 51 02 65 3d a0 c6 a4 3d ab c1 18 be 7c d3 19 be
       0.055910412 0.08045697 -0.14917628 -0.15022081
0000c0 2a d4 db 3c 2e 95 02 3e 9a 08 6b bd 88 27 00 be
       0.026834566 0.1275222 -0.05738125 -0.1251508
0000d0 9c 10 66 bc 57 9e 81 3d 83 31 1c bd 5f 2e 6c 3d
       -0.014042046 0.06329029 -0.038133156 0.05766141
0000e0 61 af ae 3d 74 a3 3c bd dc c7 fc 3d 44 5e ad 3c
       0.085295446 -0.04605432 0.12342808 0.021163113
0000f0 8c 21 94 3b 32 d0 6c 3d 05 07 e3 bd 0f 59 db 3d
       0.0045206007 0.057815738 -0.11085323 0.10710346
000100 1c ff df bd 66 2f 3b bd bc e7 4f 3c ac 8a 97 ba
       -0.1093733 -0.0456995 0.012689527 -0.0011561713
000110 37 55 b3 3b 1c 72 89 3d ce 67 be 3d 72 c6 cc 3d
       0.005472805 0.06711218 0.09297143 0.09998788
000120 26 9b 15 3b 96 72 55 3d 9f e8 c2 bd 20 f5 64 3e
       0.0022828071 0.05211123 -0.09517025 0.22359133
000130 c6 36 a5 3c 84 d4 0f 3d 2a 27 a6 3d ed b4 b0 3c
       0.02016772 0.03511478 0.08112939 0.021570647
000140 15 6f a9 3c d1 96 e0 3d 74 e0 0f 3d 27 88 ac bd
       0.02068285 0.10966266 0.035126165 -0.084244065
000150 92 60 c8 3a a1 2a 6d bd eb a6 80 3d 73 19 ee 3d
       0.0015287569 -0.057901982 0.06281837 0.11625948
000160 aa 9d a1 3c f0 c5 12 3c ea 00 f9 3c d0 93 e4 bd
       0.0197285 0.008958325 0.030395944 -0.111610055
000170 5b 92 23 bd 01 f7 3d bd 9b f4 c7 bd b8 11 14 3e
       -0.039934497 -0.04637814 -0.09763452 0.14459884
000180 93 94 8b 3c f0 60 7e 3b d3 d6 d5 bb 21 64 9e 3d
       0.01703862 0.0038815103 -0.006525853 0.07733942
000190 bc db cf bd 73 e7 af bd c5 89 68 bd 94 6a ef 3d
       -0.10149333 -0.08589067 -0.056772012 0.1169025
0001a0 b3 49 78 3d e0 4b 52 bc e8 3a 80 bd 48 44 aa 3d
       0.06061716 -0.012835473 -0.062612355 0.08313805
0001b0 7a a7 14 3d 71 a7 03 be 7d 05 84 bd bb b9 47 3d
       0.03629253 -0.12856843 -0.06446359 0.04876111
0001c0 e7 76 1e 3d 29 19 58 bd 6a dc 96 3a 79 2c 9e bd
       0.038687613 -0.05275837 0.001150978 -0.07723326
0001d0 c5 6c 63 3d 83 45 ac 3d 55 61 89 bd 4c e3 9a bd
       0.055523653 0.08411696 -0.06708018 -0.07562885
0001e0 58 e1 b9 3d fa 44 aa 3d ae bb 81 3d 2b 83 c6 3d
       0.09076184 0.083139375 0.06334625 0.09692987
0001f0 7c a1 b1 3c eb 16 49 bd fa e6 24 bb d2 e2 f1 3d
       0.021683447 -0.049094122 -0.0025162087 0.11810841
000200 e4 30 fa 3d 92 97 45 3d cd 40 94 bd ab a0 2d 3c
       0.122163564 0.04824025 -0.07238922 0.010597388
000210 9f a0 b5 bd 8f 72 0d be 3a 0b 99 bd c0 04 97 bd
       -0.08868527 -0.13813232 -0.074728444 -0.07373953
000220 01 a0 f3 3c 10 cc d5 bc c8 22 e1 3d 4d 74 45 bd
       0.029739382 -0.026098281 0.10992962 -0.048206616
000230 c5 1b e6 3c 61 fa 03 3e 54 0b a0 bd dc b8 f2 bd
       0.028089413 0.1288848 -0.07814661 -0.118516654
000240 c6 ba 4f be b6 2c b4 3b e2 a6 51 bd 09 47 28 bd
       -0.20286092 0.005498494 -0.051184542 -0.04108337
000250 7c 6f 32 bd 4f c0 75 bd 9e c8 5b 3d 98 17 a7 3d
       -0.04356335 -0.059997853 0.05365812 0.08158797
000260 e1 f9 ea bd a5 9f 9e 3d 54 12 55 3d 1d bf 0a bd
       -0.11473442 0.077452935 0.052019432 -0.033873666
000270 0a 4d 58 3d ff 7c 9e 3d a5 bc 9e bd 75 07 80 bc
       0.052807845 0.07738685 -0.07750825 -0.015628556
000280 d3 c1 40 bd c1 6b 19 3d 2d f3 82 bc 61 ab d0 3d
       -0.047059845 0.037456278 -0.015985096 0.10188938
000290 a6 c7 4f 3c 98 ca ee 3d 89 46 d1 bd 02 5b c0 3c
       0.012681877 0.116597354 -0.10218532 0.023480896
0002a0 a6 ce 25 bd 0b 6e d5 3d e6 2f 98 bb d0 0e d9 3d
       -0.04048028 0.1042138 -0.004644382 0.105985284
0002b0 16 a1 ad 3b 5d dd 69 bb 3d 2f c9 bd 87 d5 b7 bd
       0.005298744 -0.0035684921 -0.09823463 -0.08976274
0002c0 d4 c0 ba 3c ac 2a 2d bc d2 9b 02 3d 42 c7 a9 bd
       0.022797026 -0.010569256 0.031886883 -0.082899585
0002d0 c5 ee a8 3b e1 39 88 3d cc 40 07 3a 34 26 7f bd
       0.0051554167 0.066516645 0.0005159497 -0.062292293
0002e0 2f 52 03 be 4c 92 9b 3d 0c a8 c2 3d 32 1a d5 bd
       -0.1282432 0.07596263 0.09504709 -0.10405387
0002f0 c3 bf 2a 3d 91 46 2b bd 1d 72 1f bd e2 9d e5 bd
       0.041686784 -0.041815344 -0.038927186 -0.112117544
000300 3f 60 e0 3d 6b 0a 5f bd 30 76 08 3d 45 c7 e2 3c
       0.109558575 -0.054453295 0.033315837 0.02768291
000310 6c 5e 82 bd b8 e5 5a 3d f8 f1 ee 3d 8c 06 c7 bd
       -0.06365666 0.053441733 0.116672456 -0.097180456
000320 01 df ab bd 13 79 e7 3d a8 3e 10 be 04 c0 41 3d
       -0.08392144 0.1130239 -0.14086401 0.04730226
000330 f1 1c 20 3c 06 09 41 bd c0 2b 9d 3c da f8 83 bc
       0.009772525 -0.047127746 0.0191859 -0.016109873
000340 7e d8 92 3d 83 8f a9 3d 92 70 df 3d df e0 c3 bd
       0.07170199 0.08279326 0.10910143 -0.09564375
000350 fd b6 b1 3d 3f ac 14 be 54 50 00 bd a0 aa 3d 3a
       0.0867748 -0.14518832 -0.031326607 0.0007235203
000360 40 09 2b 3d a8 5e c8 bd 8a c9 ea 3d 56 75 d9 bd
       0.04175687 -0.09783679 0.11464222 -0.10618083
000370 51 80 a8 3d 05 93 15 3e 81 9b 1f bd e6 59 26 bd
       0.082275994 0.14606865 -0.03896666 -0.040613078
000380 b7 a8 92 3d f5 0b 80 3d 9c 2d 33 bd ca 6e d8 bd
       0.07161086 0.062522806 -0.04374467 -0.10568006
000390 aa 64 06 be 83 b5 ff 3c 4a 8c 37 3d 5c 59 80 3d
       -0.13124338 0.031214481 0.044811524 0.06267044
0003a0 c9 11 df bd c8 05 94 3d ee eb 86 3d 90 73 48 3c
       -0.10892064 0.07227665 0.06587969 0.0122345835
0003b0 7b 32 53 3c 2e 6d bf 3d 7c 56 4f 3d 5a 82 ab bd
       0.012890453 0.09346996 0.050619587 -0.08374472
0003c0 7c ce 6c bd f0 00 e6 3c b1 a9 10 be 6a 30 fd bd
       -0.057814106 0.028076619 -0.14127232 -0.1236275
0003d0 26 aa a5 3d 70 fe 97 3c 1e 6e ef 3d 32 86 02 bd
       0.08089094 0.018553942 0.11690925 -0.03186626
0003e0 f0 5e 6a 3d f2 dc 7f 3c f8 84 5f 3c da aa ed 3d
       0.057219446 0.015616642 0.013642542 0.11604853
0003f0 a7 60 2e 3d da f5 a8 3d e2 1f 19 bd 4b a9 0d 3d
       0.042572644 0.082500175 -0.03738392 0.03458528

arith.constant9 f4 [256, 64]
000000 62 4f 1b 3d ea 09 33 be 62 cf bd 3d 26 5a 23 bc
       0.037917502 -0.1748425 0.09268071 -0.0099702235
000010 45 b5 b1 bd 8c aa a4 bc aa f6 ba 3d de c2 f3 bd
       -0.086771525 -0.020100854 0.09129079 -0.11902402
000020 d4 8b e0 bd 1b dd a5 bb ad de 95 bd 54 32 3f 3d
       -0.1096417 -0.005061758 -0.07317863 0.046678856
000030 2b 04 9d 3c b8 28 f4 3b 78 ca c7 bd 9b 12 98 bd
       0.019167027 0.007451143 -0.09755415 -0.07425424
000040 05 63 41 3c 90 73 90 bd 07 66 47 3c 9a be 86 3c
       0.011803393 -0.07053292 0.012170321 0.016448308
000050 14 fc ef 3b ae 43 ee bc 70 e8 0f 3d ce c2 05 3e
       0.007323751 -0.029085007 0.03513378 0.13062593
000060 ca a9 22 3e f4 7e 55 3d a4 07 af bd de 33 cc bd
       0.15885082 0.052123025 -0.08546379 -0.099708304
000070 9e 1f c5 bd e2 73 5d 3d 17 2b 34 3e 09 8c 25 3d
       -0.09625171 0.054065593 0.17594562 0.04041675
000080 64 9e a1 bc 84 12 12 3e b2 d9 39 3e ca d2 a7 bc
       -0.019728847 0.14264876 0.1814945 -0.020486254
000090 19 a7 1b be da f5 eb bd e6 b1 bf 3d 37 70 aa 3d
       -0.15200461 -0.11521502 0.09360103 0.083221845
0000a0 3b 6f 99 bd 42 7e dd ba ff 31 21 be 0c 65 b5 bc
       -0.07491919 -0.001689859 -0.15741728 -0.02214291
0000b0 84 68 e8 3c 93 f2 4d bd 3f 22 24 bd 76 2d 93 3d
       0.02837015 -0.050280165 -0.040071722 0.07186405
0000c0 bb d2 4b bd 87 4c 1b be 13 0d f0 bc 5f 58 b0 bd
       -0.049761515 -0.15165912 -0.02930311 -0.086106054
0000d0 ec 0d 03 3e a2 5b 47 3d d2 b2 9d 3c 0f f4 ea 3c
       0.1279828 0.048671372 0.019250307 0.02868083
0000e0 c7 ee c0 bd 9e cb db 3c 52 07 81 bd d0 5d d6 bd
       -0.09420543 0.02683049 -0.06300224 -0.10467112
0000f0 5d f0 b2 3d a4 35 3e 3e 4d 07 ba bd 53 eb 4d 3d
       0.08737252 0.1857515 -0.09083424 0.05027325
000100 ba 16 61 bc cf b0 36 bd 1a c6 29 3d a9 66 00 3e
       -0.013738329 -0.04460221 0.04144869 0.12539162
000110 20 74 b6 3d 21 6a ab bd 25 ae 94 b9 76 51 c8 39
       0.08908868 -0.08369852 -0.00028358508 0.00038207666
000120 5f b2 9d bd 39 78 47 3c 38 54 95 3d c1 52 b5 3c
       -0.07700037 0.012174659 0.07291454 0.022134187
000130 12 77 98 bd 2a 96 be bc 50 dd b2 bb 57 4e e2 bd
       -0.07444586 -0.023264963 -0.0054585114 -0.110500984
000140 da 66 00 3d 64 5f 93 3d 32 f4 f6 3c ac 7b f2 bd
       0.031348087 0.07195929 0.030145738 -0.11839995
000150 a2 f9 15 bd 00 e3 9e 3d 1c 66 91 bd 4d 68 b3 3b
       -0.03661502 0.077581406 -0.07099554 0.00547508
000160 45 08 87 3c 49 72 76 3d 87 b6 f6 3c cc ef d0 bd
       0.016483435 0.060167585 0.030116333 -0.102019876
000170 38 d8 83 3d 45 76 0d bd 44 6f 9d bd c8 9d 71 bd
       0.06437725 -0.03453662 -0.07687238 -0.058988363
000180 c7 dd 88 3d e6 6a de 3a 2b 85 58 bb 4c 3e 04 3e
       0.06682926 0.0016969114 -0.0033038359 0.1291439
000190 9b 89 88 3c ea df 8c 3c ab 7e 41 ba 51 27 8d 3d
       0.016667178 0.017196614 -0.0007381241 0.06892265
0001a0 45 93 12 bd f6 24 05 be cc 0e 23 3d 40 e5 b6 3d
       -0.03578498 -0.1300238 0.039809033 0.08930445
0001b0 4f bb 93 bc d8 cf 27 bc 16 11 83 bc ff 5e 01 bc
       -0.018033652 -0.010242425 -0.015999358 -0.007896184
0001c0 de ce 04 bc 5e 21 c9 bd 26 92 07 be 43 43 0f 3d
       -0.008105962 -0.098208174 -0.13239345 0.034976255
0001d0 be 79 de bc f1 3e 9f 3c b0 6c f6 3b 46 88 27 be
       -0.02715766 0.019439192 0.007520281 -0.16360578
0001e0 0f 5c 7e 3d ce 94 23 3e 03 02 93 3d af 36 d4 3c
       0.062099513 0.15974733 0.07178118 0.025904981
0001f0 f4 f4 51 bd 0d 42 b6 bb 9c 07 ec bd c4 9c cd 3c
       -0.051258996 -0.005562073 -0.11524889 0.025099166
000200 5e d4 10 bb 19 49 c7 3b 1e 8c b4 3d e2 de 4b 3c
       -0.0022099237 0.006081712 0.08815788 0.012443276
000210 0b 84 7d 3c 9f 04 ac bd b3 8b 08 3c 08 6c a0 bc
       0.015473376 -0.08399319 0.008334088 -0.019582763
000220 28 c0 18 bd e3 7f ab 3d 6f c3 31 3c ef 1d c0 3d
       -0.03729263 0.08374002 0.010849818 0.093807094
000230 6e 63 f3 3c c5 07 57 bd 52 2b 9d 3c ea 09 63 bc
       0.029710498 -0.052497644 0.019185696 -0.013857344
000240 3a b2 88 bc c3 59 04 bd d9 68 71 bd 52 63 48 bd
       -0.016686548 -0.032312166 -0.05893788 -0.048922844
000250 3d 96 4d bb d5 55 aa 3d 93 22 35 3c 5c 88 96 3d
       -0.0031370067 0.083171524 0.011055606 0.07350227
000260 5b 32 f8 3c e1 44 d0 3c 08 b6 b6 3c f5 ad e6 3c
       0.030297449 0.025423469 0.022303596 0.028159121
000270 bf 42 9c bd b0 0d e6 bd 6b c8 93 bc e7 31 00 3d
       -0.07629918 -0.112330794 -0.018039903 0.03129759
000280 5f 1d 12 be 7a 3d 06 3d c6 5d 21 bd 2f 1a 97 bd
       -0.14269017 0.032773472 -0.03939607 -0.07378041
000290 59 23 db 3c ed 08 d6 bd 16 6e b6 bb 14 71 12 3d
       0.026750254 -0.10450921 -0.0055673225 0.03575237
0002a0 ce 49 44 bc 95 23 4c 3d a0 46 d3 bc cb e6 4c bd
       -0.011980487 0.04983862 -0.025790513 -0.05002479
0002b0 b9 06 9c bd ea 8f 04 3e f9 10 8c bd 72 37 b8 bc
       -0.0761847 0.12945524 -0.06839175 -0.022487376
0002c0 6f 6f 98 bd 23 fd 2d 3d 73 f3 47 bc ac b0 f3 3c
       -0.07443129 0.042477738 -0.012204039 0.02974733
0002d0 6a ad 4e 3b 15 c4 10 3d da 09 16 be 60 b6 94 bd
       0.0031536468 0.03534325 -0.14652196 -0.07261348
0002e0 4b b8 0b bd f9 e1 ed 3d 1b d8 b8 ba 1e 21 41 3d
       -0.034111302 0.116153665 -0.001410249 0.047150724
0002f0 f4 c9 ea bb f2 ca 88 bd 85 9f 04 3d fe 60 11 3c
       -0.007165188 -0.06679334 0.032378692 0.008873222
000300 72 d2 f7 3c a9 12 49 bd 2c a2 14 bc 02 91 05 3c
       0.030251715 -0.04909006 -0.009071868 0.008152248
000310 3f 2b 37 3d cb a6 c2 bd 6f 6a d2 3d c3 a9 37 3d
       0.044718977 -0.095044695 0.10274207 0.04483963
000320 39 ad 0c bc 09 59 41 bd c9 96 82 bb e9 ea 49 3d
       -0.008586221 -0.04720405 -0.00398526 0.049296293
000330 58 88 c7 3d f4 28 3e be 34 8a 04 bd c5 57 c9 bb
       0.097428024 -0.1857031 -0.032358363 -0.006144496
000340 ec f8 bf 3d 53 af 02 3e 49 82 8f bd 7e f0 f9 3d
       0.0937365 0.12762193 -0.07007272 0.12204073
000350 98 db 64 bd 10 36 56 3d 47 95 09 3d 52 2a c4 3d
       -0.055873483 0.05229765 0.033589628 0.095783845
000360 40 9d f7 bd e9 26 32 bd 50 c6 c9 3d f4 87 94 3c
       -0.1209054 -0.04349414 0.09852278 0.018131234
000370 a5 a8 75 bd 79 6a a7 3c b3 89 63 bd 5d 45 54 bb
       -0.059975285 0.020436512 -0.055551242 -0.0032389977
000380 53 ed b2 3d d7 b6 15 3e 3c 71 94 3d fd e2 d2 3d
       0.08736672 0.14620529 0.0724816 0.10297201
000390 12 78 b6 bd d4 aa 6a bd 6d 41 00 3d dd 14 b2 3d
       -0.0890962 -0.05729182 0.031312395 0.086953856
0003a0 1e 0c 31 3d 97 7e b0 bd 98 69 ed bb da fc f3 3c
       0.043224446 -0.08617895 -0.007245254 0.029783655
0003b0 9d 05 e7 3d 36 82 6d bd 38 8f 75 3d 3c 01 11 be
       0.112803675 -0.057985507 0.059951037 -0.14160627
0003c0 56 24 e9 bc 78 c0 33 bc 56 35 fb 3c 4f e8 dd 3c
       -0.02845971 -0.010971181 0.030665081 0.027088312
0003d0 93 98 ee bd 3d 13 45 3e ce 34 2a bd f2 0a 6e 3d
       -0.11650195 0.1924562 -0.041554265 0.058115907
0003e0 27 35 89 bd ad 2c bf 3d 14 69 a1 bd a4 0b 95 bc
       -0.06699591 0.09334693 -0.0788137 -0.018194027
0003f0 e9 d9 26 3d 70 fb ff bc c1 34 e2 bd 4c 27 ff bd
       0.04073516 -0.031247824 -0.11045218 -0.12458667

arith.constant10 f4 [512, 20]
000000 52 40 41 bc 15 fd 2b bd 1a c7 d0 bc 8e ec 0f 3e
       -0.01179512 -0.041989405 -0.025485564 0.14055082
000010 35 95 8d bc 54 5f ea 3d 4c 9e 24 3d b8 aa 00 be
       -0.017283062 0.11443964 0.040190026 -0.12565124
000020 8a 29 e1 bd 63 82 dd bd af 16 19 bd 5a de 04 3e
       -0.10994251 -0.10815885 -0.03737515 0.12975445
000030 e7 18 c0 3c 87 99 06 3e 67 ba 02 3e 91 d0 68 3c
       0.023449374 0.13144504 0.1276642 0.014209882
000040 bc f8 92 3d b4 3a e6 3c 03 a6 18 3d 2d cb 33 bd
       0.071763486 0.028104164 0.037267696 -0.043894935
000050 c5 bd 1a 3d 1a d2 f9 bc 0f a2 da 3c ef 50 56 be
       0.037778635 -0.030495692 0.026688604 -0.20929311
000060 8e 76 a5 bd 2f f6 38 bd 03 54 94 3b 6b c2 ee bd
       -0.08079253 -0.045156654 0.0045266165 -0.11658176
000070 4a 84 cb bd 37 76 38 3c b1 3f a1 bc ef 77 94 3d
       -0.099373415 0.011258653 -0.01968369 0.07249438
000080 a5 60 fb bd 77 5e 1e be 14 0c f4 bd 9f 9c 0d be
       -0.12274293 -0.15465723 -0.11916366 -0.13829277
000090 9d ce bb bb df bc 0f be be 2f 33 3d be a7 38 bd
       -0.0057314173 -0.14036892 0.043746702 -0.045081846
0000a0 dc 21 63 bd 89 81 44 bc 21 41 14 3d 8e 61 60 bd
       -0.055452213 -0.011993774 0.036194924 -0.054780535
0000b0 99 2d b7 3d 2a 9a 0a 3b 4b 3b ca bd 61 c5 6b bd
       0.08944244 0.0021149018 -0.098745905 -0.057561282
0000c0 45 bb a9 bd 08 6c 3f 3d 5b d2 dc bc 68 f7 15 bd
       -0.08287672 0.046733886 -0.026955774 -0.036612898
0000d0 bb ba 8a 3d e7 da 47 bd 85 dd 6d 3d b0 df 0e bd
       0.06773897 -0.048792746 0.058072586 -0.034881294
0000e0 66 7e f7 ba 81 f3 ad 3d 41 ce 76 3c c1 fa 3b bd
       -0.0018882274 0.0849371 0.015063823 -0.045893434
0000f0 3b 87 d5 3c 05 c6 31 bd f0 95 d1 bd 7b 77 78 bd
       0.02606546 -0.043401737 -0.102336764 -0.06066082
000100 9f bb 0d bd 0f e9 04 3d 75 0c b1 bc 75 90 d2 3d
       -0.034602758 0.032448824 -0.021612385 0.10281459
000110 ec 85 3e 3e 2f d3 25 3e a8 a9 04 3d 43 24 35 3c
       0.18605775 0.16193841 0.03238836 0.011056009
000120 50 f9 4a bd e3 8d 54 3d 62 0d 46 bd 52 4b aa bc
       -0.04955417 0.051893126 -0.048352607 -0.020787869
000130 75 60 95 bd 38 02 f5 3c 09 9b f6 3c 23 fd c3 3c
       -0.07293788 0.029908285 0.030103223 0.023924416
000140 87 da d0 bd 59 09 7c bd 99 7f c4 bd f1 0a 55 3c
       -0.10197931 -0.061532352 -0.0959465 0.013003097
000150 a8 2f 59 bd e9 df 66 bd 3d 20 2b bd 7f 2e 33 3d
       -0.053023964 -0.05636588 -0.04177879 0.043745514
000160 9b c5 97 bc 71 81 26 3d 1e 51 80 3c 3d ab 13 3d
       -0.018526843 0.04065079 0.01566368 0.036051977
000170 6a b4 a8 3d 7a 22 80 3c c8 ae 37 bd 79 44 9a 3d
       0.08237536 0.01564144 -0.04484442 0.075325914
000180 8e 6f 0d ba b8 ad 8a 3d 7b 72 be bd 13 b6 cb bd
       -0.0005395346 0.067714155 -0.09299179 -0.09946837
000190 33 e7 f0 bc a8 b0 05 be 93 db a8 bc af e3 35 3d
       -0.02940712 -0.1305567 -0.020612514 0.04440659
0001a0 21 2b a1 3d 04 f5 23 3d ad b4 74 bd 10 86 a6 bd
       0.07869554 0.040028587 -0.05974262 -0.08131039
0001b0 9f 3d e1 bd 16 a9 b0 3d 17 86 b3 bd 31 2b a8 bd
       -0.109980814 0.086260006 -0.0876581 -0.08211363
0001c0 76 20 a9 3c cd c8 5f 3d 07 bf 80 3c 72 6d 6b 3d
       0.020645361 0.054634858 0.015716089 0.057477422
0001d0 bf c5 b1 3d 99 67 4e bc 12 8d b5 3c 71 ff d1 3c
       0.08680295 -0.012597942 0.022161994 0.0256345
0001e0 63 8b cc bd e3 0c dc 3c c2 d0 54 bc be ee fb 3c
       -0.099875234 0.026861614 -0.012989225 0.03075349
0001f0 3a 3c 23 3d 80 ab d2 bd df 57 50 bc 09 6d 66 3d
       0.03985236 -0.10286617 -0.012716263 0.056256328
000200 96 b1 ab bd 50 75 ed bb 0c 4b b8 3b 73 e2 bf 3d
       -0.08383481 -0.0072466508 0.0056241807 0.09369364
000210 79 bc d1 3d 23 ee 32 bb cf a5 a2 bd af d5 29 bc
       0.102410264 -0.0027302585 -0.07941782 -0.010365888
000220 1b 44 e8 3c 4a a8 ef bb c7 e2 4e 3d 05 6d dc bc
       0.028352788 -0.007313763 0.05050924 -0.026907453
000230 76 75 8c 3d 9f 44 d5 3c 0f 05 0e 3d 2f 0c bd 3d
       0.068583414 0.026033698 0.034672793 0.092308395
000240 13 a8 a3 3d b7 29 7b 3d f0 f4 0b 3d da 12 a1 3d
       0.07991042 0.06131908 0.034169137 0.07864924
000250 58 ee 44 bd b0 96 9d 3c 79 2a 54 3d f6 2b 85 bd
       -0.048078865 0.019236892 0.051798318 -0.065025255
000260 c6 a2 93 3d 71 1e d9 3b 21 92 d4 3d b8 3c ac 3c
       0.07208781 0.0066259434 0.103794344 0.021025047
000270 a2 fd 3a bd 98 a6 88 3c e6 9d b6 3d 43 70 d9 3d
       -0.04565204 0.016681 0.089168355 0.10617115
000280 de 5f d9 bd b9 d5 bd 3d 19 c6 cb bd 13 ff b2 3d
       -0.10613988 0.0926928 -0.099498935 0.08740058
000290 36 66 98 3c fc 97 74 bd d6 27 48 b9 f6 3e a3 3d
       0.018603425 -0.059715256 -0.00019088326 0.07970993
0002a0 4b 30 72 3c 61 b8 bc 3d 89 88 19 bd e6 a4 9a 3d
       0.014782022 0.09214855 -0.037483726 0.07550983
0002b0 2c 13 a3 3d fc 95 92 3d 03 68 6e 3d ef 85 88 3d
       0.07962641 0.071575135 0.058204662 0.06666171
0002c0 ae 38 b7 3d d9 db f2 3b 4b 8b 96 3c d7 8a ab bd
       0.08946358 0.007411462 0.018376967 -0.08376091
0002d0 bf e0 94 bd b2 4b dc bd ed 97 42 3c a1 27 d2 bd
       -0.072694294 -0.10756625 0.011877042 -0.10261465
0002e0 e8 a5 1f 3c e4 a4 73 3b d0 9d de bd a6 d4 bf 3d
       0.009744145 0.003717714 -0.10869944 0.09366731
0002f0 e8 b6 5f bd 95 56 bc 3d 87 48 1d bd ac 4a 53 3d
       -0.054617792 0.09196202 -0.038399246 0.051584885
000300 7f 02 c0 bd 9f a9 71 3d b2 34 a8 3d ee 46 86 bc
       -0.09375476 0.058999654 0.08213176 -0.016391244
000310 6d 39 20 bd 28 11 79 bd 74 23 ca 3d 96 1a b1 bc
       -0.039117265 -0.060807377 0.098700434 -0.021619122
000320 f8 29 77 bc ff 9b 9e 3d 25 c0 41 bd 17 48 db 3c
       -0.01508569 0.07744598 -0.047302384 0.026767774
000330 de 17 17 bb a4 7c 10 bc 39 3a 98 3d 0f 33 a4 3d
       -0.0023054997 -0.008818779 0.0743298 0.08017551
000340 94 98 6f 3c 43 14 23 3e 25 a8 a0 bc bb c2 d0 bd
       0.01462378 0.15925698 -0.019611428 -0.10193392
000350 4f 31 ab bd 07 d1 6e 3c e2 78 1e 3d b9 ea 70 bb
       -0.08359014 0.014576203 0.0386895 -0.0036761
000360 62 55 21 3c 20 d8 e5 bd d1 8c 54 3d 55 de cc 3c
       0.009847017 -0.11222863 0.051892105 0.02500836
000370 00 9f 42 ba 1b f2 9b 3d 9b cc 74 bd 7e 02 d6 3d
       -0.00074242055 0.07614537 -0.05976544 0.10449694
000380 2f a0 cc 3d 58 32 63 3d 8d 4f bc 3d 45 be ca 3d
       0.0999149 0.055467933 0.091948606 0.09899572
000390 81 04 11 3d c5 29 61 bd 21 06 08 bc ab 83 93 bd
       0.035404686 -0.054971475 -0.0083022425 -0.07202848
0003a0 25 0f 14 bd 53 8c 23 3d e7 22 b3 bd fb f0 43 3c
       -0.036147255 0.039928745 -0.087468915 0.01195931
0003b0 ad c1 5d 3d ac 4d b5 3c b7 38 b0 3d 9a 73 b7 3d
       0.05413978 0.022131763 0.086045675 0.08957596
0003c0 fe 4c 99 bd bb a1 56 3d 7c f8 d3 bd 29 3b 06 3d
       -0.07485388 0.052400332 -0.10350129 0.032771263
0003d0 a3 37 cc 3c 5c 3b 85 3d 9b 55 c2 3d 1a 05 83 bd
       0.024928873 0.065054625 0.09488984 -0.063974574
0003e0 54 c5 a9 bd 21 9c 87 3d f2 bf 14 3d 3b 55 d1 bc
       -0.082895905 0.06621576 0.036315866 -0.025553336
0003f0 f6 a9 1f bd 9a c5 c7 3d 89 06 c7 3b b6 a1 d8 bd
       -0.038980447 0.097544864 0.006073777 -0.10577719

arith.constant11 f4 [512, 128]
000000 8c 96 e8 3d 65 78 37 bc a7 40 68 3d 42 ee 3b 3c
       0.113568395 -0.011198138 0.056702282 0.011470379
000010 e9 88 7a 3d a0 ba 71 bc 87 93 13 3c af 46 cc bd
       0.061165724 -0.0147539675 0.009007341 -0.09974419
000020 49 b4 f5 3b c4 e3 13 3d 35 54 d0 bd 15 e5 22 bc
       0.0074982983 0.036105886 -0.10172311 -0.009942313
000030 de b4 cf bc c7 c8 c9 3d 48 0f 04 bd 42 9e b1 3d
       -0.025354799 0.09852748 -0.032241136 0.086727634
000040 97 a5 96 bd 59 1e 7b 3b 0b 61 d3 3d e3 11 df 3c
       -0.073558025 0.003831765 0.10321244 0.027230209
000050 16 43 f4 ba 87 1f 04 be 5d dd 08 3e 2a 7d a5 3d
       -0.0018635716 -0.12902652 0.13365693 0.08080514
000060 53 6d ec 3c 2a c8 f7 bd 4c ac 57 3b 6c c2 8a bd
       0.028860724 -0.12098725 0.0032909093 -0.06775364
000070 2a b7 1d bc 64 6e a4 3c 82 51 1f 3d 26 67 96 3d
       -0.009626189 0.02007217 0.03889609 0.07343893
000080 32 ec 4f bd 4e 83 06 bd c9 61 51 3c d2 85 ca 3d
       -0.050762363 -0.032840066 0.012779661 0.098888054
000090 e2 57 cc 3c 58 4f 24 3d e7 18 0a 3c 5a 45 51 3d
       0.02494425 0.04011473 0.008428789 0.05109153
0000a0 de a8 d2 3c 1e 19 87 3b 41 f3 81 bd 8f 0a be bd
       0.025715288 0.0041228672 -0.06345225 -0.09279358
0000b0 c7 3b 42 bd 46 b7 ee 3d c8 32 8e bd 96 66 a6 3d
       -0.04742029 0.116560504 -0.069432795 0.081250355
0000c0 0c 4d fb 3c 34 2e b8 bd 13 d1 98 3c c9 3b 37 bc
       0.030676387 -0.089931875 0.018654382 -0.0111836875
0000d0 d1 a2 d1 3c 39 77 07 bd 63 70 2f bc e4 6e 3a bd
       0.025590332 -0.033072684 -0.010707947 -0.04551591
0000e0 b6 f2 6e 3d 3e 7c b2 bd c8 1a 88 3b c1 aa 35 bd
       0.058336936 -0.087151036 0.004153583 -0.044352297
0000f0 e7 84 88 bd f8 d6 30 bd 4a 9f 64 3d 0a ec 54 bd
       -0.06665974 -0.04317376 0.055815972 -0.051982917
000100 ac 2b e0 3d 90 5b 8c 3d 9b c4 6e bd 9b e4 82 bd
       0.1094583 0.06853402 -0.058292966 -0.06391259
000110 c9 39 66 3c a3 b4 36 bd a1 4c 7b 3d 50 45 3c 3c
       0.014051863 -0.044605862 0.061352376 0.011491135
000120 ba 9d 52 bd 7b 78 0a bd b9 0f aa bd eb 7d 26 3d
       -0.05141995 -0.033806305 -0.0830378 0.04064743
000130 9c 2b c3 3d d0 24 9f bc 49 c4 32 3d df ad 11 3e
       0.09529802 -0.019426733 0.043644223 0.14226483
000140 ba 74 aa bc fe c9 7f 3c eb 1c c5 3d eb 73 bd bc
       -0.020807613 0.0156121235 0.09624656 -0.023126563
000150 f7 3e c9 bd 78 3c e4 bd 31 85 e8 3c 52 fe 63 bd
       -0.09826463 -0.11144346 0.028383823 -0.05566246
000160 5e b7 d6 ba fc 8c d1 bc 8a c9 2a 3d f6 50 5b bd
       -0.0016381552 -0.025579922 0.04169611 -0.053544007
000170 ae c6 d8 bd 78 89 07 bd 8b c0 0a 3c 46 48 b7 bb
       -0.1058477 -0.033090085 0.008468757 -0.0055933325
000180 fa 38 02 3d d6 f7 c8 3c 05 fb ae bc 55 5d 5f 3d
       0.03179262 0.02453224 -0.02135993 0.054532368
000190 6d 6e 40 bd f6 fe 82 bb d1 1f 4b bd c2 76 06 3d
       -0.04698031 -0.003997679 -0.04959089 0.0328281
0001a0 73 e1 65 bb a5 16 3e 3c ad 5a 65 bd 7d 3c ac bd
       -0.0035077005 0.011602079 -0.05599468 -0.08409975
0001b0 ec 09 ce bb dd 78 e9 3c 63 8e a0 bd 0a 95 15 be
       -0.006287804 0.028500015 -0.07839658 -0.14607635
0001c0 8e 96 1d 3e 29 ce b2 bc 15 8c 6f 3d 84 da b5 3c
       0.15389463 -0.02182682 0.058483202 0.022198923
0001d0 27 d5 b6 bc f5 fe 99 3d 64 0c f3 3d 78 ff 36 bd
       -0.022318436 0.07519332 0.11867598 -0.044677228
0001e0 96 1f 20 3d 9e 38 2e bd 33 6a 36 bd 38 92 58 bd
       0.039092623 -0.042534463 -0.044534873 -0.05287382
0001f0 3a 0e 70 bd a8 a9 a7 bd 67 ca a6 3d af a8 0f 3c
       -0.058607318 -0.08186656 0.08144074 0.008768245
000200 df fb b4 bc 9d 23 62 bd 11 0a 40 3c b1 02 83 bd
       -0.022092758 -0.055209745 0.01172115 -0.06396998
000210 dd 91 5e 3c 02 12 8e 3c f6 6d 42 3d 84 84 5b bc
       0.013584581 0.017342571 0.04746815 -0.013398293
000220 95 58 a1 b9 eb 8e d4 bd aa f6 14 3d 4a 7e 31 bb
       -0.00030774312 -0.10378822 0.03636805 -0.002708333
000230 32 e6 9f 3d 7b a0 91 bd 85 df 10 bd 73 04 3e bd
       0.07807578 -0.07110687 -0.035369415 -0.04639096
000240 13 46 a2 bb 9b 0a 9d bb 28 06 c4 3b d7 8c 8e 3d
       -0.004952201 -0.004792524 0.005982179 0.06960457
000250 52 78 fb bd fd 3e fb bc da f5 49 3d ad d9 b1 3c
       -0.12278809 -0.030669684 0.049306728 0.021710241
000260 da 9a 97 bc 8c d7 6a 3d 39 83 c4 bc a8 f4 83 ba
       -0.018506456 0.057334468 -0.023988353 -0.001006742
000270 ea c7 e2 bc 9f 0b 98 3d ae 76 38 ba 02 a1 25 3d
       -0.027683217 0.074240915 -0.00070367276 0.040436752
000280 26 f5 1e bd 96 90 74 bb e5 03 9a bd 69 2c 02 bd
       -0.03880801 -0.0037317625 -0.07520274 -0.031780634
000290 52 96 fd 3c d6 b5 0e bd d5 b6 34 3d 90 39 4d bd
       0.030955467 -0.03484138 0.044119675 -0.050103724
0002a0 55 7b 0f bd 2f 21 01 bd ae 22 92 3d 30 4b 95 3d
       -0.035029728 -0.031525787 0.07135521 0.072897315
0002b0 cb bb bb 3d dc 82 0e be 45 64 bb 3b cf b2 e1 3a
       0.09166678 -0.13917106 0.00571874 0.0017219427
0002c0 ca dd a4 bd ef a8 6c 3b 91 f3 2f bd 37 c3 2e bc
       -0.080501154 0.0036111434 -0.042956892 -0.01066666
0002d0 75 07 20 bc ac 6c a9 3d 03 c4 6d bd 66 a1 09 bd
       -0.009767403 0.08272681 -0.05804826 -0.033601187
0002e0 1b 7b 1c be a0 9d 66 3d f4 42 7b 3d 3e af b1 bd
       -0.15281336 0.056302667 0.06134315 -0.08676003
0002f0 8b 9b bf 3c 87 d5 c7 3c 1b f8 8e bd fe 11 dd 3b
       0.023389598 0.02439381 -0.06980916 0.0067465296
000300 8b b9 8f bd 7e 89 e2 3d 35 6f 94 bc 61 24 5a bc
       -0.070178114 0.11061381 -0.018119434 -0.0133143375
000310 21 34 90 bd 8d 3e 27 3b ae 1c 94 3d c3 e6 27 3d
       -0.07041193 0.002551946 0.07232033 0.040991556
000320 3e 4e c7 3d 6a 6b aa 3d e8 24 90 3b da 98 eb bb
       0.097317204 0.08321269 0.004398931 -0.007189852
000330 f6 13 53 bd 32 cc 80 3c 86 cf d0 3a 31 1d 00 bd
       -0.051532708 0.015722368 0.0015930987 -0.03127784
000340 d6 c1 29 bd 05 ce 88 3a 8a 73 16 3d a4 a8 2b 3c
       -0.041444622 0.0010437375 0.03673128 0.010477219
000350 cd fc 30 bd cf fb 7b 3d 26 81 73 3d 8d 0f a8 bc
       -0.04320984 0.06151944 0.059449337 -0.020515228
000360 44 53 4a bd aa ee 39 3c 2d 2b a7 bd 78 05 63 3d
       -0.049395815 0.011348406 -0.08162532 0.055425137
000370 cc 31 03 3e 44 30 11 3e a8 f5 b6 bc 39 e5 e6 bb
       0.12811965 0.14178568 -0.022333935 -0.0070463684
000380 a4 16 ad bd 75 6d 8e bd ae 4d 5e 3d ff 45 45 3c
       -0.08451584 -0.06954471 0.0542733 0.012040614
000390 d3 94 af 3d 03 d6 88 bc 8a 90 b7 3b 8d bb 88 3d
       0.08573308 -0.016703611 0.005601947 0.066763975
0003a0 26 49 f3 3c ea 6b 1b bd 65 53 6b 3d b5 08 8d 3d
       0.029697966 -0.03794471 0.057452578 0.06886426
0003b0 ed e5 a8 bc 64 7e 19 3d e5 ae 41 bd b4 7d 35 3d
       -0.02061745 0.03747405 -0.047285933 0.044309333
0003c0 34 86 00 3d 15 25 7a bd 1b f4 b9 bd bc ed 3f 3c
       0.031377986 -0.06107052 -0.090797625 0.011714395
0003d0 e3 9d 77 bd 7b 51 2b 3d 39 48 bb bc 61 f3 53 3d
       -0.060453307 0.041825753 -0.022861587 0.051745776
0003e0 0d cc 60 bd a7 ca 53 bd 3f f4 60 3d 18 bc 64 3a
       -0.054882098 -0.051706936 0.05492043 0.0008725538
0003f0 18 ff 74 bd 15 ec 8c bd fa ff 0f bd 94 66 fd 3b
       -0.05981359 -0.068809666 -0.035156228 0.0077331755

arith.constant12 f4 [512]
000000 85 31 8c 39 4b 27 1d 3d 32 4a 81 35 da 3f 40 bb
       0.00026739776 0.03836755 9.632843e-07 -0.0029334933
000010 34 c7 72 b6 ee fc 09 3c ac 2c 82 3b 1f e3 29 bc
       -3.6176762e-06 0.00842212 0.0039726105 -0.010369091
000020 2e 0b bb 3b ad 58 0a 3c 4a 84 bf bc 7b ec 17 bc
       0.00570812 0.0084439935 -0.02337851 -0.00927269
000030 0e 38 a3 3c dc ce 49 3c 19 46 a1 bb 80 b5 6d b6
       0.01992419 0.0123173855 -0.0049216864 -3.54214e-06
000040 81 0f 74 3d 9c 06 09 bc 79 de 99 ba ed fc 29 3c
       0.0595851 -0.008363392 -0.0011739276 0.010375244
000050 cf 94 38 3b 38 de 71 39 52 5c 02 3d b2 02 63 3c
       0.0028164869 0.00023066334 0.031826325 0.013855623
000060 e6 76 2a 3b b4 36 1e bb 43 dd 53 3c 61 ec 18 3c
       0.002601081 -0.0024141492 0.012931171 0.009333701
000070 f8 ff d8 bc 22 24 dc ba b7 fd a8 bb 5f 7b de bb
       -0.026489243 -0.0016795436 -0.0051571983 -0.0067896093
000080 4e 4e 07 bc db d5 ce 3c b4 ac cc 3a eb 39 02 3b
       -0.008258415 0.025248459 0.0015615434 0.0019870948
000090 54 03 7a b7 e3 e8 53 bd cd 07 89 bc ff 56 8d bb
       -1.4901936e-05 -0.05173577 -0.016727353 -0.0043133493
0000a0 b5 d9 4e 3c 0b a5 df bb 1c 0f f3 3a e9 cd a7 3a
       0.012625148 -0.0068250946 0.0018543932 0.0012802455
0000b0 32 87 f7 3c 25 55 35 bc 49 1f 84 bc 22 3c 35 3d
       0.030215833 -0.011067663 -0.0161282 0.0442468
0000c0 4f ad 25 3c 96 88 78 3d b1 d2 25 39 fa c9 17 3c
       0.010112121 0.060677134 0.00015814115 0.009264464
0000d0 aa 0b a4 ba 69 0b 24 b9 c7 d4 20 bc db 0f 5d 3c
       -0.0012515683 -0.0001564451 -0.009816355 0.01349255
0000e0 f4 63 bf bc 3e 51 89 3c 03 1a 03 bd 97 45 9a bc
       -0.023363091 0.016762372 -0.03200723 -0.018832011
0000f0 35 e8 87 3c a1 ce a5 3b b2 71 0b bd e1 85 7a 3c
       0.016590217 0.0050600325 -0.034043975 0.015290708
000100 b6 e9 42 3c 8a 05 8b bc 91 0f 0f 3d 84 7e 99 bc
       0.011896541 -0.016970415 0.034926955 -0.018737085
000110 65 28 19 3d e3 61 37 bd 7c 6b 1c 3a 0b 19 db 3c
       0.03739204 -0.044771086 0.0005966944 0.02674534
000120 a0 5a 74 bc 49 43 9f 3b 5b 08 8b bb f0 4d 9e ba
       -0.014914185 0.004860316 -0.0042429394 -0.001207767
000130 7c 5c 61 3c bd 6d 59 3c 6c be 17 3c 35 fb 81 bc
       0.01375496 0.013270793 0.009261709 -0.015866855
000140 92 30 e5 ba 45 e3 96 bb e3 d5 39 3c 4a 94 e8 3a
       -0.0017485789 -0.0046047294 0.0113424985 0.0017744389
000150 41 96 97 3c da b1 a9 bb ce 5d 7f 3c 6e e3 40 bd
       0.018504264 -0.0051786723 0.01558633 -0.047091894
000160 b9 13 52 3c 53 16 d4 bc 58 10 e4 38 93 55 d0 3c
       0.012822085 -0.025889551 0.000108749315 0.02543143
000170 fe 5b 02 3d 6b 9b a1 3b 1d 78 28 bc 51 77 c7 3c
       0.03182601 0.0049318573 -0.0102825435 0.024348887
000180 03 02 4c bc cf 9d 25 3c 59 c2 ad 3c 95 fd 47 3b
       -0.0124516515 0.010108425 0.021210836 0.0030516137
000190 86 b6 c1 b8 7d ab 6c bb f1 ee f3 bc 8a 33 8b bc
       -9.236955e-05 -0.0036112957 -0.029777022 -0.01699235
0001a0 fd 57 28 3d 60 14 97 ba be 17 73 bb 3c e8 5e 3c
       0.041099537 -0.0011526458 -0.003709301 0.013605174
0001b0 0e 3a b4 3c 1e 5b 37 3c 14 09 04 3c ed 29 61 3b
       0.022000339 0.011191158 0.008058805 0.0034357265
0001c0 13 42 49 3c dc 09 85 b7 49 f1 bf 3b d7 04 aa bc
       0.01228382 -1.5859427e-05 0.005857621 -0.020754261
0001d0 0a bc 81 3a 38 ce 18 3d b8 c2 eb 3b f8 78 c7 3b
       0.0009897959 0.03730604 0.007194843 0.0060874186
0001e0 e7 1b 39 3b ac 07 e1 bb a5 46 07 bd 03 3e 12 3b
       0.002824539 -0.0068673696 -0.033026356 0.0022314794
0001f0 10 25 95 bc ec 0d 89 37 69 c7 45 3c 1f 19 2f b6
       -0.01820615 1.6338156e-05 0.012071469 -2.6091654e-06
000200 c4 a5 81 3f 11 26 81 3f 00 00 80 3f 3a 62 80 3f
       1.0128713 1.0089742 1.0 1.0029976
000210 0a 00 80 3f 48 39 7a 3f 3f 3e 7f 3f 92 b1 7f 3f
       1.0000012 0.97743654 0.99704355 0.99880326
000220 1a bd 82 3f c6 fe 7d 3f 08 fd 80 3f f6 c0 7c 3f
       1.0213959 0.9921688 1.0077219 0.98731935
000230 17 81 7f 3f 2d 14 80 3f 20 58 7b 3f 4e 4b 7e 3f
       0.9980635 1.0006157 0.98181343 0.99333656
000240 4c 72 80 3f e8 a1 7f 3f 59 fa 7f 3f b1 ea 80 3f
       1.0034881 0.99856424 0.99991375 1.0071622
000250 c7 90 85 3f 52 ae 80 3f d9 6d 86 3f c4 53 82 3f
       1.0434808 1.0053198 1.0502273 1.0181813
000260 50 e2 7b 3f 7a 41 84 3f 6a 34 7e 3f cb eb 82 3f
       0.983922 1.0332482 0.9929873 1.0228208
000270 67 e9 81 3f 82 f1 7f 3f 6b be 85 3f 3b 1c 7e 3f
       1.0149354 0.99977887 1.0448736 0.99261826
000280 1c b9 83 3f 7b b7 86 3f 0a 7d 80 3f f2 1f 82 3f
       1.0290866 1.0524744 1.0038159 1.0165999
000290 8d b0 80 3f d5 47 7a 3f 12 b1 7f 3f f8 ff 7f 3f
       1.0053879 0.97765857 0.9987956 0.9999995
0002a0 5d 45 83 3f a5 96 7f 3f ab b6 82 3f 5e 80 82 3f
       1.0255543 0.9983924 1.0211996 1.0195425
0002b0 a9 09 82 3f 2b 21 80 3f cd 7a 7e 3f 2f 55 84 3f
       1.0159198 1.0010122 0.9940613 1.0338496
0002c0 f5 05 80 3f fe 9a 84 3f bc 64 80 3f 53 e5 7d 3f
       1.0001818 1.03598 1.0030742 0.99178046
0002d0 08 30 80 3f 4f 00 80 3f 14 53 81 3f e3 99 7f 3f
       1.0014658 1.0000094 1.0103478 0.9984419
0002e0 46 6d 7c 3f 33 3b 7d 3f a2 af 79 3f 5a 07 7c 3f
       0.9860424 0.98918456 0.9753362 0.9844872
0002f0 ae 74 79 3f 61 28 78 3f 20 34 7c 3f d3 81 7d 3f
       0.97443664 0.96936613 0.98517036 0.9902622
000300 2f 61 82 3f 11 aa 81 3f f2 14 80 3f 03 48 7d 3f
       1.0185908 1.0130025 1.0006392 0.98938006
000310 da 11 7e 3f 2e a3 7c 3f 33 04 80 3f c0 5a 80 3f
       0.9924599 0.9868649 1.0001281 1.0027695
000320 45 3d 81 3f 7a e1 81 3f d7 ac 81 3f 2c d4 7f 3f
       1.0096823 1.0146935 1.0130872 0.99933124
000330 1c d2 83 3f a2 6d 7c 3f 10 a9 7a 3f 6a 1b 77 3f
       1.0298495 0.98604786 0.9791422 0.96526206
000340 bf 6a 7f 3f 49 7f 7d 3f 09 d3 81 3f 42 4d 80 3f
       0.99772257 0.99022347 1.0142528 1.0023577
000350 04 33 81 3f 76 08 7f 3f 78 7c 81 3f c9 b6 7f 3f
       1.0093694 0.99622285 1.011611 0.99888283
000360 45 31 7e 3f 4b 88 7a 3f 1a 45 83 3f 9b 06 7f 3f
       0.9929393 0.97864217 1.0255463 0.99619454
000370 05 48 7d 3f ae 16 80 3f e7 5a 81 3f d5 95 7e 3f
       0.9893802 1.0006921 1.0105866 0.99447376
000380 90 b0 7f 3f 99 b9 80 3f b1 7b 7b 3f c6 39 7c 3f
       0.9987879 1.005664 0.98235613 0.98525655
000390 38 81 80 3f 68 ef 7f 3f 79 ad 79 3f b9 1b 7d 3f
       1.0039434 0.9997468 0.97530323 0.98870426
0003a0 e4 6e 81 3f 04 92 7b 3f 3d a3 7f 3f 26 3d 83 3f
       1.0111966 0.9826968 0.99858457 1.0253036
0003b0 5c 03 80 3f c4 4e 7c 3f f6 f5 7e 3f dc 34 83 3f
       1.0001025 0.98557687 0.99594057 1.0250506
0003c0 75 44 81 3f 88 be 80 3f a1 ab 7e 3f eb e7 7f 3f
       1.0099016 1.0058146 0.99480635 0.99963254
0003d0 34 be 7f 3f 67 f4 7d 3f 26 27 80 3f 1a 86 83 3f
       0.998996 0.99201053 1.0011947 1.02753
0003e0 fe 05 75 3f 43 50 7a 3f cc 93 75 3f 5b d4 81 3f
       0.9571227 0.9777872 0.95928645 1.0142931
0003f0 a3 f9 7e 3f 31 9e 83 3f 0b 90 81 3f 6e f1 7f 3f
       0.99599665 1.0282651 1.0122083 0.9997777
