app/src/main/assets/model.tflite (tflite, 592512 bytes, 16 tensors)

arith.constant6 f4 [50, 128]
000000 0e a3 25 3e 7c 55 05 3e 69 75 00 3e cd 34 e2 bd
       0.16175482 0.13020891 0.12544788 -0.11045227
000010 e4 93 15 3d 11 36 49 be 58 f9 21 3e 54 c0 36 3e
       0.036517993 -0.19649531 0.15817773 0.17846805
000020 b5 58 e3 bd ad a5 d8 3d 56 c2 25 3e e7 40 76 bd
       -0.11100904 0.10578475 0.16187415 -0.06012049
000030 c9 4f 0a bd 7c 2a 80 be 9a 9d a7 be 00 eb 88 bd
       -0.033767495 -0.25032413 -0.32737428 -0.06685448
000040 86 25 24 be 56 ff 49 3e 76 79 d9 bd 89 f5 c0 be
       -0.16029939 0.19726309 -0.1061887 -0.37687328
000050 3d 60 9d be 53 a4 86 be 62 50 4e be ac 24 06 3e
       -0.30737486 -0.26297244 -0.20147851 0.13099927
000060 e8 76 fc bd ed 6b a0 be 37 81 b2 3d 3e e0 62 3d
       -0.12327367 -0.3133234 0.08716052 0.055389635
000070 6a 77 50 3e 31 d1 e5 be 26 72 b8 3d 2f 2e 80 be
       0.20358053 -0.44886163 0.09006147 -0.25035235
000080 b0 bf 60 3e b3 38 5e be c5 38 e5 3c a3 bc 2c be
       0.21948123 -0.21701317 0.027981171 -0.16868834
000090 02 26 a3 be 2f 45 60 be 61 00 59 be 4a a4 3c 3c
       -0.31864935 -0.21901391 -0.21191551 0.011513779
0000a0 d1 5d 9f be 35 d8 a8 be 85 3e 80 3e 01 33 16 bc
       -0.31126264 -0.32977453 0.250477 -0.009167434
0000b0 e1 aa 57 3e 4b f6 1a be 75 fd 46 be af b3 08 3e
       0.21061279 -0.15133016 -0.19432624 0.13349794
0000c0 d9 d4 aa bd f2 e7 50 be d8 d9 82 3e fa 23 7c bd
       -0.08341379 -0.2040098 0.25556827 -0.061557747
0000d0 ef 9d b6 be 55 c8 fc bc eb 99 5b bd 8b d3 29 3e
       -0.3566737 -0.030857245 -0.053613584 0.16584603
0000e0 b3 ac b7 bd c9 05 1c be 27 20 a7 be 2e 6b 4d bc
       -0.08968487 -0.15236582 -0.32641718 -0.012537761
0000f0 97 57 fb 3d 38 f7 be bc 54 05 8e 3d 0f 3a 22 3d
       0.12272566 -0.023311242 0.0693461 0.03960615
000100 6b 78 6a be 9d 15 8a be b9 db 87 bc ef 08 30 be
       -0.22897498 -0.26969615 -0.016584264 -0.17190908
000110 bb d2 a5 bd 19 03 9a be 6a 01 9d be ce 32 e5 bd
       -0.08096834 -0.30080488 -0.3066514 -0.11191331
000120 2e a7 f8 bc 32 74 0d 3e a8 72 fa 3b b5 71 92 be
       -0.030353155 0.13813856 0.0076430626 -0.28602377
000130 78 99 0f be f7 a0 80 bd bf 88 86 be 24 5c b6 be
       -0.14023387 -0.062807016 -0.26276204 -0.35617173
000140 cb 5e 8d be ed 75 3b 3d 0b c1 39 be 36 cb 6f bd
       -0.27611384 0.04576676 -0.18140046 -0.058543406
000150 74 9d 88 bd 2e 92 c9 bd a7 51 47 3e a7 7b 15 be
       -0.06670657 -0.09842335 0.19464742 -0.14597951
000160 5d 03 6a 3c c2 3e 66 3e a1 70 24 3e a5 30 57 be
       0.014283028 0.22484878 0.1605859 -0.2101465
000170 4b 20 9f be 63 e6 3c 3d 24 be d5 3d f6 13 c3 bd
       -0.31079325 0.04611815 0.10436657 -0.095252916
000180 11 90 b4 3d a7 1d e9 bc 8e f8 15 be 60 2c 1c 3e
       0.08816541 -0.028456522 -0.14645597 0.15251303
000190 7a c8 7f 3e ef 35 cb be 81 bd 1a be 49 61 84 bd
       0.2497882 -0.39689586 -0.15111353 -0.06463868
0001a0 47 51 63 3d b2 e1 c3 be 37 45 31 be 65 14 66 bc
       0.055497434 -0.3825813 -0.1731156 -0.014042948
0001b0 69 18 ca be fd 72 bb be 8a a2 a0 be 05 0d 98 3e
       -0.39471748 -0.36611167 -0.31374007 0.29697433
0001c0 9b a3 b4 3d 4f 23 2c 3d 54 1c 63 be f9 f6 0f 3d
       0.08820268 0.04202586 -0.22178775 0.03514764
0001d0 b2 3c 2b be ec 98 93 be 79 8b 4d 3e aa 86 46 3d
       -0.16722372 -0.28827608 0.20072736 0.04846827
0001e0 7f 22 b2 bd 6c b4 99 3d 26 82 6f 3d 7b 90 8d bd
       -0.08697986 0.07505116 0.05847373 -0.06912323
0001f0 0a 50 a9 be 14 d9 67 be 92 e2 83 3b 79 81 38 be
       -0.33068877 -0.22641402 0.004024812 -0.1801814
000200 c9 55 08 bd a8 0b ac 3d e9 ae 11 be 35 99 17 be
       -0.033284936 0.08400661 -0.14226879 -0.14804538
000210 ad 0b 42 be 11 30 08 bd ef 75 85 bd 8f c2 e8 bd
       -0.18949766 -0.033248965 -0.06516635 -0.11365234
000220 99 fd 9d 3d 39 ee 16 3c 29 d5 83 be c7 03 99 bd
       0.077143855 0.00921207 -0.25748566 -0.074714236
000230 1c 7c 16 be dc 94 a0 3d b0 58 20 be 7d 6d 59 bc
       -0.14695781 0.07840893 -0.15658832 -0.013270733
000240 ff 1a c6 bd d8 7b bd bd 6d bf 1a bd 94 ca f3 3d
       -0.09673118 -0.09252137 -0.037780214 0.11903873
000250 49 2c d2 3d d9 33 8d be d4 95 35 be d1 cd d3 3d
       0.10262353 -0.2757862 -0.17732936 0.10341991
000260 de 18 20 be 76 50 6c be e2 f4 0d be 84 8e 16 3e
       -0.15634486 -0.23077568 -0.13862947 0.14702803
000270 65 0b 45 3c a9 f3 ea bd 01 be 0c be 9e e9 00 be
       0.012026642 -0.11472256 -0.13744356 -0.12589118
000280 59 b5 82 be 79 b2 55 be d3 92 88 be c2 03 9a bd
       -0.25528982 -0.20868863 -0.26674518 -0.07520248
000290 42 91 6f be f6 06 72 be 6a 00 50 3e 61 31 04 3e
       -0.23395255 -0.23635468 0.20312658 0.12909462
0002a0 15 42 98 3d ec a9 7b be 9c 1e a0 bd 76 97 1e be
       0.07434479 -0.24576539 -0.07818338 -0.15487465
0002b0 fb db 97 be 72 0e 21 3e f1 b8 8b be 35 56 95 bd
       -0.2966002 0.15728167 -0.27289537 -0.07291833
0002c0 a5 7d 8c 3d 85 3a fa 3d c4 03 f4 3d 66 1d 93 bd
       0.06859902 0.12218193 0.11914781 -0.07183342
0002d0 dc cf 3d 3e 52 87 6e be fb 49 d8 3d ba a4 1d 3e
       0.18536323 -0.23293808 0.10560986 0.1539487
0002e0 d8 53 18 bd 84 7e c0 3d 80 02 ef bd 5b f8 02 3d
       -0.037189335 0.09399131 -0.11670399 0.03197513
0002f0 ae 8d c6 3c 27 07 b1 3d 4f 79 dc bc d7 bd bf be
       0.02423748 0.08643942 -0.026913313 -0.37449524
000300 81 d3 0b 3e 08 52 ba bd f3 1b 8f 3d 05 e8 85 be
       0.13654901 -0.090976775 0.06987753 -0.2615358
000310 61 01 e0 bd c3 a4 6f be 5c 77 14 3d 77 41 c8 be
       -0.10937763 -0.23402695 0.036246642 -0.39112446
000320 bf 8d 7c 3d bc 8d 15 be 9f c6 89 be 85 20 ee bd
       0.061658617 -0.14604849 -0.26909348 -0.11627296
000330 3f b7 d7 3d c3 a2 1d 3c 82 9b 00 3e f5 f9 50 3d
       0.10532998 0.009621325 0.12559322 0.051019628
000340 3c e9 1b 3e 5b 06 94 be ee a5 47 3d 24 e2 2a bd
       0.1522569 -0.289111 0.048742227 -0.04171957
000350 0a b3 6d be 46 ec 28 3e e2 84 da bd b5 39 21 3d
       -0.23212829 0.16496381 -0.10669877 0.039361674
000360 8b 3e 71 3d 7c 9b 2c be 28 97 c8 3c 18 4f 85 bb
       0.058897536 -0.16856188 0.02448614 -0.0040682666
000370 f9 db 19 be 30 61 23 bc 47 7f 22 bd 80 bb 98 3d
       -0.15025319 -0.009971902 -0.039672162 0.07457638
000380 ac 19 ab 3c c8 2f 21 be 5a cb 6a be 31 c7 74 bc
       0.020886265 -0.15740883 -0.22929135 -0.014940069
000390 77 41 7f 3c 1d 4a 88 bd 11 f8 12 3e 70 0b 79 3e
       0.015579573 -0.06654761 0.14352442 0.2432077
0003a0 bc 89 e3 bd 71 99 4d be 6b 55 66 3d 78 89 12 3e
       -0.11110255 -0.20078065 0.056233805 0.14310253
0003b0 83 cc 86 3d af 48 1b 3e ad 31 ac ba d4 c7 46 3d
       0.06581976 0.15164445 -0.0013137363 0.048530415
0003c0 57 23 da bd 6d 97 72 be a4 65 ac 3d 64 ae ad be
       -0.10651272 -0.23690577 0.08417824 -0.33922112
0003d0 8d 4b e7 3d 6d c7 52 bd 40 ee 40 bd 42 44 40 bc
       0.11293707 -0.05145972 -0.047102213 -0.011735024
0003e0 86 6d 8f 3c 57 54 61 bd 44 c6 60 be 01 67 28 be
       0.01750828 -0.055012073 -0.21950632 -0.16445543
0003f0 aa 2a 21 3e 80 0b d7 bc 17 03 80 bc 16 71 f6 3d
       0.15738931 -0.0262506 -0.015626473 0.12033288

arith.constant7 f4 [128, 64]
000000 e0 51 1c 3e 8b cb 07 3e 9c 3f a8 3e 84 81 78 bd
       0.15265608 0.13261239 0.3286103 -0.06067039
000010 32 49 72 be 66 35 02 be ed 81 25 bd c0 ee ed bd
       -0.23660734 -0.12715682 -0.04040711 -0.116178036
000020 d3 30 9d bd ab eb 9c 3d 41 13 79 be bb 8a 68 be
       -0.07675328 0.076621376 -0.24323751 -0.22709171
000030 85 f6 c3 bd a6 c7 57 3d 39 d7 1b 3d 50 62 3b be
       -0.09568504 0.052680634 0.03804705 -0.18299222
000040 8e 72 08 be 84 23 1f bd e3 df 65 3d 6d 63 df be
       -0.13324949 -0.03885223 0.05612172 -0.43630543
000050 c8 3d 19 3e 6e 08 b7 bd ea a6 4a bd 37 98 04 be
       0.14964974 -0.08937155 -0.049475588 -0.1294869
000060 ee c7 88 bd 02 af 12 3e 13 09 b4 bc e9 c9 e2 3d
       -0.066787586 0.14324573 -0.021976983 0.110736676
000070 df e5 0c be ef ef ad 3d 27 8b 6b be 2b 9e 4c 3d
       -0.13759564 0.08493029 -0.23002301 0.04995553
000080 be 20 a1 bd e0 32 14 3e b4 3d 2c be 8c 25 d9 3d
       -0.07867573 0.14472532 -0.16820413 0.106028646
000090 01 a3 f1 3d 95 08 e0 3d e9 1c 95 be 91 41 2c bd
       0.11798669 0.10939137 -0.2912362 -0.042054716
0000a0 3d d5 d4 3d fe 93 6a 3e 18 af 90 bd 72 e1 e4 3c
       0.103922345 0.22908017 -0.070646465 0.027939532
0000b0 63 0b 68 bc 6c f0 85 3e 8d a8 32 be 7c 08 0a 3d
       -0.014162871 0.2615999 -0.1744711 0.033699498
0000c0 53 5d 4a be 2c 30 00 be 4c 2b 9e 3d b7 5a cf 3d
       -0.19762163 -0.12518376 0.07723102 0.10124724
0000d0 57 a2 21 be dd b2 aa bd 0c 96 27 3d 40 88 ff 3c
       -0.15784584 -0.08334897 0.04091458 0.031192899
0000e0 63 47 91 3e 29 35 74 3e 00 ab ee bb d9 af 84 3e
       0.28374776 0.23848404 -0.0072835684 0.2591541
0000f0 ce c6 55 bd 5f 8b e4 bd 2f b0 2d be e8 c7 19 3d
       -0.052191548 -0.111593954 -0.1696174 0.03754416
000100 b9 0e 1f 3e 0f 44 03 3e b2 cc 36 3e b9 e3 0c bd
       0.1553296 0.12818931 0.17851523 -0.03439686
000110 87 0a e4 be 9b 82 75 3d ea d3 60 be b9 93 9d be
       -0.44539282 0.05993901 -0.21955839 -0.30776766
000120 a4 0e f7 bd 4b e0 86 3e 3c ff 73 bc 5d ee 14 bd
       -0.12063339 0.26342997 -0.014892396 -0.036360133
000130 1b 54 27 be c1 81 bc bd 2e ed c9 3d 50 3a 9a 3b
       -0.16340677 -0.09204436 0.098596916 0.0047066584
000140 e4 2d d4 bd fc ab 67 3d ac 7e 87 be ca 95 b9 3d
       -0.103603154 0.0565605 -0.2646383 0.09061773
000150 b0 fa 98 bc 5e d7 23 be 98 13 7f 3e 15 d6 af bd
       -0.018674225 -0.16000125 0.24909818 -0.08585755
000160 70 fe 12 3e 8d 05 bd bd 54 1f 04 be b3 08 11 3e
       0.14354873 -0.09229574 -0.12902576 0.14163475
000170 ca 3a 5c 3e db e0 e7 be 06 a0 21 be 4a 4a d7 bd
       0.21506801 -0.4528874 -0.157837 -0.105122164
000180 fd 61 b0 3c de 8d 0b 3e 05 c4 3c be bc 93 9d 3c
       0.0215311 0.13628337 -0.1843415 0.019235484
000190 d5 8f 9b 3c ab 80 86 bc e8 97 b9 3d db 76 64 bd
       0.018989483 -0.016418776 0.09062177 -0.055777412
0001a0 e4 0b 34 3e 4d f2 c3 bd a1 42 88 be a7 d2 61 3d
       0.17582661 -0.095676996 -0.26613334 0.055132534
0001b0 db 48 b8 bd 17 ac 0a 3e e5 0a c4 3d 3f 34 67 3e
       -0.08998271 0.1354221 0.095723905 0.22578524
0001c0 3e f1 08 3d 49 0a 11 be f1 01 ca 3d b4 8b 83 3e
       0.03343319 -0.1416408 0.098636515 0.25692523
0001d0 28 73 50 bb 0b fd aa 3d a5 4d 75 3e fa 9d 25 bd
       -0.003180692 0.08349045 0.239554 -0.04043386
0001e0 bd 3a 32 3e 61 39 53 3e 6b 73 7e 3d 3c 5a 57 3e
       0.1740522 0.20627357 0.06212179 0.21030515
0001f0 dc 84 a2 3c 60 4d b4 bd 36 ca 58 bd 6a a4 a3 bd
       0.019838743 -0.088038206 -0.05292722 -0.07990344
000200 ac 61 c5 3e d0 1c e6 3d d8 75 44 bd c3 ec 9f 3a
       0.3855108 0.11235964 -0.047963947 0.0012201298
000210 14 28 a7 bd 6d 7b da 3d 19 67 83 3d 60 24 47 3e
       -0.08161941 0.10668073 0.06416149 0.1944747
000220 30 c1 a1 be 0c 86 38 3d e4 11 8c 3e b1 0e 23 3e
       -0.31592703 0.045049712 0.273574 0.15923573
000230 8d 08 af bd 66 c1 5e 3e ec 03 12 3e f4 ba 9c 3d
       -0.08546553 0.21753463 0.14259309 0.07652846
000240 e4 f2 9b be 91 dd 82 bd f8 f1 63 bd aa 80 a3 be
       -0.30458748 -0.06389917 -0.05565068 -0.319341
000250 df 42 a9 be b7 d2 b3 3d 71 70 03 be f5 7e 53 be
       -0.3305883 0.08780425 -0.12835862 -0.20653899
000260 83 eb 01 3e 2d cd 92 3d e0 f9 9f bd 2b a2 85 bd
       0.12687497 0.071680404 -0.07811332 -0.06525072
000270 9a 51 64 bc dc 79 44 be 42 44 23 be 77 8f 83 3d
       -0.013935471 -0.1918711 -0.15944007 0.06423848
000280 97 35 89 3d 16 37 a6 be e6 f1 9e bd ea f9 44 3e
       0.066996746 -0.32463902 -0.07760982 0.1923596
000290 6e 35 61 be 43 e6 15 be f2 00 e0 bd bf 85 02 3e
       -0.21993038 -0.14638619 -0.1093768 0.12746333
0002a0 9b fc 66 3e 9f 0a 95 bd 52 ff 8b be 18 b3 dd bc
       0.22557299 -0.072774164 -0.2734323 -0.027062938
0002b0 19 9c a6 3d b7 cd 58 bd 7b 82 3d 3e 2d 95 9c bd
       0.08135242 -0.05293056 0.18506806 -0.076456405
0002c0 e4 86 04 bd db 76 40 be 65 35 92 be 75 92 82 bd
       -0.032355204 -0.1879534 -0.28556362 -0.06375591
0002d0 5e 5c df 3e a5 ce 01 3d 3b 32 86 3d ef d5 19 3e
       0.43625158 0.031691212 0.065525495 0.15023015
0002e0 89 e1 a0 bd 16 db 2f 3d d2 bf 18 3d b5 0a e4 3d
       -0.078555174 0.042933546 0.03729231 0.11134855
0002f0 83 ca 85 be d6 7c 89 be 75 c2 61 bd 66 72 d5 3c
       -0.26131067 -0.26853055 -0.05511709 0.026055526
000300 47 0c 53 bc e0 f7 92 3d 0b c2 15 3e ea 81 05 be
       -0.012881345 0.07176185 0.14624803 -0.1303784
000310 7e f9 39 3d 7a a6 93 3d 79 80 b9 3d 9a 79 ce 3c
       0.04540395 0.07209487 0.09057707 0.025204469
000320 56 e3 10 be 32 b4 74 3d 38 88 c9 bd ed 88 62 3e
       -0.14149222 0.05974216 -0.09840435 0.22122546
000330 2e 07 6b bd 13 c8 60 bd d6 95 80 3d 05 45 05 3e
       -0.057379894 -0.054878306 0.06278579 0.1301461
000340 7c a7 41 be b3 75 47 3c b5 fb 2d be 34 bc 02 3e
       -0.18911546 0.012174058 -0.1699055 0.12767106
000350 63 86 91 3e ba 37 51 3b 79 2b 69 3d 03 d7 2f bd
       0.2842284 0.0031924085 0.056926224 -0.04292966
000360 97 a9 10 3e 83 d6 0e bb 6a b7 8a bb 2b ca 4d be
       0.14127193 -0.002179534 -0.0042332904 -0.20096652
000370 ff fc 20 3d 7d 44 e6 bb 6c 04 b2 3d 4b 4b 46 3e
       0.039303776 -0.0070272074 0.0869225 0.1936466
000380 ea f0 4b 3b 12 d3 39 3b 2f 06 c4 be e3 ab 2a be
       0.0031118938 0.0028354567 -0.38285968 -0.16667132
000390 48 2a 17 3e 2b 01 87 3e a5 fc 8e 3e fe 1b 5d be
       0.14762223 0.2636808 0.27927127 -0.2159271
0003a0 b6 41 57 bc d4 17 13 3e 9a ca a8 3c 9e 22 52 3e
       -0.013138225 0.14364558 0.02060442 0.20521018
0003b0 bc 43 86 3d 75 c0 17 3e ef a4 81 3d 77 13 3f be
       0.06555888 0.1481951 0.06330287 -0.18659769
0003c0 d1 a1 a6 3d 36 29 4d 3e 16 c3 7c bd b9 d7 da bd
       0.08136333 0.20035252 -0.061709486 -0.10685677
0003d0 11 94 41 3e f8 db ef 3d f6 6d 92 be 75 61 75 3d
       0.18904139 0.117118776 -0.2859952 0.059907395
0003e0 ee e0 7e bd d1 3b 38 be 62 89 08 3e 58 74 40 3e
       -0.06222623 -0.17991568 0.13333657 0.18794382
0003f0 9f 6d 75 be 45 90 32 3d c8 2c 7b be ae 13 23 be
       -0.23967598 0.043594617 -0.24528801 -0.15925476

arith.constant8 f4 [256, 128]
000000 2e 60 b4 bd 1f 79 b8 bd 36 61 47 bb 44 9f bb bd
       -0.08807407 -0.09007477 -0.0030422932 -0.09161237
000010 c0 23 b3 3d 07 b7 21 bd a7 8d fb 3d a9 8c 0d bd
       0.08747053 -0.03948119 0.122828774 -0.034557972
000020 dd c5 0a be 53 bc c7 3d 2f 53 00 3e ff cb d8 bd
       -0.13552041 0.09752717 0.12531732 -0.10585784
000030 db 07 d1 3c bf be f7 bd 77 dd 03 be 46 33 44 3d
       0.025516441 -0.12096929 -0.12877451 0.04790046
000040 61 95 2c 3c 89 04 0b 3c 78 08 d5 3b a3 a3 4d bd
       0.010533662 0.008484968 0.0065012537 -0.050204884
000050 9a 96 cb bd 25 01 60 3d 4d 34 02 3e 6a 74 a0 3d
       -0.09940834 0.05468859 0.12715264 0.07834704
000060 15 60 b0 3d 43 75 82 bc 78 b5 08 be 66 bd 69 3d
       0.08612076 -0.015925055 -0.13350475 0.05706539
000070 bb 73 dc 3c 25 21 e5 3d bd 2f 3d bd 42 b6 99 3d
       0.026910653 0.111879624 -0.046188105 0.07505466
000080 d6 b7 38 3d dd d1 14 3e a9 ff f0 3c 6c 74 ed 3d
       0.045097195 0.14533181 0.029418783 0.11594471
000090 65 dc 8c 3e 5e 55 7a bd 85 c2 f3 bc 89 d0 47 3c
       0.27511898 -0.06111657 -0.02975584 0.012195715
0000a0 ce 4d a2 3d 5b 3b da 3d 99 f0 2d 3d 7a e8 b8 bc
       0.07924996 0.106558524 0.04246578 -0.022571791
0000b0 e8 41 32 3e 7d 2d b6 bd be a6 a0 3d cf 72 4c be
       0.17407954 -0.08895395 0.078443035 -0.19965671
0000c0 d0 c2 b2 ba 33 e4 64 bd c8 ca 08 3e 4c c7 0b bd
       -0.0013638381 -0.05588169 0.13358605 -0.03412561
0000d0 e8 c7 83 3c d9 cf 13 bc 57 d2 ad 3d 04 6a 55 bd
       0.016086534 -0.009021723 0.08487385 -0.052103058
0000e0 1a 1c 06 bd 69 32 ee 3d f1 08 0d bd b6 54 23 be
       -0.032741643 0.11630709 -0.034432355 -0.15950283
0000f0 d6 4b e1 3d 3a 82 a3 bd 8f ca 25 bd 2e ba 50 bd
       0.11000793 -0.07983823 -0.040476378 -0.050958805
000100 4a 65 33 be 32 48 7b 3c 5d 24 41 3d a4 57 59 bd
       -0.17519107 0.015337037 0.04715382 -0.053062096
000110 14 c8 33 3d cb 41 90 3d f7 45 5e 3d dc a3 8a be
       0.04389198 0.07043799 0.054265942 -0.2707814
000120 e3 b0 7a 3d fd 8c 55 bd 63 88 c1 bd 68 ce ba bd
       0.06120385 -0.05213641 -0.09449842 -0.091214
000130 b8 8f df bd c2 71 94 3d ff 89 a7 bd ef 17 2d 3d
       -0.10916084 0.0724826 -0.081806175 0.042259153
000140 f1 4f ca bc 4e a1 0a be 15 19 2e bd db 08 3c 3c
       -0.024696322 -0.13538095 -0.04250439 0.011476721
000150 6c 4d 32 be 08 02 eb 3d a5 58 90 3d c0 c9 53 bd
       -0.17412347 0.11474997 0.070481576 -0.051706076
000160 6a 97 d6 bc 99 49 67 be 9c e2 30 bd 5f 38 12 3e
       -0.026195247 -0.22586669 -0.04318486 0.14279316
000170 11 24 44 3d d7 50 c2 3c 55 50 c3 bd de bf 12 be
       0.047885958 0.023720188 -0.095368065 -0.14331004
000180 54 e7 15 bb 7f 5a e6 bd b6 09 fe 3d 6d 28 66 3e
       -0.0022873478 -0.112477295 0.12404196 0.22476359
000190 b2 3b df 3d 26 5c 19 be 94 18 8e 3c 52 e9 48 3e
       0.10900058 -0.14976558 0.017345704 0.19620255
0001a0 c2 c8 52 3b 27 14 72 be 37 15 0b 3e cb d2 4c 3d
       0.0032163118 -0.236405 0.13582312 0.050005715
0001b0 02 26 c1 bc 97 1e 70 bd d3 01 da 3d 8c 56 58 bd
       -0.023577694 -0.058622923 0.10644879 -0.052816913
0001c0 d3 b4 ca ba 7c 8c 9b bd 47 12 ca bd 36 e2 1a 3e
       -0.0015465267 -0.07595155 -0.098667674 0.15125355
0001d0 ee 75 f9 bd 64 f1 2e 3d 0a ac f7 3c b0 98 d1 bd
       -0.121806964 0.042710677 0.030233402 -0.10234201
0001e0 96 e7 24 bd 87 c3 85 bd b6 e6 5e 3d 72 94 5f be
       -0.04025992 -0.065314345 0.05441924 -0.21833971
0001f0 11 62 96 be e7 11 15 be e0 4a f5 bd 66 55 3d bd
       -0.29371694 -0.1455761 -0.11977172 -0.04622402
000200 d0 74 2f bc 98 9a 06 3d 65 a6 1d 3d 1a 60 60 bd
       -0.010709003 0.032862276 0.038488764 -0.05477915
000210 04 82 53 3b 73 b3 8f bd 59 9f 09 bc 12 36 0d bd
       0.003227354 -0.07016649 -0.008399808 -0.034475394
000220 18 f4 de 3d 0e 05 89 bd 63 96 8d 3e 49 bc e6 bd
       0.10886401 -0.06690417 0.27653798 -0.11266381
000230 9b 2c a0 bd 50 41 06 bc de a1 bc bc 10 b5 7c 3d
       -0.07821008 -0.008194283 -0.023026403 0.061696112
000240 4a 44 97 3d 04 ee a7 bd 04 c4 fd bd b1 bc 57 3e
       0.07386072 -0.08199695 -0.12390903 0.21068074
000250 a6 d2 e5 bd 83 41 4a bd 0f 3f d5 3d 54 34 e0 bd
       -0.112218186 -0.049378883 0.10412418 -0.10947481
000260 13 f8 a2 3d 2c cc 05 be ef 6a 91 3d 73 ab 64 3e
       0.07957473 -0.13066167 0.07100474 0.22331028
000270 e1 6d 6e bb 27 76 02 3e 3b 04 e4 3d 6a bc 87 bd
       -0.003638141 0.12740384 0.111336194 -0.06627734
000280 64 f9 a8 bd 59 75 0d 3d 90 86 e3 bd e3 0d 66 bc
       -0.082506925 0.03453574 -0.1110965 -0.014041397
000290 a2 ea 9e 3d 75 d0 92 3c ad bd 69 3e 67 77 d5 3d
       0.077595964 0.017921666 0.22826262 0.10423165
0002a0 ed 10 15 be 61 5c 21 3c 94 cd 96 3e af 29 7b bd
       -0.14557238 0.009848685 0.2945372 -0.06131905
0002b0 7c a9 74 bd f9 0b f4 3d 34 71 ef bb 54 68 8a be
       -0.059731945 0.11916346 -0.007307196 -0.2703272
0002c0 bc 01 e3 3d 22 94 12 3d 84 bf c0 3a 7b 79 25 bc
       0.11084315 0.0357858 0.0014705514 -0.010099764
0002d0 27 c5 81 bd 54 3a d9 bd 5e 04 42 3d 17 58 d4 3d
       -0.06336432 -0.10606828 0.047367446 0.10368364
0002e0 16 65 b9 3d 59 86 e8 3d 8b 5d 9b bc 0f 1d c8 bc
       0.09052484 0.1135375 -0.018965503 -0.024427919
0002f0 c3 50 d0 3d 23 bd 9e bd 0c 14 54 bd 1f 98 5e bc
       0.10171654 -0.07750919 -0.05177693 -0.013586073
000300 a8 3f 03 3e d5 6e a0 3d df 9b e1 bc 9e 58 25 be
       0.12817252 0.078336395 -0.027540145 -0.16147086
000310 e5 d6 06 be a0 fc 16 3d be cf 1d bd e4 38 e1 bb
       -0.13167913 0.036862016 -0.038528197 -0.006873237
000320 84 3f 49 3d eb b5 ed bd 57 0e 2b bd df cd 4d be
       0.04913284 -0.11606964 -0.041761722 -0.20098065
000330 cb a5 f7 3c e7 1a 41 3e 25 c0 cc 3d 23 cf 89 bd
       0.030230423 0.18857919 0.09997586 -0.06728961
000340 28 cd e1 3d b2 3d 03 be a3 62 73 be 89 71 2a 3d
       0.110254586 -0.12816504 -0.23768096 0.04161218
000350 12 96 7b bb 87 ab 22 3c 4d de 04 be 03 96 62 bd
       -0.003838901 0.009928591 -0.12975426 -0.055318844
000360 ad d7 82 3d 58 14 39 3e 8f 5e d3 3d 70 70 e4 bd
       0.06388793 0.18074167 0.1032077 -0.11154258
000370 85 3b 72 bd d9 1c a7 bc b5 20 64 be de a8 69 3d
       -0.059138793 -0.020399498 -0.22278102 0.05704581
000380 64 cd ff bd 73 2a d8 3c 13 06 9c bc 01 ad d4 bc
       -0.12490347 0.026387429 -0.019045865 -0.025961401
000390 60 48 5a bd 93 72 6f 3d 50 09 d6 bc 9d 74 07 3e
       -0.05329168 0.058458876 -0.026127487 0.13228078
0003a0 98 7f 64 bd de 04 00 bd e9 d9 e1 3d f2 56 7d bc
       -0.055785745 -0.03125464 0.11027891 -0.015462624
0003b0 c3 0f 44 bc 0e ca a2 bd 08 f7 5b 3e 10 64 8e 3c
       -0.0119666485 -0.07948695 0.21480954 0.017381698
0003c0 b0 20 8d bd f0 ec fc bd c3 f7 87 3c 4e e5 b1 3b
       -0.06891 -0.1234988 0.016597634 0.0054289466
0003d0 be b2 d5 bd 56 98 8d 3d 38 1c 15 bd 7c a1 4d 3d
       -0.10434483 0.069138214 -0.036403865 0.05020283
0003e0 6c 49 0e 3c 77 43 17 bd bd 10 3f 3e f6 00 2a 3d
       0.008684497 -0.036929574 0.18658729 0.041504823
0003f0 46 b7 e2 3b 03 17 a9 bd af 2e 45 be 8a 82 ba bb
       0.0069188206 -0.08256342 -0.1925609 -0.005691831

arith.constant9 f4 [256, 64]
000000 57 e3 b8 3d 44 6c 07 3d d6 c9 b6 bd 6f 2b 79 3d
       0.09027737 0.033062235 -0.08925216 0.060832437
000010 c4 5d 88 3d f0 46 df bd a9 71 b0 3c 34 ec 9d bc
       0.066585094 -0.10902202 0.021538572 -0.01927767
000020 24 3d ec 3d a9 e8 2c 3d ed d2 90 3c 6b de 97 bd
       0.11535099 0.04221407 0.017678702 -0.0741547
000030 fb 13 7b 3e fa 61 f3 3d 90 25 7b bd be b0 0d 3c
       0.2451934 0.11883922 -0.06131512 0.008648096
000040 b6 c4 1c 3e fe db 0a 3e 23 67 95 bc 73 b8 ca 3d
       0.15309414 0.13560483 -0.018237656 0.09898462
000050 80 b2 23 3d 2b 0c 2b bd 75 18 3a 3d 03 f9 87 3d
       0.039965153 -0.04175965 0.04543348 0.06639292
000060 a9 63 26 3c d7 6d 5e 3c 0f 6d 0d bd d7 56 05 be
       0.010155597 0.013575993 -0.034527835 -0.13021408
000070 88 83 e8 3d 1b 76 f5 3d 89 48 53 3e 8b 5f 94 3c
       0.113532126 0.119854175 0.20633139 0.018111965
000080 0f 40 f0 3d 05 0a 8d be 0a 80 e7 3c 53 4b 2b 3e
       0.11730968 -0.27546707 0.028259296 0.16727953
000090 43 b5 54 3c b9 0b ae bc c9 25 ce bd 1b fc 7c 3e
       0.012982669 -0.021245824 -0.10065801 0.24705546
0000a0 4a 7b 93 bd db ad 62 bc a1 21 45 3d db 57 4a be
       -0.0720125 -0.013835396 0.048127774 -0.19760077
0000b0 88 15 26 bc 71 59 75 bd d6 7c 0e 3d 2e 09 1f 3e
       -0.010136969 -0.05989975 0.03478702 0.15530846
0000c0 25 9a 9f 3d 56 23 02 bd 7b 70 64 3d 02 ed 77 3d
       0.077930726 -0.03177198 0.055771332 0.060528763
0000d0 3e 28 8f bd c8 ca 01 bd b0 23 2d be c6 c3 eb 3d
       -0.069900975 -0.031687528 -0.16908145 0.1151195
0000e0 18 80 79 be 32 0c 84 3e df 30 c4 bd e7 6b 60 3d
       -0.2436527 0.25790554 -0.09579634 0.054790404
0000f0 f7 d4 23 3d 02 73 0d 3e c4 58 89 bd 25 1f 81 3e
       0.03999802 0.13813403 -0.06706384 0.25219074
000100 dd d7 f8 3c 26 67 ce 3d 79 b6 05 3e ec f8 4a 3e
       0.03037637 0.10078268 0.13057889 0.19821519
000110 46 21 14 be e8 94 b2 bd 67 0e f4 3d 51 cb b1 bc
       -0.14465818 -0.08719808 0.119168095 -0.021703394
000120 30 a7 75 bd 5b 01 11 be 8d e4 66 3e d8 2e 9f bd
       -0.059973896 -0.14160673 0.22548123 -0.077726066
000130 e2 ac ca 3c 9d 6c 33 bd fb a4 40 be 62 3b e0 bd
       0.02474064 -0.043804754 -0.18812935 -0.109488264
000140 a8 92 14 be f7 24 c8 bd 95 e1 19 3d b4 94 12 3d
       -0.1450907 -0.097726755 0.037568647 0.035786346
000150 56 ad 7d 3d c5 c1 7b 3c 2a a0 35 bd 9d 1c a5 3c
       0.061932884 0.0153660225 -0.044342197 0.020155245
000160 82 b0 40 3c f5 91 0a bd 84 81 4b bd bf aa e7 bd
       0.011760833 -0.0338306 -0.049684063 -0.11311864
000170 be 98 8d 3d 6c ae 68 bd ff 27 11 bc 8c fb 17 be
       0.06913899 -0.056806967 -0.0088596335 -0.14842051
000180 b5 12 1d be 70 4e a1 3d 47 db 6f 3d 98 a9 4f 3d
       -0.15339167 0.07876289 0.05855873 0.050698847
000190 94 47 b2 3c 6a 44 cc bd 20 1a 4d bc 8d fa a7 bd
       0.021762647 -0.099739864 -0.012518436 -0.08202086
0001a0 48 f0 13 3e 1d 55 89 3d de a8 11 bd e8 9e 07 3b
       0.14447129 0.06705687 -0.035561435 0.002069408
0001b0 94 da b1 3c 59 1f 94 3d ab a2 ee bd b8 56 cf bd
       0.021710671 0.072325416 -0.1165212 -0.10123962
0001c0 21 69 c6 bd 4d 63 1d 3d 20 ab a9 3d 82 fe 7e bd
       -0.096880205 0.03842478 0.08284593 -0.062254436
0001d0 4e 66 0d 3d 60 c6 95 bd 94 bf 0a be de 75 cc bd
       0.034521393 -0.07313228 -0.13549644 -0.09983419
0001e0 b9 d2 ab 3a c2 2b e0 3d 5e d1 23 bd 30 c1 cd 3d
       0.0013109065 0.10945846 -0.03999459 0.10046613
0001f0 1a 56 aa 3c ac 31 64 3d 09 ff ec 3c 45 9b 15 3e
       0.02079301 0.055711433 0.028930204 0.14610012
000200 23 a0 27 be 7a 9e 88 bd 9a 2d ea bd 8a 9f c8 3d
       -0.16369681 -0.06670852 -0.11434479 0.09796055
000210 e4 62 fc 3b 50 bf da 3d ed ba 8f be 35 0e 94 3d
       0.0077022184 0.10681021 -0.280723 0.07229272
000220 78 50 2f be 9e 81 d6 3c 52 3b de 3c c1 0f 4e bd
       -0.1712054 0.026184853 0.027127896 -0.050307993
000230 b7 cc ce bd 6d 27 00 bd aa e4 05 be dc ca ab 3c
       -0.1009764 -0.0312876 -0.1307551 0.020970754
000240 d2 d2 c1 3c a9 81 af 3c bd a8 6c bd b8 76 b9 bd
       0.023660097 0.021424131 -0.05777811 -0.09055847
000250 8f 79 2c 3e 91 09 43 3d d2 4d 8d bd 5e c1 40 be
       0.16843246 0.047616545 -0.06899609 -0.18823764
000260 1c 72 22 bd 7c 96 e2 bd c9 eb 3f be 21 43 96 3d
       -0.039659604 -0.11063859 -0.18742289 0.073370226
000270 c8 11 a6 3c 75 8e b9 3d b0 1f 4f bd 3e 14 17 3e
       0.02027215 0.09060375 -0.05056733 0.14753816
000280 cb 4b 28 be f5 27 f4 bd ae 58 b3 bd f6 9c 94 bd
       -0.16435163 -0.11921684 -0.08757149 -0.072565004
000290 59 4e 9a bd d9 30 8e bd cf 56 8e bc 91 9f af bb
       -0.07534475 -0.06942911 -0.017375378 -0.005359598
0002a0 27 bc 3a be ea ff f8 bd 4e 32 1d be 59 44 8b 3c
       -0.18235837 -0.12158187 -0.15351221 0.017000364
0002b0 f7 00 ce 3c 94 d1 1a bd 40 a0 ec bd 98 14 12 3e
       0.025146944 -0.037797526 -0.11554003 0.14265668
0002c0 e5 93 09 bd c7 49 26 be a1 17 dd 3d ad f9 c8 bd
       -0.03358831 -0.16239081 0.107955225 -0.09813247
0002d0 80 81 4f bc 0a a0 a8 bd 5a ed 0d 3b 53 6d bb bc
       -0.012665153 -0.0823365 0.0021656365 -0.022879278
0002e0 d2 4c 57 3e b9 2e 3f be e7 96 21 3d ad 50 03 be
       0.21025398 -0.18670167 0.039450552 -0.12823744
0002f0 b4 6c ff 3d 1a 14 04 3e 8b eb fe bd a6 b8 18 bd
       0.12471905 0.12898293 -0.1244727 -0.03728547
000300 e0 d2 39 bd 77 09 d1 3d 09 57 79 3d 86 c1 95 bd
       -0.04536712 0.102068834 0.06087402 -0.07312302
000310 78 75 42 be b3 be 9d bd 7b bb 09 be 59 f8 e1 bd
       -0.18990123 -0.077023886 -0.13450424 -0.11033697
000320 ba f5 bb bb 4b b9 6c 3e bd 52 40 3d 08 0f 04 3e
       -0.00573608 0.23117559 0.046953905 0.12896359
000330 93 85 8b 3d ca 70 c9 bd 6b 1f a1 38 fd 5d c6 bd
       0.06812587 -0.09835966 7.68293e-05 -0.096858956
000340 2f 91 b6 bc 4a b5 c1 3d 32 97 b4 bd 6e 98 73 bd
       -0.022286026 0.09458406 -0.08817901 -0.05947154
000350 87 8b 13 be 17 53 3c bc 98 74 8b bc 0b 2c de bb
       -0.14408694 -0.01149442 -0.01702337 -0.0067801527
000360 b7 e9 2a 3e b7 40 33 be 66 1a dd 3c c5 38 81 bd
       0.16690718 -0.17505156 0.026990127 -0.06309656
000370 2d e8 01 be 4c cc e2 bc f4 14 75 bd 6b d7 f2 3d
       -0.12686224 -0.027685307 -0.059834436 0.11857494
000380 f2 5d ca bd 6f ac 8c bd f7 21 70 3d d3 26 5e 3c
       -0.098812 -0.068688266 0.05862614 0.013559061
000390 d4 8d 35 3e bb 07 5d bc fb c2 9e 3d 48 ef 19 3e
       0.17729884 -0.013490613 0.07752033 0.15032685
0003a0 c1 26 62 3d 32 bd 48 3c af 52 5f bd 14 9b a6 bd
       0.05521274 0.012252139 -0.054522213 -0.081350476
0003b0 21 24 d1 3d 58 36 ac bc 0e 99 e0 3c 4a 26 09 be
       0.10211969 -0.021022007 0.027416732 -0.13393512
0003c0 37 30 57 bd 8b a9 82 3c 92 68 16 be a7 21 81 3b
       -0.052536216 0.015949985 -0.14688328 0.0039407793
0003d0 b5 10 71 3e d7 11 20 3d bc 3a cb bd 57 b4 a3 3d
       0.2354153 0.039079513 -0.09923312 0.079933815
0003e0 d5 ca 2c 3e 5b b1 fb bc 36 5a 90 bd 4d 9a f2 3c
       0.1687425 -0.030724218 -0.07048456 0.029614592
0003f0 1d 6d be 3d f3 e2 02 3c 45 20 95 bb 5c 3b d8 bd
       0.092981555 0.007988679 -0.004550966 -0.10558197

arith.constant10 f4 [512, 20]
000000 28 18 c3 3c 90 5c 20 bd ff 8b a0 bd c3 5c 00 3e
       0.02381523 -0.039150774 -0.07839202 0.12535386
000010 9a 5e ed 3d d2 9e ce 3d 19 91 5c bd fc c3 cc bd
       0.115903094 0.10088886 -0.053849313 -0.099983186
000020 b5 eb 1c 3d 3b b9 f9 3d 2f b0 e5 bd 15 d6 ec bc
       0.038310725 0.12193533 -0.11215245 -0.028910676
000030 ae a2 21 bd 0a 47 27 bd 1f 85 35 bd cc 8f 47 bd
       -0.039461784 -0.040839233 -0.044316407 -0.04872112
000040 2b c0 a2 3d 77 a0 fc bd 81 cd 17 bd 53 ac 02 3e
       0.079468094 -0.12335294 -0.03706122 0.12761049
000050 d7 9c c5 bd a7 12 0e bc c4 25 2a bd 39 6c 27 bd
       -0.096490555 -0.008671439 -0.041539922 -0.040874694
000060 d6 84 63 3d 2a a1 e4 3b d8 d3 00 bd 8c f0 53 bd
       0.055546604 0.00697722 -0.03145203 -0.051743075
000070 26 d0 ec bd 97 70 ab 3c 04 a0 50 3d 19 a5 73 bc
       -0.11563139 0.02092771 0.050933853 -0.014870905
000080 84 29 c1 3c fb 38 a0 3d 38 a7 08 3e 50 d3 04 be
       0.023579367 0.07823368 0.13345039 -0.12971234
000090 a8 74 9f 3d e3 8e 90 bd 91 2b 03 3c c5 66 fa 3d
       0.07785922 -0.070585035 0.0080059925 0.12226633
0000a0 f0 2b 92 3d 42 12 88 3d 36 7d 98 bd 03 7e 60 3d
       0.07137287 0.066441074 -0.07445757 0.054807674
0000b0 ac 3a f7 3d 77 e3 34 bd b6 23 97 bd 42 a0 e2 3b
       0.12071738 -0.04416224 -0.07379858 0.006916077
0000c0 f3 5e dc bd 43 80 6a bc 5b 67 28 3e 4f 30 9c 3d
       -0.107602976 -0.014312807 0.16445677 0.07626402
0000d0 14 04 ab 3d 5f 6c 92 3d c3 52 ec 3c 9d f1 78 3d
       0.08350387 0.071495764 0.028848058 0.060777295
0000e0 b5 12 a2 3d f3 c8 f5 3d a3 99 84 bd 3d cb b2 3d
       0.07913724 0.12001219 -0.064746164 0.08730171
0000f0 a7 56 a1 bd 81 a5 23 bd f5 41 bb bd e6 20 f3 3a
       -0.07877856 -0.03995276 -0.0914344 0.0018549233
000100 08 8a 67 ba 07 71 c8 bb 27 7a 01 be 77 93 e5 bc
       -0.0008832519 -0.0061169895 -0.12644254 -0.028024418
000110 f3 5f 47 3c db a2 ad bd 5f 93 b6 3b e4 8d 71 bd
       0.012168872 -0.08478328 0.005571767 -0.058973208
000120 52 56 82 bd 19 1a 05 3d ba 75 3f bd 38 c8 5c 3d
       -0.063641205 0.03249559 -0.046743132 0.05390188
000130 5d 79 d1 bb cf 3c 01 bd fc 88 17 3e 29 3b e1 3d
       -0.0063926415 -0.031552132 0.14798349 0.10997612
000140 0e 3e f3 bc 75 a9 a1 bd c1 12 51 3c 12 38 bc bd
       -0.029692676 -0.078936495 0.012760819 -0.09190382
000150 7d 25 3f bb 2a 83 e0 bc a2 36 9f bc c1 37 07 bd
       -0.0029166632 -0.027406294 -0.01943523 -0.033012155
000160 60 eb 21 3d c8 73 89 3b 50 5a 8d 3d 7b 07 ea bd
       0.03953111 0.0041947104 0.06901991 -0.11427208
000170 d2 fc 75 3d bc 53 3f bd 94 80 db bc 09 90 dc bd
       0.06005556 -0.046710715 -0.02679471 -0.1076966
000180 a6 34 ac bc 3b a9 57 3d de e1 76 3d 14 9e 92 bd
       -0.021021198 0.052651625 0.060273997 -0.07159057
000190 be f7 ee bd 3f b2 89 bd d6 db be 3c c0 af ce bd
       -0.11668347 -0.06723451 0.023298185 -0.100921154
0001a0 30 8a 43 bb 23 eb 5d bd 34 85 d9 bd 7a 27 36 bc
       -0.0029837005 -0.054179322 -0.106211096 -0.01111781
0001b0 19 dd 47 bd 42 6e 54 3d 2a bf 34 3d 30 94 5b 3c
       -0.04879484 0.051862963 0.04412762 0.01340203
0001c0 1a cf b4 3d 47 76 71 bb a9 f8 53 3c 34 4c 86 3d
       0.08828564 -0.003684418 0.012937703 0.06557503
0001d0 d9 16 2b 3d 09 52 9c bd 79 c6 4b 3d fd 32 77 bc
       0.041769836 -0.076328345 0.049749825 -0.01508784
0001e0 44 5a a3 bd 84 c8 3c 3a d4 1b ad bc 50 89 82 3c
       -0.07976201 0.000720151 -0.021131434 0.015934616
0001f0 1a 83 9e 3b da 58 87 bc 99 09 ea 3c 08 9e fc 3b
       0.004837406 -0.01652186 0.02856903 0.0077092685
000200 40 54 89 bd 30 4b 19 bc e1 0a bb 3c af d2 ef 3d
       -0.067055225 -0.009356305 0.022832336 0.117101066
000210 be a1 9c bb 0d b6 1f bd 55 7a 48 3d 42 a0 48 3d
       -0.0047800234 -0.038991977 0.04894479 0.04898096
000220 ef b4 1b bd 66 51 92 3b 60 ed 87 bd 57 cf 6e bd
       -0.03801435 0.00446527 -0.066370726 -0.058303203
000230 b4 02 df bb f9 65 12 3d 7d be 1c 3e 84 b7 08 be
       -0.006805742 0.03574178 0.1530704 -0.13351256
000240 2a 0e 75 bd 36 48 fe bc 5b b0 87 bd 2a 53 83 3d
       -0.05982796 -0.031040292 -0.06625434 0.06412347
000250 48 4b 1c 3e a6 fc d1 3d e5 a6 12 bc e2 d7 1b 3d
       0.15263093 0.10253267 -0.008950924 0.03804768
000260 b5 4b d5 3d 22 a3 06 3d 05 1d 0d be 02 d9 cb bd
       0.104148306 0.03287042 -0.13780601 -0.099535
000270 53 e4 9f 3d ad b1 14 3e 36 bb 31 bc b9 21 45 bd
       0.07807221 0.14520903 -0.010847857 -0.048127864
000280 70 2b b2 bd 56 69 51 bb d4 dd c6 bb 54 5c da 3a
       -0.08699691 -0.0031953654 -0.0060689244 0.0016659596
000290 e1 56 e3 bd 8f 07 6a bd e8 70 2c 3d 3c a0 11 bd
       -0.11100555 -0.057136115 0.042099863 -0.035553202
0002a0 5c 98 b3 bd 46 89 6a 3d 96 ac 99 bd c0 b4 1b 3d
       -0.087692946 0.05725982 -0.07503621 0.038014174
0002b0 82 d1 80 bb 60 19 0e 3e 4f aa 07 bd fb 1f fb 3b
       -0.0039312253 0.13876867 -0.033121403 0.0076637245
0002c0 6e be c2 3c 3a 48 ba bd 61 90 84 bd 7a 0f 7b 3d
       0.023772445 -0.090958074 -0.064728506 0.061294056
0002d0 1f 3b 85 bd 67 e7 80 3d 36 42 21 bb ed 47 97 bd
       -0.06505417 0.062941365 -0.0024606115 -0.07386766
0002e0 c6 25 b8 3d 28 94 06 bd c9 08 8f 3c 8a 84 5e 3c
       0.0899158 -0.032856137 0.017460244 0.013581404
0002f0 cb d1 16 bd 8b 60 51 3d d2 98 b0 bc d8 2d 8d 3d
       -0.036821168 0.05111746 -0.021557245 0.068935096
000300 51 d3 8c 3d 59 e3 b6 3d ff 03 04 3d 4b 86 cc bd
       0.06876243 0.08930082 0.032230373 -0.09986552
000310 33 86 13 3c 9f 38 46 bd 1c 41 2c bb da 7f 8b 3d
       0.009004164 -0.04839384 -0.0026283925 0.06811495
000320 38 96 92 3c 9d 42 b5 3d da 2e 04 3d 4f 58 5e 3c
       0.017893896 0.08850596 0.032271244 0.013570859
000330 b2 ed 81 be 95 77 ca bd 16 cc ac bc 59 6f 08 3d
       -0.2537666 -0.0988609 -0.02109341 0.033309314
000340 95 e4 b1 bd cf 94 7a bd b2 59 77 3b de 98 90 3d
       -0.08686177 -0.06117707 0.0037742672 0.07060407
000350 a9 0b df 3b 5b ce 06 3e e6 4d 27 3e 33 7d 26 3a
       0.00680681 0.13164656 0.1633831 0.00063510536
000360 29 1f 90 3d 5f 45 b0 3d 33 01 c8 39 70 d1 ad bd
       0.07037193 0.086069815 0.00038147866 -0.08487213
000370 ae 95 d2 3d ff 68 87 3d d8 36 a7 3c 40 3b b3 3c
       0.102824554 0.06611823 0.020411894 0.021878839
000380 d7 28 94 3d 94 58 9c bc d3 9e 2e 3d 87 e6 01 3d
       0.07234352 -0.019085206 0.042631935 0.03171399
000390 35 18 c1 3d 55 21 d1 3d 95 5b ca bd 30 33 b4 3a
       0.09428445 0.10211436 -0.09880749 0.0013748165
0003a0 de f8 98 bd 11 85 7e 3d b5 29 3f bd 75 fe 8d bd
       -0.07469343 0.06213862 -0.046670634 -0.069332995
0003b0 c8 d8 ae bd 56 09 36 bd d3 ba a9 bd c1 9b d3 bd
       -0.085374415 -0.044442497 -0.08287587 -0.10332442
0003c0 07 e5 e2 bd 48 96 52 bd 3a f5 d6 3c f6 d0 b3 bc
       -0.1107884 -0.05141285 0.02623998 -0.021950226
0003d0 54 7e 9c bd 66 8f b3 bc 38 0b 53 bd 0e e9 4e 3d
       -0.07641283 -0.021918964 -0.05152437 0.050515227
0003e0 54 ee 8d bc 43 3c 40 3d d2 c0 73 3d 23 57 31 3d
       -0.017325558 0.04693247 0.05951006 0.04329599
0003f0 a1 aa 1b bb fe d4 8e ba ec aa c1 bd cf 5b 12 be
       -0.0023752826 -0.0010897217 -0.09456429 -0.14292835

arith.constant11 f4 [512, 128]
000000 7e e2 83 3e 95 93 81 bd 41 82 15 3e 5f 86 75 bd
       0.25758737 -0.06326977 0.14600469 -0.0599426
000010 68 77 a2 be f1 a3 08 3c 50 01 69 be d5 e9 de 3d
       -0.31731725 0.008339868 -0.22754407 0.10884444
000020 cd f0 54 3e 26 95 b0 3c 47 b7 a6 bd 99 e3 3d bc
       0.20794983 0.021555495 -0.08140426 -0.011589908
000030 f8 9c 09 3e 8b b7 15 be f1 5e 34 be f3 c4 b9 3d
       0.13438785 -0.14620797 -0.17614342 0.09070768
000040 d3 7f 0c be 5e 3c 79 3d e8 0c b1 3c 7e 25 5d 3d
       -0.13720636 0.060848586 0.0216126 0.053990833
000050 10 b7 1f 3e b5 7f 5c bd 94 37 28 3e c7 c8 10 3e
       0.15597177 -0.05383273 0.16427451 0.1413909
000060 b2 ef ad bc c8 d4 cd bd ec 41 4e bd 7a 31 ca 3d
       -0.02123246 -0.100503504 -0.050355837 0.09872718
000070 bd 1a 54 3e a7 c5 d1 3d 67 6c 81 3d 0e 76 d1 3c
       0.20713325 0.10242777 0.06319504 0.025568988
000080 82 d7 73 bd 1d 36 66 3d 3a c7 81 be 2c 9e 1f be
       -0.059531696 0.05620395 -0.2534731 -0.15587682
000090 e8 09 49 3d a5 30 e9 3c 4d 9f 3e be 35 1b 9e 3d
       0.049081713 0.028465578 -0.18615456 0.07720033
0000a0 8a 27 e8 bd 8e 96 41 bc a0 4e 3f 3d 92 23 5b 3e
       -0.113356665 -0.01181568 0.046705842 0.21400288
0000b0 2f 97 0c bc f2 f8 d5 bc 24 c9 a4 3e 0a a2 5c bd
       -0.008580967 -0.026119683 0.32184708 -0.05386547
0000c0 0a 8a df bc a8 eb 32 bd 8e 2e 32 bd 43 b6 32 3d
       -0.027287502 -0.04368177 -0.04350143 0.04363085
0000d0 40 9d 6e bc ff 86 af 3d bc c4 a2 3d 9a 29 14 bb
       -0.0145638585 0.0857067 0.0794768 -0.0022607804
0000e0 ef 71 9e bd e8 a4 e7 3d bc 26 8a bc d2 e6 c4 3d
       -0.07736575 0.1131075 -0.016864173 0.09614338
0000f0 0d ea 15 bc 4d 3b 0e be 57 1d 03 3e 5e c1 24 3e
       -0.00915004 -0.13889809 0.12804161 0.16089389
000100 81 e5 72 bd c2 15 fb bd 80 fd de bc 4e 92 7c be
       -0.059300903 -0.12260009 -0.027220488 -0.24665186
000110 17 3e 36 bc f7 3e 4f 3e 51 f1 d5 3d 51 77 17 3d
       -0.011123202 0.20238863 0.10446418 0.036979023
000120 ed ff 14 be 1a f4 a1 bc c7 6f 18 3e 4d ab 99 3e
       -0.14550753 -0.019769717 0.1488639 0.30013505
000130 3a ba d5 bc 88 72 4c be e1 21 34 3c bb 30 83 3e
       -0.026089776 -0.19965565 0.0109944055 0.25623116
000140 3b ff a5 bd 8b 76 a1 be 17 8a ae bd af f0 c7 bb
       -0.08105322 -0.31535754 -0.08522432 -0.0061016898
000150 74 19 b6 3e 19 d5 1d 3e 5e c8 69 be 22 67 3c 3e
       0.35566294 0.15413322 -0.2283034 0.18398717
000160 a1 2f e3 3b ad be 64 bd 03 78 f7 bc 08 1d 69 3e
       0.006933168 -0.055845905 -0.030208593 0.22764981
000170 9d d4 1e 3e e5 d6 83 3c 7b 14 94 bd ea d9 c8 3e
       0.15510793 0.01609368 -0.07230469 0.39228755
000180 41 a7 fe bc 4e 18 1c bd 11 84 16 3e 2b 93 9a bd
       -0.031085612 -0.038109116 0.14698817 -0.07547601
000190 55 5d 33 bd 4f e1 b7 bd d6 eb 86 bd 8d 12 9a 3c
       -0.04379018 -0.08978521 -0.06587951 0.018807674
0001a0 98 83 48 3e 5c ab e1 bd d3 f8 04 3d fb 55 80 bc
       0.19581449 -0.11019012 0.03246386 -0.015665999
0001b0 88 13 6e bd 13 21 18 bd 75 3c d9 3d 6d e3 35 3d
       -0.058124095 -0.037140917 0.106072344 0.044406343
0001c0 1a 06 92 3d 42 70 c3 bd 4d ae 0d be ef 63 2f be
       0.0713007 -0.09542896 -0.13836022 -0.17127965
0001d0 e0 79 84 3e 45 c1 8b bd 95 14 cc bd 3a b1 92 3e
       0.25874233 -0.068239726 -0.09964863 0.28650838
0001e0 8e 60 7a be 59 0e 57 3d dd 32 a3 bd 95 6f 2b be
       -0.24450895 0.052503917 -0.07968686 -0.16741784
0001f0 05 27 9f 3e e5 a9 90 bd 99 cc 0e be 2f 07 4e bd
       0.31084457 -0.07063655 -0.13945235 -0.05029982
000200 d9 89 8b 3c f8 59 84 3d a1 38 9c bd 31 1a 11 bd
       0.017033504 0.06462473 -0.076279886 -0.03542537
000210 91 cc bd 3d b4 fc 9c 3c d2 8f 16 bc f0 0c a4 bc
       0.092675336 0.019163467 -0.009189563 -0.0200257
000220 3b 25 32 3d 65 de 6e bc 5e 0b 73 ba af 93 5d bd
       0.043492537 -0.01457939 -0.0009271408 -0.05409592
000230 6f 1f 57 3d e1 1c 8e bb b5 5f df bc 50 78 36 bd
       0.05252021 -0.0043369387 -0.027267316 -0.044548333
000240 dc e1 4f 3c e0 0e 9d ba 15 cc 17 3d 27 b7 7a 3d
       0.012688126 -0.0011982583 0.037059862 0.061209824
000250 d5 0b 0c 3d b3 77 37 3d 53 0f 3c 3d 6f 67 e2 bc
       0.03419097 0.04479189 0.04591305 -0.027637212
000260 5f f3 a9 ba 2c 0e 7f 3d 4e cc a8 3d bb b7 07 3c
       -0.0012966207 0.062269375 0.08242093 0.008283551
000270 ec 6d 97 3b 32 44 39 bd dc 59 98 bd 5e 2b b3 bd
       0.004621258 -0.04523105 -0.07439014 -0.08748506
000280 75 e7 d7 bc 2b e7 12 bd 40 8d ab 3b ed a4 25 bd
       -0.026355485 -0.03586499 0.005235344 -0.04044049
000290 b2 a5 b2 3c c6 c7 69 3d 44 63 45 3d 49 a3 de 3b
       0.021807525 0.057075284 0.04819037 0.0067943675
0002a0 3d 27 5c 3c a3 5f 84 bd 5b 76 8f 3d fb cb f4 3c
       0.0134370895 -0.06463554 0.070049964 0.029882422
0002b0 d8 c2 9a 3d 4d 9b f6 3c 18 85 a3 3a dc ba 88 bc
       0.07556695 0.03010335 0.0012475578 -0.016690664
0002c0 cb 9f 83 3b 26 fc ac 3d cf ea ab 3a 29 81 6f 3d
       0.0040168515 0.08446531 0.0013116243 0.058472786
0002d0 f8 10 f1 bc 1e 9b 88 3c 4d 11 52 bd 25 70 07 3b
       -0.029427037 0.016675528 -0.05128603 0.0020666209
0002e0 56 98 19 3c d3 a5 d7 3b ea 30 04 3d 04 57 1e 3d
       0.009374699 0.006581047 0.03227321 0.038657203
0002f0 3a 2e 3b 3d 1c 56 18 bd 4d ae 0d 3b d1 c2 dd bc
       0.045698382 -0.037191495 0.0021618784 -0.027070435
000300 96 04 37 3d e7 dd a7 bc cc 3d 41 3d 7b 4d 93 3d
       0.044682108 -0.020491553 0.047178075 0.071925126
000310 1a ef 32 bc 18 af 6b 3d fa b9 98 3a 3b 61 6e b9
       -0.010921264 0.05754003 0.0011652105 -0.0002273367
000320 dc 38 c5 3b cf 55 91 bc 10 c8 a5 bd be e7 45 bd
       0.006018741 -0.017741112 -0.080947995 -0.04831671
000330 c8 0b 9c 3c 95 92 92 3c 31 ea 32 bd 9f ed 25 3d
       0.019048586 0.017892161 -0.043680374 0.040509816
000340 d8 14 88 3c 44 d5 84 3c f6 8f 43 bc 62 f0 9d 3d
       0.016611502 0.016214974 -0.011936178 0.07711865
000350 6f 40 f2 3c 5a 7f a1 3d bc 20 85 3d 3c 65 b0 bb
       0.02957174 0.078856185 0.06500384 -0.005383162
000360 ce bd 09 3b 0e 8c ee bc 38 d0 5d 3a e1 17 72 bc
       0.0021017673 -0.029119518 0.0008461508 -0.014776201
000370 f5 e1 4d bd 94 87 10 bd d6 99 a2 bd c1 b7 0f 3c
       -0.050264318 -0.035285547 -0.07939498 0.008771838
000380 48 76 57 3d 58 bd 9f 3c c1 a2 b3 bd 4d 57 24 bc
       0.052603036 0.019499466 -0.08771277 -0.01003058
000390 a7 f7 6b 3c a8 a7 65 bd b1 da 21 3c dc 38 46 bd
       0.014402307 -0.056068093 0.0098788 -0.04839407
0003a0 70 f5 64 bd 78 a1 92 bc d3 12 af bd 80 6b 20 3a
       -0.05589813 -0.01789926 -0.08548512 0.00061195344
0003b0 a4 1b 13 bc 98 35 e2 3c 6c 9a 47 bc 1a 5d d2 3b
       -0.008978758 0.027613446 -0.012182813 0.00641979
0003c0 81 7f e7 3c 54 64 bf 3c 83 bd 7f 3c 51 e7 85 bd
       0.02825904 0.02336327 0.015609148 -0.06538261
0003d0 4a 8e 81 bb 43 b3 11 bd a4 f7 d2 3d 16 4b 81 bc
       -0.0039537298 -0.035571348 0.1030114 -0.015782874
0003e0 d1 2b 4e 3c b3 ed 70 bc fb c5 00 be 5f 89 94 bc
       0.012583689 -0.014705109 -0.12575524 -0.01813191
0003f0 f0 fc db 3c 66 bc fb bc 35 68 1a 3d 5a 58 33 bc
       0.026854008 -0.030729484 0.037697036 -0.010946358

arith.constant12 f4 [256]
000000 b2 f1 37 3d d1 8e e8 bb 27 0f 48 bc 12 4a 0d bd
       0.044908233 -0.007097103 -0.012210644 -0.034494467
000010 b9 28 30 bd 36 18 18 bd 12 2d 7f bd 41 7c 9b bd
       -0.043007586 -0.037132464 -0.06229884 -0.07592059
000020 22 0a da bd d1 1a 49 bd 26 1a c5 bc 14 45 06 bd
       -0.10646464 -0.04909784 -0.02406032 -0.03278072
000030 4b b9 34 bd 6a 90 83 bd 91 d9 62 bc 1e 14 a2 bd
       -0.04412202 -0.06424029 -0.013845817 -0.07913993
000040 10 43 64 bd 19 4d ff bc 97 1e 94 bd 8d ea ab bd
       -0.05572802 -0.031164693 -0.07232397 -0.083943464
000050 c5 43 87 bd b9 c4 ad bd 3c 11 0c bd 64 3c c6 bd
       -0.06604723 -0.084847875 -0.034196123 -0.09679487
000060 cc 6c 6b bd d0 26 a4 bd a0 a2 23 3b 07 81 8b bd
       -0.057476804 -0.080152154 0.0024968758 -0.068117194
000070 c0 2f 45 bd 00 8f dc bd bf 2b 8a bd d0 b1 1d bd
       -0.04814124 -0.107694626 -0.06746625 -0.038499653
000080 63 3e c3 bc 6d 72 b7 bc 0a 50 63 bd 78 a9 cf 3c
       -0.02383346 -0.02239343 -0.055496253 0.025349364
000090 d3 58 b8 bd b3 2c 0e bd 30 bf 51 bd f1 e8 ad bc
       -0.09001317 -0.034710597 -0.05120772 -0.02122924
0000a0 aa ea 01 be 2d 49 9c 3b 48 cd 1d bd 6c f8 e4 bd
       -0.12687173 0.0047694654 -0.03852585 -0.11180195
0000b0 3d b1 9e bd 8f ab 39 bd 3b df b7 bc 7e 79 90 bc
       -0.07748649 -0.045329627 -0.022445312 -0.017636057
0000c0 8e 4c 85 bc 0d ed 8c bc eb 40 c8 bc b0 a5 0c bd
       -0.016271856 -0.017202878 -0.024445018 -0.0343377
0000d0 b6 98 8d 3a f6 c4 47 3c 26 dc d6 bd 3e 83 90 bc
       0.0010802958 0.012192955 -0.10491209 -0.017640706
0000e0 1d 39 4a bd 7c 97 75 bd ef ef ee bb 74 cc 9f bd
       -0.049370874 -0.05995892 -0.007291786 -0.07802668
0000f0 36 47 43 bd 89 3c 00 3c 02 ff 87 bd 79 c8 d1 bd
       -0.047675334 0.007826933 -0.06640436 -0.10243315
000100 13 8d 8d 3f 96 a5 83 3f ef 69 87 3f 4d 5d 89 3f
       1.1058677 1.0284908 1.0579203 1.0731598
000110 e6 0b 8d 3f d2 70 8a 3f 47 20 84 3f 32 0a 86 3f
       1.1019256 1.081568 1.032235 1.0471861
000120 a1 df 8e 3f 83 56 8e 3f c4 b9 81 3f f4 17 86 3f
       1.1161996 1.1120151 1.0134816 1.047606
000130 10 42 83 3f da 5f 84 3f 5e 4f 86 3f 01 8e 88 3f
       1.0254536 1.0341752 1.0492971 1.0668336
000140 9d 25 87 3f 42 97 83 3f 46 4e 86 3f 08 c3 90 3f
       1.0558354 1.0280535 1.0492637 1.1309519
000150 a5 d8 85 3f 68 7d 8a 3f 4a 2d 84 3f b5 9c 88 3f
       1.045674 1.0819521 1.0326321 1.0672823
000160 44 95 89 3f f1 6d 88 3f 71 70 7e 3f 97 fc 90 3f
       1.0748677 1.0658551 0.9939032 1.1327084
000170 53 76 8b 3f 7a e7 8a 3f c6 62 83 3f 62 fc 80 3f
       1.0895485 1.0851891 1.0264518 1.0077021
000180 27 97 88 3f 0c c6 85 3f 85 ab 87 3f 68 dd 83 3f
       1.0671128 1.0451064 1.0599219 1.0301943
000190 67 06 8b 3f 80 50 85 3f 56 e6 84 3f 7a 0a 89 3f
       1.0861329 1.0415192 1.0382793 1.0706322
0001a0 79 87 8d 3f c6 37 87 3f 88 22 88 3f a4 21 90 3f
       1.1056968 1.0563896 1.0635538 1.1260266
0001b0 77 a1 8d 3f 8d 8c 86 3f 4c 17 83 3f aa f3 89 3f
       1.10649 1.0511643 1.0241485 1.0777485
0001c0 8a 04 84 3f 0e 4e 84 3f ff 5f 88 3f 8c 7b 89 3f
       1.0313885 1.033632 1.0654296 1.0740829
0001d0 39 7c 88 3f 67 88 87 3f 37 21 8d 3f bb 1b 86 3f
       1.066291 1.0588502 1.1025761 1.0477213
0001e0 ee 29 84 3f b9 f2 85 3f e9 8f 86 3f f7 0b 8c 3f
       1.0325296 1.0464698 1.0512668 1.0941151
0001f0 35 3f 86 3f b1 cd 86 3f 22 9e 8a 3f 99 b4 8e 3f
       1.0488039 1.0531522 1.0829508 1.1148864
000200 08 9a e2 3a 6b 65 19 3d 58 88 36 bc 0d 64 c0 bc
       0.0017288337 0.037450235 -0.011140905 -0.023485208
000210 66 88 6f 3b 6f d2 54 3c 80 1c d0 3b 90 98 67 3c
       0.0036549806 0.012989624 0.0063510537 0.014135495
000220 37 b9 0a 38 23 24 92 bc 92 a2 1b bc 91 47 29 bb
       3.307426e-05 -0.017839497 -0.009499209 -0.002583001
000230 3d 2b ce bc 5a 9b 43 3c 85 ff 19 3b 82 fd 25 3c
       -0.025167102 0.011938894 0.0023498249 0.010131242
000240 ba 8c b9 bc 0f 24 12 bd a2 6e 5a 3c 47 41 36 bd
       -0.022650111 -0.03567892 0.013332041 -0.044495847
000250 3f 27 5d 3c de aa c4 bc 2e db 8c b9 6b 58 04 bc
       0.0134981265 -0.024007257 -0.00026866182 -0.008077721
000260 c1 ac a4 3c fa be 85 3c e3 4f b9 bb 8e 29 2d bc
       0.020101907 0.016326416 -0.005655275 -0.010568989
000270 d7 5a fe 3c 31 16 06 3c 84 81 c3 bb 5f 38 ba bb
       0.031049175 0.008184002 -0.005966367 -0.0056829895
000280 81 27 e8 bb 98 c2 bb bc e5 97 df bb 3d 5c 16 bc
       -0.0070847874 -0.022919938 -0.006823527 -0.009177265
000290 83 5d 97 3c dd 42 d4 bc 67 1c 90 3c 40 2d 01 bc
       0.018477207 -0.02591079 0.017591668 -0.007884324
0002a0 0c 27 9a 3b 9c 27 c6 3b 33 18 80 3c c2 c2 3e bc
       0.004704362 0.0060472023 0.01563654 -0.011643114
0002b0 b4 c3 6c 3b 0f 23 b5 bb 01 ad 21 bd 15 5d 60 bb
       0.003612739 -0.005527861 -0.03947163 -0.0034235169
0002c0 34 12 36 bc 17 ea 96 3c 34 54 a0 bc c5 a6 8c ba
       -0.011112738 0.01842217 -0.019571401 -0.0010730854
0002d0 ad df e8 3b fb 2c 8d 3c 64 91 41 bc 49 98 84 3c
       0.0071067424 0.017233362 -0.011814449 0.016185896
0002e0 91 6c 6a bc 24 2f 88 ba 61 cf a5 bb e2 15 77 3c
       -0.014308111 -0.0010390026 -0.005060122 0.015080901
0002f0 a8 27 47 3c 25 a1 36 bc 6d 75 c2 bb a4 a9 82 3c
       0.012155451 -0.011146818 -0.0059344084 0.015950032
000300 66 4a f0 3d e7 6a da 3c a4 2f bf 3c ed 5d df 3d
       0.117329404 0.026662303 0.023338147 0.10906587
000310 9f 9e fb 3d 5c c2 f2 3d 69 b4 4c 3d 86 9d ad 3d
       0.12286114 0.11853477 0.04997674 0.08477311
000320 13 b7 d9 3d 87 32 1c 3e b7 d2 a3 3d 19 ab ed 3d
       0.10630622 0.1525365 0.07999175 0.116049
000330 3d 6b d4 3d 36 8a c3 3d 3d d0 82 3d 6a 9b ef 3d
       0.103720166 0.09547846 0.063873746 0.11699565
000340 62 ad ee 3d 30 d4 c2 3b 7d ce 9a 3d 81 8b f0 3d
       0.11654164 0.005945705 0.07558916 0.11745358
000350 da bb 95 3d c9 c7 b4 3d 15 17 f8 3c 35 a2 8f 3d
       0.073112205 0.088271685 0.030284444 0.070133604
000360 4d 93 5d 3d 06 55 da 3d 41 32 6d 3d be 48 d5 3d
       0.054095555 0.10660748 0.057909254 0.10414265
000370 69 53 b4 3d 3a aa dd 3d f7 d0 8b 3c 05 7b 25 3d
       0.08804972 0.10823484 0.017067416 0.040400524
000380 ae 33 ab 3d 55 fd 84 3d 17 1b b6 3d 75 d9 71 3d
       0.083594665 0.06493632 0.08891886 0.059045274
000390 0f 3b 96 3d f9 21 31 3d b6 be 20 3d cb 2b 76 3d
       0.07335483 0.04324529 0.039244376 0.060100358
0003a0 b3 a1 e3 3d ca 34 7b 3d 6f 03 99 3d a7 89 7d 3d
       0.11114826 0.06132964 0.07471358 0.061898854
0003b0 63 a6 dd 3d e5 93 f5 3d f5 22 f2 3c 20 ad 93 3d
       0.108227514 0.11991099 0.029557684 0.07210755
0003c0 74 a2 24 3d c1 a2 ca 3d ca df c8 3d 1b 24 b4 3d
       0.04019399 0.09894324 0.098083094 0.08795949
0003d0 01 cb cf 3d bc 5f 83 3c 29 84 d7 3d 0e e9 72 3d
       0.10146142 0.01603686 0.105232544 0.05930429
0003e0 0d b4 43 3d ca 31 86 3d df fb 8e 3d 46 64 d9 3d
       0.04777913 0.06552465 0.06981634 0.10614829
0003f0 86 46 95 3d 19 7f df 3d e8 ef 02 3d 5b 1a 1e 3d
       0.07288842 0.10912914 0.031967074 0.038599353
