app/src/main/assets/model.tflite (tflite, 602232 bytes, 16 tensors)

arith.constant6 f4 [70, 128]
00000000: 899f 163e 9a30 673e 761a 933d fd97 d7bd
00000010: 4dae 11bd e68c 96be 620b 203e 891d cdbe
00000020: 7b3f 4cbe e185 41be 1935 35be 3d5d 393e
00000030: 4b2c 25be 3c85 ee3c e6de 373e b0fd 8abe
00000040: a740 80be 8f9c 34bd 532f b0be f847 9abc
00000050: 2cc9 d3be 6ec1 cebc 6162 f53d 2b7d efbd
00000060: bd85 82bd 621f 723d a4c4 c5be 09ab 03be
00000070: 1fa1 0dbd b659 ea3d 79d1 8a3d c40d 473e
00000080: 794f c03a b076 5dbc 9819 c3bd fa05 333e
00000090: bfed 85be 236f 77be 4ec0 8bbe 60e5 9d3d
000000a0: e653 d139 ad31 09bf 2a23 13be ad8b cbbe
000000b0: 75ca 4abe 5090 133e b0c6 713d 938a 9abc
000000c0: e85d 81bd f31c d23c 3462 50be 255d 4ebe
000000d0: 2124 a23c f648 d33d bc78 203e 5eb9 bf3d
000000e0: 1e1a c1be 0115 413c 517c dcbe f35a 253e
000000f0: 7df8 4fbe 63c2 283d 095f 253e fb5b c83d
00000100: 0d4f 2abe 7c19 83be e56c 60be 1671 89be
00000110: 48ef 28be d5e4 763e 6f50 50bd 2a67 d3bd
00000120: bda2 31be 1628 d83d 8346 ffbd 1a67 65bd
00000130: 60ec e2be ae35 cf3d fbf7 afbd 29b5 393e
00000140: d82b 4dbd 0b0a 633e 7962 d13d 3f12 a8be
00000150: 838d 53bc 20e4 cfbd a71a d43c 05f4 373e
00000160: d03d 5e3c a9be b43c 0da7 95be 2fc4 0d3e
00000170: 7428 97bd 8a1f 8abd e32f 7fbe b530 493c
00000180: 2ee8 6b3d b90b bcbe 2017 f9bd 4b82 173e
00000190: 0b7d b4be aae1 2abe 169a 83bd 5511 d93c
000001a0: ebe1 5c3e 02a4 e6bd 946c 90be e972 07bd
000001b0: d2c1 343d 6e4f a63b 4050 3abd 6044 263d
000001c0: b1ad 8fbe a761 f53d 032f f93c d421 553e
000001d0: c97d cabe 5445 91be edce 62be 8f70 1abd
000001e0: 1d4e 57bd 67c1 9bbe 5941 6bbe d386 79be
000001f0: c222 223b 4786 75bc dfc8 1a3e 6199 3ebe
00000200: 02f0 dbbe 110e 9ebc ed53 c33d b2a8 37be
00000210: 2e8e 80be 4a75 9b3d 22be 6ebe 61d1 a43d
00000220: 41b8 6dbe 8a2b d0bd 0103 23bd aa4e f2bd
00000230: 2891 973d 7152 08be 26a9 92be c771 8d3d
00000240: a7f7 173e 9911 483d e687 0b3d d179 413e
00000250: e7cf 1abe 27c2 d33d 242f 70be 6058 13be
00000260: 21a6 9cbd 60f9 abbe 4149 273d e2ae f03d
00000270: 1d5c a3be bc0e a53d 59c1 183e 180d 25be
00000280: 78d6 d63b a405 3cbe 5ff1 69be b6c8 f63c
00000290: 45ea 67be 4313 7abe c81f 973d 0bef b33b
000002a0: c61b ed3d e15c 25be 8982 1f3e 0730 6ebb
000002b0: 1a8b b13d b8f5 dc3d 5d91 46be 37f1 b73d
000002c0: 0683 80be 46a9 a53d 4fb0 3dbe 405b 283e
000002d0: afdb c53d 788d 5abe 32b6 33be 2986 183e
000002e0: aed9 953d 72ac f0bd deca e13c 6828 5bbd
000002f0: cae1 053c d6b7 e8bd d466 243d 30b7 d13d
00000300: e9b7 5e3d be7e 76be 36b5 a43d b667 8fbe
00000310: 6c37 5ebe 53c7 cdbd c5cc bcbc e53b 0a3d
00000320: 9a81 373d 039c de3d 7eb8 7abd 8ec0 0abd
00000330: 7236 9dbd d477 92bd 06af dfbd 282f 57be
00000340: 625c babd 840f bbbc dd8c f73d 1f74 65bd
00000350: ffe9 0abe 3377 04bf 268d e43d 0cd4 183d
00000360: eeb2 ce3d b690 d93d d507 163d a177 39be
00000370: 8552 90be a5da f13d 8f18 0cbd 4fd0 38be
00000380: 4c2f cdbe c6ce 59bd c831 60be 50e5 21be
00000390: 5514 cc3a edae d6ba 7960 f13d d8f3 bbbd
000003a0: e2c8 26bc 846a f4bc c3e1 97bd 22b1 003e
000003b0: 35d6 623e 8e87 84be 01fd 66bd bc22 9c3d
000003c0: 73c0 c3be 4f3c 1dbe c09b e3bd c90e 1d3e
000003d0: 4eb0 75be 0a07 db3d 59f5 a33d 95e8 003e
000003e0: e256 a3bc 3730 5abe 2965 263d 0f2f 883d
000003f0: 759c e9bd 85e7 b5be f07f ea3c 3386 2b3e
0.14709295 0.22577134 0.071827814 -0.10527036 -0.035566617 -0.29404372 0.15629342 -0.40061596
-0.19946091 -0.18898727 -0.17696036 0.18101974 -0.16130178 0.029116265 0.17956123 -0.27146673
-0.25049326 -0.04409462 -0.34411106 -0.018833145 -0.4136442 -0.025238719 0.11981655 -0.11693796
-0.06373165 0.05911196 -0.38626587 -0.12858213 -0.034577485 0.11442892 0.06778235 0.19438845
0.0014672122 -0.013517067 -0.09526366 0.17482749 -0.26157948 -0.24163489 -0.27295154 0.077097654
0.00039926096 -0.53591424 -0.14368883 -0.39755002 -0.19803794 0.1441052 0.059027374 -0.018864905
-0.06316739 0.02564857 -0.20349962 -0.2015272 0.019792618 0.103166506 0.15671057 0.09361528
-0.37715238 0.011784793 -0.43063596 0.16147976 -0.20309635 0.041201007 0.16149534 0.09783169
-0.16631718 -0.2560538 -0.2191654 -0.2684409 -0.16497529 0.2411073 -0.050857957 -0.10322411
-0.17347236 0.10554521 -0.12464621 -0.05600653 -0.44320965 0.101176605 -0.085922204 0.18135513
-0.05009064 0.221718 0.1022386 -0.3282642 -0.012912157 -0.10150933 0.025891615 0.1796418
0.013564542 0.02206357 -0.29229012 0.1384437 -0.07380763 -0.06744297 -0.24920611 0.012279679
0.05759447 -0.36727694 -0.12162614 0.14795797 -0.3525165 -0.16687647 -0.06425874 0.026497522
0.21570556 -0.11261751 -0.2820784 -0.03306857 0.044130154 0.0050753867 -0.04548669 0.04059255
-0.28062204 0.11981516 0.030417925 0.20813686 -0.3954909 -0.28373206 -0.22149248 -0.037705
-0.05256473 -0.30420992 -0.22974147 -0.24367838 0.0024739956 -0.0149856275 0.15115689 -0.18613197
-0.4295655 -0.019293817 0.09537492 -0.17935446 -0.25108474 0.075907305 -0.23314717 0.08047748
-0.23214819 -0.101645544 -0.039797787 -0.1183141 0.07400733 -0.13312699 -0.28644675 0.06906467
0.14840566 0.048844907 0.03406515 0.18894126 -0.15118371 0.10339766 -0.23455483 -0.14389181
-0.07648874 -0.33588696 0.040841345 0.11752106 -0.31906214 0.08059451 0.14917506 -0.16118276
0.0065563284 -0.18361527 -0.22845982 0.030125003 -0.2264796 -0.2442141 0.07379109 0.0054911426
0.11577563 -0.16148712 0.15577139 -0.0036344544 0.0866911 0.10789055 -0.19391389 0.08981555
-0.25099963 0.08088927 -0.18524288 0.16441059 0.09661042 -0.21343029 -0.17549971 0.14894928
0.0731691 -0.11751641 0.027562555 -0.05350533 0.008171508 -0.11363189 0.040137127 0.10240018
0.05437461 -0.24071786 0.08042376 -0.28008813 -0.2170083 -0.10047784 -0.02304686 0.033748526
0.044801332 0.108696006 -0.0612111 -0.03387504 -0.076764 -0.07151762 -0.10922055 -0.21014082
-0.09099652 -0.022834547 0.120874144 -0.056018945 -0.13565825 -0.51744384 0.111597344 0.0373116
0.10092722 0.106233045 0.036628563 -0.18112041 -0.28187957 0.11809281 -0.03420311 -0.18048213
-0.40075147 -0.05317571 -0.2189399 -0.15810132 0.0015570024 -0.0016379036 0.11785979 -0.09177369
-0.01017973 -0.029835947 -0.074161075 0.12567571 0.22152026 -0.2588467 -0.056393627 0.076238126
-0.38232765 -0.15355037 -0.11113691 0.15337671 -0.23993036 0.10694702 0.08005781 0.12588723
-0.01993889 -0.21307455 0.040623818 0.06649601 -0.11406795 -0.35528198 0.028625458 0.16750412

arith.constant7 f4 [128, 64]
00000000: 9853 d13e 8af8 93bd af98 7a3e 3083 60be
00000010: b25a 873d 4d8a ac3e 9a28 343e 821e 943d
00000020: 9621 9d3e 1b15 d7be cc18 a83d db6c 5eb9
00000030: cbde 30bd 4ee0 be3d a727 d03b 6b1d 02bc
00000040: e0fe 803e febe 663d c6d6 1d3e 0e7a f33d
00000050: 758c 1dbd 3957 49be 2f1a f53d f2fd cf3e
00000060: 4189 063d f75d 24be c6a3 c1be cb27 49be
00000070: a775 69bd 47f5 eabe 13aa c13c 12d5 babe
00000080: 0fa5 32be 8b26 3c3e 7e35 ff3d 792f 573e
00000090: 57b0 133d 57d0 da3e d61f 0dbc ba35 dc3d
000000a0: 9478 19be 3509 f8be 6365 3d3e 1c25 69be
000000b0: 66f9 8b3d 102d 9bbd 26f4 433e acab 9abd
000000c0: 86d8 783e 2f3d 7dbd 4a6c 223e 2f62 cb3d
000000d0: 64c5 24be 232e a0bd 6bb9 543e 0f5e e8be
000000e0: 83c5 873d fd63 f03c ac76 00be 267b 18be
000000f0: a227 2fbd bcac 133e a869 413e 51dc 5fbe
00000100: 4a97 1cbe 7389 883d 23b3 fc3d 8f22 1f3e
00000110: 3363 79be ec2b 0fbe 6ce4 4cbd 7942 37bd
00000120: 50c1 273e 379b 20bd 5281 8dbe 7319 3a3e
00000130: 6143 773e 210c 12bd a451 503d 40f6 b93c
00000140: d756 433e bae4 71be c372 3a3d 2252 773e
00000150: 041f 3c3e 6e2b 38be 80aa 1a3e 12e4 fabc
00000160: 9fbe ad3e 841b d1be 81c3 26bc 0c5d 0fbd
00000170: 442e 00be b984 0c3e 46d5 153e 13b7 493e
00000180: 1d1a 66be 3826 13be 4fb9 3e3e 0d0b 76be
00000190: e058 293e 757c 0c3e d2f5 213d 6ab9 303d
000001a0: 2560 eb3d 2ac1 073e 0161 8e3e e986 1fbe
000001b0: ebdc 29be 3eae 093e 7bb3 f0bc 1075 5e3e
000001c0: a276 cbbb f0e1 f63b 9785 8ebc 2afe c8be
000001d0: 0a77 1cbe 2ead 91be b9ae 6a3d a592 d83d
000001e0: d00e a03e 64d3 d73d 4320 323e 8110 a33e
000001f0: 43d1 60be f9c9 623e 38b8 15bd f98d 273e
00000200: d19c 98bc 59d9 3a3c 294b a8bd 3294 21be
00000210: ed87 033e 66f9 b2bd cec6 8a3e 184b 013d
00000220: 7f68 8d3d 3f44 9d3e b820 31be 0502 bfbd
00000230: 6348 58bd 9d7e 3cbe 22b7 00be 1999 413b
00000240: 39c4 43bd dcc2 cdbb b871 303e 8ce3 58bd
00000250: d13f c0bd 5b79 e13d a708 f43c 7ff0 af3d
00000260: ad3a b8bc 7a38 f53d 06de 693c 9641 0abe
00000270: 2b19 dabe 469c a63e 6d0a a23d d4e6 933e
00000280: 7c4c 25be 45fe 03be 83da 49bd 1dad ef3d
00000290: da15 a63d 6acc 02be eba0 58bd 53cf d1bd
000002a0: e080 86be a617 aa3e 33e7 023e 7f27 a8bd
000002b0: a5e9 85bd 913b 0bbe b61b acbd 2c42 733d
000002c0: 93fe 3d3e d6e2 aa3a 4b69 963e 81d9 b03d
000002d0: 62e9 3e3e 7f8a 3c3e 791c 44be 25cc 1a3e
000002e0: d3e8 cbbe b134 03be fdb3 55be 7b32 783e
000002f0: ffab 06bd 8331 4bbd 4924 be3d 81fd 723c
00000300: d61e 1b3d 5f0f 6a3d 418d 0c3d dc63 da3d
00000310: 4db1 fabc 852f 52be 16a0 4fbe 878d c2be
00000320: 459f 9abd dc46 97bd 7f1c 163e 07f5 2e3e
00000330: 1147 813d 91fa e33e 41d8 a63e 8cc3 95be
00000340: 4efe cebd 9e1a 89bd 8d07 d1bc 5f24 c4bd
00000350: 9091 9f3d d91f 353c 9c2c 7d3e 6165 f9bd
00000360: 6c34 f93d e630 06be 819d b4bd 0b1d 2bbe
00000370: 1c79 1f3e 39f5 e2bb d970 313d 4aee ac3d
00000380: 6653 b33d 0ed6 483e 06bf 843c 9993 f23d
00000390: 81c1 a6bd 7e07 5a3e fce9 883d 8090 8b3e
000003a0: 68f4 1a3e 3ed1 4bbe 5b56 2b3e 1f03 6b3e
000003b0: 6cb5 03be 55bb 8c3d 697e 30be 4b6e 6dbe
000003c0: c8e7 9fbe 5c08 bb3e d097 a3be 2baf c63c
000003d0: 9260 3b3d de84 99bd 445e f0bc 8640 923d
000003e0: cec9 3b3e 78b7 e4bc 7919 51be 9ddb c33e
000003f0: d03d eb3c b25c 9d3e 882f 93be 729d 08be
0.4088409 -0.072251394 0.24472307 -0.21925044 0.06609096 0.33699265 0.17593613 0.072323814
0.30689687 -0.4200829 0.08207855 -0.00021212122 -0.043181222 0.093201265 0.006352383 -0.007941584
0.25194454 0.056334488 0.15413961 0.118885145 -0.03846403 -0.19662179 0.11967885 0.40623432
0.03284574 -0.1605147 -0.37820262 -0.19644086 -0.056996968 -0.45890257 0.023640668 -0.36490685
-0.17445777 0.18374078 0.12461375 0.21014203 0.036056843 0.42737076 -0.008613547 0.10752435
-0.14987403 -0.48444524 0.18495707 -0.22768062 0.06834678 -0.07576954 0.19136104 -0.07552275
0.24301347 -0.061825927 0.15861621 0.099308364 -0.16090924 -0.078213 0.20773856 -0.4538426
0.06629469 0.029344553 -0.1254527 -0.14890727 -0.042762406 0.14421362 0.18887961 -0.21861388
-0.15292087 0.06666841 0.12338855 0.15540527 -0.24354248 -0.13981599 -0.050022528 -0.044741128
0.16382337 -0.039210524 -0.27637726 0.1817377 0.24146797 -0.0356561 0.05085911 0.022700429
0.19076096 -0.23622409 0.0455196 0.24152425 0.18371207 -0.17985317 0.15104103 -0.03062633
0.33934495 -0.40841305 -0.010178448 -0.035000846 -0.12517649 0.13722505 0.14632139 0.19698744
-0.22470899 -0.14370048 0.18625377 -0.24027653 0.1653781 0.13719352 0.039541073 0.043145575
0.114929475 0.1325728 0.27808383 -0.15578808 -0.1658818 0.13445374 -0.029382458 0.21724343
-0.0062092105 0.007534258 -0.017397685 -0.39256412 -0.15279785 -0.28452438 0.057295535 0.10574845
0.312613 0.105383664 0.1739512 0.3184853 -0.21954827 0.22147359 -0.036552638 0.16362752
-0.018629463 0.011404359 -0.08217461 -0.15779188 0.1284482 -0.08738975 0.271048 0.031565756
0.06904697 0.3071613 -0.17297637 -0.09326557 -0.05280341 -0.18407674 -0.1256986 0.0029540716
-0.047794554 -0.0062793326 0.1723088 -0.05295138 -0.09387172 0.11009475 0.029789282 0.08590793
-0.022488916 0.11973663 0.014274126 -0.13501582 -0.42597327 0.32541102 0.07912145 0.28887045
-0.16142458 -0.12889965 -0.049280655 0.117029406 0.081096366 -0.1277329 -0.05288784 -0.10244622
-0.262702 0.33221167 0.12783508 -0.08210658 -0.06538705 -0.13596942 -0.08403723 0.05938928
0.18554144 0.0013037573 0.29377207 0.086352356 0.18643716 0.18412207 -0.19151486 0.15116937
-0.39826068 -0.12813069 -0.20869441 0.24238007 -0.032878872 -0.049607765 0.092842646 0.014830948
0.037871204 0.057143565 0.034314398 0.10663578 -0.030602122 -0.2052594 -0.20275912 -0.37998602
-0.075499095 -0.07386562 0.14659308 0.17085658 0.06312383 0.44527104 0.32586864 -0.29250753
-0.101070985 -0.0669453 -0.025516296 -0.0957725 0.07791436 0.011054956 0.24724048 -0.121775396
0.12168202 -0.13104591 -0.08819104 -0.16710298 0.15573543 -0.0069262055 0.04332051 0.084438875
0.08756141 0.19612905 0.016204368 0.11844558 -0.08142377 0.2129192 0.06685254 0.27258682
0.15132296 -0.19904038 0.16732161 0.2295041 -0.12862176 0.06871668 -0.17235722 -0.23186605
-0.31231523 0.36529815 -0.3195176 0.024253448 0.045746394 -0.074960455 -0.029341824 0.07141213
0.18338701 -0.027919516 -0.20419873 0.3825349 0.028715998 0.30734783 -0.287472 -0.1334131

arith.constant8 f4 [256, 128]
00000000: dec0 babc 5501 f6bd e8e8 113e c762 ddbd
00000010: aa69 ae3d 0a4e 673d b96d bcbd 0f9e ee3d
00000020: 81a5 2cbe d0bd 9cbe e68e 883c ca8b 313e
00000030: bb66 0c3d 563e d33d 2e53 333e 008f e9bb
00000040: 211d 08be 3d22 be3e 6a2f d6bd 8e94 2dbd
00000050: 8d62 4abd 52cf 38bd 5196 32be b067 80bd
00000060: 1d82 cc3d 4428 80bd 168c d3bd 3364 32be
00000070: a044 893e 6ff7 a0bd f784 3abe 16e3 a13d
00000080: f9a0 72bd cf04 1b3e 86b5 4abd e6ae aa3d
00000090: b9c6 25be 0b36 913d cf48 cebd c60c a03c
000000a0: c03b 97bd a9c4 8dbd 3237 16be 38c5 dfbc
000000b0: 8486 803c 7baa 093e 5ad2 8cbd 551c 1a3d
000000c0: abd5 f2bd 813f 093e 4d58 96bb b3ed be3c
000000d0: d71f 49bd 8df7 26be abc3 0f39 cb3b 943c
000000e0: 1296 a3bd 6311 303d ad13 2ebd ead5 d93d
000000f0: c3de 90bd 9fed cb3d b810 e03c e2b8 1b3e
00000100: 227e b83b 357b 05be 30da 15be 4ee1 d5bd
00000110: 1b89 38be df3f 803c a138 063e b2ad 1bbd
00000120: 969d eebc 6964 02be 46e4 fe3d 4bb9 01be
00000130: fa7d c63b 9972 e0bd 6ca8 823e 20b5 2f3e
00000140: cc39 17bd bc7d d2bc 8d3f d1bd d176 71be
00000150: bf58 1bbc bce3 15bd f6b4 e53d 0812 5c3d
00000160: 5ca8 b2bd fbdd 8a3d e08c a3bd 5014 86bd
00000170: 64ba 183e 358b 7ebd 47ed dcbd f4ce a2bd
00000180: 0c6f 063c 8321 e83d 6e72 0e3e fcab dcbd
00000190: b7f3 473e 8c40 793d 93fa ca3b 6bfb c63a
000001a0: 28a5 5fbb 0ba7 c7b9 96af 543d 8d93 18bd
000001b0: eac3 943d 4e8c d23d fc90 86bd 743a d8bd
000001c0: f8d5 bbbd ef15 b63d 8226 f6bd fbb4 14be
000001d0: bc2b 85bd 826a b73c 7289 4d3c 2b3b f4bd
000001e0: c2f1 b23c cbe0 283e 7546 adbe 2582 d23d
000001f0: 1cce cb3d 37b7 76be 5a19 ee3c 7961 f23b
00000200: e675 8cbe e130 e3bc 60fc 143e 54fc 193d
00000210: d887 653e e676 3ebd c1d1 9fbe 7d54 43be
00000220: 97f4 273d 3878 933d 9e8f 5f3c ce8b 473d
00000230: a2f7 c03d c6c9 8f3d 46f3 93bb 93cb 9abd
00000240: cedb 503c d7a1 7aba fdf2 97bd 86fe d73d
00000250: 5237 30be 9ca9 a63d 7676 38be 7c34 edbd
00000260: 2edc 01be 443a 283e 4e6e 5ebe dc7e f5bc
00000270: fc93 b63d 56cd 303e 923a 1f3e 6c96 04be
00000280: 8f1d be3b c2c0 13bd 850a f3bc aa01 7cbd
00000290: aa5d 1cbe dcc6 e7bd 3cd5 433e 8aeb 96bd
000002a0: 2baf da3d acdf e4bd 21c3 143d 6220 e5bd
000002b0: ed2a f9bc 1a80 403e 4657 48bd c7f4 93bc
000002c0: 9a6f 7dbd 2276 343d 5709 7abd 5baa b33d
000002d0: 7159 493e 1c22 5abd 810e a93a 2407 b6bd
000002e0: 0902 87be 5330 54bd 0b56 3cbd 99b0 19be
000002f0: f291 99be 65d8 31be 7e39 a4bd da36 9e3d
00000300: 92bf e9bb 4f2b 97bd 1e13 e93d b9a0 ca3d
00000310: 5b9b b03d 11fb 76bd aa9f 853d 3947 36bd
00000320: 63c4 1b3e eddc 213e b83a fdbd a211 c83d
00000330: d3e5 5bbe 811c 243d 7969 f8bc b9fc 393e
00000340: 85d2 abbe 75f3 4abe e622 6dbd 1ffa 0c3e
00000350: 1193 fcbd bf1e 1d3e 0f59 f93d ef61 52be
00000360: f4d0 853d de94 99be d390 a93d 1ff8 123e
00000370: 1324 0e3e 26cc 5b3d c691 91bd 5952 243d
00000380: 634d eebc a1e1 3c3d c47e 1c3e 50ff 333b
00000390: c109 23bd 84ab d1bd f520 efbc fabc c33d
000003a0: 54b1 81be f001 98bc a8bd ab3d 1ad9 07be
000003b0: 9698 173d e786 10bd e807 94bd aced d43a
000003c0: bedd 9fbb d60a 083e 8aef 5f3c 86f7 da3e
000003d0: b002 9bbd 41b6 e03d 68f8 8f3d 00f0 89be
000003e0: e063 28bd 4cd4 89bd 3dd0 403e 9ddc b6bc
000003f0: 139c 80be c740 40bd b804 a53d 85fd b73d
-0.022797044 -0.12011973 0.14249003 -0.10809856 0.085162476 0.05647091 -0.092006154 0.11651241
-0.1686001 -0.30613565 0.016669702 0.17338482 0.03427766 0.10314624 0.175122 -0.0071276426
-0.13292362 0.37135497 -0.10458262 -0.042378 -0.04941039 -0.04511959 -0.17440154 -0.06269777
0.09985755 -0.0625768 -0.10329454 -0.17421035 0.2681017 -0.07859694 -0.18214785 0.07904641
-0.059235547 0.15138553 -0.04948952 0.083341405 -0.16189088 0.07090386 -0.10072481 0.01953734
-0.07384443 -0.069222756 -0.14669493 -0.02731572 0.015689142 0.1344394 -0.06876059 0.037624676
-0.1185716 0.13403131 -0.004588163 0.023306703 -0.04910263 -0.1630537 0.00013710435 0.018094918
-0.07987608 0.04298533 -0.042499233 0.10636504 -0.070737384 0.09957432 0.027351722 0.15207246
0.0056302706 -0.13035281 -0.14634013 -0.10443364 -0.18021052 0.015655456 0.1310754 -0.038007446
-0.029127877 -0.12733616 0.124458835 -0.1266834 0.006057498 -0.10959358 0.2551912 0.17158937
-0.036920354 -0.02569472 -0.102171995 -0.23580481 -0.009481608 -0.036594138 0.11216156 0.053728133
-0.08723518 0.06780621 -0.07985854 -0.06546843 0.14914852 -0.062144477 -0.107874446 -0.079496294
0.008205187 0.11334517 0.13910839 -0.10774991 0.19526564 0.060852572 0.0061944216 0.001518113
-0.003412554 -0.00038080695 0.051925264 -0.03725009 0.0726393 0.10280667 -0.06570622 -0.10558024
-0.09171671 0.08890902 -0.120190635 -0.14522164 -0.06502482 0.022389654 0.012544977 -0.11925348
0.021843795 0.16492002 -0.33842817 0.10278729 0.099514216 -0.24093328 0.029064823 0.0073968736
-0.274337 -0.027733268 0.14549398 0.037594154 0.22415102 -0.04650011 -0.31214717 -0.19075198
0.041004743 0.07200664 0.013645081 0.048717313 0.09422232 0.07020907 -0.0045150844 -0.0755836
0.012747718 -0.0009560859 -0.07419393 0.10546593 -0.17208603 0.08137819 -0.1801394 -0.11582276
-0.12681648 0.16428477 -0.21721765 -0.029967718 0.089149445 0.1726583 0.15549687 -0.12948006
0.0058018635 -0.0360725 -0.029668102 -0.061525024 -0.15270105 -0.11317226 0.19124311 -0.07369144
0.10677942 -0.111754745 0.036318902 -0.11187817 -0.030415976 0.18798867 -0.048911355 -0.018061055
-0.06187401 0.044057973 -0.061044063 0.08772727 0.19663025 -0.053255185 0.0012897999 -0.08888081
-0.2636874 -0.051803898 -0.045980494 -0.15008773 -0.2999416 -0.17367704 -0.08018778 0.07725306
-0.0071334327 -0.07381307 0.113805994 0.09893937 0.08623382 -0.06029803 0.06524594 -0.044501517
0.15211634 0.15806933 -0.12364715 0.09768988 -0.2147439 0.040066246 -0.03032373 0.18162812
-0.3355905 -0.19819434 -0.05789461 0.13767289 -0.12332738 0.1534376 0.1217519 -0.20545171
0.06533995 -0.2999639 0.08279576 0.14352463 0.13880949 0.053661488 -0.07107882 0.040117595
-0.029089635 0.046113614 0.15282732 0.002746541 -0.039804224 -0.10237792 -0.02919052 0.09557529
-0.25330603 -0.018555611 0.083857834 -0.13266411 0.03701075 -0.035284903 -0.072280705 0.0016245148
-0.0048787287 0.13285384 0.01366795 0.4276697 -0.07568872 0.10972262 0.070298016 -0.26940918
-0.041110873 -0.067299455 0.18829437 -0.022321993 -0.25119075 -0.046936776 0.08057541 0.08983902

arith.constant9 f4 [256, 64]
00000000: 61a1 eb3d 7413 55be 7aa0 e3bb f5e2 e73d
00000010: 83f0 04bd 6af6 2e3d d2ce 1f3e 3411 3abd
00000020: b643 c53d 02c9 003d a1c6 2ebd 6400 313b
00000030: b766 85bc 6218 5cbd 8ac9 b5bd 433d c83d
00000040: 11d3 7abe 2eb2 b9bd 4ddb dabd 4ea1 27bd
00000050: be52 493d 3ab1 08be f2bd f23d 9bb1 d5bd
00000060: 7411 343b 3a5b 0d3e 4e15 f53d 10da e6bd
00000070: 0ff2 85bd 6444 503e 6d08 74bd 29e3 8d3c
00000080: 2c66 173e 8e7d eebd b142 ec3c c96c 693d
00000090: 1631 ad3d 38a5 00be 92b0 b0bc de3e a53d
000000a0: 3401 b73d d8ed 203d 17c1 e6bc aaac 98be
000000b0: a9cd 4fbe dfff 3f3e f75e 163e 46ab ad3d
000000c0: a3fd a93d bc4e d1bc ed4d 90bb 5367 bf3c
000000d0: 6bbc 013e 2dde 35bd 52e2 dab9 3295 b8ba
000000e0: 9fc8 a1bd 640e efbd 8d38 483d 97e2 c73c
000000f0: f2d5 06be 3bc6 843a 268f 9f3d d6c0 6fbc
00000100: cb64 95bc f7f8 823d 9a2a 10bd c404 e43d
00000110: b807 5a3d 38e3 c5bd 1a13 ebbc 7bc9 3ebd
00000120: 7598 913d 01ad 16bd 7e48 09be 2265 33be
00000130: 725f b8bd 2cea 1fbc 8e7f 863d 4620 4dbe
00000140: 5acb 573e 0b97 193e 0c88 b6bd 1c64 193d
00000150: 1e38 1bbe d13d d63d b4c4 b03c 38bb 34be
00000160: ae6c 30be f01a 4c3e fef9 4abe 528f e83b
00000170: 2cb4 913e 922f a6be 3ae0 9b3e e95e ee3c
00000180: 764a 3e3d 9379 dabd 3baa 35be c7e2 113e
00000190: 41aa d13c 43f0 d5bc 9073 5bbd 43bd 933d
000001a0: d6ff d73d cd95 84be 81af edbd ddff 8bbe
000001b0: 3b0a 143e 752a ec3c 1040 1d3e 78a2 8fbc
000001c0: acf8 05bd 4476 dfbc 8924 abbd 12c2 7d3d
000001d0: 4269 4bbe 06d7 57bd bf6e 02be 2275 43bc
000001e0: 2cf3 fc3d ad16 0b3e 64cf b63b 6470 62bd
000001f0: d180 2a3d feb4 42be 7c2b 763c d860 123e
00000200: c85f 533d 3428 d0bd 77cd aabd ab7d 323e
00000210: 7614 76bd 6f12 b23d 77f3 143e a948 d53d
00000220: 7631 3abd b243 983d de48 2c3e 9bec 11bd
00000230: 8a20 29bd 46dc bfbd cb87 2c3d 8409 23be
00000240: e8a7 503d 7e32 423e 221f 19bd fe5d abbc
00000250: 236c 92bc d392 e43d dde5 fcbd ec89 9a3c
00000260: 6419 7dbe 22fe 91bd 46ad 403d 120a 2d3d
00000270: 5c77 183e b401 273d 6e79 c0bd 8699 a9bc
00000280: 9b4b 163e 9ee0 c1bd a036 69bd 072e 86bd
00000290: 6719 e5bd 7c1d cb3d 0cb3 1c3e 5fb4 9d3b
000002a0: 89ae ef3d c6dc 00bb e183 91bd a597 ae3d
000002b0: a3de b7bd fc0d 31bc 47f9 843b ffb6 d53d
000002c0: 8fa8 e23d 72e8 0e3e ddd6 e73d 6685 133e
000002d0: 2d24 c6bd 7909 91bd 116e df3d 0286 983d
000002e0: f6cc aabd e80c 1c3e 8214 763e 1022 84bc
000002f0: ac94 73bd 92d5 56be d748 89bd 1e8d 7b3d
00000300: 01bb 0dbe 0b92 03be 6d00 94bd b8ff bfbd
00000310: f9f7 f43d d731 8ebd 04d0 803e c526 18bd
00000320: 82b8 4e3e 0394 693d 911b 703d b9f6 05bd
00000330: bfaa 6abd 8de4 393d 12fe 833d d581 c1bd
00000340: f00e 7d3d a883 553e 0c9c 91bd 97e4 d03d
00000350: 3869 4fbe 31e1 043e 0fe7 cbbd ad8f 153d
00000360: 086c 4bba 2b1b 54bd 6dba 803c 070f f2bc
00000370: 85e0 553d b390 563e 9198 55be 068a 3bbe
00000380: ca74 59bc f266 943e 2aeb 1bbe 6c60 5fbd
00000390: 1bb7 e63b 0e95 c43d 5534 423e 2287 043b
000003a0: 13ae 03bd 9c93 43be 4b9e ad3e 024e 6bbd
000003b0: 9035 853e 87a6 02bf 44af a93d 26bc fa3b
000003c0: e4d9 16be 9579 59bd 3982 94bd f751 923d
000003d0: 5408 6abe 44d9 69bd 4d20 b13e 9d88 e53d
000003e0: 97de 0ebe de21 8e3e 53dd f2bc f57f 823d
000003f0: 85d4 c838 fbb9 d03c bc5f 503d 5942 8e3e
0.1150539 -0.20808202 -0.0069466205 0.113225855 -0.032455932 0.042715468 0.1560624 -0.045426562
0.096320555 0.031441696 -0.042669896 0.002700829 -0.01628433 -0.05373419 -0.08876331 0.0977731
-0.24494578 -0.09067188 -0.106863596 -0.040925317 0.049151175 -0.13348857 0.118526354 -0.10434266
0.0027476223 0.13804331 0.11966954 -0.11272061 -0.0654031 0.20338589 -0.059578348 0.017320232
0.14785069 -0.116450414 0.028840395 0.05698851 0.08456628 -0.12563026 -0.02156857 0.080686316
0.08935776 0.039289325 -0.028168244 -0.29819232 -0.20293297 0.18749951 0.14684664 0.084799334
0.083003305 -0.025550239 -0.0044038207 0.023364699 0.12669532 -0.044401336 -0.00041748822 -0.001408255
-0.078995936 -0.11672667 0.048882056 0.024400039 -0.13167551 0.0010129878 0.07790975 -0.014633378
-0.018236538 0.063951425 -0.035196878 0.111337215 0.053230017 -0.09662479 -0.028695632 -0.046578865
0.07109157 -0.036786083 -0.1340656 -0.17519048 -0.0900258 -0.009760421 0.06567298 -0.20031843
0.21073666 0.14999025 -0.08912668 0.037448987 -0.15158126 0.10461009 0.02157817 -0.17649543
-0.17228958 0.19932151 -0.19821927 0.0070971632 0.28457773 -0.32458168 0.3044451 0.029097991
0.04645773 -0.1066772 -0.17740719 0.14246665 0.025593879 -0.026115542 -0.053577006 0.07213833
0.10546844 -0.2589554 -0.1160574 -0.27343646 0.14457028 0.028828839 0.15356469 -0.017533526
-0.032707855 -0.027278073 -0.08356578 0.061952658 -0.19864371 -0.052695297 -0.12737559 -0.011929782
0.12351069 0.13582869 0.005578922 -0.055282965 0.041626755 -0.19014356 0.015025016 0.14294755
0.051605016 -0.10163918 -0.083399706 0.17430751 -0.060078107 0.08694922 0.14546 0.104142494
-0.045457326 0.07434787 0.16824672 -0.035626035 -0.041290797 -0.09368186 0.04212169 -0.15921599
0.050941378 0.18964574 -0.037383206 -0.020918842 -0.01787383 0.11160817 -0.123485304 0.018864594
-0.24716717 -0.0712855 0.047040246 0.042245932 0.14889282 0.04077311 -0.09398161 -0.020703088
0.14677279 -0.094666705 -0.05693686 -0.06551748 -0.11186486 0.09917733 0.15302676 0.0048127617
0.11703212 -0.0019662841 -0.07105232 0.08525018 -0.089780115 -0.010806557 0.0040580365 0.10435294
0.11067306 0.13955858 0.11320279 0.14406356 -0.09674869 -0.07081885 0.109096654 0.07447435
-0.083398744 0.15239298 0.2403126 -0.016129524 -0.059467956 -0.20979908 -0.06703346 0.061413877
-0.13840868 -0.1284868 -0.07226644 -0.09374946 0.119613595 -0.069431 0.25158703 -0.03714635
0.20187572 0.05702592 0.05862004 -0.032705996 -0.057291742 0.04538398 0.064449444 -0.094485916
0.061781824 0.20851004 -0.07109842 0.1019985 -0.20254982 0.12976529 -0.0995618 0.036513973
-0.00077599334 -0.051783722 0.015713895 -0.029548181 0.05221607 0.20953636 -0.2085898 -0.1831437
-0.013272474 0.2898479 -0.15226427 -0.054535314 0.007040871 0.095987424 0.18965276 0.0020222147
-0.032148432 -0.19099277 0.3390983 -0.05744744 0.26017427 -0.5103535 0.082853824 0.0076518236
-0.14731556 -0.053094465 -0.072514005 0.0714454 -0.2285474 -0.057091966 0.34594956 0.112076975
-0.13952099 0.27760214 -0.029646551 0.06372062 9.576328e-05 0.025479307 0.05087255 0.27784994

arith.constant10 f4 [512, 20]
00000000: a5c8 79bd 9da1 c6bc 275d a3bd 2f5a c0bc
00000010: a5bf 6b3d 3d6c 5b3b 60c4 79bc 9acf 9abd
00000020: d285 583c aaf0 08be 42ed 983c 9df9 78bd
00000030: 6493 efbc e269 cebb b645 77bc 737b f6bd
00000040: 8217 8ebd 90be f73a 9b66 7f3d ad51 63bb
00000050: 998d b8bc 3541 b9bd 0741 4dbe fbf6 f63d
00000060: 5d97 183e 8408 2d3d 6ceb 6b3d a249 123e
00000070: 7c39 993e a466 c53d 3b5d f9bd 4c77 84be
00000080: 4ec8 c3bb 34e9 9d3d eb9d 6fbd 7034 173d
00000090: be38 bd3d 9a96 7c3d 37ad 3ebe 85f2 1d3b
000000a0: f8a3 c73c a945 443d b22f 5c3d c08c af3d
000000b0: 9851 c33d 8a8b 83bb cbca 4dbe 2eb6 4cbe
000000c0: de75 53be 59b8 4abe 9dcb 65bd e0bf 193e
000000d0: 2e2c a1bd 9eeb e33d 2488 6a3e fa6c d03e
000000e0: e939 e03d 9da6 e53d 4887 a23d 27c7 903d
000000f0: 7fc8 b93d 9281 a43d 133f e23d e38c 8abd
00000100: 4907 5d3d 2b43 38bd c0e7 aebd 0f3b c3bd
00000110: 8d0b 8ebd b58b 903d 11a0 2f3a 69d8 96bc
00000120: ab9f 123d c67e f0bc 23c5 243d 95c4 6d3b
00000130: 9792 f53d a181 98bc 9058 863d c0d4 e7bd
00000140: 847f 02be d15a 80bd 73bc 113d c55e f43c
00000150: 34e5 eabd 0def aabd 03e0 2f3d 1550 cbbc
00000160: 9549 36bd b923 bdbd c473 863a 03bf 7ebd
00000170: bda0 653d 7a59 303d 8b93 733d ade7 c4bb
00000180: 958e edbc ca54 66bb 66c2 a73d 443e 76bd
00000190: 3e3c 0ebe c26b 03bd e553 123c 26d3 59bd
000001a0: ad0f 253d 246e 3fbb 9c7a 2ebc 6c48 c03d
000001b0: af45 583d 4f72 8f3b 5624 03bd 552b 1fbd
000001c0: e51b 4d3d e538 7cbd 4b88 973d e44d bd3d
000001d0: b3e8 893c b13b b2bd 2ae0 0ebe 3039 38be
000001e0: 433a ffbd 3625 dcbd 1106 7fbd df37 9a3c
000001f0: 7658 c4bd 031c f33c c0f8 8cbd 5634 6ebc
00000200: 98b8 93bd 24d8 45bb 1fd6 443d 86d5 7c3d
00000210: edc1 60bd d108 cebd faf4 403d 87bb 3e3d
00000220: ea1a 9e3c 7dab c73d c419 98bc 104d a83d
00000230: 157f 883c f63d d43d f9e9 6b3e f04b 52bd
00000240: a3ac 4f3d 65c6 1a3c 4bdf f13d 524e aa3d
00000250: ebf5 2a3e 28dd c1bd 3615 a4bd 3310 bfbe
00000260: 7c33 283d c984 28bc 4519 713c 9b83 093e
00000270: 4297 52bd 9852 7cbe 9785 acbd ce5d 88bc
00000280: a544 c2bd 0829 353d 255e 3b3d 5016 d5bc
00000290: 311c 373d 3fc5 65bb 5157 983d 4d31 6bbc
000002a0: 7a12 633d 1eb8 a03d 0f06 e0bd 2569 1fbd
000002b0: 7bfe ad3d f9e3 68bc 1e18 6cbd ac23 f73c
000002c0: c65b 7d3d 16e0 473d 9101 9abd f3f1 0dbd
000002d0: 1219 213d 291e 9ebd e39c dfbd ca18 b4bb
000002e0: a834 aebe b247 493d 7bda eb3d 4e8e 84be
000002f0: acb2 c5bd 98bd 423d a229 ab3d 3d82 e83d
00000300: 3cfb 1ebe 6c53 9abd 9899 e83d 7276 063e
00000310: 2b0a f83d 644f 0cbe 4028 aebd 26e0 f63c
00000320: e355 793d 3654 e2bc 977e 873c 324d 46ba
00000330: 5f38 d8bd 5542 1bbe 15fd 6f3a 053e 583d
00000340: e284 df3d 8327 cb3d 27cd 0a3d 2730 753d
00000350: 94e9 91bd a540 933d 30b0 ec3d 9e50 143e
00000360: 6c06 763e 543f da3d d845 b2bd c056 433b
00000370: 8c00 563d 1e2a aebd fa6e c7bd faec 6a3e
00000380: 4e1d f3ba 3fd8 6fbd 6756 cbbd 7152 ddbd
00000390: ee07 053d 9296 85bd 1773 883d a64d 86bd
000003a0: 7b94 db3d ae64 9fbd b621 24be bd28 b03d
000003b0: 46b9 15be 0400 9abe 169b 95bd 9c6f 9bbb
000003c0: d680 a33d ac31 6e3d 7f5e b5bd f330 51bd
000003d0: 49f0 b53c 06b4 b03d ab34 b73c 5caa ef3d
000003e0: cdda 5a3d 9e2c 4e3c 5ed9 ec3d 9a3e 913c
000003f0: e65f ff3a 0fb0 fcbc e780 3bbc 426e 45bd
-0.060982365 -0.024246985 -0.07976752 -0.023480503 0.057555813 0.0033481263 -0.015244573 -0.07559128
0.013215499 -0.13373056 0.01866782 -0.060784925 -0.029245086 -0.0062992433 -0.015092304 -0.12035265
-0.069380775 0.0018901397 0.06235371 -0.0034686134 -0.022528457 -0.090456404 -0.20044337 0.120588265
0.1490149 0.04224445 0.057597563 0.14285901 0.2992667 0.09638718 -0.121759854 -0.25872266
-0.005974806 0.077104956 -0.05850021 0.036915243 0.09239338 0.061667062 -0.18620764 0.0024100852
0.024370179 0.047917996 0.053756423 0.08571768 0.09537047 -0.004014437 -0.2009689 -0.19991371
-0.20650432 -0.19796886 -0.056102384 0.15014601 -0.07869755 0.11128925 0.22903496 0.40708143
0.109485455 0.112134196 0.07935959 0.07069235 0.09071445 0.08032526 0.11047187 -0.06765153
0.053962026 -0.04498593 -0.085402966 -0.09532749 -0.06935797 0.07057897 0.0006699572 -0.01841374
0.035796802 -0.029357325 0.040227067 0.0036280502 0.119908504 -0.0186165 0.06559861 -0.11319876
-0.12743956 -0.06267322 0.03558011 0.029830346 -0.11469498 -0.083463766 0.042938244 -0.02481846
-0.044503767 -0.09235329 0.001025789 -0.06219388 0.056061495 0.04305408 0.05946688 -0.006009063
-0.028998652 -0.0035145753 0.081913754 -0.060117975 -0.13890168 -0.032085188 0.008931135 -0.053179882
0.040298153 -0.0029209936 -0.01064935 0.093888134 0.05280083 0.0043776403 -0.032017075 -0.038859684
0.05007543 -0.061577696 0.07399043 0.09243372 0.016834592 -0.087027915 -0.139527 -0.17990565
-0.124622844 -0.10749285 -0.062261645 0.01882547 -0.09587185 0.029676443 -0.06883383 -0.014538845
-0.07212943 -0.0030188644 0.048055764 0.06172707 -0.054872442 -0.10060275 0.047108628 0.04656556
0.019299943 0.09749506 -0.018566974 0.082178235 0.01666216 0.103633806 0.23038472 -0.05134195
0.05070175 0.009446715 0.11810168 0.0831572 0.16695373 -0.0946601 -0.08011858 -0.37317047
0.041064724 -0.010285565 0.014715497 0.1342911 -0.051413782 -0.24640882 -0.08423918 -0.016646292
-0.09485749 0.044228584 0.04574408 -0.026011616 0.04470462 -0.0035060195 0.07438529 -0.014355016
0.055437542 0.078476176 -0.109386556 -0.038918633 0.08495804 -0.014214509 -0.057640187 0.030168377
0.0618551 0.04879769 -0.0751983 -0.03465457 0.03933055 -0.07720596 -0.10918596 -0.005496119
-0.3402455 0.04914064 0.11516281 -0.2588982 -0.096532196 0.047544092 0.0835755 0.11352966
-0.15525526 -0.07535443 0.11357421 0.13131121 0.121113144 -0.1370216 -0.08503771 0.03013618
0.060872924 -0.027628046 0.016539855 -0.00075646036 -0.10557627 -0.15162022 0.00091548386 0.05279352
0.10914017 0.09919646 0.033887055 0.059860375 -0.071246296 0.07190064 0.115570426 0.14483878
0.24025887 0.1065661 -0.08704728 0.0029806346 0.052246615 -0.08504127 -0.09737964 0.22941962
-0.0018548162 -0.058555838 -0.09928589 -0.1080674 0.032478265 -0.0652286 0.06662577 -0.06557779
0.1072168 -0.07782875 -0.16028485 0.0860152 -0.14621457 -0.30078137 -0.07304971 -0.0047435295
0.07983558 0.05815284 -0.08855914 -0.051072072 0.022209303 0.08628087 0.022363981 0.11702415
0.05343132 0.01258388 0.11564897 0.017730046 0.0019483536 -0.03084567 -0.011444307 -0.048200853

arith.constant11 f4 [512, 128]
00000000: 7f1b 97bc 044e 223e beee 483c be12 babd
00000010: d768 e3bc bf17 983d f3ae 283d 8ee7 2dbd
00000020: 3479 62bb b998 b23d ff36 96bd 71f7 18bd
00000030: 7158 32bd 4da6 4abd 7079 44bd c11f eb3d
00000040: b920 e23c 2a4b c3bc 7037 e0bb 1f45 b1bc
00000050: 62f0 9f3d 8721 c5bb e25e d73d 48b6 95bd
00000060: 6f5f a23c bb33 55bd c075 713c 39c7 143d
00000070: 2e71 eabd 2192 74bd d254 1b3d 82d0 f4bd
00000080: 7318 df3c 251c 30bd 022a 053e ae7d dd3c
00000090: c61b 9b3a 29fc b0bd f43f 313d bbc5 15bd
000000a0: 5973 94b9 b11d 9b3d a657 553d fa49 a33c
000000b0: c755 58bd d9f0 d3bd 40c4 233e e623 e93c
000000c0: 6e1d 4b3d 9a56 04bd 02ca 293d b30d ccbd
000000d0: 5fe4 97bc 1f7d 0e3e c3c7 eebc e106 a73d
000000e0: 1f0a 723d 51ce 263d 6b17 b33c 1be1 0e3b
000000f0: 9e0c 833d bfeb fbbc dedb b13c 9bc0 5f3d
00000100: 3dd5 f43a e22f b73c 65e8 4cbe 18ae 7b3d
00000110: a6da 3ebd a0f4 e13d d5e8 90bd 8c57 963d
00000120: 4656 52ba cccd 163d 6b49 51bc 49e7 6b3c
00000130: 77e6 8d3d fae3 243c 5360 103d bad8 8bbd
00000140: 9657 aa3d 8dd2 103d 9583 78bc cbe2 2d3d
00000150: b7d3 f33c 0ad9 a93c 4467 b1bc 4af5 b83c
00000160: fab7 0d3d 6b38 4e3d e482 55bc 2d85 f0bd
00000170: 7d66 32bd d5ed 89bd fbcb ea3d f87b 223e
00000180: 3317 acbd 8f87 bb3d fe33 cebd 2cea ce3d
00000190: 346f b7bb 5286 c7bc 4d73 5dbc 5da5 abbd
000001a0: eb83 7ebc 1d3a ef3c 4339 683d 6bfb bebc
000001b0: ce67 c4bd ed53 673d 34b4 3bbc 5b1a 1ebd
000001c0: ad53 913c 9bba c3bd 095c 3e3d aba7 883c
000001d0: 2437 0ebd 6e6f 89bd 8d55 633d 6599 cebc
000001e0: 0b19 dfbb 782e abbd 6752 9bbc 29e8 c3bc
000001f0: bb40 cdbd 0fa6 0dbd e15e 0ebd 756f 28bb
00000200: 55a6 8dbd 9354 49be 03c8 f73d 72ea ae3b
00000210: de5e 5bbc 0b6a a03c edce d23d 5ff4 253d
00000220: 8b3f 193d fff6 173e b6fd 1ebe 16b9 f23d
00000230: 6807 bd3d 6aa6 bdbc 8f52 f6bc c700 e53c
00000240: 48ed 4a3c 1a11 6ebe 6913 333d e64f 713c
00000250: d0a9 f93c fb0c 6a3d bd89 27bd 2065 7b3d
00000260: b4af 8b3d 799a 3a3d a539 2bbd eb0b 4a3c
00000270: 3095 46be ce7b 8ebe ead4 5abe 5734 68bd
00000280: 1a3e 1fbe f743 093e 4b91 9e3d 35e6 033c
00000290: 9b0b b13d cfbc 06be 0bbd b8bd 9820 8a3e
000002a0: 83d5 d8bc d9ce 303c 78cd 9ebd 3826 08be
000002b0: ce16 063e 9fce fc3d f0e7 613d 8dfb f3bd
000002c0: ee4a 373e 2c1b 233d e46e 9abc 9f4c d0bd
000002d0: aaa3 0b3e e83e 4cbe a5cf 1abe 74ff 38bd
000002e0: 984b e4bb 68b6 0fbd 6fee df3b 498d 16bd
000002f0: e37b 10be b254 a83d 3296 743d 0c52 883e
00000300: bdfa 5fbd 3e08 96bc 19ab 3dbc 35c1 973c
00000310: 791c 253d 2820 bebd e18f 9d3d 983e e33b
00000320: 04be d73d 815c 583d 9b66 59bd 6f81 583d
00000330: 95f6 343e f6ea e9bc b9c5 b13b 17aa 353e
00000340: 0d5f 13bd bd76 0dbd 784e b5bc 285f 83bc
00000350: a504 71bd a831 e4ba 8276 063e ff85 adbd
00000360: d573 5739 3563 e0bc dc02 16bd 6c09 1dbd
00000370: 8c18 b6bd 7ba0 c8bd 8aa3 c03c 9587 85bd
00000380: 4f60 c73e 62bd a7bd f779 b3bd 4e1b 623c
00000390: 24da 0b3d 7448 65bb d353 4ebb 848b 5ebd
000003a0: 3d62 fbbd e3d2 ba3d cd07 13bd 80ec 65bd
000003b0: 9570 d53c 934e 97bb 91e1 923d fb68 45bd
000003c0: fd44 aa3d 26b8 8bbd 889d 043d 8f50 113c
000003d0: ea25 7f3b 2b8b 8ebc 2753 c3bd 3940 d23c
000003e0: 6be3 a5bc 80ea 95bd e781 c3bd 33b1 3cbe
000003f0: af0e ddbd 6438 543d 062c 483e e3e5 acbd
-0.018445728 0.15850073 0.012263952 -0.09085606 -0.027759952 0.07426404 0.04118247 -0.042457156
-0.0034557106 0.08720536 -0.073347084 -0.037345354 -0.043541376 -0.049475003 -0.047967374 0.11480666
0.027603494 -0.023839552 -0.006842546 -0.021639405 0.07809521 -0.0060159597 0.10516144 -0.07310158
0.019820897 -0.052051287 0.014737546 0.036322806 -0.114473686 -0.059709672 0.037922688 -0.11953832
0.027233338 -0.04299559 0.13004306 0.027037468 0.0011833839 -0.08641846 0.04327388 -0.036565524
-0.000283147 0.075740226 0.05208554 0.019932736 -0.05281618 -0.103486724 0.15992832 0.0284595
0.049588613 -0.032309152 0.041452415 -0.099635504 -0.018541513 0.13914917 -0.029147988 0.08155609
0.059091683 0.040724102 0.021861752 0.0021801654 0.06398891 -0.030752061 0.021711286 0.054627042
0.0018679273 0.0223617 -0.20010526 0.061445326 -0.04659524 0.11032987 -0.07075659 0.07340917
-0.000802372 0.036817357 -0.012773852 0.014398404 0.06928723 0.0100641195 0.035248112 -0.06828447
0.08317487 0.035357047 -0.01516809 0.042452615 0.02976404 0.020733375 -0.021655686 0.0225779
0.03459928 0.050346773 -0.013031695 -0.11744151 -0.04355477 -0.06734816 0.114646874 0.15867603
-0.084028624 0.09156715 -0.100685105 0.101032585 -0.0055979732 -0.024356041 -0.013516259 -0.0838115
-0.015534381 0.029202515 0.056695234 -0.023313245 -0.09590112 0.056476522 -0.011456538 -0.038599353
0.017740095 -0.095570765 0.04647449 0.016681513 -0.034720555 -0.06710707 0.05550151 -0.025219629
-0.0068084053 -0.083584726 -0.018960191 -0.023914414 -0.10022112 -0.034582194 -0.034758452 -0.00257012
-0.06916491 -0.19661169 0.12098696 0.0053380067 -0.013389317 0.019581815 0.10293374 0.040516254
0.037414115 0.14840315 -0.1552647 0.118517086 0.09229928 -0.023150641 -0.030068664 0.027954472
0.012385674 -0.23248711 0.043719683 0.014728522 0.03047648 0.057141285 -0.04090284 0.061375737
0.06820622 0.045557473 -0.04180302 0.012331943 -0.19392848 -0.2782883 -0.21370283 -0.05669054
-0.15551034 0.13404833 0.07742556 0.008050491 0.08644792 -0.13157962 -0.09020432 0.26977992
-0.026468998 0.010791504 -0.07754034 -0.1329583 0.13094637 0.12344097 0.055152833 -0.11913214
0.17899677 0.039820835 -0.018851705 -0.10170864 0.13636652 -0.19945872 -0.15118273 -0.045165494
-0.0069670193 -0.035086066 0.0068338434 -0.036755834 -0.14109759 0.08219279 0.05971355 0.26625097
-0.054682482 -0.018314477 -0.011576437 0.018524745 0.040310357 -0.09283477 0.07693458 0.006934952
0.105342895 0.052822594 -0.053076368 0.052857812 0.17672189 -0.02855442 0.0054251817 0.17740665
-0.03597932 -0.034537066 -0.022132143 -0.016036585 -0.05884232 -0.0017409818 0.13131145 -0.08472823
0.00020547149 -0.027391056 -0.03662382 -0.038339064 -0.08891401 -0.09796234 0.023515482 -0.06520001
0.38940665 -0.08190419 -0.08763497 0.013800455 0.034143582 -0.0034985812 -0.0031483069 -0.05433227
-0.12274597 0.09122255 -0.03589611 -0.056133747 0.02605466 -0.004617521 0.0717193 -0.04819582
0.0831394 -0.06822233 0.032376796 0.008869304 0.003893251 -0.017400345 -0.095373444 0.02566539
-0.020250043 -0.07320118 -0.09546261 -0.18426971 -0.10793816 0.05181159 0.19548044 -0.08442285

arith.constant12 f4 [512]
00000000: a9f4 b23d ca10 45ba d142 903d cf69 63bc
00000010: 781e 3c3d f736 2f3d 4e35 373c e6b7 783d
00000020: c354 fb3c efc4 21bd 6738 ae3d 05b0 df3c
00000030: fd99 2bbc cffe b6bd 8a38 033c 6c55 0f3d
00000040: d582 f03d 1cf7 54bd 891d b83d 7e7a 52bc
00000050: 370d 733d 5e86 41bd db9d 473d 1c00 b53c
00000060: d1ee 583a 3d14 17bb ce8f 433d ecde 6c3c
00000070: edcf 6cbd db1e 013c 35d0 2ebe ddd3 173d
00000080: 915e 183e 2506 153c 1e55 503c 833f 01bd
00000090: f840 bd3a b7f2 953c 4a1d 88bd d3f9 233d
000000a0: 1dfc 9d3c cd1f 433d ad51 823c 06db 453d
000000b0: 64c5 c83b c335 0e3c c5bd d83c 787d 9ebb
000000c0: 2b69 7b3c a551 393d 1e93 7abc 0881 953c
000000d0: e1e6 f9bc 8456 d93d 20cc 363d c47f 8cbc
000000e0: 1312 46bb b783 f03a 3e21 68bb aa0a f238
000000f0: cf14 0ebc b180 c53b c407 bc3c c771 103d
00000100: 067b 843a 136b 66bd 98b7 3e3c d7e7 24bd
00000110: 9339 0a3d 29e9 cabc 742a c43d 2aae fd3d
00000120: 390a 91bd 7f36 32be 01c0 2ebd ec77 66bd
00000130: 5b92 1f3d c021 88bc 7590 bd3c 44ab 5f3d
00000140: 601e 87bc 153a a3bb e5f0 90bc 7bfc 1b3e
00000150: fa7f 13bd da44 903b 2bab e63b dd31 9d3d
00000160: 4137 6f3d 9071 a53c 6fc9 443d e2b0 053d
00000170: 57d5 8c3c df20 20bd 3c52 cb3c 6b72 18bd
00000180: 095b ecbc 2e0f ecbc 4997 973d 5df2 f43b
00000190: 047e 95bc 901c bdbc d23e e93a 396f 3e3d
000001a0: c077 15bb 740d ba3b 5a45 7cbc acb9 0a3b
000001b0: 9151 da3c e1f1 0fba 25ca 18bd 32b9 5e3d
000001c0: ba76 31bc 7558 633c 47f4 1abc 0be8 e0bd
000001d0: 2929 d8bc 7bae 8a3b 457b 16be 82e2 8f3d
000001e0: 4825 1c3d 1e44 593c 544f 363c 96d1 dbbd
000001f0: a788 66bb ca00 2d3d 5314 473d 9d3f 103c
00000200: 0a8f 843f 9804 7a3f af21 943f b388 783f
00000210: 1cdf 883f 55ff 823f 00e9 843f f146 873f
00000220: c27b 7f3f 30fb 853f 29ff 823f b166 803f
00000230: ae83 803f c69f 743f c11d 853f 3599 7b3f
00000240: fa9f 723f e0e0 803f 0278 8c3f bded 813f
00000250: 7c60 873f 7194 773f 12ba 853f 1cad 753f
00000260: 8b80 823f 845a 813f 8343 723f fc1d 753f
00000270: d3cd 753f 214e 793f 72ba 7f3f 38d4 773f
00000280: c68b 803f 6df0 833f a2fb 723f 9bdd 783f
00000290: 4c95 7a3f d864 823f cd09 7e3f fff1 803f
000002a0: 620d 7a3f 7332 863f c19c 843f 0659 7b3f
000002b0: 4638 843f 965c 663f 4bfa 713f 964a 803f
000002c0: 4900 883f 616c 803f c801 803f 5a3c 863f
000002d0: 2cec 833f 2689 7d3f 964d 863f 32c1 833f
000002e0: 6f62 833f 16fa 793f 9510 793f 382e 873f
000002f0: 5b5c 823f 85d9 783f c2b4 873f 948e 783f
00000300: 79b0 883f ca57 803f ada8 873f 9ea5 753f
00000310: c5cd 803f d05d 803f 1594 843f c18f 7d3f
00000320: 0ed7 7f3f e101 863f f737 7a3f c6d7 813f
00000330: 81de 6d3f 08aa 7e3f 31fd 813f 4fcd 863f
00000340: a526 7d3f b96b 833f e78f 7a3f 96b2 7d3f
00000350: 6bf3 863f 5057 823f 6fdd 793f d54b 773f
00000360: 7c53 803f 4ebd 793f d124 823f ab21 763f
00000370: 8c66 893f 91bf 853f 24ac 763f 0f6a 823f
00000380: c7fc 7b3f 4939 7d3f b4bf 893f bb44 8f3f
00000390: ba30 7c3f 28ec 7f3f b78a 7c3f c51b 843f
000003a0: 978f 723f 06f7 843f 82de 7f3f 0141 913f
000003b0: c4ef 803f 74eb 7f3f 2c23 813f f7f9 753f
000003c0: 45f6 833f 270d 813f 3a90 773f 7a76 843f
000003d0: f9e3 873f c919 7f3f d56e 823f b074 813f
000003e0: 1f80 813f 1ea3 843f c8fd 803f 5859 863f
000003f0: 97c0 733f b2aa 833f bcef 7d3f a12d 6e3f
0.087380715 -0.00075174554 0.07043994 -0.013880207 0.045927495 0.042777028 0.011182142 0.060722254
0.030680066 -0.03949445 0.08506852 0.027305612 -0.010473725 -0.0893532 0.008009085 0.034993574
0.11743704 -0.051993474 0.089900084 -0.012846587 0.059338775 -0.047247283 0.048734527 0.022094779
0.00082753325 -0.0023052834 0.047744565 0.014457446 -0.05781548 0.007880892 -0.17071612 0.037067283
0.14879824 0.009095703 0.012715606 -0.03155471 0.0014438918 0.018304212 -0.066462114 0.040033173
0.019285256 0.04763775 0.015908087 0.04830458 0.0061270464 0.00867981 0.026457677 -0.0048367344
0.015344898 0.045243878 -0.0152938645 0.018250003 -0.0305056 0.10612205 0.044628263 -0.017150767
-0.0030223175 0.0018349801 -0.0035420205 0.000115414456 -0.008671953 0.006027304 0.022952922 0.035264757
0.0010107465 -0.056254458 0.011640452 -0.040260162 0.033746313 -0.024769383 0.0957841 0.12386735
-0.07082028 -0.17403601 -0.042663578 -0.05626671 0.038957935 -0.016617656 0.023140172 0.05460669
-0.016493976 -0.004981289 -0.017692992 0.15233032 -0.03601072 0.004402739 0.007039448 0.07675526
0.058402304 0.020195752 0.048043665 0.03263939 0.017191572 -0.03909385 0.024819486 -0.037218492
-0.028852003 -0.028815832 0.07401902 0.007475181 -0.018248565 -0.023084909 0.0017795211 0.04649279
-0.0022806972 0.0056778733 -0.015397394 0.0021167798 0.026650222 -0.000549106 -0.037302155 0.054375835
-0.010831529 0.01387607 -0.009457654 -0.10981759 -0.026386814 0.0042322255 -0.14695461 0.07025625
0.03812149 0.013260869 0.011127312 -0.10733335 -0.0035176666 0.04223708 0.048603367 0.008804229
1.0356152 0.9766326 1.157278 0.97083586 1.0693088 1.0234171 1.0383606 1.0568525
0.99798214 1.0467281 1.0234119 1.0031339 1.0040185 0.95556295 1.0399705 0.9828065
0.94775355 1.0068626 1.0974123 1.0150677 1.057632 0.9671088 1.0447409 0.9596727
1.0195478 1.0105748 0.94634265 0.9574888 0.9601719 0.9738484 0.9989387 0.96808195
1.0042655 1.0307747 0.9491521 0.97213143 0.9788406 1.0187025 0.99233705 1.0073851
0.9767667 1.0484146 1.0360337 0.98182714 1.0329673 0.89985025 0.9452254 1.0022762
1.0625087 1.0033075 1.0000544 1.0487168 1.0306449 0.99037397 1.0492427 1.0293334
1.0264415 0.97647226 0.9729093 1.056098 1.0184435 0.9720691 1.0602038 0.97092557
1.0678855 1.0026791 1.0598351 0.95955837 1.0062796 1.0028629 1.0357691 0.99047476
0.9993752 1.0469323 0.97741646 1.0143974 0.9291764 0.994782 1.0155393 1.0531405
0.9888709 1.0267249 0.9787583 0.99100626 1.0543035 1.0182896 0.97603506 0.96600085
1.0025477 0.9755448 1.0167485 0.96145123 1.073442 1.0449086 0.96356416 1.0188617
0.9843258 0.98915535 1.0761628 1.119285 0.9851185 0.9996972 0.9864916 1.0320975
0.9475035 1.0387886 0.99948895 1.1347963 1.0073171 0.9996865 1.0088859 0.9608454
1.030953 1.0082139 0.9670445 1.0348656 1.0616447 0.9964872 1.0190073 1.0113735
1.0117224 1.036228 1.0077448 1.0496016 0.95215744 1.0286467 0.9919393 0.93038374

arith.constant13 f4 [256]
00000000: 5fec f3bb 9adb 30bd 1617 a9bd 22c5 ebbc
00000010: cac3 d0bd defb 8cbd c276 03be d86b 08be
00000020: d94f 50bd c093 e3bd 15cd a3bd 6205 dabc
00000030: 83bb e0bc d0f0 963c e137 11bd 4243 c8bd
00000040: c4b6 afb8 c16f 063d d660 fcbd a48a 8dba
00000050: 79e5 3a3b 8d65 f1bd dfac 03bd 4ad0 92bd
00000060: 01cd 82bd c07e d9bc b1fb eabc ca5f a0bd
00000070: 2e36 bebd af74 69bd 7865 97bd 3d93 89bd
00000080: cc7f 6fbd c733 8bbd 379b 50bd 3a4c b3bc
00000090: 0f22 b43c 7511 84bd 2dbf 2abd b2f0 86bd
000000a0: bfbd d6bd 4114 cfbc 7b08 96bd e9ba 0dbe
000000b0: 643e 54bd 50e4 9bbc 1562 c1bd d58b 7bbd
000000c0: a0d5 31bd a769 42be 5d8b 66bc 4200 bebd
000000d0: e975 3cbd dbb9 d2bd e02a f4bc 2200 e5bd
000000e0: bd5c fcbd 5846 8bbd 4bca adbc 7bca 04bd
000000f0: 297b 043c 63c7 f2bd 1963 9ebd eff9 49bd
00000100: 277c 8d3f 306b 853f 77e2 8b3f 7c66 8d3f
00000110: 26d7 8a3f ac09 8f3f 9e15 923f 0a9e 883f
00000120: 009b 8c3f 1a53 873f 35d2 893f 9db5 873f
00000130: 157c 883f 7422 843f 2625 8e3f 7e05 883f
00000140: 2c78 853f 38c9 853f 385a 913f 1ce0 863f
00000150: 947a 8b3f bbf3 893f 8922 8b3f f875 933f
00000160: 3fc2 843f a658 8a3f b1cc 803f 54ae 893f
00000170: 13a8 8a3f 9931 893f 5c01 8e3f dd42 8b3f
00000180: beb0 823f 742f 903f efff 883f ad8c 893f
00000190: f065 8c3f 1366 873f 0bf0 883f a7d4 8a3f
000001a0: cc59 8d3f b1d5 893f 8b33 883f 0b0c 903f
000001b0: 7768 8c3f 4772 893f e3f1 8c3f dd3b 873f
000001c0: fe0c 893f cba9 933f 4668 8a3f 7707 8c3f
000001d0: 94ea 8c3f 2a21 8a3f 701c 813f 411a 8e3f
000001e0: 54e6 913f 2afc 823f f648 7d3f 9ce5 863f
000001f0: 41f2 8c3f cd34 8a3f fc4d 913f bb81 853f
00000200: 9bbf b3ba 6b74 723c ca12 943c 2da3 753c
00000210: 34d0 493b 6e5e 4f3a eae3 b5bb d90a 97bc
00000220: 96d1 ba3b a76b 67bc 8b13 31bc b14f a4bc
00000230: 91e9 823b 40c7 213b b9ea 43bc 06b6 9cbb
00000240: 3990 cb3c 46c6 85bc 3696 2dbb 9b6f 733c
00000250: 5795 393c 7462 313c 5440 913b 3404 ffbc
00000260: 94c8 e6bb 9471 0bbb afb4 40bc 9474 f5bc
00000270: 7023 8e3c 99d2 a4bb 21df 103d 416a 273c
00000280: 703d d73c bc65 7ebc 1c4a 1d3c 960a aa3c
00000290: 2a72 013d ef10 183c 01ae d4bc ebe3 09bd
000002a0: 019c e53c ce01 eb3a 5416 d7bc c6c0 95bc
000002b0: 63b5 2db9 be44 e83c 0130 d7bc f257 6a3c
000002c0: 38b5 c33c 6566 2ebb 7911 863c 648e 1dbb
000002d0: 0a81 623c 54a7 54bc a44d 013d feeb 1ebc
000002e0: 7332 213d 67a2 c2bb b83b 723a 4465 173c
000002f0: a412 4e3b 44ed d1bb e1f4 483d 5c5a 3fbc
00000300: 5309 fd3d e1a9 2a3d ce61 003e d87c a63d
00000310: 73c0 6b3d 0bbd f03d 2b8d ca3d b398 2f3e
00000320: e002 033e d3cf ea3d c5dc fe3d a356 563d
00000330: b1ac 2d3d 21e3 863d 5dbf bc3d 1716 0f3e
00000340: e697 c13d 3c33 2d3e 2748 e83d 1daf 7e3d
00000350: 1503 943c e707 d33d e8af ba3d 0c14 033e
00000360: 96f8 ca3d 04be db3d d98e d33c 7628 b93d
00000370: 2181 0d3e a1ee 493e 516b a03d b100 9f3d
00000380: 012c 983d 9450 123e 45d6 c63d 9832 ab3d
00000390: bc4f 053b 9f68 873d 9c54 7d3d cf9a f43d
000003a0: b15b e23d 9cc0 463e af1e d73d 7e8a 3e3e
000003b0: 9f5b cf3d 539d ae3d 17e7 0d3e a7e3 4e3d
000003c0: 089f 9e3d b6f5 073e 76a2 e83d 8dd6 d43d
000003d0: f55c 023e 2069 273e 80db b93d a889 9f3d
000003e0: 2009 aa3d e520 993d 7db4 ee3d 5f47 0c3d
000003f0: 1b5a 7f3d 3bba c03d 02a0 1e3d b20d 903d
-0.007443949 -0.04317818 -0.082563564 -0.028780524 -0.10193594 -0.06883977 -0.12838271 -0.13322389
-0.0508574 -0.111121655 -0.07998101 -0.026613895 -0.027433163 0.018425375 -0.03545368 -0.097784534
-8.378693e-05 0.03282142 -0.123231575 -0.0010798764 0.0028518124 -0.117869474 -0.032147285 -0.07168634
-0.06386758 -0.026549697 -0.028684469 -0.0783077 -0.09287678 -0.056996044 -0.073924005 -0.067175366
-0.058471486 -0.06796985 -0.050929274 -0.021886934 0.021988897 -0.06448642 -0.041686226 -0.06588878
-0.1048541 -0.025278213 -0.07325836 -0.13840832 -0.051817313 -0.019029766 -0.09442536 -0.06141265
-0.04341662 -0.18985616 -0.014071313 -0.09277393 -0.046010885 -0.10289355 -0.0298056 -0.11181666
-0.12322376 -0.068005264 -0.021214625 -0.032419663 0.008086004 -0.11854436 -0.07733745 -0.04931062
1.1053513 1.0423336 1.0928487 1.1046901 1.0846908 1.1174827 1.1412847 1.067323
1.0984802 1.0572236 1.0767275 1.0602299 1.0662867 1.0323014 1.1105087 1.0626676
1.0427299 1.0452032 1.1355658 1.0537143 1.0896783 1.0777506 1.0869914 1.1520376
1.0371779 1.0808303 1.0062467 1.0756326 1.0832542 1.0718261 1.1094165 1.087978
1.0210187 1.1264482 1.0703105 1.0746056 1.0968609 1.0578026 1.0698255 1.0846146
1.1043029 1.0768338 1.064073 1.1253675 1.096938 1.0738 1.1011318 1.0565144
1.070709 1.1536192 1.0813072 1.0939778 1.1009088 1.0791371 1.0086803 1.1101762
1.1398416 1.0233204 0.98939455 1.0538821 1.101143 1.0797364 1.1351924 1.0430216
-0.0013713719 0.014798264 0.018075366 0.014992517 0.0030794265 0.00079104945 -0.005550851 -0.01843779
0.005701254 -0.014124787 -0.010807882 -0.020057531 0.0039951284 0.0024685413 -0.011957818 -0.004782441
0.024849044 -0.016329896 -0.0026487238 0.014858152 0.011327109 0.010826696 0.0044327173 -0.031129934
-0.0070429537 -0.0021277415 -0.011761828 -0.029962815 0.017350882 -0.005029988 0.035369042 0.010218204
0.026274413 -0.015527185 0.009600189 0.020757 0.031603016 0.009281381 -0.025961878 -0.033664625
0.02802849 0.0017929615 -0.026255764 -0.018280398 -0.00016566137 0.028353091 -0.026268007 0.014303194
0.023890123 -0.0026611325 0.016365753 -0.002404117 0.013824711 -0.012979347 0.031568184 -0.00969982
0.039354753 -0.00593977 0.0009240466 0.009240452 0.0031444216 -0.006406458 0.04906166 -0.011679258
0.12355294 0.041665915 0.1253731 0.08129281 0.05755658 0.11754807 0.09890207 0.17148094
0.12794065 0.114654206 0.12444452 0.052328717 0.04240102 0.0658629 0.09216187 0.1397327
0.094528005 0.16914076 0.11341887 0.06217872 0.018067876 0.103042416 0.09115583 0.12800616
0.09910695 0.10729602 0.025824951 0.090409204 0.1381879 0.19719936 0.07832969 0.07763804
0.07430268 0.1428855 0.097088374 0.08359259 0.0020341715 0.06611752 0.061848268 0.1194359
0.11052645 0.19409412 0.10503899 0.18607518 0.10124897 0.08526101 0.13857685 0.050510075
0.077451766 0.13277325 0.11359112 0.10392485 0.12730773 0.16348696 0.090750694 0.07789928
0.08302522 0.07476977 0.11655519 0.034247752 0.06234179 0.09410521 0.038726814 0.07033862
