app/src/main/assets/model.tflite (tflite, 720920 bytes, 16 tensors)

arith.constant6 f4 [300, 128]
000000 c5 bb 8b be 57 27 c2 be 9d d4 aa bd a6 0c d6 3c
       -0.27291694 -0.3792064 -0.08341334 0.026129078
000010 12 7d 22 3d db 6e 3b bd af 96 0c 3e 97 ec 9d be
       0.039670058 -0.045760017 0.13729356 -0.30844566
000020 24 2c 71 bf 72 56 1b bd f7 e7 e1 bc 1c c8 fa be
       -0.9420798 -0.037924238 -0.02757643 -0.48980796
000030 3a 7d 73 be ca ed 0e bf 28 44 1f bf 72 0d 30 bd
       -0.23778239 -0.5583159 -0.62213373 -0.042981572
000040 d0 c3 4e 3c 7f c0 d1 3d 81 54 55 bf 9d c3 83 be
       0.0126199275 0.10241794 -0.8333207 -0.2573518
000050 9a aa 4a bc bc f7 93 bd b0 a9 25 3e 64 16 ab 3d
       -0.012369776 -0.07224986 0.16178012 0.0835388
000060 59 5e 7b bd fe 17 d4 3d 14 4a 00 bd 17 11 86 bf
       -0.061369274 0.10356139 -0.031320646 -1.0473965
000070 71 a6 b0 3d 4e b7 67 3d 60 5c e4 be c3 b8 29 bf
       0.08625496 0.056571297 -0.44601727 -0.6629755
000080 e1 8b 34 3c 70 0d ee 3c 6b 17 be bc 6e 1d d0 bd
       0.011019678 0.029059142 -0.023204526 -0.10161863
000090 8d ff 59 bd fa a3 d1 be ca c6 c7 be fd 9d 11 bf
       -0.053222228 -0.40945417 -0.39018852 -0.56881696
0000a0 67 7d 35 be 90 3c 79 3e 0c b0 98 3d 5f 7c b3 be
       -0.17723618 0.24339509 0.07455453 -0.35055825
0000b0 c2 bf d4 3d 48 56 e0 be 3d da 88 3d ea 4e ec be
       0.103881374 -0.43815827 0.06682251 -0.46153957
0000c0 ee af ba 3d 81 7e 6f bd 96 97 0a bf 28 31 c4 3d
       0.09115587 -0.058470253 -0.5413755 0.09579688
0000d0 6f 3f 2d bf ad ec 2b bd b1 8a 27 bf f8 ea 9e 3d
       -0.67674917 -0.04197376 -0.65446 0.077596605
0000e0 8c 55 01 bf 71 ed 69 bd f2 4c c5 3d 61 d2 b3 3d
       -0.5052116 -0.057111207 0.09633817 0.08780361
0000f0 72 f2 41 bf 55 5b 56 be 21 e4 30 3e 58 6b 49 be
       -0.7576057 -0.20933278 0.17274524 -0.19669855
000100 14 a8 ee be 57 22 cb 3d 2f 59 e1 be 81 dd 0d bf
       -0.46612608 0.09918659 -0.44013354 -0.55416113
000110 c7 4f 8f bd 8e 33 0f be 57 8c 14 bf e2 cc a1 3c
       -0.06997638 -0.1398451 -0.5802664 0.019751016
000120 2a 0f b7 be ab b2 95 3d 23 4c 21 bf 44 eb 2f bf
       -0.35753757 0.07309469 -0.630068 -0.6871836
000130 9a be 08 be 7d f6 d6 3d 5e b0 61 be f0 c2 bf 3d
       -0.13353959 0.10496233 -0.22039935 0.09363353
000140 23 13 8a 3d 93 b4 0a bf 79 bf 4f be 41 b7 5a be
       0.06741931 -0.54181784 -0.20287885 -0.21358968
000150 82 78 4a be 47 d5 83 3c 54 6f ac bd 3a f6 89 be
       -0.19772533 0.01609291 -0.08419672 -0.26945668
000160 1f 7f 02 bf 1a 27 1a bf af b5 fd 3c 09 6a 6f 3d
       -0.5097522 -0.60215914 0.030970423 0.058450732
000170 b7 0c 37 bf 34 a6 04 3e 6a 6e 29 bd 14 5b 12 bf
       -0.71503776 0.12954026 -0.041365065 -0.57170224
000180 b3 85 18 bf c1 42 54 bf cb 59 42 bf ba 55 ad be
       -0.5957901 -0.8291436 -0.75918263 -0.33854467
000190 47 ac 46 bd ff 38 21 3d 71 92 97 be aa 6e b1 3d
       -0.04850414 0.039360996 -0.29603913 0.086636856
0001a0 54 28 a7 3c ce 3b f1 3d 5c 46 9d 3d c3 4a f1 be
       0.020404972 0.11778985 0.076794356 -0.4712735
0001b0 2c 23 40 bf 3a 5e 4c be 02 25 11 be 14 77 73 bd
       -0.7505367 -0.1995782 -0.14174274 -0.059439734
0001c0 35 75 8f be 87 7b f6 3d 2a fe 01 3e 7e fc 98 3d
       -0.2801911 0.1203528 0.12694612 0.07470034
0001d0 d1 45 0a bd 5b a2 73 3e 49 aa e4 3d 57 fa 26 3c
       -0.03375799 0.23792402 0.11165292 0.010191522
0001e0 b7 2e 2e bf 21 19 09 bf ab 1a 92 be 9d af 2a bd
       -0.6804003 -0.5355397 -0.2853597 -0.041671384
0001f0 e4 cc 08 bd 3c ff f0 bd f3 16 1b bd 78 b7 27 3e
       -0.033398524 -0.11767432 -0.037863683 0.16378582
000200 5c 07 2b bf f2 65 e2 bd 6e b7 7e 3c 6e 3e ea 3d
       -0.66808105 -0.11054601 0.015546663 0.11437689
000210 bc a8 55 be f6 96 05 3e 10 ff c0 3d 79 17 1a 3d
       -0.20865148 0.13045868 0.09423649 0.03762004
000220 8f 54 2c bf 54 dd 02 3e 94 d3 6f bf c1 b6 41 3d
       -0.67316526 0.12779742 -0.9368222 0.04729343
000230 9c b4 4a bf 00 be da bc ae 1c 5d be 3f ea 41 be
       -0.7918184 -0.026701927 -0.21592972 -0.18937014
000240 7d 92 9b be e0 a7 a0 3d 91 58 22 3d 48 ef 14 bf
       -0.303852 0.078445196 0.039635245 -0.58177614
000250 38 c2 ec be c8 c5 25 be b5 ad 94 be f2 ce 9f be
       -0.46241927 -0.16188729 -0.29038778 -0.31212574
000260 e8 97 a6 3d 15 d3 0d 3e 0d c9 64 bf 05 f9 4d be
       0.081344426 0.13850053 -0.8936928 -0.20114525
000270 25 85 1d 3d a9 de 46 be 4f ee 02 3e 1b 70 28 bf
       0.038457055 -0.19420876 0.1278622 -0.6579606
000280 82 7c cb be 2c 3a c1 3d 32 3a 2a bf 4b f0 22 3e
       -0.3974343 0.094349235 -0.6649505 0.15911977
000290 86 85 00 3e 0b 63 2f bf 0d 1a d9 be f6 5c 47 3c
       0.12550935 -0.685105 -0.42402688 0.01216816
0002a0 44 80 d5 3d 16 24 b6 be 42 44 d1 be 71 cd 13 3e
       0.10424855 -0.35574406 -0.4087239 0.14433838
0002b0 06 0b 04 3e 63 fe b7 3d 36 a2 9a 3d fc b4 6d bf
       0.1289483 0.08984067 0.075504705 -0.92854285
0002c0 b8 f5 89 be 42 0b 8d 3d 26 aa a5 bd f1 4d 29 be
       -0.2694528 0.06886913 -0.08089094 -0.16533639
0002d0 eb 24 16 bf d3 27 6b bc bd 51 93 3d c2 f9 af be
       -0.5865008 -0.014352757 0.07193325 -0.34370238
0002e0 7e 3f b9 be 60 e9 a2 3d 33 49 3b bf a3 78 92 3c
       -0.36181253 0.07954669 -0.7315857 0.01787979
0002f0 40 f1 48 bf 8a 3d 59 bd c6 64 f2 be b7 e6 d1 bd
       -0.7849312 -0.053037204 -0.4734251 -0.102490835
000300 e3 25 1a 3e 94 39 89 be 32 69 50 bd a8 66 ea bc
       0.15053515 -0.2680174 -0.050881572 -0.028613403
000310 55 19 96 3d f2 db c2 be ae 3d d7 bd ab e6 3e bf
       0.073290505 -0.3805843 -0.10509811 -0.7457072
000320 69 09 07 bf 31 bc 02 be 88 ee 8b 3d 4c a5 e2 be
       -0.52748734 -0.12767102 0.068326056 -0.44266737
000330 98 be fa 3d 77 51 10 3e d2 ec 32 be 2f cd 6b 3d
       0.12243384 0.14093576 -0.17473152 0.057568725
000340 3d 5e 00 be be 87 a6 3d 7c 17 c8 bd 38 f2 23 bf
       -0.12535949 0.081313595 -0.09770104 -0.6404147
000350 ca 8f fe be 65 f4 a1 3d 2f e7 1f 3e bc d1 c0 be
       -0.49719077 0.07907943 0.15615533 -0.37660015
000360 29 1b 1b bd 6c cf ea be c1 9e f8 be 0c ad de be
       -0.0378677 -0.45861375 -0.4855862 -0.434914
000370 22 61 a8 3d 2e 5c fb be 58 76 31 be f3 5c 2c be
       0.082216516 -0.49093765 -0.17330301 -0.16832332
000380 d9 ac f7 be 33 8e 85 bd 01 fa 47 bd 82 25 d4 be
       -0.4837406 -0.06521263 -0.048822407 -0.41434866
000390 ec 31 e9 be 24 2b 48 bf c6 cc 02 bf 6e a6 07 3e
       -0.455459 -0.7819083 -0.5109371 0.13247082
0003a0 b4 63 10 bf 8c 86 33 be 06 a6 c8 bc e3 1f 34 be
       -0.56402135 -0.17531794 -0.024493229 -0.17590289
0003b0 e2 a3 8c bd 0b e2 9d 3d a5 53 2a 3e 24 df 17 bf
       -0.06867196 0.0770913 0.1663347 -0.5932486
0003c0 8f 28 17 3e 17 fc 3c be ae f1 a6 bc d6 73 a1 3c
       0.14761566 -0.1845554 -0.020378914 0.019708555
0003d0 47 49 23 bf 6c b1 49 be 64 57 93 be 4d bb 30 3d
       -0.6378369 -0.19696587 -0.2877761 0.043147374
0003e0 a8 da 0c 3e 1d 81 bc 3b da 90 3e be 70 b6 11 bf
       0.13755286 0.005752696 -0.18609944 -0.56919
0003f0 42 82 1b 3e 34 e7 0e 3e 73 b9 01 3e 82 24 9e bd
       0.15186408 0.13955384 0.126684 -0.07721807

arith.constant7 f4 [128, 64]
000000 4a 7b d8 be 0c 37 ac 3d 69 52 60 be b5 46 d3 b9
       -0.42281562 0.08408937 -0.21906437 -0.00040297737
000010 9b 47 74 be a8 06 8f 3d ed 0b d7 bd 58 77 24 bf
       -0.2385544 0.069836915 -0.105003215 -0.64244604
000020 07 4f 8f be 7f da 78 be b0 0a b6 3e d8 fc cd be
       -0.2798998 -0.243021 0.3555503 -0.40231967
000030 47 56 30 be 78 c4 4e 3e e4 5d dd bd 72 b3 cc 3e
       -0.17220412 0.20192134 -0.10808924 0.39980656
000040 2c 5c 0f 3e 9a 68 75 be 36 b5 a1 bd 09 87 c4 3d
       0.14000005 -0.23965684 -0.07895891 0.095960684
000050 2e 9a c8 bd 2e be 60 3e ae 20 1b 3d 11 8a 39 3e
       -0.097950324 0.21947548 0.037872963 0.18119074
000060 ba 7e 2d 3d 48 54 35 be 8e e4 20 3d 37 b5 2b be
       0.042357184 -0.17707932 0.039280467 -0.16768347
000070 9e a7 3e bd 60 77 83 3d 67 a3 a9 3e e7 0d 53 be
       -0.04654657 0.06419253 0.3313248 -0.20610772
000080 1e 7a 0a bf 2e 56 49 3e fd 11 cc 3e 47 a3 56 3e
       -0.54092586 0.19661781 0.39857474 0.20960723
000090 4f 8f 64 be 79 52 a6 bd 3c 00 c7 3e 53 c8 a9 3e
       -0.22320293 -0.08121199 0.38867366 0.33160648
0000a0 ff 7a 7d bf 8b 3a 43 3d 09 55 41 3c 9f 1b a6 3e
       -0.990158 0.047663253 0.011800059 0.32442948
0000b0 48 9d de 3d f1 d3 30 be ca 4d df 3d 62 3a 15 bf
       0.10869843 -0.17268349 0.10903509 -0.5829221
0000c0 f9 f4 b7 3b 1f 13 83 be 19 8e be 3c a5 b7 f3 be
       0.00561392 -0.25600526 0.023261117 -0.47601047
0000d0 28 f6 b2 bc de 31 aa 3e 72 16 90 be b0 f7 ba be
       -0.021845892 0.3324117 -0.28142124 -0.36517096
0000e0 5d 37 56 bd cb ec a2 be 9a 05 d0 3d 89 a0 27 3e
       -0.052298892 -0.31821284 0.101573184 0.16369833
0000f0 8c 17 fb 3d cb 49 a7 3e b4 ba a1 be 8f 41 58 be
       0.122603506 0.32673487 -0.31587756 -0.21118759
000100 5e 07 e5 3e cc 08 71 3d ca d2 0d 3e b7 36 55 3e
       0.44732183 0.05884628 0.13849941 0.20821653
000110 b5 95 35 3f b5 16 79 be fa 23 a6 be c3 fa 8f 3e
       0.7093156 -0.24325068 -0.32449323 0.28121004
000120 97 d1 e8 bd a9 25 91 3e 1e 87 1f 3d 0e 0e 25 3e
       -0.11368101 0.28349045 0.038947217 0.16118643
000130 33 08 09 bf f1 30 a3 3c 75 11 90 bc 61 be fb 3d
       -0.53528136 0.019920798 -0.01758645 0.12292171
000140 35 cd 32 3d 38 1a 6d be cc 2e 44 bd 63 04 95 3d
       0.043652732 -0.23154533 -0.04789619 0.07276227
000150 64 03 4b bd 28 b9 00 be 15 fd 6a 3d 36 ce 2b 3d
       -0.04956378 -0.12570632 0.057370264 0.041944705
000160 7a e6 79 3e bf a2 46 be bb 9c fe 3d a2 7b 83 3f
       0.24404326 -0.1939802 0.12432238 1.0272105
000170 bf 7b e6 be 28 75 04 3d 24 a8 a3 3e 86 b4 53 be
       -0.45016286 0.03233829 0.3196422 -0.20674333
000180 97 d8 c2 3d e3 a6 c7 bd 2d 0b 64 3e c9 c6 60 3e
       0.095139675 -0.09748628 0.22269888 0.2195083
000190 e3 14 80 be a6 d0 6c bc 17 89 3e be f5 20 9c be
       -0.25015935 -0.014454043 -0.18606983 -0.30493894
0001a0 44 2a d7 3e 35 cb 7b 3d 52 5a a1 3e af 92 3b 3e
       0.42024434 0.06147309 0.3151422 0.18317674
0001b0 55 4e d0 bd 6e a7 27 3c c9 4d b8 3e a0 a1 f8 be
       -0.10171191 0.010232789 0.35996845 -0.4856081
0001c0 e2 67 f9 be c4 4a 7c be a2 82 5a 3e 4e c4 0a be
       -0.4871207 -0.24637896 0.21338895 -0.13551447
0001d0 fc 4d 99 3d 5a 9f 96 3e 0d a6 a0 bd 68 da 1c bf
       0.074855775 0.2941845 -0.07844172 -0.6127076
0001e0 54 39 d9 3e 46 d2 d7 bd d5 f4 55 be 38 8f 37 3d
       0.4242655 -0.10538153 -0.20894177 0.04481432
0001f0 6c 37 8b 3e 4d da d0 be 1e 3d 00 be 04 f6 2f be
       0.2719072 -0.4079155 -0.12523314 -0.17183691
000200 0e 9c 27 3e ed f9 bc be b3 04 bb 3e 9e f0 cc 3d
       0.16368124 -0.36909428 0.36527023 0.100068316
000210 c1 c4 c1 3e 32 58 db be a9 52 37 be 8d 7f 2b 3e
       0.37845424 -0.42840725 -0.17902626 0.16747876
000220 78 04 96 bd 47 f9 19 3e 8e 2e 95 bd f8 37 82 bd
       -0.07325071 0.15036498 -0.0728427 -0.063583314
000230 69 54 f6 3d b5 1b 99 bd d9 d8 90 be 87 85 c5 bd
       0.12027819 -0.07475988 -0.28290442 -0.09644609
000240 07 67 a4 3e 2c da 57 3d c9 11 13 3e 31 5d 71 bf
       0.32109854 0.0526983 0.14362253 -0.94282824
000250 6c 32 94 bd 23 4f d6 bd c7 ea 23 3d b0 a1 39 bf
       -0.0723618 -0.10464313 0.040018823 -0.7251234
000260 c5 6c b0 be 79 23 6d be dd 12 14 be 7e 26 fa 3d
       -0.34457985 -0.23158063 -0.14460321 0.12214373
000270 c8 1f 77 3e d3 35 22 3e 6a 95 1b 3f c9 7a 1a be
       0.24133217 0.15840845 0.6077486 -0.15085901
000280 b1 e7 36 bb a0 73 d8 3d 70 fa a1 3d b4 b6 99 be
       -0.0027909095 0.10568929 0.07909095 -0.30022204
000290 10 6d 1e 3e b2 9c ac be 88 d7 48 3f 62 24 c5 bd
       0.15471292 -0.337133 0.78453875 -0.0962608
0002a0 46 cd 86 be 0a e1 40 3e 19 e1 2f be 4c 61 3e 3e
       -0.26328486 0.18835846 -0.17175712 0.18591803
0002b0 dd cb ef 3d 53 36 ac bd 60 6b dd 3d dd 7b cc bd
       0.11708806 -0.08408799 0.10811496 -0.099845625
0002c0 15 56 a1 3e a3 55 78 bd 28 a7 c7 bd b2 22 cd be
       0.31510988 -0.060628545 -0.097486794 -0.40065533
0002d0 a3 ac 06 3e 0c 16 80 3e 99 7b 56 be 5d 34 4e be
       0.13151793 0.2501682 -0.20945586 -0.20137163
0002e0 eb a5 9d be 4f 8b 14 3e a0 e8 fd be 97 e5 aa 3d
       -0.30790648 0.14506267 -0.4959154 0.08344572
0002f0 1c 6a d1 3d 25 2a f5 be 76 2b 1f 3e 57 6f cf bd
       0.10225317 -0.47883716 0.15543923 -0.10128658
000300 f5 38 b0 be 19 16 26 3e 5c 61 4a 3d b9 6b 4c be
       -0.34418455 0.16219367 0.049409255 -0.19962968
000310 92 46 c0 3e da 3c f7 bd ae a8 40 be 38 c1 b4 3a
       0.3755384 -0.120721534 -0.18814346 0.0013790494
000320 ca 18 03 be 26 80 31 bd ae a8 0d be 2e 33 3f 3f
       -0.12802425 -0.043335102 -0.13833877 0.7468747
000330 e4 67 a2 be 92 d5 0d be fd 2b 4c 3e ba d5 43 3d
       -0.31719887 -0.13851002 0.19938655 0.047811247
000340 02 38 66 be 8b 11 0e 3f 76 70 a0 be 5b f0 d6 3e
       -0.22482303 0.5549552 -0.313358 0.41980252
000350 a0 65 3c 3e b6 34 aa be 52 2b 26 3e 89 fa a2 3e
       0.18398142 -0.3324334 0.16227463 0.31831768
000360 84 85 6a 3e 70 9d 07 be 39 e4 1e 3d 3b 78 89 3d
       0.22902495 -0.13243651 0.03879187 0.06712385
000370 32 02 f4 3e c2 3b bb 3e c8 ec d6 3e be d8 51 be
       0.47657925 0.3656903 0.41977525 -0.20492837
000380 90 f4 99 3e 37 0f 84 be 2d 4b cb 3d 91 2d 0c 3e
       0.300694 -0.25792858 0.09926448 0.13689257
000390 77 56 34 3e e5 1d e9 be 55 31 77 3d 1e b5 b1 bc
       0.17611109 -0.4553062 0.06034978 -0.021692809
0003a0 7f 90 94 bd b0 55 86 be 9e c4 b9 bb 5d 7c 50 be
       -0.07254123 -0.2623725 -0.0056691905 -0.20359941
0003b0 ba cf 31 3b 7c de 27 bd 17 bd b8 be 15 aa 74 3e
       0.0027131871 -0.040983662 -0.36081764 0.23893006
0003c0 6d 20 91 bd 8e 18 f1 3e 96 00 1b bf d4 01 9c be
       -0.07086263 0.47089046 -0.6054777 -0.30470145
0003d0 f5 ee 65 3e 2c 0b b8 be 32 18 b5 3d 94 89 99 3e
       0.22454436 -0.35946023 0.088425055 0.29987776
0003e0 60 a7 dd be 53 94 8f bd ac 35 b4 be df 37 20 3f
       -0.4329176 -0.070107125 -0.35197198 0.6258525
0003f0 38 fb 7d bd e4 2e 49 3d 5c f6 75 be 43 9c f3 bd
       -0.06200716 0.049116984 -0.2401976 -0.11895039

arith.constant8 f4 [256, 128]
000000 3f 23 8a 3d b9 fa a7 3b f8 72 7a 3c b4 4a 54 bc
       0.06745004 0.005126324 0.0152862 -0.012957264
000010 e0 95 88 3e 9f 8c 17 3d a8 c2 85 be d0 b8 f0 bd
       0.26676846 0.03699934 -0.26125073 -0.11754
000020 55 3b 50 3c 06 4c d7 3a 0b 24 82 3b c0 c0 af bd
       0.012709458 0.0016425855 0.003971582 -0.08581686
000030 5a 1f 10 3d 20 90 63 3c 30 e8 94 bd 52 fb 84 3d
       0.03518615 0.013889343 -0.07270849 0.06493248
000040 ff 74 8a bd bc 11 00 bd 62 44 01 be fb b1 05 be
       -0.067605965 -0.031266913 -0.12623742 -0.13056175
000050 ff 1b 27 3e 1c 18 e8 3d 35 96 2e bd 14 84 98 3d
       0.16319273 0.113327235 -0.042623717 0.07447067
000060 18 68 d2 3b e2 48 87 be 84 65 e7 3e f3 9d a2 bd
       0.0064211003 -0.26422793 0.45194638 -0.07940283
000070 03 68 c7 3d 71 32 48 3e 6d 1d eb bd 5b e0 37 bd
       0.097366355 0.19550492 -0.11480222 -0.044891696
000080 4b 4f d6 be 53 67 fd bd af e6 fb 3c 32 a1 d5 3d
       -0.4185737 -0.12373223 0.030749647 0.10431136
000090 8e 83 6c bd 9b 69 a2 bd 2c c6 19 3e 71 9e d4 bd
       -0.057742648 -0.07930299 0.15017003 -0.10381783
0000a0 79 48 91 3d 99 d2 74 be a3 60 92 bd 9a ca 07 3f
       0.07093901 -0.23908462 -0.07147338 0.5304352
0000b0 cf 4f fb bd 0f 7b d7 bd 4f 4d 37 3f e0 c3 cf bd
       -0.12271082 -0.105215184 0.7160234 -0.10144782
0000c0 48 4d 3e 3c 8a f2 56 3d 51 8d 0e 3d 75 f4 b1 bc
       0.011615105 0.052477397 0.03480274 -0.021723012
0000d0 f0 23 75 be 64 68 d5 3d 71 d3 a6 bc 0f 56 f0 3d
       -0.2393949 0.104203016 -0.020364495 0.117351644
0000e0 34 46 cc bc fa 56 c2 3b 78 be bb bb a1 28 1f bd
       -0.02493582 0.0059307786 -0.0057294928 -0.038857106
0000f0 fc 4b e9 3c e3 92 ce 3b 49 83 c3 3d 51 4d e5 3b
       0.028478615 0.0063041314 0.09546525 0.006997742
000100 56 4a 1b 3e 2b 99 7e bd ad 4e bd 3d c4 0c bb bc
       0.15165076 -0.06215779 0.09243522 -0.022833236
000110 d2 1b 98 3e 59 16 98 bd 50 cf 63 be 5d 53 25 bd
       0.29708725 -0.074261375 -0.22247052 -0.040362705
000120 db df 7f 3e 27 86 68 bd e2 96 d2 3c 58 15 8d be
       0.24987738 -0.056768563 0.025706712 -0.27555346
000130 80 33 51 be e0 d4 81 bd b9 2e 4a 3d bd 20 63 be
       -0.20429802 -0.06339431 0.049360964 -0.22180457
000140 6e c2 cc bd 8e fd b9 bc b8 27 14 3e a9 65 84 bb
       -0.09998022 -0.022703912 0.14468277 -0.004040439
000150 fe 41 59 3e b4 2b 4c 3e 89 13 58 3d 5c b1 07 3e
       0.2121658 0.19938546 0.052753005 0.13251251
000160 7f 45 39 be f4 6e 27 bd 4f 14 e0 3e 5d 0b cc bc
       -0.18092917 -0.040877298 0.43765494 -0.024907762
000170 ec c7 45 be d6 0b 13 3e 0a 5f 11 3e b5 92 da bc
       -0.19314545 0.14359984 0.14196411 -0.026681283
000180 bd 2a 0a bd fa 54 8c be ee 48 0d 3d 50 ff 93 bd
       -0.033732165 -0.27408582 0.03449338 -0.07226431
000190 2b 39 36 3e a7 07 29 3d 21 94 2f be 41 ae 39 bd
       0.17795245 0.041267063 -0.1714635 -0.045332197
0001a0 fe 6c 82 3d 0c f8 ff 3c 59 a5 5c 3d 2e 5b bd be
       0.06368445 0.031246208 0.053868625 -0.36983627
0001b0 a0 7e 5a 3e 34 91 08 bd 09 6e eb bd c6 7d ae bd
       0.21337366 -0.0333416 -0.11495597 -0.08520083
0001c0 12 8a b0 be b2 23 0b bd 37 2d a9 be fa 16 18 3e
       -0.3448034 -0.03396959 -0.3304231 0.14852515
0001d0 b7 fa 5e be dc ef ba bd 77 a9 05 3e d5 f5 0d bd
       -0.21775328 -0.09127781 0.13052927 -0.03465827
0001e0 08 1d 04 3d 0d d2 99 3c 09 df f8 3d e4 1f b9 bd
       0.03225425 0.018776918 0.121519156 -0.09039286
0001f0 41 31 84 bc 63 13 f4 bd 8a 3b 78 bc be 7e b8 3e
       -0.016136767 -0.1191776 -0.015150914 0.36034197
000200 a9 5f 5a 3d d6 24 bb 3e 38 dd 9f 3e d4 15 05 3e
       0.053313885 0.3655154 0.31223464 0.12996608
000210 1b 0a b6 be 32 40 8d 3e fa 4b ad bd ba f4 ff bb
       -0.35554585 0.2758804 -0.08461757 -0.007811156
000220 28 05 20 3d b8 ee d5 3d 7c 79 ba 3c 4a c6 64 3d
       0.039067417 0.104459226 0.022763006 0.055853166
000230 2f 63 c9 3d 8d 13 5e bd e0 a4 b5 bd 79 96 99 3d
       0.09833371 -0.054217864 -0.08869338 0.074994035
000240 ad 94 89 bd 0b fd 6e 3c c3 38 cd bd 7c 3d 4c 3d
       -0.06717811 0.014586697 -0.10020592 0.049863324
000250 2b 6a 8e 3d 04 62 51 be 56 49 14 bc d3 12 c7 bd
       0.06953844 -0.20447546 -0.009050688 -0.09720387
000260 5a a1 4d bd f3 20 f3 3d 10 9c 87 be ef c5 bf 3d
       -0.050202705 0.11871519 -0.26486254 0.09363925
000270 dd de 85 3d c6 8e 56 be a3 63 bb 3d a2 69 5d 3d
       0.065366484 -0.20952901 0.091498636 0.054055817
000280 64 9e 95 3d 1e 65 f0 3c 43 a9 10 3e 56 ad 4f 3d
       0.07305601 0.029345091 0.14127068 0.050702415
000290 07 d1 84 bd 5f 98 87 3c df 47 40 bd 5a 16 e2 3d
       -0.06485181 0.016552148 -0.04694354 0.110394195
0002a0 cc d2 02 3d 0a 6f 0c 3e c0 9b 4f 3d 20 e1 56 3e
       0.031939313 0.13714233 0.050685644 0.20984316
0002b0 27 0e 51 bd 09 e0 4d bd fd d8 42 bd 1e 75 ed 39
       -0.051038887 -0.050262485 -0.047570217 0.00045291422
0002c0 52 33 81 bb b8 52 e8 3c ad 33 93 3d 12 aa 95 be
       -0.0039428854 0.028359756 0.07187591 -0.29231316
0002d0 92 d4 04 bc 29 cc f2 3d 0e 55 32 3d f6 d2 c6 3d
       -0.008107321 0.11855347 0.043538146 0.09708206
0002e0 37 f4 39 3e 1c 9b b5 bd e8 a0 c3 3e 55 52 15 bc
       0.18159567 -0.088674754 0.382087 -0.009113868
0002f0 a4 33 8f bb 58 10 04 3c 87 b3 a1 3c e9 79 0e be
       -0.0043701697 0.008060537 0.019738926 -0.13913693
000300 69 74 54 bc b9 9f 39 3c 25 ee 26 bc e6 b7 a9 3e
       -0.0129672075 0.011329585 -0.010188614 0.33148116
000310 90 69 f2 3e a6 0b 12 3e 33 c3 34 3e da 6d e3 bc
       0.47346163 0.14262256 0.17652588 -0.027762342
000320 b7 61 0f 3f 87 51 01 be f1 6c e6 bc 66 87 84 3c
       0.56008476 -0.12628756 -0.02812812 0.016177844
000330 25 97 b0 bd 65 78 24 be 37 b8 e2 3d 29 82 92 3d
       -0.086225785 -0.16061552 0.110702924 0.07153732
000340 19 b6 9e be ab 9a 44 3d 30 15 8f be 91 e0 b4 bc
       -0.30998304 0.047999065 -0.27945852 -0.022079738
000350 ec af 48 3e 73 74 18 3e b6 3f 4f b9 c0 1b 1c 3e
       0.19598359 0.14888172 -0.00019764793 0.15244961
000360 db 7d 91 bc c6 1d b6 3d 5c 59 84 be fa cc 74 3d
       -0.017760208 0.088923976 -0.25849426 0.059765793
000370 52 87 32 be 0e fb 1a be 1a 7e 2c be 4a 72 cc 3b
       -0.17434433 -0.15134832 -0.16844979 0.0062392103
000380 42 94 9f 3d af 66 e2 3e 97 34 91 bd 57 a8 12 bf
       0.0779195 0.44218966 -0.07090109 -0.57288116
000390 40 97 97 bd 04 d4 c5 3d ef f4 d8 be 4a 09 26 3d
       -0.074018955 0.096595794 -0.4237437 0.040536202
0003a0 77 1f 90 3d b7 06 31 3d f0 38 8a bd 1f 07 c1 be
       0.070372514 0.043219294 -0.06749141 -0.37700745
0003b0 5a 8b 34 3e 65 80 79 3d 93 73 5d bd f3 65 27 3e
       0.17631283 0.060913462 -0.0540653 0.16347484
0003c0 ea 73 59 3c 6c b8 bc 3d bc 4d a6 3c c2 a6 16 be
       0.013272265 0.09214863 0.020300739 -0.1471205
0003d0 7e 61 8f 3e 4d d2 4d bd 1e de e5 3d 64 ed 16 3c
       0.28004068 -0.050249387 0.11224006 0.009211872
0003e0 80 3e a2 3d a1 63 07 be 5c f1 c7 3d cb 20 44 3d
       0.07922077 -0.13221599 0.097628325 0.047882836
0003f0 0a 74 c7 bd f3 db da bd 4f 18 be bd f7 bb a9 be
       -0.097389296 -0.10686483 -0.0928198 -0.33151218

arith.constant9 f4 [256, 64]
000000 9c f3 6a 3e 29 c8 95 3e c6 3b fe 3d a9 30 d1 bd
       0.22944492 0.29254273 0.12413745 -0.10214359
000010 15 16 70 3d b4 e9 41 3c c3 8f 3c 3b fb 1e 11 3d
       0.05861481 0.011835504 0.0028772212 0.035429936
000020 68 90 3f 3d b8 35 06 3f c9 b3 26 3e 27 b7 84 bd
       0.046768576 0.5242572 0.1627952 -0.06480246
000030 e2 3f 9e be 29 09 76 be 1e 6c 93 be 4c 08 46 3e
       -0.30908114 -0.24026932 -0.28793424 0.19339103
000040 3e 73 c7 3e 39 3c f7 bc d2 b1 4d be c2 aa f1 bd
       0.3895511 -0.030180084 -0.20087364 -0.118001476
000050 c4 92 03 be c5 70 be bd 3e ba 88 3e fb 68 c0 bd
       -0.12848955 -0.09298853 0.26704592 -0.093950234
000060 0e a5 8f be cd 1b 12 3e 51 82 43 be 1a d4 47 bc
       -0.28055614 0.14268418 -0.1909268 -0.012196565
000070 b2 a1 28 be a0 d4 16 3e 8a d7 94 3d 85 99 56 3e
       -0.16467932 0.14729548 0.07267673 0.20957
000080 04 af 4b 3e 4d 08 42 3e 40 90 c2 3d 39 d7 79 3e
       0.19890982 0.18948479 0.0950017 0.24398507
000090 72 4c 85 bb f0 81 50 bd b0 ea 5f 3e 69 db 8b 3e
       -0.004067951 -0.050905168 0.2186687 0.27315834
0000a0 8e 15 15 be 6a 8b 84 be 34 da a7 be c9 4e 03 3e
       -0.14559004 -0.25887614 -0.32783663 0.12823023
0000b0 4a 35 53 3e 88 16 7c 3d ea 94 a4 be b3 1f 33 be
       0.20625797 0.061544925 -0.32144862 -0.17492561
0000c0 0b 9a 87 be bc bf ff bb 93 8c 37 3d 31 ee 18 be
       -0.26484713 -0.007804839 0.044811796 -0.14934613
0000d0 5c 22 6a be ba 4d 61 be 3d 8a dc bd be 02 65 3e
       -0.2286467 -0.22002307 -0.10768554 0.22364327
0000e0 16 39 a6 3c 05 81 ae be 50 3b c7 bb 85 02 ec 3d
       0.020290893 -0.3408281 -0.0060800686 0.11523918
0000f0 94 30 6b be 71 1d 8a 3d fb e2 82 be 97 83 2d 3e
       -0.2296775 0.06743897 -0.25563797 0.16944729
000100 7c ae e8 3d a8 32 27 bc 41 07 6f 3d 96 ac 3f 3d
       0.11361405 -0.0102049485 0.058356527 0.04679545
000110 b9 76 9f 3e 2e d6 9e be 0e 86 a7 3d 38 1a c0 3e
       0.31145266 -0.3102278 0.08179866 0.37520003
000120 5e 01 07 bd 12 21 56 bc 04 ff 82 3e a6 f1 87 be
       -0.03296029 -0.013069408 0.25585186 -0.2655155
000130 87 f6 c4 be b1 45 4f 3e a3 f2 c4 3d b0 9f f2 3c
       -0.38469335 0.20241429 0.09616592 0.02961716
000140 bf 66 5d be 1c 56 45 be 33 c2 8e 3b 0f 0d c4 bd
       -0.21621226 -0.1927113 0.0043566464 -0.09572803
000150 ca 53 60 bd b6 d4 a8 bd 01 9e f3 3c 8e 67 04 3e
       -0.054767407 -0.082436964 0.029738428 0.12930128
000160 f2 cd 7c be 91 fc e0 bd 81 f1 9e bd 6a f0 5e 3e
       -0.24687937 -0.10985673 -0.07760907 0.21771398
000170 b4 9e e2 3e 6f 77 09 3e 70 d4 ad bb da de 49 3d
       0.44261706 0.13424467 -0.0053048655 0.049284793
000180 24 a8 d9 3d 15 2a 84 be c1 00 f6 bd 26 de 88 3d
       0.106277734 -0.25813356 -0.120118625 0.066829965
000190 b4 bc 5e be 37 b4 ae 3e 50 a3 4d bd 8d cf 4e 3c
       -0.21751672 0.34121868 -0.050204575 0.012622726
0001a0 3e f2 58 3e f4 80 65 ba c8 1e df be 86 75 16 3e
       0.21186158 -0.0008754872 -0.43578172 0.14693269
0001b0 c1 90 90 3e 99 b6 19 be 02 06 55 3e 1c 9d ec 3d
       0.28235438 -0.15011062 0.20803073 0.11553404
0001c0 44 8c a3 3e 06 76 f0 3e 80 11 37 3e 0b b8 2a be
       0.31942952 0.46965045 0.1787777 -0.1667177
0001d0 d3 b4 06 bd f2 c8 0d 3e be c3 46 3e ca e6 5b 3e
       -0.03288729 0.13846186 0.19410607 0.21474758
0001e0 10 50 c1 3e 66 c5 09 bd c3 06 05 bb 32 a9 0a bd
       0.37756395 -0.03363552 -0.002029822 -0.033852763
0001f0 8a 40 31 3d 0f 4e ea bd 4e 0a 61 3d 91 cd 95 3e
       0.04327444 -0.1144067 0.054941468 0.29258397
000200 cc e0 12 ba b3 e2 07 3e 78 5a d4 bd 9c b4 a2 3e
       -0.00056029554 0.13270073 -0.10368818 0.3177842
000210 5b ac 89 be c3 20 be bb 24 a0 8b 3e df b8 31 3e
       -0.2688931 -0.0058022453 0.27270615 0.17355679
000220 b5 d8 22 3d fb 3a 7f 3e e0 7d a4 3d f5 4d 62 3e
       0.03975745 0.24924843 0.08031821 0.22100051
000230 d6 d8 b3 3e ba b6 27 bd 05 53 38 3e 7b 08 b0 3a
       0.3512637 -0.040945746 0.1800042 0.0013430262
000240 05 96 4d 3e e0 44 90 be ae 65 60 3e eb 87 2e 3e
       0.20076759 -0.28177547 0.21913788 0.17044036
000250 03 1d b7 bd f7 84 15 3e 97 32 30 3e 9a a8 17 3e
       -0.089410804 0.14601503 0.17206798 0.1481041
000260 fa 4d 06 be 16 6a 9d be 56 aa 96 bd dd 63 80 be
       -0.13115683 -0.30745 -0.07356708 -0.2507619
000270 d0 e0 61 3d 47 f3 71 bd e4 0d f7 3d 2e 56 b0 3d
       0.05514604 -0.059069898 0.12063196 0.086101875
000280 12 f2 08 bd 36 8c 15 be 37 12 99 3c 42 07 51 3e
       -0.03343398 -0.14604267 0.018685443 0.20412925
000290 84 87 05 3e 9d ef 0f be dd 06 47 3d da cd d6 3d
       0.13039976 -0.14056249 0.04859053 0.10488482
0002a0 9b 81 2c 3e d4 4a e7 bc 5c 36 a2 bc 00 84 c7 bc
       0.16846316 -0.028233923 -0.019801311 -0.024354935
0002b0 11 1a 45 3e 82 89 b8 3e 52 e2 5a be d8 17 9e 3e
       0.19248225 0.3604241 -0.21375397 0.30877566
0002c0 e7 f7 16 bd 50 5c e8 bd 18 d7 29 3e 36 30 4c 3c
       -0.03685751 -0.11345732 0.16585958 0.012462666
0002d0 a1 a4 85 bd 37 ef 4f bd 6e d4 34 3d 91 29 0b be
       -0.06525541 -0.050765242 0.0441479 -0.13590075
0002e0 14 24 a2 3d 0a f1 f4 bc 28 57 01 3e 12 8e 1b bd
       0.079170376 -0.029900093 0.12630904 -0.037977286
0002f0 60 50 80 be 00 fa 98 3e 09 d3 c0 3c da 1f 2a 3e
       -0.2506132 0.29878235 0.02353813 0.16613713
000300 8d 7b 62 be ae 9b 2f bd 58 6d 66 3e ee 31 61 3e
       -0.22117443 -0.042873077 0.22502649 0.21991703
000310 c0 b8 33 3e a6 ee 40 3d b0 8a 7d 3d 5e 38 56 3d
       0.17550945 0.047102593 0.06189984 0.05229985
000320 cf 78 57 3e af bc b1 3e 14 27 69 3e 64 da 67 be
       0.21042179 0.34714267 0.22768813 -0.22641903
000330 29 e8 73 3e d0 d9 77 be cb de 04 bc 18 35 ab 3d
       0.23819031 -0.24204183 -0.008109759 0.08359736
000340 42 86 2b 3e ba 33 09 3e 91 9e b7 bd 8e ef 03 3d
       0.16750434 0.13398638 -0.08965791 0.03221088
000350 1a 7a e2 3d 13 04 ad 3d 59 65 95 bb 3f 97 b1 bd
       0.11058445 0.08448043 -0.0045592007 -0.08671426
000360 93 6c 8b bd f9 4e d9 3d 91 39 99 3d e4 dd 13 3e
       -0.06807818 0.10610766 0.07481683 0.14440113
000370 c6 dc bf bd ba 07 13 3d 65 47 21 3e 09 38 43 be
       -0.09368281 0.03589604 0.15749891 -0.19064344
000380 f7 2b 4a bd e4 da a8 3d d4 06 c2 be a6 dc 90 3d
       -0.049358334 0.08244875 -0.37895834 0.07073335
000390 25 20 bc bd 3c 4d 20 3d 77 06 36 3e 00 a0 5f 3e
       -0.091858186 0.039136156 0.17775904 0.21838379
0003a0 37 06 05 3d c9 0a 4b be 6a c4 60 be 4d 90 fe bd
       0.03247663 -0.19828333 -0.21949926 -0.12429867
0003b0 a9 db 77 3e 45 04 44 3c 55 b8 8b 3e 5b 64 83 be
       0.24204887 0.011963909 0.27289072 -0.25662503
0003c0 8c 82 cf be 6e f1 29 bd aa dc d4 3d ed dc 7f bd
       -0.40529287 -0.04149001 0.10393651 -0.06246655
0003d0 85 d6 78 3d 20 01 a8 3d 0d 01 62 3d 41 15 1b 3e
       0.060751457 0.082033396 0.055176783 0.15144826
0003e0 8f 9d 22 3e 65 8f 54 3e e9 e3 7a 3d fe fa a8 be
       0.15880416 0.20757826 0.06125251 -0.33003992
0003f0 30 58 a6 be f5 5f c5 bd db 0a b9 be 7f 51 a6 bd
       -0.32489157 -0.09637443 -0.36141095 -0.08121013

arith.constant10 f4 [512, 20]
000000 0c 6a a6 bd d0 b2 2a bd f4 eb ff bc 68 09 b6 3d
       -0.081256956 -0.041674435 -0.03124044 0.08888513
000010 b0 2f 38 bd 71 15 9a bc 42 11 60 3d a7 ec c3 bd
       -0.044967353 -0.018809052 0.05470396 -0.09566622
000020 e3 4d b1 bc f4 01 b5 bc 04 47 1b bd 58 c1 b8 3d
       -0.021643585 -0.022095658 -0.037909523 0.090212524
000030 bd f7 ef bc a4 17 74 3b 6d 62 68 bd 7e 20 32 3b
       -0.029292936 0.0037245536 -0.05673449 0.0027180011
000040 b8 32 66 3d 5a 4e bc 3d b0 75 f4 3c bd 45 9e 3d
       0.056200713 0.09194632 0.029841274 0.07728145
000050 03 10 a0 3d 4a 37 9a 3b d2 e4 38 be af 02 1e 3d
       0.07815554 0.004706298 -0.18056038 0.038576778
000060 e2 82 a2 bd 48 c2 8d 3e 85 67 79 bc fd 46 09 3e
       -0.0793512 0.27687287 -0.015222435 0.13405986
000070 ce 53 30 3e 5d 6c 74 be 9e 5f 22 3e 5f 1e 0e 3d
       0.17219469 -0.23869462 0.15856788 0.034696933
000080 61 bd c9 bc 1c 62 8f be 99 27 a4 be 3a 79 17 be
       -0.024626436 -0.2800454 -0.3206146 -0.14792338
000090 85 6b de bd a7 9f 31 be 05 b0 57 3c 7d 89 51 be
       -0.108603515 -0.17346059 0.013164525 -0.20462604
0000a0 5c a7 43 3d e9 ff ec 39 55 8d 0c be a6 b3 38 be
       0.04776703 0.00045204096 -0.13725789 -0.1803728
0000b0 41 a2 0c be 3b a2 40 be 1b 46 92 bd cd 42 fa bd
       -0.1373377 -0.18811886 -0.07142278 -0.122197725
0000c0 48 ef 8f bd d5 2c a9 bd a1 0d b3 3e 95 bf 85 be
       -0.07028061 -0.08260504 0.34971336 -0.26122728
0000d0 43 29 07 bf 0c 09 0a bf 39 60 1d be 94 86 2d 3e
       -0.52797335 -0.53920054 -0.15368737 0.16945869
0000e0 c1 9a 1e bc 66 7b 93 bd 28 21 94 bd 3b 73 01 3e
       -0.009680451 -0.07201271 -0.072328866 0.12641613
0000f0 7e 2a 05 be 53 69 31 bc 09 ad 3d 3d f0 6e 3c bd
       -0.1300449 -0.010828334 0.046307597 -0.046004236
000100 ff 27 ce bb 28 dc 64 bd d8 b1 bd 3d 3d eb 9a 3c
       -0.006291389 -0.05587402 0.09262437 0.018910998
000110 56 7b c6 3d a9 7a 78 bd 29 27 dd bd 60 fe be bd
       0.09691493 -0.060663853 -0.10798485 -0.09325862
000120 db ea 89 3d 16 a0 ba 3d a6 58 76 bd a8 de 0d bb
       0.06734248 0.09112565 -0.060143135 -0.0021647606
000130 ef 3f cd bd 03 b3 48 3d a2 56 7a bc 13 b5 6b 3d
       -0.1002196 0.048998844 -0.015279444 0.057545733
000140 ae ce 04 3d bd b3 ad 3d 80 7c ae bd e9 21 cf 3c
       0.032423668 0.08481548 -0.0851984 0.025284724
000150 14 7b 4e 3e 7c e5 c0 3d 66 8b 5b bd 6b 39 10 be
       0.20164138 0.09418771 -0.053599738 -0.14084403
000160 f7 b9 fe bd 3f f4 65 be 83 9f 5e 3e 64 d7 e4 3e
       -0.12437814 -0.22456454 0.21740536 0.4469558
000170 74 ac 39 3e 4a e2 1f bd 28 e6 98 be e6 35 7a be
       0.18132192 -0.039034165 -0.29863095 -0.24434623
000180 d6 fa b4 3d 15 32 00 3f 1c 04 b4 3e ad c7 aa be
       0.08836906 0.5007642 0.35159385 -0.33355466
000190 88 e6 e4 bc 99 30 14 3e af 50 ed bd 08 64 17 3d
       -0.027941957 0.14471664 -0.11587655 0.03696063
0001a0 d8 1b 9a 3d fc 74 04 3e e5 7d b2 3c a1 c3 ed bd
       0.07524842 0.12935251 0.021788547 -0.11609579
0001b0 33 16 ad bd 3e f6 8e 3d 55 f4 57 3d 49 0d b6 bd
       -0.084515 0.06980561 0.052723248 -0.08889253
0001c0 12 81 d1 3c c8 ed b9 3d 81 af 79 be 83 46 d7 bb
       0.02557424 0.09078556 -0.24383356 -0.006569685
0001d0 b9 61 ce 3d 0e 01 76 be 62 82 14 be ae 37 20 bd
       0.10077233 -0.2402384 -0.14502862 -0.0391156
0001e0 74 8e 3b bc a5 4d 68 be ba 69 e6 bd 9c 91 be be
       -0.011447538 -0.22685869 -0.112506345 -0.37220466
0001f0 d1 79 6c be 15 1e 8a bd 4c 3e 2d bc c5 24 2f be
       -0.23093344 -0.06744019 -0.010573935 -0.1710387
000200 ef d5 ed bc b0 92 f3 bd 4b 1c 0d 3e 66 92 20 3e
       -0.029032676 -0.11893213 0.13780324 0.15680847
000210 76 c3 a9 3e 29 db f7 3d c6 4a c9 3d 5b 43 89 3e
       0.33156937 0.12102348 0.09828715 0.268092
000220 05 58 6c 3c d9 a4 70 3e 41 0b bb 3e 1c 5f 32 3e
       0.014425282 0.23500384 0.36532024 0.17419094
000230 84 64 b7 bc 8f 9a 75 be 43 c1 a5 bd b1 de ab be
       -0.022386797 -0.2398474 -0.08093502 -0.33568338
000240 03 67 86 be 2a 44 4d be c8 8a f3 bd 5d 34 43 3e
       -0.26250467 -0.20045534 -0.11891705 0.19062944
000250 82 02 53 3e 54 cd 07 3e 56 b0 73 3e 47 00 73 be
       0.20606425 0.1326192 0.23797736 -0.23730575
000260 b8 18 4d 3d 82 94 31 3e aa 19 50 3e bf a4 27 3d
       0.0500724 0.17341807 0.2032229 0.0409286
000270 41 8b 4c 3d 18 42 7e 3e 94 37 31 3a 82 71 03 be
       0.04993749 0.248299 0.0006760296 -0.12836269
000280 03 0d c5 bc 16 07 7a 3e 04 77 d0 3d d8 60 bf bd
       -0.024054056 0.24416766 0.101789504 -0.09344643
000290 31 11 e4 3d 98 29 17 be 25 db ae bd 8d f6 61 3d
       0.111360915 -0.1476196 -0.08537892 0.05516677
0002a0 f0 ef 02 3e 7e ed b4 3c 8a dd 37 be 36 62 63 3c
       0.12786841 0.022085901 -0.17955604 0.013878396
0002b0 db 4f 8c 3d a1 48 52 3b 7d 93 97 3e ee 36 63 bd
       0.06851169 0.0032086747 0.29604712 -0.055472307
0002c0 fc dc 70 3d 6b 2d b0 3d 0e bb f0 3d 8c f1 8d 3e
       0.058804497 0.08602413 0.11754428 0.27723348
0002d0 f4 55 b7 bd 84 12 09 bd 64 fa e4 bc 57 3c b1 bc
       -0.08951941 -0.033464924 -0.027951427 -0.021635218
0002e0 13 e0 20 3d 15 ae 20 bd b5 00 a6 bd ee 6c 8a bd
       0.039276194 -0.039228518 -0.081056036 -0.06759058
0002f0 39 da 9d bd 75 dd 5a bd 2c ca 47 bd 6c 2b bf 3b
       -0.07707638 -0.053433854 -0.04877679 0.0058340337
000300 47 0a 3b bd c1 7c c3 3d ef be 6b bd bb 9a 97 bd
       -0.045664098 0.09545279 -0.057555135 -0.07402559
000310 f0 59 ae 3d 7c c4 4f bd 44 cc ae bd 52 71 18 bc
       0.08513248 -0.05072449 -0.08535054 -0.009304361
000320 07 84 9b 3d eb 99 0a bd 92 ce bf 3d 39 4f 82 bd
       0.075935416 -0.033838194 0.09365572 -0.06362767
000330 97 20 b9 3d d9 5b 3f bd 57 21 9d 3d 40 09 8a 3c
       0.09039419 -0.046718452 0.07672375 0.016850114
000340 33 c9 41 3d 81 a1 b1 bc 4f 1f 96 bd 2e 07 be 3b
       0.04731102 -0.021683456 -0.073301904 0.0057991957
000350 a8 cc 33 bc 8e 3b 49 bc e5 9f 91 bb 32 8f 00 bd
       -0.010974087 -0.012282265 -0.0044441097 -0.03138656
000360 ec cb 13 bc 4a 20 59 3c be 96 70 bd 2a 31 4d bc
       -0.009020787 0.013252327 -0.05873751 -0.012523929
000370 45 d3 c3 3d da 47 cc bc 77 16 02 bc 66 d9 96 bc
       0.09561781 -0.024936605 -0.007939926 -0.01841421
000380 cf dc 21 bd d6 7d a5 bc 0d 45 7b bd 16 63 6d 3d
       -0.03951722 -0.020201605 -0.06134515 0.057955824
000390 81 cd 2f bd df 07 98 bd f9 72 20 3c 10 f1 c6 3c
       -0.042920593 -0.07423376 0.009793037 0.02428487
0003a0 29 4d 32 3e d6 ae 4b 3c a8 5d d5 bd d4 2a a4 3c
       0.17412247 0.012431821 -0.10418254 0.020039953
0003b0 50 54 87 bd 01 79 97 bd 88 b9 0f bd 4d 2d 89 3d
       -0.06607878 -0.073961265 -0.035089046 0.066980936
0003c0 da 43 84 3d 51 d0 d6 3d 4b b8 00 3d dd b8 0b 3d
       0.06458254 0.10488952 0.031425755 0.034111846
0003d0 d8 b1 b9 3c fe 94 b7 bd a8 c8 2c 3d ad 78 c9 3b
       0.02266781 -0.08963965 0.04218355 0.006148419
0003e0 2c 59 3b bc 0a c8 2b 3c df b0 b8 3d 66 58 a9 bd
       -0.011434834 0.010484705 0.090181105 -0.08268814
0003f0 b2 6c 8d 3d 41 7d a2 bd e0 8d 69 3d 1f 86 e4 bb
       0.069054976 -0.079340465 0.05702007 -0.0069739963

arith.constant11 f4 [512, 128]
000000 7f 25 aa bc a8 f6 7a bd a3 8c 1e bd 6c 5d 40 bc
       -0.020769833 -0.061270386 -0.03870834 -0.0117410235
000010 7b e6 ca bc bf 5a a9 bc e6 d3 8e bc 34 14 c2 3c
       -0.024768105 -0.020673154 -0.017435025 0.023691274
000020 58 d8 de 3c 7d b9 26 bd 4c 58 57 3d f9 ef 32 bd
       0.02720277 -0.04070424 0.05257444 -0.043685887
000030 72 17 a7 bc e5 4a 56 bd a9 75 13 bd f7 c5 0e 3d
       -0.020396922 -0.05231752 -0.03600088 0.034856763
000040 84 42 a6 bd ea 65 e3 bc 6b 77 21 3c 8a d2 63 bb
       -0.081181556 -0.027758557 0.009855132 -0.0034762942
000050 f3 eb 92 3c e8 bc ee 3c 50 b2 2a 3b 9b bb a5 bc
       0.017934775 0.029142812 0.0026046224 -0.020231059
000060 be 9b 78 3b 27 ee 70 ba f4 7c a9 bd d9 1f 64 bd
       0.0037934626 -0.0009190761 -0.08275786 -0.055694435
000070 a5 e8 3e bc aa ac 3a 3d 10 ac dd bc 2e ab 36 3c
       -0.0116521465 0.04557482 -0.027059585 0.011149211
000080 3d ba a7 b9 43 2c 17 bd 14 76 fb bb 2e f2 74 bd
       -0.0003199148 -0.036907446 -0.007673988 -0.059801273
000090 d3 44 74 bd 50 17 54 3d d4 16 00 3d b9 d7 3f bd
       -0.05963595 0.051780045 0.03127177 -0.04683659
0000a0 9d e3 71 3d 96 ba 10 bd 14 99 16 3d 14 2a 6f 3d
       0.05905496 -0.035334192 0.03676708 0.05838974
0000b0 33 78 08 3c 46 51 41 3c 96 7a 99 bc 26 69 35 bd
       0.008329439 0.011799162 -0.018735211 -0.04428973
0000c0 9e b5 9e bc 60 93 1f bd 93 9b 62 3d bc 63 0c bd
       -0.019373711 -0.038958907 0.05532415 -0.0342748
0000d0 17 3e 02 bc 91 56 6e bd b9 c4 0a bc b0 c0 94 3d
       -0.007949374 -0.058188025 -0.008469754 0.07263315
0000e0 88 7a 5d 3d 3e 09 48 bd 51 8a b0 3c 98 80 91 bc
       0.054071933 -0.04883694 0.02155033 -0.017761514
0000f0 3e 6f da 3c a0 89 fb ba 77 de 5d bd dd a5 10 bd
       0.026664373 -0.0019190796 -0.054167237 -0.03531443
000100 e6 1e be 3c 46 32 b9 3d a9 69 e4 bc d5 95 31 3d
       0.023208093 0.09042792 -0.027882414 0.04335578
000110 c9 4e ab 3c 4d bd dd 3d 9e d9 a1 bb 24 58 6f 3d
       0.020911591 0.10827122 -0.004939272 0.058433667
000120 b3 50 58 bd 77 d2 60 3d b4 c7 03 3c 61 eb 95 3b
       -0.052811336 0.054888215 0.008043218 0.0045751785
000130 c9 6d aa 3b ee 00 92 3d 00 c3 0c bd 92 10 4c bc
       0.0052010757 0.071290836 -0.034365654 -0.012455123
000140 3f dc 4f bd 91 3e a1 3d 84 55 53 3d 4e 10 2b 3d
       -0.050747152 0.07873262 0.051595226 0.041763596
000150 8a 42 64 3d bb 60 88 bc b3 7b 19 bb fd c5 eb 3b
       0.05572752 -0.016647687 -0.0023419678 0.007195233
000160 61 b4 8f 3c 05 92 cf 3d f3 58 07 bc 67 b0 0c bd
       0.017542066 0.10135273 -0.008260953 -0.034347918
000170 fb ba 5b 3d 95 e0 0a bd bb 9e 33 bd 83 bd c8 bc
       0.053645115 -0.033905584 -0.04385255 -0.024504429
000180 81 84 9e bc 32 ce 18 bb 19 1f 0b 3d 44 bc 78 3c
       -0.019350292 -0.0023316261 0.033965204 0.015181605
000190 14 16 f9 3d 76 ba 8f ba 5f 49 b1 bc 3c b5 3b bd
       0.12162414 -0.0010965604 -0.021641431 -0.045827135
0001a0 5d b7 ca 3c f0 d9 3d bd 1d 57 c7 3c 06 58 05 bb
       0.024745638 -0.04635042 0.024333531 -0.0020346656
0001b0 f7 39 5f bd fd 3d 6c 3a 52 d7 f5 3c ee 73 8c 3d
       -0.05449864 0.00090119225 0.0300099 0.06858049
0001c0 5b 90 31 bd eb e8 a5 bb d4 6a ef bc 79 11 c7 bc
       -0.04335056 -0.0050631664 -0.029225744 -0.024300324
0001d0 50 87 2b bd d4 e9 5a bd e3 52 84 bc 80 fa 05 3d
       -0.04187709 -0.053445652 -0.016152805 0.0327096
0001e0 7f e4 98 bc a3 73 77 3c eb 42 26 bd 99 f0 df bb
       -0.018663643 0.015103254 -0.04059116 -0.0068341014
0001f0 d3 ad 5d bb ea 81 16 3c e1 9b 19 3d 92 ee 5a b9
       -0.003382553 0.009186247 0.037502173 -0.00020878974
000200 e3 38 79 be 79 77 23 be 4d 9a 3b 3e bf 3b dc bd
       -0.24338107 -0.15963544 0.1832058 -0.10753583
000210 61 07 85 3e 35 60 0e 3e ad 81 c5 3e bf b1 21 3d
       0.25982192 0.13903888 0.38575497 0.039476153
000220 55 66 81 3d 13 66 a4 bc bc 62 25 3d a9 49 91 bc
       0.063183464 -0.020068204 0.040377364 -0.01773532
000230 25 bb 8a 3c ec 62 9a 3d 12 a7 47 3c 4b 32 7d 3e
       0.01693494 0.07538399 0.012185829 0.24726216
000240 2b a4 bf 3b bd bc 65 3c b4 d2 46 bc c7 4e d5 3c
       0.005848428 0.0140220495 -0.0121351965 0.02603854
000250 92 eb 8b 3e 06 ae 6e 3e 2f 1d 96 bd 7b eb cc 3e
       0.27328163 0.23308572 -0.07329785 0.40023407
000260 c5 4f 6e bb 8e 43 27 3e 53 75 58 3e c3 df a4 3e
       -0.0036363464 0.16334364 0.21138506 0.32201967
000270 70 e3 c9 bd 2b 6a 57 bd 25 a5 53 bd 53 7c 3e 3e
       -0.098578334 -0.052591484 -0.051671166 0.18602113
000280 a5 a2 83 3d 8d 2b 34 bd c5 68 84 be a0 bf 2c be
       0.06427506 -0.043986846 -0.25861183 -0.16869974
000290 24 90 3c 3e 77 06 87 be 8e 23 79 3d 53 04 db bc
       0.1841436 -0.2637212 0.060824923 -0.02673546
0002a0 0f a3 90 3d eb 7d 46 be d1 f1 70 3e c7 5a 6e be
       0.07062351 -0.19383971 0.23529746 -0.23276816
0002b0 44 9f 30 be 4d 21 34 bd 8e b8 0e 3f 9b b9 6f bd
       -0.17248255 -0.04397707 0.5575036 -0.058526617
0002c0 53 2d 3d bd c9 bd f2 3b fa 01 15 bc e7 ab f5 3d
       -0.046185803 0.007407878 -0.0090947095 0.119956784
0002d0 0b e7 65 3e 25 f3 6c bc 2f 14 d7 bb 72 89 53 3e
       0.22451417 -0.014462267 -0.0065636854 0.206579
0002e0 02 28 5c be 12 d0 a8 bd 8e 0c 2f bf 5b 70 0d 3d
       -0.21499637 -0.08242811 -0.6837853 0.03453098
0002f0 3c 84 ea bd de 72 2b be 5f 1e 7e bc 7d 73 39 3c
       -0.11451003 -0.16743037 -0.015510171 0.011319038
000300 5d f3 2f be 57 0b 17 3e 42 9d 27 bc 3f 83 6b be
       -0.1718268 0.1475042 -0.010230364 -0.22999285
000310 80 ff 09 bd ff 40 17 be 48 8e 8b bd 50 99 3f bd
       -0.03369093 -0.14770888 -0.06814247 -0.04677707
000320 24 eb ce bd 89 80 48 3e fb 13 60 be c0 aa cc be
       -0.10103443 0.19580282 -0.21882622 -0.39974022
000330 c3 42 53 3e e4 11 1d 3e 55 dd 2b 3c 0f 50 a3 bc
       0.20630936 0.15338856 0.010489781 -0.019935636
000340 a0 56 f0 3d c5 a0 8c bd 03 64 5f be d2 5e 13 3e
       0.117352724 -0.06866602 -0.21815495 0.1439164
000350 f7 4f 43 3d 2f eb 8b be bd 1d e1 bd 12 25 7b 3e
       0.047683682 -0.27327868 -0.10992 0.2452586
000360 f6 d8 90 3e c0 40 86 3e fb 4e 73 bc f4 14 02 3d
       0.28290528 0.26221275 -0.014850373 0.031758264
000370 11 dd 81 3e 50 b2 93 3d 37 db 37 be 68 35 af be
       0.25363973 0.07211745 -0.17954718 -0.34220433
000380 0d 82 a4 bc a0 c9 7a be e9 35 0d bd 2c bc 98 3e
       -0.020081544 -0.24490976 -0.03447524 0.29831064
000390 19 c9 6b be ed 1b 27 3b 2d 75 37 be c3 46 52 3c
       -0.23025931 0.0025498823 -0.17915793 0.012834254
0003a0 7c bc f4 3d 34 51 72 be c9 55 87 be b8 20 1b 3e
       0.11950013 -0.23663789 -0.26432636 0.151492
0003b0 3a ef 02 bf 0d 20 77 3d f6 6b 4a 3e 93 39 a4 3e
       -0.5114628 0.0603333 0.19767746 0.32075176
0003c0 e0 06 c1 be 28 a7 38 be c7 58 b4 3d b5 11 6d 3e
       -0.37700558 -0.18032515 0.088059954 0.23151286
0003d0 94 62 23 3c 30 d2 fa 3c a1 62 ab be 13 76 41 3e
       0.009972233 0.030617803 -0.33473685 0.18892698
0003e0 1c 5d 4a be 69 78 03 bf fa d4 43 3a 89 1d 05 3d
       -0.19762081 -0.51355606 0.00074703956 0.03249887
0003f0 1c 80 dd 3d 17 87 05 3e 58 4f 80 3d 42 87 ee 3d
       0.108154505 0.13039814 0.062651336 0.11646892

arith.constant12 f4 [512]
000000 a9 43 e0 3a cb ec 1e 3e c7 a5 8d 3d e1 f7 e7 3a
       0.0017110008 0.15520017 0.06916385 0.0017697775
000010 60 dd e0 3d 4b e5 9b bc 18 a4 26 3e 23 40 4f bd
       0.10979724 -0.019030234 0.16273534 -0.050598275
000020 5c 38 b2 bd 06 02 ad 33 86 e5 e1 bb 96 6c 05 bd
       -0.08702156 8.056308e-08 -0.0068938164 -0.03257426
000030 e0 41 15 b9 89 73 cb bc 17 5f 21 b3 c3 f8 68 be
       -0.00014234288 -0.024835365 -3.7572217e-08 -0.22751145
000040 13 7f a2 bc 31 02 0a bd 2a 99 87 bc d6 18 13 bd
       -0.019835984 -0.033693496 -0.016552527 -0.035912357
000050 0b c8 ca 3c 74 0b 40 3d 32 d6 55 bc 34 9c ae 3c
       0.024753591 0.046885923 -0.013051556 0.021314718
000060 b8 40 2b 3d 9a e0 e1 bd 68 6d 9e 3d 78 01 95 bc
       0.041809767 -0.110291675 0.07735711 -0.018189177
000070 e7 4d 74 bc f5 22 39 3d 33 12 a5 b5 6e a2 32 3c
       -0.0149111515 0.045199353 -1.2298755e-06 0.010902984
000080 dc 8d 61 3c cc 83 43 b9 b0 5f 72 3c cc 49 cd 3a
       0.013766732 -0.00018645747 0.0147933215 0.0015662252
000090 13 e8 9c 3d 8a 81 98 39 f7 cf 6a be 58 e5 c6 b9
       0.07661452 0.00029088213 -0.22930895 -0.00037936377
0000a0 fa 49 8c bd 3e 38 0b 3d 7a 97 bc 3c 2d 35 3c 3b
       -0.068500474 0.033989184 0.023021448 0.0028718219
0000b0 21 e3 0b 39 e1 90 6f 37 72 04 8e bd 3f c5 fa 3d
       0.00013340685 1.4279242e-05 -0.069344416 0.12244653
0000c0 a4 3f ce 3b ed fe 69 3d 85 d3 92 ba 98 ad a0 3c
       0.0062942076 0.05712788 -0.0011201954 0.019614026
0000d0 89 bf 8d 3d e4 3e 92 b9 94 ff 9c b5 b4 de bb bc
       0.06921298 -0.00027894147 -1.1697289e-06 -0.022933342
0000e0 2a 35 31 39 54 88 2c 3c bc d6 35 3e 01 e8 bf b8
       0.0001689984 0.01053055 0.17757696 -9.150804e-05
0000f0 2a 8e 17 be 7e 74 11 39 2d ff 19 30 bf 7e 2e bd
       -0.14800325 0.00013871674 5.60237e-10 -0.042601343
000100 07 24 85 3d f8 a5 70 bd cc 28 f2 39 05 84 3b 3d
       0.06501012 -0.05875203 0.00046188233 0.0457802
000110 fe 0f 90 3d dd f8 11 3a ac cd 94 35 bc cd 85 ba
       0.070343 0.00055683946 1.1086718e-06 -0.0010208408
000120 45 00 f7 bd 05 da 00 3b 47 48 3e 3e b0 88 6b 3a
       -0.12060598 0.00196612 0.18582259 0.00089849066
000130 55 77 11 3e 69 e0 b1 3e 40 ee 19 bd 1a c8 e9 bb
       0.14205678 0.34741524 -0.03758073 -0.0071344497
000140 e6 3f a1 bd b1 f6 8d 34 b9 28 70 be 71 93 bd 3a
       -0.07873516 2.6442788e-07 -0.23453034 0.0014463497
000150 2d 74 d0 3c 50 ea 3e 3e 6d 1a 34 bd 1d 0c d3 3a
       0.025446022 0.1864407 -0.043970514 0.0016101633
000160 10 1a 96 3c 83 b5 e4 37 1c 53 67 be 41 21 04 bc
       0.018322974 2.7264241e-05 -0.22590297 -0.008064569
000170 e8 bb c1 3e bb 2b 8e 3b 58 dd b5 bd 08 fd 72 3d
       0.37838674 0.004338709 -0.088801086 0.05932334
000180 4c 16 5d 34 dc c0 d4 3c 85 21 a9 b8 8c ae 79 3d
       2.059034e-07 0.025970869 -8.0647915e-05 0.060957476
000190 76 21 de 3a 62 f6 0c 39 e2 42 6f 3d 20 e2 64 30
       0.0016947228 0.00013443225 0.058413394 8.326726e-10
0001a0 91 6d d3 bd c5 65 b2 39 9c 27 99 3c bf ab 02 3c
       -0.103236325 0.0003402663 0.018695645 0.007975518
0001b0 48 d7 1f 3e 3f c1 bb 2f 41 60 25 3d 4d 06 95 3d
       0.15609467 3.4152411e-10 0.040374998 0.072765924
0001c0 87 7b b3 bd 72 e4 5b 3d 09 53 91 3d b1 ee da 3c
       -0.08763795 0.05368466 0.07095916 0.026725145
0001d0 cb 14 3a bc ab 73 99 3c de 02 c8 38 b5 4c 16 3d
       -0.0113574965 0.018731913 9.537277e-05 0.036694247
0001e0 35 2d 95 3b 63 b3 8d 3d a0 56 13 38 a6 d5 8d 36
       0.0045525082 0.06918981 3.5128207e-05 4.2269994e-06
0001f0 28 d4 9b 3a f9 35 67 39 67 64 0f bc e8 57 d5 bd
       0.0011888789 0.00022049983 -0.008751965 -0.104171574
000200 94 20 84 3f 6a 68 82 3f 43 b1 7b 3f b9 4a 70 3f
       1.0322442 1.0188115 0.98317355 0.9386402
000210 ce c3 83 3f 72 f6 83 3f 0c 3a 92 3f 34 b0 81 3f
       1.029413 1.0309584 1.1423965 1.0131898
000220 15 a3 7f 3f dd ed 7f 3f 5f 28 7f 3f 36 00 7e 3f
       0.9985822 0.99972326 0.99670976 0.9921907
000230 00 00 80 3f 19 21 7c 3f 00 00 80 3f ed 09 80 3f
       1.0 0.98488003 1.0 1.0003029
000240 62 00 80 3f b7 ff 7f 3f d9 8d 7f 3f c1 47 80 3f
       1.0000117 0.99999565 0.9982582 1.0021898
000250 0f 8b 43 3f 61 9a 80 3f 82 ff 7a 3f b9 1d 7f 3f
       0.7638406 1.0047113 0.98046124 0.9965473
000260 9b 16 80 3f 84 9f 7f 3f db b3 86 3f fc 27 74 3f
       1.0006899 0.99852777 1.0523638 0.9537351
000270 09 c3 73 3f df e8 7f 3f c3 fe 7f 3f 12 4d 88 3f
       0.95219475 0.9996471 0.9999811 1.064852
000280 f6 d8 7c 3f 6e ff 7f 3f b1 1c 8b 3f e9 71 83 3f
       0.98768556 0.9999913 1.0868131 1.0269138
000290 2a 02 80 3f b3 5a 6f 3f 25 df 84 3f 6b fc 7f 3f
       1.000066 0.9349777 1.0380598 0.99994534
0002a0 88 cc 7f 3f 14 09 8c 3f 82 8c 70 3f fb af 98 3f
       0.99921465 1.094027 0.939644 1.1928705
0002b0 2f d1 75 3f 64 dd 7f 3f 57 a5 8b 3f e6 5d 8a 3f
       0.96022314 0.9994719 1.0909833 1.0809906
0002c0 59 70 7f 3f 57 b8 83 3f 00 00 80 3f b4 83 88 3f
       0.99780804 1.0290631 1.0 1.0665193
0002d0 81 db 76 3f 00 00 80 3f 97 ff 7f 3f e1 02 86 3f
       0.96428686 1.0 0.99999374 1.0469629
0002e0 f9 01 80 3f b9 a0 7f 3f 2b fa 8f 3f ba ff 7f 3f
       1.0000602 0.9985462 1.124822 0.9999958
0002f0 6c 42 84 3f 59 13 80 3f a5 00 80 3f 73 a8 83 3f
       1.033277 1.0005904 1.0000197 1.0285782
000300 cf ff 7f 3f 27 ca 7b 3f c1 09 80 3f 13 94 80 3f
       0.9999971 0.98355335 1.0002977 1.0045189
000310 b0 d8 8b 3f 3b fa 7b 3f 19 4b 84 3f 5e fe 7f 3f
       1.0925503 0.98428696 1.0335418 0.9999751
000320 36 51 80 3f 61 2b 85 3f 97 89 7d 3f f1 1f 82 3f
       1.0024784 1.0403863 0.9903807 1.0165998
000330 8c 13 80 3f 61 39 83 3f 08 08 80 3f 74 73 6f 3f
       1.0005965 1.0251886 1.0002451 0.9353554
000340 ea 92 79 3f f7 72 80 3f b2 cf 66 3f 90 59 76 3f
       0.974898 1.0035084 0.9016067 0.9623041
000350 fe 6d 85 3f eb a5 75 3f b9 98 6e 3f bc b6 7d 3f
       1.0424192 0.95956296 0.93201786 0.99106956
000360 ca 39 82 3f 70 01 80 3f 85 c4 7a 3f fb fa 7f 3f
       1.0173886 1.0000439 0.97956115 0.9999234
000370 40 34 6b 3f 80 8d 7d 3f 2e ea 79 3f cf 57 7d 3f
       0.918766 0.99044037 0.97622955 0.9896211
000380 f6 ff 7f 3f fe fc 8d 3f 83 ff 7f 3f f7 48 80 3f
       0.9999994 1.1092832 0.99999255 1.0022267
000390 ca 71 82 3f 14 00 80 3f 4d 95 79 3f f6 ff 7f 3f
       1.0190976 1.0000024 0.9749344 0.9999994
0003a0 21 f8 7f 3f 57 04 80 3f 00 00 80 3f 5c a5 7f 3f
       0.9998799 1.0001324 1.0 0.99861693
0003b0 cd a5 8e 3f cf ff 7f 3f 31 9a 77 3f fb 63 7e 3f
       1.1144348 0.9999971 0.9671965 0.9937131
0003c0 96 4c 82 3f 74 74 84 3f 2f ba 84 3f 2f 8f 86 3f
       1.0179622 1.0348039 1.0369319 1.0512446
0003d0 6f d7 78 3f 60 15 85 3f af bb 8c 3f 52 44 82 3f
       0.97203726 1.0397148 1.0994776 1.01771
0003e0 72 60 82 3f e3 13 83 3f 00 00 80 3f 00 00 80 3f
       1.0185683 1.0240444 1.0 1.0
0003f0 d3 4a 80 3f d2 00 80 3f b2 cc 7f 3f d8 f0 7f 3f
       1.0022835 1.000025 0.99921715 0.99976873
