app/src/main/assets/model.tflite (tflite, 582184 bytes, 16 tensors)

arith.constant6 f4 [30, 128]
0	0xbe303257	-0.17206703
1	0xbdf0a8d2	-0.1175095
2	0x3c91073d	0.017703647
3	0x3e7e47f2	0.24832132
4	0x3e3d9a4b	0.1851589
5	0xbe607b96	-0.21922144
6	0xbddb5e80	-0.10711384
7	0x3dfef23a	0.12448545
8	0xbe227fb4	-0.15869027
9	0xbd8b9c9b	-0.068169795
10	0xbe2a73e0	-0.16645765
11	0x3d93e0fb	0.07220646
12	0x3db42b68	0.087973416
13	0xbe6d86fc	-0.23196024
14	0x3dd0f266	0.10202484
15	0xbec5f0e3	-0.38660344
16	0xbe8ae0a5	-0.27124515
17	0xbe84adc0	-0.2591381
18	0x3d9caeb3	0.07650509
19	0xbea4a412	-0.32156426
20	0xbe2ee779	-0.17080487
21	0x3e526c00	0.20549011
22	0xbe5c7377	-0.21528421
23	0x3c2df2e4	0.010616992
24	0xbe9ecb22	-0.31014353
25	0xbd80a0d5	-0.06280676
26	0x3d99864a	0.07496317
27	0x3d92add2	0.0716206
28	0x3ea739a0	0.32661152
29	0xbdfd76e8	-0.12376195
30	0xbe53c376	-0.20680031
31	0xbe6ff5a3	-0.23433547
32	0x3e1fa0b2	0.15588644
33	0xbcc2205c	-0.02369707
34	0xbe416cbe	-0.18889138
35	0xbc94c2c8	-0.018159285
36	0xbc317970	-0.010832176
37	0x3d850dc9	0.0649677
38	0xbe6331f8	-0.2218703
39	0x3d9e18b8	0.077195585
40	0x3e5df43b	0.21675198
41	0xbeb1bdc7	-0.347151
42	0xbdc8317b	-0.09775063
43	0x3db04d79	0.08608527
44	0x3d89ff44	0.06738141
45	0xbdd3dc56	-0.1034476
46	0xbe477bf3	-0.19480877
47	0xbe673512	-0.22578838
48	0x3df6738c	0.120337576
49	0x3e50c801	0.20388795
50	0xb5720840	-9.016403e-07
51	0xbe0c89bb	-0.13724415
52	0xbcbdf7f1	-0.023189517
53	0xbdc32bf1	-0.095298655
54	0xbe849afc	-0.25899494
55	0xbd1f6d7c	-0.03892277
56	0x3ce8ef0b	0.028434297
57	0xbb766f3a	-0.0037602917
58	0xbdcceadc	-0.10005733
59	0xbe8b5242	-0.27211195
60	0x3c1e159b	0.009648706
61	0xbe8b6517	-0.27225563
62	0xbd74c3a1	-0.05975688
63	0xbe7d05b0	-0.24709201
64	0xbead54ae	-0.33853668
65	0xbea61016	-0.32434148
66	0xbc5235f1	-0.012830243
67	0xbdbf2892	-0.0933391
68	0x3e28f0d7	0.16498123
69	0xbe78413d	-0.24243636
70	0xbeb433ce	-0.35195774
71	0x3d0850b5	0.033280093
72	0x3e100ec1	0.14068128
73	0xbe396926	-0.18106517
74	0xbdb3fb87	-0.087882094
75	0x3e74cf85	0.23907287
76	0xbd695eaa	-0.056975044
77	0x3cc8dfbf	0.024520753
78	0xbd3ad0c4	-0.04560925
79	0x3e12133c	0.1426515
80	0xbe539214	-0.20661193
81	0xbe1384ea	-0.14406171
82	0x3ce620c8	0.028091803
83	0x3e1957b5	0.14974864
84	0x3d65790c	0.056023642
85	0x3d8b60a1	0.0680554
86	0x3e62f337	0.22163092
87	0x3e1cbc8e	0.15306303
88	0xbdf2ca08	-0.11854941
89	0xbe3e29a0	-0.18570566
90	0x3dc65c68	0.09685594
91	0xbe141b07	-0.14463435
92	0xbe654395	-0.22389062
93	0xbc787b8e	-0.0151661765
94	0xbe92654d	-0.2859291
95	0xbe1fa2bf	-0.15589426
96	0x3db2f8d8	0.087388694
97	0xbea05364	-0.31313622
98	0xbe187491	-0.14888217
99	0xbda59ae9	-0.080861874
100	0x3d9f4e81	0.07778645
101	0x3e52b8d0	0.20578313
102	0x3e70d7e7	0.2351986
103	0x3dd2c061	0.102905996
104	0xbe58dbf4	-0.21177655
105	0x3e4eae3c	0.20183653
106	0xbdf505ca	-0.11963995
107	0xbc8acac9	-0.016942399
108	0xbe33afd3	-0.1754754
109	0xbd6dac8e	-0.05802589
110	0x3e482eb2	0.19549063
111	0xbd19998c	-0.03749995
112	0x3e07cf57	0.13262688
113	0xbcefdc63	-0.029279893
114	0x3e04dc2c	0.12974614
115	0xbe6ed183	-0.2332211
116	0xbe022e3a	-0.12712947
117	0xbe56d61d	-0.20980115
118	0xbc8f2ada	-0.017476488
119	0xbe01b59b	-0.12666933
120	0xbc90174f	-0.01758924
121	0xbdcb66d4	-0.09931722
122	0xbd327f23	-0.04357828
123	0x3e040c9c	0.12895435
124	0x3e754385	0.23951538
125	0x3d475b1d	0.048670877
126	0xbe96df84	-0.29467404
127	0x3de76534	0.112986
128	0xbe1157a9	-0.14193596
129	0x3e01ff36	0.12695011
130	0xbe3646a2	-0.17800382
131	0xbf0c876e	-0.5489415
132	0xbc5ca33c	-0.0134666525
133	0x3df43f0d	0.119260885
134	0xbe2242ba	-0.15845767
135	0xbe7e4bc3	-0.24833588
136	0x3d0d8824	0.034553662
137	0x3da64885	0.08119301
138	0xbe28442c	-0.16432256
139	0xbeaca203	-0.33717355
140	0x3c6b50eb	0.014362554
141	0x3e628d66	0.22124252
142	0xbe99fc1a	-0.3007515
143	0xbe836695	-0.256642
144	0xbdb4df95	-0.088317074
145	0xbbf0f186	-0.0073530106
146	0x3d39911b	0.0453044
147	0x3e489bad	0.19590636
148	0xbe349f29	-0.1763884
149	0xbed7ea9d	-0.42171183
150	0x3d868299	0.06567878
151	0xbe148f45	-0.14507778
152	0x3d250762	0.040290244
153	0x3cc5b667	0.024134828
154	0x3cba81d2	0.022766981
155	0xbe8f3c85	-0.2797586
156	0x3e4babf9	0.19889821
157	0x3e4ba65e	0.19887683
158	0x3e0a64fe	0.13515088
159	0x3e63e03e	0.2225351
160	0xbe39689f	-0.18106316
161	0xbea93db4	-0.33054888
162	0xbd5e142f	-0.054218467
163	0x3da88b53	0.08229699
164	0x3dac3479	0.08408446
165	0xbe19bbd5	-0.15013058
166	0x3db5f758	0.08885068
167	0xbe153309	-0.1457025
168	0xbe286581	-0.1644497
169	0x3aab17a9	0.0013053316
170	0xbdd9ffc7	-0.10644489
171	0xbea3ef93	-0.32018718
172	0xbccde8d0	-0.025135428
173	0xbbd5a3ea	-0.006519784
174	0x3e249fa8	0.16076529
175	0xbd21ab6a	-0.039470114
176	0xbe99fd10	-0.30075884
177	0xbe4937d0	-0.19650197
178	0xbdd4f68e	-0.10398589
179	0x3dd18db3	0.10232105
180	0xbca42dc2	-0.02004135
181	0xbe501bf7	-0.20323168
182	0xbeb0d8ca	-0.34540397
183	0xbcc9591c	-0.024578623
184	0x3d800888	0.06251627
185	0x3e3fd7aa	0.18734613
186	0xbc027974	-0.007963527
187	0x3ba50765	0.005036282
188	0xbe3c80a7	-0.18408452
189	0x3e12027b	0.14258759
190	0x3d6f40dd	0.058411468
191	0x3e474533	0.19459991
192	0x3a05a289	0.0005097767
193	0xbe3f2c44	-0.1866923
194	0xbdd9a0d9	-0.106263824
195	0x3e29c26b	0.16578071
196	0xbe9fa414	-0.3117987
197	0x3cd12a1e	0.025532778
198	0x3ddcd023	0.107818864
199	0x3e169f55	0.14709218
200	0xbe2055e7	-0.15657769
201	0x3e43da17	0.19126163
202	0x3e3ffa45	0.18747814
203	0xbdba801e	-0.09106468
204	0x3ccd410f	0.025055436
205	0x3e080499	0.13283004
206	0x3db7b2dd	0.08969662
207	0xbe4629a1	-0.19351818
208	0xbe2efdd4	-0.17089015
209	0xbe3e9560	-0.1861167
210	0x3d6f57fa	0.05843351
211	0x3cda0168	0.026611999
212	0xbea13543	-0.31485948
213	0xbe1bb4e3	-0.15205722
214	0x3e404355	0.18775685
215	0xbe7b2f94	-0.24529868
216	0xbeb71a4e	-0.35762256
217	0xbe3bccf5	-0.18339904
218	0x3e1703a4	0.14747483
219	0x3df8e6d4	0.12153402
220	0x3df69f59	0.12042112
221	0xbe70401d	-0.23461957
222	0x3d174b3e	0.03693699
223	0xbe11a3f1	-0.14222695
224	0x3d85eb25	0.06538991
225	0x3d9382e9	0.072027035
226	0xbc17c7eb	-0.009263973
227	0xbe9d35be	-0.30705065
228	0xbe82f5f2	-0.25578266
229	0xbe1e08c3	-0.1543303
230	0xbd16264c	-0.036657616
231	0xbcd5953c	-0.026072137
232	0xbd42d94a	-0.047570504
233	0xbdd893e4	-0.10575083
234	0x3e338bb0	0.17533755
235	0xbecd2ce4	-0.4007331
236	0x3c8d6559	0.01726024
237	0x3e0abcdc	0.13548607
238	0x3dca63b1	0.09882296
239	0x3e0e3b8a	0.138899
240	0x3e1aa4db	0.1510195
241	0xbd759f84	-0.05996658
242	0xbe3fee66	-0.18743286
243	0x3cfeea41	0.03111756
244	0xbea7f623	-0.32804975
245	0x3e6f96a7	0.23397313
246	0xbdc44585	-0.09583572
247	0xbe159dae	-0.14610931
248	0xbdcdf30a	-0.10056122
249	0x3df831ce	0.121188745
250	0x3dbd4524	0.09241703
251	0xbeba60f7	-0.36402103
252	0xbb848460	-0.0040441006
253	0xbd14069e	-0.036139123
254	0xbe2bd1b2	-0.16779211
255	0xbec117bc	-0.3771342

arith.constant7 f4 [128, 64]
0	0xbde77ea8	-0.11303455
1	0xbddced79	-0.10787482
2	0xbda66d3a	-0.08126302
3	0xbe4598ee	-0.1929662
4	0xbe1bccef	-0.15214895
5	0x3a4416ef	0.0007480224
6	0xbd52e9c1	-0.051492456
7	0x3d817981	0.06322003
8	0x3e154f2a	0.1458098
9	0x3e4e97d3	0.20175104
10	0xbda7c128	-0.081911385
11	0xbd71b245	-0.0590079
12	0x3e2192f9	0.15778722
13	0x3dd9f243	0.10641911
14	0x3e1e0315	0.15430863
15	0x3d7cd9c4	0.061731115
16	0xbd1a8576	-0.037724935
17	0xbe97117b	-0.29505524
18	0x3df4aa14	0.11946502
19	0x3e665fcd	0.22497483
20	0xbdf52e06	-0.11971669
21	0xbdef473e	-0.1168351
22	0x3df05d06	0.11736493
23	0x3c9ba91a	0.019001532
24	0xbe41c723	-0.18923621
25	0x3dab8316	0.08374612
26	0x3e580848	0.21096909
27	0xbcfb6540	-0.030687928
28	0xbca10ce8	-0.019659474
29	0xbe810c68	-0.25204778
30	0xbdb5e3e9	-0.08881361
31	0xbd2cbef0	-0.04217428
32	0x3d7e50d8	0.062088817
33	0xbdc32dc6	-0.09530215
34	0x3e73178f	0.23739456
35	0xbdae2ec1	-0.08505011
36	0xbdb2f011	-0.08737195
37	0xbe99087e	-0.29889292
38	0x3e3740e2	0.17895845
39	0xbe8e71dc	-0.27821243
40	0x3dc8dd4b	0.09807833
41	0xbc88b43e	-0.016687509
42	0xbd156f46	-0.03648307
43	0xbc03e5cd	-0.008050394
44	0x3e2ba75e	0.16763064
45	0x3e326d64	0.17424542
46	0x3d0d19e9	0.034448538
47	0xbc602a0a	-0.013681898
48	0x3d498788	0.04920152
49	0xbdb0f9ba	-0.086413816
50	0x3e18c946	0.1492053
51	0x3e6489a0	0.22318125
52	0xbe37410d	-0.17895909
53	0xbc305d7f	-0.010764479
54	0x3d05f4c4	0.03270413
55	0xbe18cd33	-0.14922027
56	0xbdf8dd0c	-0.12151536
57	0xbdbfdd40	-0.09368372
58	0xbe85c11c	-0.26123893
59	0xbe77fdc8	-0.24217904
60	0x3de2dbe0	0.11077094
61	0xbe741eae	-0.23839828
62	0xbdcfc885	-0.10145668
63	0x3d2be7ad	0.04196899
64	0x3e14c5c7	0.14528571
65	0x3da602fc	0.08106038
66	0xbd20a485	-0.039219398
67	0xbe768e27	-0.24077664
68	0x3cd45ead	0.025924051
69	0xbe2401a6	-0.16016254
70	0x3ce5570e	0.027995612
71	0x3dfbf989	0.123034544
72	0xbdab7f08	-0.08373839
73	0xbdcba134	-0.099428564
74	0xbdeee143	-0.11664059
75	0x3cebf813	0.028804814
76	0x3ea10c88	0.31454873
77	0x3e971a96	0.2951247
78	0x3e8bff43	0.27343187
79	0xbe4a78d9	-0.19772662
80	0x3d98eedb	0.07467433
81	0x3d69d849	0.05709103
82	0x3dcb67ef	0.09931933
83	0x3ae67894	0.0017583543
84	0x3cfe7e01	0.031065943
85	0x3e23df79	0.16003217
86	0x3cac0399	0.02099781
87	0x3dfea97a	0.12434669
88	0xbe169144	-0.14703852
89	0xbdb1f17f	-0.0868864
90	0x3dc4f96f	0.09617888
91	0x3e3fa8dc	0.18716758
92	0x3dbd532d	0.0924438
93	0xbdea8f9e	-0.11453174
94	0x3e524a7c	0.20536226
95	0x3c90b2c4	0.017663367
96	0x3e72ffc7	0.23730384
97	0xbe21e0b9	-0.15808381
98	0xbdf649b0	-0.120257735
99	0xbd4ee2bf	-0.05050921
100	0x3dc72eb2	0.09725703
101	0x3de4842e	0.11158024
102	0x3db897d9	0.09013338
103	0x3d81b0ea	0.06332572
104	0x3e87d26b	0.26527724
105	0x3e152008	0.14563
106	0x3d698959	0.05701575
107	0xbe10d9f8	-0.14145648
108	0x3e1f8b66	0.1558052
109	0x3e486d98	0.19573057
110	0x3d877783	0.06614592
111	0x3d3b497b	0.045724373
112	0x3e02d391	0.12776019
113	0xbe0e76fc	-0.13912576
114	0x3e068536	0.13136753
115	0x3c77505d	0.015094844
116	0x3e974843	0.2954732
117	0xbd61a93b	-0.05509303
118	0xbcb971cf	-0.022637276
119	0xbe17549f	-0.14778374
120	0x3d64c7ed	0.055854727
121	0x3deb0b8e	0.11476813
122	0x3c074a3c	0.008257445
123	0x3e2205db	0.15822546
124	0xbdadd0b8	-0.084870756
125	0x3da1bc12	0.078972
126	0x3b58dd09	0.0033090732
127	0x3e629310	0.22126412
128	0xbdf604f4	-0.120126635
129	0xbda51f72	-0.08062638
130	0x3e5ae90b	0.21377961
131	0xbd26bdf7	-0.04070851
132	0x3cead7c2	0.028667334
133	0x3e03e23a	0.12879267
134	0xbdd97c56	-0.10619418
135	0xbe3b37fa	-0.18283072
136	0x3dda69ce	0.10664712
137	0x3cc149c5	0.023594746
138	0x3e649f69	0.22326435
139	0x3e0877ad	0.13326903
140	0xbe40a3d2	-0.18812492
141	0x3e427309	0.18989195
142	0x3d31c0da	0.04339681
143	0xbd994eaf	-0.07485711
144	0xbc9c07a1	-0.019046606
145	0x3dcfb2a4	0.10141495
146	0xbe127633	-0.14302902
147	0xbeaefb13	-0.3417593
148	0x3e754cf5	0.23955138
149	0xbb9ccd53	-0.0047852187
150	0xbe6cab07	-0.23112117
151	0x3e62dc14	0.22154266
152	0x3d235711	0.039877955
153	0xbdf35d2d	-0.11883006
154	0xbdeb4bb0	-0.114890456
155	0xbdf43a0b	-0.11925133
156	0x3e01f5a6	0.12691364
157	0x3e15eb92	0.14640644
158	0xbe81b381	-0.25332263
159	0x3cfc9981	0.030834915
160	0xbe21281b	-0.15737955
161	0x3c8a7f3a	0.01690637
162	0x3e52740d	0.20552082
163	0x3db0e02f	0.086365096
164	0x3c5a397b	0.0133193685
165	0x3e732415	0.23744233
166	0x3e8191fa	0.25306684
167	0xbe8e0e36	-0.27745217
168	0x3d38adca	0.045087613
169	0xbc2050e0	-0.009784907
170	0x3da02435	0.07819406
171	0x3dcc4c13	0.099754475
172	0xbe315178	-0.17316234
173	0xbeb073aa	-0.34463245
174	0x3e965a98	0.29365993
175	0x3dec1517	0.1152746
176	0x3e021892	0.12704685
177	0x3e001105	0.12506492
178	0xbea70268	-0.32619023
179	0x3d0d681a	0.034523107
180	0x3c39b991	0.011335746
181	0xbda76110	-0.0817281
182	0xbd0dcc5b	-0.034618717
183	0x3e6c2e6a	0.2306458
184	0x3ed988b9	0.42487124
185	0x3de54acc	0.11195907
186	0xbdfdc2dc	-0.12390682
187	0x3e358fda	0.17730656
188	0xbe4d1a50	-0.20029569
189	0x3e4ece70	0.20195937
190	0x3e0025b6	0.12514386
191	0xbe2a7f73	-0.1665018
192	0x3d80c16a	0.06286891
193	0x3ddad449	0.106850214
194	0x3deed7df	0.11662268
195	0x3e59a4e7	0.21254312
196	0x3d06579e	0.032798402
197	0x3ba259ad	0.004954538
198	0x3e412cd4	0.18864757
199	0xbc80ec08	-0.015737548
200	0x3d8c4213	0.0684854
201	0xbbbc2533	-0.005741739
202	0x3dbbf179	0.09176917
203	0x3ddef946	0.10887389
204	0xbd97c1b9	-0.074099965
205	0xbe40a2d5	-0.18812115
206	0xbc7414f8	-0.014897577
207	0x3deca633	0.115551375
208	0x3e673a09	0.22580732
209	0xbc63828c	-0.013886105
210	0xbe81b008	-0.25329614
211	0xbdd3cf8a	-0.10342319
212	0xbdb324d7	-0.08747261
213	0xbc0ec323	-0.008713516
214	0xba6a8324	-0.0008945933
215	0x3e0740dd	0.13208337
216	0xbcc4df27	-0.024032189
217	0x3e3a7b55	0.1821111
218	0xbe1909ff	-0.1494522
219	0xbdd86db1	-0.10567797
220	0xbdb38651	-0.08765853
221	0xbd8f1cb4	-0.069878966
222	0x3c5fcf98	0.013660334
223	0xbe2f7771	-0.17135407
224	0xbe16afc6	-0.1471549
225	0x3e3baefa	0.18328467
226	0x3e0b0645	0.1357661
227	0xbd8b1dd2	-0.06792797
228	0xbe099cc3	-0.13438706
229	0x3e6f3619	0.2336048
230	0x3e07cac4	0.13260943
231	0xbdfdae79	-0.12386794
232	0xbd10ed9e	-0.03538286
233	0x3e279c88	0.16368306
234	0xbf0c1fef	-0.54736227
235	0x3b239768	0.0024962071
236	0xbdc696ee	-0.09696756
237	0xbed18545	-0.4092199
238	0x3d38a5e6	0.045080088
239	0xbe5d44d3	-0.21608286
240	0x3ea2e82a	0.31817752
241	0xbe0eafa0	-0.13934183
242	0xbe0e4927	-0.13895093
243	0x3e1532f6	0.14570221
244	0xbdbf3017	-0.09335344
245	0x3d4b01a2	0.049562104
246	0x3d745947	0.059655454
247	0xbe0bebcd	-0.1366417
248	0xbdd6e0ff	-0.10492133
249	0x3c2878a5	0.01028267
250	0x3dd97d35	0.106195845
251	0xbd01972d	-0.031638313
252	0x3d5d806b	0.054077547
253	0xbd42cca1	-0.04755843
254	0xbe0b4390	-0.13599992
255	0x3d88121d	0.0664408

arith.constant8 f4 [256, 128]
0	0xbd2a5786	-0.041587375
1	0xbdc1631d	-0.094427325
2	0x3d5f3ff2	0.054504342
3	0x3d04bc88	0.03240636
4	0x3d71f9a6	0.059075974
5	0x3e29b444	0.16572672
6	0xbdcd70e4	-0.10031298
7	0xbc4a342b	-0.012341539
8	0xba997d40	-0.0011710301
9	0xbcfc3981	-0.030789139
10	0xbdd93027	-0.106048875
11	0x3e09282a	0.13394228
12	0xbdbaf4b9	-0.091287084
13	0xbd941f0c	-0.07232484
14	0xbccaf507	-0.024775041
15	0x3b3f578b	0.0029196467
16	0xbda80acb	-0.082051836
17	0x3df0f179	0.11764807
18	0xbdb0b4a5	-0.08628205
19	0x3d70464e	0.058660798
20	0x3e17fcd3	0.14842539
21	0xbe491b13	-0.19639234
22	0xbcdbcc55	-0.026830832
23	0x3c09dce9	0.0084144855
24	0x3dc868d5	0.0978562
25	0xbd854c63	-0.0650871
26	0x3cae974e	0.021312382
27	0x3d8e2875	0.0694131
28	0x3e26f28c	0.16303462
29	0xbe2776c5	-0.163539
30	0xbda60486	-0.081063315
31	0x3c7e680a	0.0155277345
32	0xbdc98649	-0.09840066
33	0x3d89b18f	0.0672332
34	0xbd3c02db	-0.04590116
35	0x3d2ee501	0.042698864
36	0x3dcc969b	0.09989663
37	0xbdfcd0d3	-0.123445176
38	0x3c07acb4	0.008280922
39	0x3dbe16d1	0.09281696
40	0x3da33f8f	0.07971107
41	0x3e3c8d3a	0.18413249
42	0xbdddaf61	-0.108244665
43	0x3db502e4	0.08838442
44	0x3da14a13	0.07875457
45	0xbe2c38eb	-0.16818587
46	0x3e66ae93	0.22527532
47	0xbe3995be	-0.18123528
48	0x3e80c4b0	0.2515006
49	0x3e249c2d	0.16075201
50	0x3c5c8346	0.013459032
51	0x3d431ede	0.04763686
52	0x3d83e059	0.06439275
53	0xbdc9e29d	-0.09857676
54	0xbdf9d0c2	-0.121980205
55	0xbd9c2404	-0.07624057
56	0x3cdd95b9	0.027048932
57	0x3c794d77	0.015216223
58	0x3d994a04	0.074848205
59	0xbd86c04d	-0.06579647
60	0xbe51c344	-0.20484644
61	0x3d4dea19	0.05027208
62	0x3dd8e946	0.105913684
63	0x3d96f2ea	0.07370551
64	0xbd1295b0	-0.035787284
65	0x3dca57a3	0.09879997
66	0x3d8f8d48	0.07009369
67	0x3c8982e4	0.016786046
68	0x3df941d0	0.12170756
69	0xbbbf07fa	-0.0058298083
70	0x3c854623	0.016268795
71	0xbe1ab24f	-0.15107082
72	0xbd2321d0	-0.039827168
73	0xbd02fc43	-0.031978857
74	0x3e0d4e1a	0.13799325
75	0x3e2c66ef	0.16836141
76	0x3b43496e	0.0029798406
77	0xbc5c278e	-0.013437165
78	0x3d65cf30	0.056105793
79	0xbdd0134d	-0.10159931
80	0x3d288d54	0.041150406
81	0xbb7187f2	-0.0036854711
82	0x3da072e4	0.07834414
83	0xbd00ce72	-0.03144688
84	0x3e677ea5	0.22606905
85	0x3d9a1644	0.07523778
86	0xbe3f0593	-0.1865447
87	0xbd881efe	-0.06646536
88	0x3dd8b1f8	0.1058082
89	0xbd992c5d	-0.07479165
90	0xbd39cf37	-0.04536363
91	0x3e93074f	0.28716514
92	0x3dd27ff1	0.10278309
93	0xbd87eb6e	-0.066367015
94	0xbd7d41df	-0.061830398
95	0x3d5d0f1d	0.05396949
96	0x3da8ea00	0.08247757
97	0x3d948883	0.072526
98	0xbdb97b14	-0.090566784
99	0xbcf2b719	-0.029628323
100	0xbde2f00f	-0.11080944
101	0xbc966762	-0.018359844
102	0xbca562d4	-0.020188726
103	0xbde7f7ae	-0.11326538
104	0x3cd3147f	0.02576661
105	0xbe4abb02	-0.197979
106	0x3e37a542	0.17934135
107	0x3c3ccfec	0.011524182
108	0x3d011798	0.03151664
109	0x3dd0d303	0.10196497
110	0xbd963803	-0.07334902
111	0x3de376ad	0.1110662
112	0x3c47b277	0.012188545
113	0x3e046409	0.12928785
114	0xbc5ea03c	-0.013588008
115	0xbe15ce75	-0.14629538
116	0xbe138c8f	-0.14409088
117	0xbd8d8cbe	-0.0691161
118	0xbd9782e7	-0.073980145
119	0x3ab1db64	0.0013569412
120	0x3d6e4eec	0.058180735
121	0x3de78bb4	0.11305943
122	0xbdf4e191	-0.11957086
123	0xbdece248	-0.11566597
124	0xbdebe1d7	-0.11517685
125	0xbd501279	-0.050798867
126	0xbe07daf2	-0.13267115
127	0x3ce79340	0.028268456
128	0xbd8a696b	-0.06758388
129	0x3dfe7f89	0.12426669
130	0xbde80c46	-0.11330466
131	0xbd79bb77	-0.060969796
132	0x3e28c8b6	0.16482815
133	0x3dc7bc94	0.09752765
134	0x3d4ce088	0.050018817
135	0xbe0524e5	-0.13002355
136	0xbd1efe81	-0.038816933
137	0xbe11bb40	-0.14231586
138	0xbadb5605	-0.001673401
139	0xbdbdfe67	-0.09277039
140	0xbdf665ad	-0.12031112
141	0x3d68c07f	0.056824204
142	0x3d037f3b	0.03210376
143	0x3da8e999	0.0824768
144	0x3e042f17	0.12908588
145	0x3daf7aaa	0.08568318
146	0xbd4ee77b	-0.050513726
147	0x3d68984f	0.056785878
148	0xbb8d4cc6	-0.0043121306
149	0xbcc2a6a9	-0.02376111
150	0xbba77d39	-0.0051113633
151	0x3e10d872	0.14145067
152	0xbe93cb1f	-0.28865907
153	0x3d20391f	0.039116975
154	0xbe1dfd93	-0.15428762
155	0xbd9f7291	-0.07785524
156	0xbc948337	-0.018128974
157	0x3de89ef1	0.11358441
158	0x39690c51	0.000222252
159	0x3de42b17	0.11141031
160	0xba0db7f2	-0.0005406133
161	0x3c91bf97	0.017791552
162	0xbd047fd4	-0.03234847
163	0x3bbd05b4	0.005768502
164	0x3cf938ee	0.030422654
165	0x3cb7c7ed	0.0224342
166	0xbd25e165	-0.040498156
167	0xbe49d8b2	-0.19711569
168	0x3db3f403	0.08786776
169	0xbc8353d7	-0.016031189
170	0xbd7f248c	-0.062290713
171	0x3d2dd4a3	0.042439114
172	0x3e176767	0.14785539
173	0x3da5073b	0.0805802
174	0xbd5edb0e	-0.054408126
175	0x3e0ba11c	0.13635677
176	0xbd42223f	-0.04739594
177	0xbcdac511	-0.026705297
178	0xbdc7082e	-0.09718357
179	0xbdd971bf	-0.106173985
180	0x3d22d6ed	0.03975575
181	0xbdb2cb79	-0.087302156
182	0x3daf1871	0.08549584
183	0x3d8a295d	0.06746171
184	0x3c64b5c1	0.013959349
185	0x3bafcfb0	0.0053653345
186	0xbd68ff29	-0.056883965
187	0xbd5a75b6	-0.053334914
188	0x3da5031b	0.08057233
189	0x3d0a8773	0.03382058
190	0x3d7985f0	0.06091875
191	0x3dae7f7c	0.085204095
192	0xbb804ea8	-0.0039156266
193	0x3d930d1c	0.07180235
194	0xbe170f20	-0.14751863
195	0x3b597070	0.003317859
196	0x3d28cefe	0.041213028
197	0xbe2f56a1	-0.1712289
198	0xbe00f98a	-0.12595192
199	0x3d241e6c	0.040068075
200	0x3d2a2734	0.041541293
201	0x3bac5faa	0.0052604275
202	0xbe044b3a	-0.12919322
203	0xbd968b1d	-0.073507525
204	0xbd78b1b1	-0.060716335
205	0xbc2a73b1	-0.01040356
206	0x3d1d0eb4	0.0383441
207	0xbdf237e4	-0.118270665
208	0xbdd74236	-0.105106756
209	0x3d1de95e	0.038552634
210	0xbce8e318	-0.0284286
211	0xbded68af	-0.115922324
212	0x3de6d4f2	0.11271085
213	0xbcfca307	-0.030839456
214	0xbceb36a3	-0.028712576
215	0x3d94ec2e	0.0727161
216	0x3dc8b87a	0.09800811
217	0x3d2f9a09	0.04287151
218	0x3d3c4c7f	0.04597139
219	0xbdd19b2a	-0.10234673
220	0xbcb07f7d	-0.021545166
221	0x3dc79f06	0.09747128
222	0xbdc74b74	-0.097311884
223	0x3d1162c8	0.035494596
224	0xbb8df346	-0.004331979
225	0xbd816e21	-0.063198335
226	0x3c57c83c	0.013170298
227	0x3de0a48f	0.10968887
228	0xbc871da7	-0.016493632
229	0xbd4223f5	-0.047397573
230	0xbd61cb47	-0.0551255
231	0x3c869cb5	0.016432146
232	0x3e0e4960	0.13895178
233	0xbde78329	-0.11304314
234	0x3d0e5401	0.03474808
235	0x3b95d011	0.0045719226
236	0x3d7b795b	0.06139503
237	0x3cc820cc	0.024429701
238	0xbd342bd0	-0.043987095
239	0xbdfb9dd8	-0.12285966
240	0x3df4833d	0.11939094
241	0xbdb3478e	-0.08753882
242	0xbd22a8b5	-0.039711673
243	0x3dcc68ec	0.0998095
244	0x3d5ccd7a	0.053906895
245	0x3df54828	0.11976653
246	0xbe06aef3	-0.13152675
247	0x3da0191e	0.07817291
248	0x3d064895	0.032784063
249	0xbc3df793	-0.011594671
250	0xbdaa468b	-0.08314236
251	0x3dc0969b	0.09403726
252	0x3cbd406b	0.023102006
253	0x3d4f647c	0.05063294
254	0xbcaf2a05	-0.021382341
255	0xbd4bb7d6	-0.049735866

arith.constant9 f4 [256, 64]
0	0x3d059f4a	0.032622613
1	0xbd8042b0	-0.0626272
2	0x3de9e481	0.11420537
3	0xbce85577	-0.028361065
4	0x3d3b4d29	0.045727883
5	0xbd185041	-0.03718591
6	0x3d4f1f06	0.050566696
7	0xbcdaea3e	-0.026723024
8	0x3dad0517	0.084482364
9	0x3ca08c85	0.019598255
10	0xbe5c914e	-0.21539804
11	0xbe13fbbe	-0.14451501
12	0xbd4278aa	-0.047478355
13	0x3dc68970	0.09694183
14	0xbb27a518	-0.0025580581
15	0xbd1d621a	-0.038423635
16	0xbca83faf	-0.02053818
17	0xbdf4ed3b	-0.119593106
18	0xbdc6b5a3	-0.09702613
19	0x3d6446e8	0.055731684
20	0xbd16bc67	-0.03680077
21	0xbd5481e8	-0.0518817
22	0x3d148102	0.036255844
23	0x3c14a82a	0.009073297
24	0xbdc52689	-0.096264906
25	0x3e841013	0.25793514
26	0x3d72ebe4	0.059306994
27	0x3dbad552	0.09122719
28	0x3e03da83	0.12876324
29	0xbcc00464	-0.023439594
30	0x3dbf6e74	0.09347239
31	0x3da9880c	0.08277902
32	0xbdb2bb72	-0.087271586
33	0xbda9d4e2	-0.08292557
34	0xbdf23f27	-0.118284516
35	0xbdc56280	-0.09637928
36	0xbdb97991	-0.0905639
37	0xbdbfd125	-0.09366063
38	0x3e323195	0.17401727
39	0x3e02711c	0.1273846
40	0x3da4f88f	0.08055221
41	0xbd13a960	-0.0360502
42	0x3aaf46b3	0.001337251
43	0x3dba61be	0.09100674
44	0x3bdd6f3a	0.006757644
45	0x3d0ebf08	0.03485015
46	0xbdcb9bdd	-0.09941838
47	0xbd4341a0	-0.047670007
48	0x3df4de3e	0.11956452
49	0xbde1c931	-0.11024702
50	0x3e305ff9	0.1722411
51	0x3d029f8b	0.031890433
52	0xbcd406b1	-0.025882097
53	0xbdf32675	-0.118725695
54	0x3d0c7d89	0.034299407
55	0x3de26aaf	0.110555045
56	0xbd9ad661	-0.07560421
57	0x3d90c3ca	0.07068594
58	0xba71cfc9	-0.0009224383
59	0x3d851e92	0.064999714
60	0x3d2a4289	0.04156736
61	0xbd8bbe85	-0.06823448
62	0xbd7f59e0	-0.06234157
63	0x3e5320d6	0.20617995
64	0xbd3f3ed3	-0.046690773
65	0xbddc297a	-0.107500985
66	0xbd9ed2c5	-0.07755045
67	0xbda3352c	-0.07969126
68	0x3cf52943	0.029926902
69	0xbd230d2b	-0.03980748
70	0xbcc50cea	-0.02405401
71	0x3d0e55e5	0.034749884
72	0xbbe80b83	-0.0070814504
73	0x3d54a426	0.051914357
74	0x3d5df636	0.054189883
75	0xbc616f01	-0.013759376
76	0xbd7b7c40	-0.06139779
77	0x3c69f5eb	0.014279823
78	0xbd5f658a	-0.054540195
79	0xbe191705	-0.14950188
80	0xbd3cf8f4	-0.046135858
81	0x3c84fcf4	0.016233899
82	0xbcc8a83b	-0.024494281
83	0xbd29ad4c	-0.041425034
84	0xbd609f23	-0.054839265
85	0x3cc2d27b	0.023782006
86	0xbccc5344	-0.024942048
87	0xbdb6f1f1	-0.089328654
88	0xbe12dbe8	-0.143417
89	0xbd97af9f	-0.07406544
90	0x3c372449	0.011178085
91	0x3c490436	0.01226907
92	0x3d5b33d9	0.053516243
93	0x3d1929d4	0.037393406
94	0x3d3edfc9	0.046600137
95	0x3cd6194d	0.026135111
96	0xbe3626a0	-0.17788172
97	0xbc0a1ad3	-0.008429247
98	0x3cce5e51	0.025191458
99	0x3db737ca	0.08946188
100	0xbc1a3cde	-0.009413926
101	0x3e48f078	0.19622982
102	0x3daa2343	0.08307507
103	0x3d6dd0b8	0.058060378
104	0x3d56749b	0.052357297
105	0x3aca3458	0.0015426977
106	0xbd2c1da9	-0.042020474
107	0xbe2eb2b4	-0.17060357
108	0x3d99a770	0.07502639
109	0x3bdf7018	0.0068187825
110	0x3e0b25fa	0.13588706
111	0xbcda6e43	-0.026663905
112	0x3e227803	0.15866093
113	0xbac24973	-0.0014822915
114	0xbda1262c	-0.07868609
115	0x3cdfe946	0.027332913
116	0xbdb097b3	-0.08622684
117	0xbd5a9846	-0.053367876
118	0xbbf20de2	-0.007386909
119	0x3cfdfcdc	0.031004362
120	0xbb8e9488	-0.0043512024
121	0xbd3c50c4	-0.04597546
122	0x3dd7f95e	0.1054561
123	0xbd19e676	-0.0375733
124	0x3dffb2c1	0.124852665
125	0x3dedca47	0.11610847
126	0xbd9d2e51	-0.0767485
127	0x3d3b39b2	0.04570932
128	0xbb04e82b	-0.0020279984
129	0xbbf7c88d	-0.0075617493
130	0xbdab4949	-0.083635874
131	0x3d53ee3a	0.051740862
132	0xbcab4d0a	-0.020910759
133	0xbc42bb17	-0.011885426
134	0x3db504a7	0.08838778
135	0xbcd3b89f	-0.02584487
136	0xbc92cded	-0.017920459
137	0x3cfaf939	0.030636417
138	0x3daebb92	0.0853187
139	0x3ca3b780	0.01998496
140	0xbd4a6702	-0.049414642
141	0xbd9f7cc1	-0.07787467
142	0x3d6c3805	0.057670612
143	0x3d4db701	0.050223354
144	0x3d3e1a39	0.046411727
145	0x3da77091	0.08175767
146	0xbd81f529	-0.06345589
147	0xbb1e1468	-0.002412105
148	0xbd2b71c8	-0.041856557
149	0xbd919d43	-0.071100734
150	0xbe2d1607	-0.16902934
151	0x3d8b13bf	0.06790876
152	0xbce02ba9	-0.027364569
153	0xbd57ca51	-0.05268318
154	0xbd820847	-0.06349235
155	0x3d4191bb	0.04725812
156	0xbc4b97a7	-0.012426293
157	0xbd82e1fd	-0.0639076
158	0x3de6ee6e	0.112759456
159	0x3d887899	0.06663627
160	0xbd4c8132	-0.049927898
161	0x3d80135d	0.06253693
162	0x3e966fa5	0.29382053
163	0x3d7b490e	0.061348967
164	0xbe0ff8db	-0.14059775
165	0x3deef352	0.116675034
166	0x3cdbeaa2	0.02684528
167	0xbdf7cb04	-0.12099269
168	0x3dfc0ef1	0.12307537
169	0x3dbd4856	0.092423126
170	0xbcdafdcd	-0.02673235
171	0x3d0ad7f1	0.033897344
172	0x3c1cdb6b	0.009573798
173	0x3dc4a5e4	0.096019536
174	0x3cb64301	0.022248747
175	0xbd8ce459	-0.06879491
176	0xbe04fac3	-0.12986283
177	0xbd212c62	-0.039348967
178	0x3ad75aa1	0.0016430208
179	0xbd1d4866	-0.038399123
180	0xbdd8ead3	-0.10591664
181	0xbdaf28d6	-0.08552711
182	0xbc55603e	-0.013023434
183	0xbd271715	-0.040793497
184	0x3cbb95ca	0.022898573
185	0xbcb6d360	-0.022317588
186	0x3cebf618	0.02880387
187	0x3d94cf35	0.07266084
188	0xbd2b7667	-0.041860964
189	0xbc293458	-0.010327421
190	0x3d828969	0.06373865
191	0xbe1a8a1b	-0.15091746
192	0x3d86aede	0.06576322
193	0xbe05e57f	-0.13075827
194	0x3d79d79a	0.06099663
195	0x3cb4b466	0.022058677
196	0xbc09984a	-0.008398125
197	0xbdccb6ae	-0.09995781
198	0xbd56e53e	-0.052464716
199	0xbdbfa92a	-0.09358437
200	0xbd3079eb	-0.04308502
201	0xbd9742ad	-0.07385764
202	0xbdd6c2e2	-0.1048639
203	0x3d277f49	0.040892873
204	0x3d8db127	0.06918555
205	0x3d6c8201	0.05774117
206	0x3d268208	0.04065135
207	0xbd42d3d1	-0.047565285
208	0x3aabbe00	0.0013102889
209	0x3cd60506	0.026125442
210	0xbd20e27f	-0.039278504
211	0x3b9bbfdc	0.004753096
212	0x3d6337a5	0.05547299
213	0xbde6cc8f	-0.11269485
214	0xbd95bec1	-0.07311774
215	0xbc4cac28	-0.012492217
216	0xbda739c6	-0.08165316
217	0xbe091701	-0.13387682
218	0x3d11f4e6	0.035633944
219	0xbda30042	-0.079590335
220	0x3d390601	0.04517174
221	0x3d194924	0.037423268
222	0xbd828cd1	-0.06374515
223	0xbbe3ed49	-0.006955777
224	0x3cca7324	0.024713106
225	0xb98e9c42	-0.00027200772
226	0xbc798bcc	-0.015231084
227	0x3b011521	0.0019696432
228	0x3d693ab4	0.05694075
229	0x3d66be96	0.0563341
230	0xbdb4d6f8	-0.088300645
231	0xbcf9b3a3	-0.030481165
232	0x3c78f782	0.015195729
233	0xbd41d022	-0.04731763
234	0xbd217ca1	-0.039425496
235	0x3d713ceb	0.058895987
236	0x3cae446f	0.021272866
237	0x3b26d5c6	0.0025457009
238	0xbdc5b4f7	-0.09653657
239	0xbce11541	-0.027475955
240	0xbdf590ba	-0.11990495
241	0xbdbd9696	-0.092572376
242	0x3d4f76cb	0.0506504
243	0xbd065205	-0.032793064
244	0xbd53084e	-0.05152159
245	0xbc5cce64	-0.013476942
246	0xbd9452f4	-0.072423846
247	0x3decc82d	0.11561618
248	0x3d9141e9	0.070926495
249	0xbe2f687a	-0.17129698
250	0x3ce8fa15	0.02843956
251	0x3d118e15	0.03553589
252	0xbdc0c089	-0.09411723
253	0x3d9ddd18	0.07708186
254	0xbc51800a	-0.012786875
255	0xbdfde808	-0.12397772

arith.constant10 f4 [512, 20]
0	0x3dc26356	0.09491603
1	0xbd2b1820	-0.041771054
2	0x3dae5359	0.08511991
3	0xbd991637	-0.0747494
4	0xbd2751ae	-0.04084938
5	0x3de6b77c	0.112654656
6	0x3d2a4380	0.04156828
7	0x3de9ce89	0.114163466
8	0x3cf5ff6b	0.03002902
9	0xbb07f47f	-0.0020745096
10	0x3dd82fba	0.10555978
11	0x3d86bd90	0.06579125
12	0xbad01224	-0.0015874547
13	0x3b618cda	0.003441623
14	0x3dc61c14	0.09673324
15	0x3e0f38f2	0.13986567
16	0x3cefdc9c	0.02928
17	0x3d9860ac	0.07440314
18	0xbd8acbfb	-0.067771874
19	0x3daae004	0.08343509
20	0x3dbd7bfa	0.09252162
21	0x3dda1b68	0.106497586
22	0x3d7e9574	0.06215425
23	0x3d9c98ad	0.07646308
24	0x3d4417dd	0.04787432
25	0x3d39abcd	0.045329858
26	0xbdb3feac	-0.08788809
27	0xbd9ce52c	-0.076608986
28	0x3da0606d	0.07830892
29	0x3da0f0bb	0.07858416
30	0x3de098f6	0.10966675
31	0xbbb26417	-0.0054440605
32	0xbcc643f1	-0.024202319
33	0xbd564ee3	-0.052321326
34	0xbdbf3fc1	-0.09338332
35	0x3d82d924	0.063890725
36	0x3da4f0b7	0.08053725
37	0xbd9b29e9	-0.07576353
38	0xbd5c7d6c	-0.05383055
39	0x3d8a8f92	0.06765665
40	0x3d8b3e10	0.06798947
41	0xbd1c4820	-0.03815472
42	0x3d286461	0.041111354
43	0xbd554752	-0.05206997
44	0xbd153b90	-0.036433756
45	0x3c3ce737	0.011529735
46	0xbd38389b	-0.04497586
47	0xba18e614	-0.0005832624
48	0x3b9f34f5	0.004858608
49	0x3c4bbca3	0.012435111
50	0x3cedfc0e	0.029050853
51	0x3deed0eb	0.11660942
52	0x3dc08482	0.09400274
53	0x3de5f06f	0.112275
54	0x3e4098aa	0.18808237
55	0xbd7b7f85	-0.06140091
56	0x3cbe3799	0.02321987
57	0x3e0e4ce7	0.13896523
58	0x3dbef501	0.093240745
59	0xbc0a0cc3	-0.008425894
60	0x3de95499	0.11393089
61	0x3d55249c	0.052036867
62	0x3d2453b2	0.04011888
63	0xbd0facd5	-0.035076935
64	0x3dd7c513	0.10535636
65	0x3cdec653	0.027194178
66	0x3d266c30	0.04063052
67	0xbdd1d75d	-0.102461554
68	0xbd4eeaed	-0.05051701
69	0xbd97ef75	-0.0741872
70	0xbdd42ecb	-0.103604876
71	0xbd75c63f	-0.060003515
72	0xbd8045d2	-0.06263317
73	0x3d9984d2	0.074960366
74	0x3c1e2c67	0.009654141
75	0x3da67482	0.08127691
76	0xbcfbd872	-0.030742858
77	0xbc8ce738	-0.017200097
78	0x3d61bf3d	0.05511402
79	0xbdf43d20	-0.11925721
80	0x3c00dd3c	0.007865246
81	0x3c62d473	0.013844597
82	0xbd9dc900	-0.07704353
83	0xbce78bf8	-0.028264984
84	0xbd377146	-0.04478576
85	0xbda5c88c	-0.08094892
86	0x3d1cb266	0.03825607
87	0x3e9f1b95	0.3107573
88	0x3d99d62d	0.07511554
89	0x3dc38144	0.0954614
90	0x3e091fdf	0.13391064
91	0xbe1a1464	-0.15046841
92	0xbd483af6	-0.048884355
93	0x3d451155	0.048112232
94	0xbdf65760	-0.12028384
95	0xbd9d2c6b	-0.07674488
96	0xbdd5d827	-0.104416184
97	0x3d78b03c	0.060714945
98	0xbe0264e6	-0.12733802
99	0x3c329632	0.010900067
100	0xbd84e34e	-0.064886674
101	0xbc879c2e	-0.016553964
102	0x3d038a61	0.03211439
103	0xbcc8ed12	-0.024527106
104	0xbd7bbffe	-0.061462395
105	0x3d9e9c72	0.07744683
106	0x3bf68403	0.0075230612
107	0x3cc806b4	0.024417259
108	0xbd4d23ac	-0.050082847
109	0xbcf342bb	-0.029694906
110	0xbde5caca	-0.112203196
111	0x3abcf3c9	0.0014415915
112	0x39f88480	0.00047400966
113	0xbd2fdf53	-0.042937588
114	0xbd53892c	-0.05164449
115	0xbdbcfddc	-0.09228107
116	0xbc9a6728	-0.018848017
117	0xbcfacf25	-0.030616352
118	0x3dd0ac44	0.10189107
119	0xbd7a8725	-0.06116404
120	0x3c6a9452	0.014317589
121	0xbdc9354e	-0.0982462
122	0xbd6f1910	-0.05837351
123	0xbd58e645	-0.052953977
124	0xbd61e000	-0.055145264
125	0xbda6cc33	-0.08144417
126	0xbd823547	-0.06357818
127	0xbe14f82b	-0.14547794
128	0x3cbc854e	0.023012783
129	0xbd1d28e3	-0.03836907
130	0xbc961294	-0.018319406
131	0x3e482d3e	0.19548509
132	0x3ea9c3a7	0.33157083
133	0x3dfda974	0.12385836
134	0xbbbaae60	-0.0056970567
135	0xbce82809	-0.028339403
136	0xbe16d85e	-0.14730975
137	0xbdeb3bb8	-0.11486
138	0x3b9e7a49	0.004836355
139	0xbca0be07	-0.019621862
140	0x3d87cb67	0.06630593
141	0x3cf95d03	0.03043986
142	0x3db824c5	0.08991388
143	0xbd8a55a9	-0.0675462
144	0x3e0c2c5f	0.13688801
145	0x3df0ba64	0.11754301
146	0xbc4ad6b9	-0.012380295
147	0xbdae16df	-0.08500456
148	0xbd6111df	-0.054948684
149	0x3d18760c	0.037221953
150	0xbdb7c81e	-0.08973716
151	0x3b977868	0.004622508
152	0xbd3d48f5	-0.046212155
153	0xbd3718ce	-0.04470139
154	0xbdc33a07	-0.09532552
155	0xbdae9fd2	-0.08526577
156	0x3ccd2a61	0.025044622
157	0xbd867f55	-0.065672554
158	0xbdb6cf76	-0.08926289
159	0xbd282ce0	-0.04105842
160	0x3c82a5a2	0.01594812
161	0x3d9e67cc	0.077346414
162	0x3e4adbf0	0.19810462
163	0xbc708203	-0.014679435
164	0xbd45ec1c	-0.048320875
165	0xbe295cb0	-0.16539264
166	0xbe3cb259	-0.18427409
167	0xbd19ca69	-0.03754655
168	0xbd808812	-0.06275953
169	0xbdcf96b8	-0.10136169
170	0xbd112801	-0.03543854
171	0x3d52c522	0.05145753
172	0x3dfcaff3	0.12338247
173	0x3d311d4f	0.04324084
174	0x3dbb2faf	0.09139954
175	0x3d86b935	0.06578294
176	0x3dcde463	0.10053327
177	0x3e0f4b65	0.13993604
178	0x3dd838e0	0.10557723
179	0xbd2d9ec3	-0.042387735
180	0xbd2e3c22	-0.042537816
181	0x3d7672ca	0.060168065
182	0x3dd71850	0.10502684
183	0xbd6eae18	-0.058271497
184	0x3da82181	0.08209515
185	0x3d8cf404	0.0688248
186	0x3e082b37	0.13297735
187	0x39893b00	0.00026174635
188	0xbe11ea21	-0.1424947
189	0xbd10b56e	-0.035329275
190	0xbd1efa7b	-0.038813096
191	0x3dce43bc	0.10071513
192	0xbd7d156e	-0.061788015
193	0x3cefda06	0.029278766
194	0xbce2b43b	-0.027673831
195	0xbd4ffd0c	-0.050778434
196	0x3b6acb4b	0.0035826738
197	0xbd8282c2	-0.06372596
198	0xba87c70c	-0.0010359003
199	0xbe1a41db	-0.15064184
200	0x3dec70c9	0.115449496
201	0xbc88c923	-0.016697472
202	0xbcbdda85	-0.023175487
203	0x3da5ec8d	0.08101759
204	0x3da266de	0.079297766
205	0x3d35f58f	0.044423636
206	0x3d3e1349	0.04640511
207	0x3d21cf7a	0.039504506
208	0x3dbe466a	0.09290774
209	0xbc025978	-0.007955901
210	0x3c857538	0.016291246
211	0xbd69d666	-0.057089232
212	0xbc8064b2	-0.015673015
213	0xba8ec370	-0.0010891985
214	0x3d8e8223	0.06958415
215	0xbc625015	-0.013813038
216	0xbd55999b	-0.052148443
217	0xbc5dc16e	-0.013534887
218	0xbd68698b	-0.05674128
219	0xbdcdc58c	-0.10047445
220	0xbde3a3f9	-0.1111526
221	0x3b15a588	0.002283426
222	0x3d22c14f	0.039735135
223	0x3c97956e	0.01850387
224	0x3bc9ad7a	0.006154713
225	0x3cfa0faa	0.030525047
226	0xbc986f67	-0.018607808
227	0x3d4c7a92	0.04992158
228	0x3a919b8f	0.0011108982
229	0x3d72d6ad	0.059286762
230	0xbd201614	-0.039083555
231	0xbd3300d2	-0.043701954
232	0xbce5ec0a	-0.028066654
233	0x3db868a2	0.09004332
234	0x3d7a6c5d	0.0611385
235	0x3d5ede4e	0.054411225
236	0x3da905c2	0.08253051
237	0xbd45c807	-0.048286464
238	0x3d04880d	0.03235631
239	0x3dad4380	0.0846014
240	0xbcf48f24	-0.029853411
241	0x3cce31ca	0.025170226
242	0x3dda85ea	0.10670073
243	0x3db66057	0.08905094
244	0xbd792f54	-0.06083615
245	0x3d70224b	0.058626454
246	0x3d0b8811	0.03406531
247	0xbdb6fb7f	-0.08934688
248	0xbcf7ae4f	-0.030234484
249	0xbdb5102a	-0.08840974
250	0x3da3abd2	0.079917565
251	0x3d1d4c58	0.038402885
252	0xbd52611f	-0.051362153
253	0x3c8c0533	0.017092323
254	0xbdf4c759	-0.11952085
255	0x3d417a41	0.04723573

arith.constant11 f4 [512, 128]
0	0x3cfc5e25	0.03080661
1	0x3d9e80fb	0.07739445
2	0xbbf9eb5e	-0.007626935
3	0xbdc98ded	-0.09841523
4	0x3d9103f2	0.07080831
5	0xbd6dd344	-0.058062807
6	0x3d136a6d	0.035990167
7	0xbd9886e9	-0.07447607
8	0x3d46d68b	0.048544448
9	0x3b376906	0.0027986183
10	0x3d388c75	0.045055825
11	0x3bf00f38	0.007326033
12	0x3d78a71c	0.060706243
13	0x3d71ab1c	0.059001073
14	0xbd681acf	-0.05666619
15	0x3d818155	0.06323496
16	0xbcb5a046	-0.02217115
17	0xbc56fd89	-0.013121971
18	0x3c3dfcef	0.011595949
19	0xbc16f8d9	-0.009214603
20	0xbd83d720	-0.06437516
21	0x3bfc99bb	0.007708756
22	0x3cbe693d	0.02324354
23	0x3cf7e0ce	0.030258562
24	0xbc9d06a8	-0.019168213
25	0x3c5bca82	0.013414981
26	0x3d794151	0.060853306
27	0x3c2c930d	0.0105331065
28	0x3bf1e49a	0.0073819878
29	0xbbf94f08	-0.007608298
30	0xbd8be5c9	-0.068309374
31	0x3d770990	0.060311854
32	0x3dfceccb	0.12349852
33	0x3dd9d105	0.106355704
34	0x3cdec670	0.027194232
35	0x3c305363	0.010762068
36	0xbd67e4bb	-0.05661462
37	0xbd02b079	-0.03190658
38	0x3bacd9b2	0.0052749747
39	0x3d41874c	0.04724817
40	0x3d4aa140	0.049470186
41	0xbb183ab0	-0.002322834
42	0x3c5aefce	0.013362838
43	0x3d4abbff	0.049495693
44	0xbcc34334	-0.023835756
45	0xbdf58e6b	-0.11990055
46	0x3ca807f3	0.020511603
47	0xbbf84da9	-0.007577617
48	0xbd0aacbf	-0.03385615
49	0x3d2ff980	0.04296255
50	0xbd70e3b5	-0.05881091
51	0xbc416e68	-0.011806108
52	0x3d4c1b0e	0.04983049
53	0xbd4b501a	-0.049636938
54	0xbc1a56fd	-0.009420154
55	0xbcb34aee	-0.021886315
56	0xbd8129d1	-0.06306804
57	0xbd9c3fb0	-0.07629335
58	0x3d2fee23	0.042951714
59	0xbbbb066e	-0.0057075536
60	0x3a3af389	0.00071316265
61	0xbd07aadd	-0.033121932
62	0x3d96a965	0.07356528
63	0xbc8dd6f6	-0.017314415
64	0xbbcba1d7	-0.006214361
65	0xbd867ff7	-0.06567376
66	0x3b945907	0.0045272144
67	0xbb7392f1	-0.0037166441
68	0xbd76d376	-0.06026026
69	0x3c13122a	0.008976499
70	0x3d01f80a	0.03173069
71	0x3cd1f6c4	0.025630362
72	0x3bf02819	0.0073289988
73	0x3d000f82	0.03126479
74	0xbd2f84a3	-0.0428511
75	0x3d656955	0.056008656
76	0xbc2241ff	-0.00990343
77	0xbcddc1da	-0.027069975
78	0xbd27d56e	-0.040975027
79	0xbd4c8750	-0.04993373
80	0x3d9ad549	0.07560212
81	0xbd2b8de0	-0.04188335
82	0xbd0fd55c	-0.035115585
83	0xbd81dd26	-0.06341009
84	0x3bea0c69	0.0071425927
85	0xbca16f72	-0.019706462
86	0x3d8c8e68	0.06863099
87	0xbda75daa	-0.08172162
88	0x3d47de27	0.048795845
89	0x3c5e7afb	0.0135791255
90	0x3c9a8768	0.018863395
91	0x3d70bcee	0.058773927
92	0xbd27fdcf	-0.041013535
93	0x3d0c5c08	0.034267455
94	0x3c58aad4	0.013224322
95	0xbdc8eeb8	-0.09811157
96	0xbc94f466	-0.018182945
97	0xbcf2afbe	-0.029624816
98	0xbd1fd75c	-0.039023742
99	0xbd9033dd	-0.07041142
100	0x3d0ecf67	0.034865763
101	0x3d085e27	0.033292916
102	0x3d4bab10	0.049723685
103	0x3a13c9ae	0.00056376576
104	0xbc8b5861	-0.017009916
105	0xbca36546	-0.019945752
106	0xbca3c44e	-0.019991066
107	0x3c8b6714	0.017016925
108	0xbda2d86d	-0.07951436
109	0xbd2b96fd	-0.04189204
110	0x3e029c89	0.12755026
111	0xbcf8fbc6	-0.030393492
112	0x3b09c4a5	0.002102175
113	0xbce24925	-0.027622769
114	0xbc4a1afb	-0.012335534
115	0x3cee28dd	0.02907222
116	0xbc8ca143	-0.01716674
117	0x3d15ee42	0.036604173
118	0x3d054e04	0.032545105
119	0x3d474e1f	0.048658486
120	0x3d90aa69	0.07063753
121	0xbda70da9	-0.08156902
122	0xbcbd2ef6	-0.023093682
123	0xbcd844bd	-0.026399964
124	0xbd80476e	-0.06263624
125	0xbcbede00	-0.023299217
126	0x3c3250ba	0.0108835045
127	0xbd06d961	-0.032922152
128	0x3d9c67a4	0.076369554
129	0xbd92a811	-0.071609624
130	0x3d06da2a	0.0329229
131	0x3d3f9afb	0.04677866
132	0x3ba534ae	0.0050416803
133	0x3bf84e1c	0.0075776707
134	0xbcd07535	-0.025446514
135	0x3bc33e4f	0.0059583555
136	0x3d2ed793	0.042686056
137	0xbd41c0ca	-0.047303
138	0x3cdf7b03	0.027280336
139	0xbd00fbdb	-0.031490188
140	0x3cbf23e6	0.023332547
141	0xbcadb18b	-0.021202823
142	0x3c197a42	0.009367527
143	0x3cbf2313	0.023332154
144	0x3c4adfaf	0.012382432
145	0xbc0c5ba9	-0.008566775
146	0xbd5b6da7	-0.05357137
147	0x3d348df3	0.044080686
148	0xbd48b049	-0.048996244
149	0x3ce42dc7	0.02785386
150	0x3cb4f1e6	0.022088002
151	0x3aa76d28	0.001277362
152	0x3dafa08e	0.08575545
153	0x3c062c23	0.008189234
154	0x3d0ce358	0.0343965
155	0xbc4743f7	-0.0121622
156	0xbd8f78ce	-0.070054635
157	0xbce83b59	-0.028348612
158	0xbd5a29c9	-0.053262506
159	0xbc8c6239	-0.01713668
160	0xbdf83ec2	-0.12121345
161	0x3db1ec83	0.08687689
162	0x3c662128	0.014045991
163	0xbdcbd4af	-0.099526756
164	0xbb81cae6	-0.003960955
165	0x3bcbda49	0.00622109
166	0x3d367855	0.04454835
167	0x3c55bef7	0.013046018
168	0x3d2ccb80	0.04218626
169	0xbc29f646	-0.010373658
170	0x3d0c2105	0.034211177
171	0xbc7ce1d0	-0.015434697
172	0x3a7fff60	0.0009765532
173	0x3c743a4e	0.014906479
174	0x3b85c5f2	0.004082435
175	0x3b99c3fd	0.004692553
176	0x3d8c0f70	0.06838882
177	0xbbc56344	-0.0060237963
178	0xbd27ddb0	-0.040982902
179	0xbd05d045	-0.032669324
180	0x3d92e976	0.071734354
181	0xbca48f32	-0.020087812
182	0x3c8bb78c	0.017055295
183	0xbbc97683	-0.006148161
184	0x3c0ddf1a	0.008659149
185	0xbceb4db5	-0.028723577
186	0xbc567331	-0.013088987
187	0x3c79ddbc	0.0152506195
188	0xbd2d073c	-0.042243227
189	0x3d87a697	0.06623571
190	0xbbb27175	-0.005445654
191	0x3d872812	0.0659944
192	0x3ca0e9a7	0.019642664
193	0x3b8d9167	0.004320312
194	0x3c9fa03c	0.019485585
195	0x3cd99a41	0.026562812
196	0xbd59ef5f	-0.053206798
197	0x3d3cdc9d	0.04610883
198	0x3d9bce83	0.07607748
199	0x3d927f26	0.07153158
200	0x3cedfd2c	0.029051386
201	0xbd2c7a5f	-0.04210889
202	0xbd6182a5	-0.055056233
203	0xb97b2288	-0.00023950089
204	0xbd0004a2	-0.03125442
205	0x3c1fa930	0.009744927
206	0x3d4f0887	0.05054524
207	0x3c83f744	0.016109116
208	0x3c156129	0.009117403
209	0xbb5368c6	-0.0032258495
210	0x3c3b2ac5	0.011423771
211	0xbc81d63b	-0.015849223
212	0x3d215a87	0.039392974
213	0xbaa3a7fa	-0.0012485974
214	0xbc04f0c7	-0.008114046
215	0xbd11445f	-0.035465594
216	0x3d9425ce	0.07233773
217	0x3d50bd24	0.05096163
218	0x3ca9ceb4	0.020728447
219	0xbd330a4b	-0.043710988
220	0x3d0459c7	0.03231218
221	0x3dac26c8	0.084058344
222	0xbb6bb2f0	-0.003596481
223	0x3d0a24c6	0.033726476
224	0x3d56f2c8	0.052477628
225	0x3cdbd1f0	0.026833504
226	0xbddee15e	-0.10882829
227	0x3d02a17a	0.031892277
228	0xbdf5e317	-0.120062046
229	0xbc5c1117	-0.013431809
230	0xbcc73f2f	-0.02432212
231	0x3cd071d0	0.025444895
232	0xbd2c2f64	-0.042037383
233	0x3dbc76aa	0.09202321
234	0xbd187919	-0.037224863
235	0xbda69c17	-0.081352405
236	0xbb1ded6a	-0.0024097809
237	0xbc647c2d	-0.013945621
238	0xbba934e9	-0.005163778
239	0xbc695a1f	-0.014242678
240	0xbd5efe08	-0.05444148
241	0xbcb7075f	-0.022342382
242	0x3c795e23	0.015220198
243	0xbcd51628	-0.026011541
244	0xbd66a5b5	-0.056310374
245	0x3cf326c4	0.02968157
246	0xbd7808ab	-0.06055514
247	0x3d1a938d	0.03773837
248	0x3d22bb51	0.03972942
249	0xbcdabb00	-0.026700497
250	0x3d90f6d3	0.07078328
251	0xbba3668c	-0.00498659
252	0x3c87107a	0.016487349
253	0xbdbf47fa	-0.093399
254	0x3d6ac235	0.057314117
255	0xbcef2760	-0.02919358

arith.constant12 f4 [256]
0	0xbd3a8722	-0.04553903
1	0xbbcb7e81	-0.006210149
2	0x3c056766	0.008142328
3	0xbc1a9536	-0.009434989
4	0xbdba11f3	-0.09085455
5	0x3c2b4568	0.010453559
6	0xbcaa7835	-0.020809272
7	0xbd18e528	-0.037327915
8	0xbd089eec	-0.033354685
9	0x3c077097	0.00826659
10	0xbdb00c92	-0.085961476
11	0xbd3c308a	-0.045944728
12	0xbc3c9a4f	-0.011511399
13	0xbd4acdce	-0.049512677
14	0xbc824d77	-0.015906079
15	0xbc8a6d6d	-0.016897881
16	0x3c9f094b	0.01941361
17	0xbdaa61bb	-0.08319422
18	0x3bc7b7e6	0.0060949204
19	0xbd56afcf	-0.052413758
20	0xbd2e7595	-0.042592604
21	0xbd9e7790	-0.077376485
22	0xbd0ea4ff	-0.03482532
23	0x3bd2a86d	0.0064287693
24	0xbd261295	-0.040545065
25	0xbc8c48c7	-0.017124547
26	0xbdc0ebd2	-0.09419979
27	0xbd85ceda	-0.065335944
28	0xbd082d6e	-0.03324645
29	0x3ca4c8d3	0.020115292
30	0xbd0b8a0c	-0.0340672
31	0xbd91a2ad	-0.07111106
32	0xbd8b4e5b	-0.068020545
33	0xbd663481	-0.056202415
34	0xbd203d08	-0.039120704
35	0xbc9b7b30	-0.018979639
36	0xbc6b9048	-0.014377661
37	0xbd2e5c62	-0.042568572
38	0x3ce8a2c4	0.028397925
39	0xbd4fbe2b	-0.050718468
40	0xbcf6b37e	-0.030114885
41	0x3bcb9e5e	0.006213947
42	0xbd57f069	-0.052719507
43	0xbd3f6563	-0.04672755
44	0xbdb8b5f1	-0.090190776
45	0xbd18e41a	-0.03732691
46	0xbd4e18c6	-0.050316595
47	0xbc88267d	-0.016619915
48	0xbc774c1d	-0.01509383
49	0xbdc5dbf3	-0.096610926
50	0xbd23231e	-0.039828412
51	0xbbdf6fe9	-0.0068187607
52	0xbd0f0fc6	-0.034927152
53	0xbd5cc9e6	-0.053903483
54	0xbca45f25	-0.0200649
55	0xbd8710de	-0.06595014
56	0xbda64f3c	-0.081205815
57	0xbd1ec801	-0.038764957
58	0xbcc83368	-0.024438575
59	0xbdc24f87	-0.09487825
60	0xbca7e85e	-0.020496543
61	0xbbfa3a67	-0.0076363566
62	0xbceec4ab	-0.029146513
63	0xbdc98970	-0.09840667
64	0x3f844e95	1.0336481
65	0x3f818f06	1.0121772
66	0x3f867e19	1.0507232
67	0x3f8005ca	1.0001767
68	0x3f8b8e4d	1.0902802
69	0x3f84f241	1.038643
70	0x3f8298f2	1.0202925
71	0x3f84712c	1.0347037
72	0x3f881bfd	1.0633541
73	0x3f8ae531	1.0851194
74	0x3f8dd84e	1.1081636
75	0x3f8cdc61	1.1004754
76	0x3f8586bb	1.0431741
77	0x3f83a22c	1.0283866
78	0x3f8621e2	1.047909
79	0x3f81f2d0	1.0152225
80	0x3f8ac9c0	1.0842819
81	0x3f8914d4	1.0709481
82	0x3f827e95	1.019488
83	0x3f8f23d2	1.1182806
84	0x3f83d794	1.0300164
85	0x3f8c4ee5	1.0961577
86	0x3f88abd3	1.0677437
87	0x3f84de13	1.0380272
88	0x3f8a3af0	1.0799236
89	0x3f88b3fc	1.0679927
90	0x3f8fbc70	1.1229382
91	0x3f8a4d7b	1.0804895
92	0x3f8893e3	1.0670131
93	0x3f85027c	1.0391383
94	0x3f8958ce	1.0730226
95	0x3f8c8d03	1.0980533
96	0x3f85424e	1.041086
97	0x3f8ddc23	1.1082805
98	0x3f83033e	1.0235364
99	0x3f86258b	1.0480207
100	0x3f82c363	1.0215877
101	0x3f88d770	1.0690746
102	0x3f85bc2b	1.0448049
103	0x3f866386	1.0499122
104	0x3f84721a	1.0347321
105	0x3f87b456	1.0601909
106	0x3f82dc68	1.0223513
107	0x3f886fd7	1.0659131
108	0x3f8b7c69	1.0897342
109	0x3f8511b7	1.0396031
110	0x3f87b909	1.0603343
111	0x3f88da3a	1.0691597
112	0x3f81f8b0	1.0154018
113	0x3f8a6f3c	1.0815196
114	0x3f84f762	1.0387995
115	0x3f8321dd	1.0244709
116	0x3f86fa04	1.0545049
117	0x3f8d4f05	1.103974
118	0x3f897ac9	1.0740596
119	0x3f8c1560	1.0944023
120	0x3f8c4322	1.0957987
121	0x3f8dcdc0	1.1078415
122	0x3f89af73	1.0756668
123	0x3f8a5153	1.0806068
124	0x3f868ab6	1.0511081
125	0x3f82e292	1.0225394
126	0x3f87f020	1.0620155
127	0x3f90ab90	1.1302357
128	0xbc20f79b	-0.009824659
129	0xbbc60941	-0.0060435836
130	0xbc3a9ecf	-0.011390402
131	0x3cd95956	0.026531857
132	0x3cf3c73b	0.029758086
133	0xbbfa6b85	-0.007642212
134	0x3d0c121c	0.034196958
135	0xbc31f3a2	-0.010861309
136	0xbb9c4a41	-0.004769594
137	0xbcab9112	-0.020943198
138	0x394957d4	0.00019201572
139	0xbabb652a	-0.0014297117
140	0x3c824a47	0.015904559
141	0xbc1de9ed	-0.009638292
142	0xb9b13210	-0.0003379737
143	0x3c87e288	0.01658751
144	0x3c27801a	0.010223413
145	0xbc98e65c	-0.018664531
146	0xbc372edd	-0.011180607
147	0xbb75f35d	-0.003752909
148	0x3cfc9ced	0.030836547
149	0x3c20ce61	0.00981483
150	0x3c9e063a	0.019290078
151	0xbb808503	-0.003922106
152	0x3a7ea527	0.00097139407
153	0x3b0d2fbe	0.002154335
154	0x3bd23a48	0.006415639
155	0xbc5fee06	-0.013667589
156	0x3cad56fa	0.021159638
157	0x3cafe367	0.021470739
158	0x3b7e7e91	0.0038832764
159	0xbbd16713	-0.006390461
160	0xbbe01b76	-0.006839211
161	0xbc84d1a1	-0.01621324
162	0xba5ef723	-0.0008505454
163	0x3a8c9819	0.0010726481
164	0x3b06e2ae	0.002058189
165	0x3cba72a9	0.022759752
166	0xbadf60c6	-0.001704239
167	0xbcc5915d	-0.024117166
168	0xbca8fb41	-0.02062762
169	0x3d2cd99c	0.042199716
170	0x3c17b2c7	0.009258932
171	0xbae9d1b1	-0.0017838982
172	0xbb40deae	-0.0029429602
173	0x3b56bd48	0.003276663
174	0xbc38a552	-0.011269884
175	0xbc932fc6	-0.017967116
176	0x3c1d834b	0.009613822
177	0xbc7b440a	-0.015336046
178	0x3caec570	0.02133438
179	0x3c75416b	0.01496921
180	0xbc58c9dd	-0.013231722
181	0x3ba1f072	0.0049419934
182	0x3bf60f47	0.0075091454
183	0xbb87ac0e	-0.0041403836
184	0xbd193ae8	-0.037409693
185	0x3c2b47f8	0.01045417
186	0xbc3ce88c	-0.011530053
187	0xba6128e1	-0.000858916
188	0xbbe2708f	-0.0069103907
189	0xbbbe2406	-0.005802634
190	0x3b374f3a	0.0027970807
191	0xbb8d7f4a	-0.0043181526
192	0x3d98e4ef	0.074655406
193	0x3d0d2a70	0.0344643
194	0x3dbd1969	0.09233362
195	0x3c381594	0.011235613
196	0x3d6bf7d1	0.057609383
197	0x3d9bb225	0.07602338
198	0x3d688a48	0.0567725
199	0x3d8faba7	0.07015162
200	0x3d5481df	0.051881667
201	0x3db4e886	0.08833413
202	0x3d70e4fa	0.05881212
203	0x3dd8cb75	0.10585681
204	0x3d8c08f3	0.068376444
205	0x3d1ce373	0.03830285
206	0x3d14564a	0.036215104
207	0x3d729e00	0.05923271
208	0x3cd387e1	0.025821628
209	0x3d9385b1	0.07203234
210	0x3d960b3f	0.07326364
211	0x3d6afe74	0.05737157
212	0x3d1e022b	0.038576286
213	0x3e1f9447	0.15583907
214	0x3da67ac3	0.08128884
215	0x3cab488f	0.020908622
216	0x3d9a349d	0.075295664
217	0x3d9fb090	0.077973485
218	0x3d7e8a0b	0.062143367
219	0x3d4a599f	0.049401876
220	0x3d99e51e	0.07514404
221	0xbbd66ec0	-0.006543964
222	0x3d896a47	0.06709724
223	0x3de5f14e	0.11227666
224	0x3d98b9df	0.07457327
225	0x3cf87de9	0.030333476
226	0x3db10fec	0.08645615
227	0x3d61700a	0.05503849
228	0x3d678d46	0.056531213
229	0x3d81fb9b	0.06346818
230	0x3dd726aa	0.105054215
231	0x3d406dc6	0.046979688
232	0x3da2d7a1	0.07951284
233	0x3d0c078b	0.03418688
234	0x3d2e8884	0.04261066
235	0x3dd227be	0.102614865
236	0x3d8cffd9	0.068847366
237	0x3d2c4f05	0.042067546
238	0x3de5b29e	0.11215709
239	0x3d68cd58	0.056836456
240	0x3d3c937c	0.04603909
241	0x3d81cc1d	0.0633776
242	0x3d4829de	0.048868053
243	0x3ca10546	0.019655835
244	0x3dc754dd	0.09732983
245	0x3d893836	0.067001745
246	0x3d2b68ff	0.04184818
247	0x3df67865	0.12034682
248	0x3e13734d	0.14399453
249	0x3da5d0d5	0.08096472
250	0x3dc9d302	0.098547
251	0x3d94216c	0.07232937
252	0x3d3ca275	0.04605337
253	0x3d8f1f53	0.069883965
254	0x3da7f6c1	0.082013614
255	0x3e13ebaa	0.14445367
