app/src/main/assets/model.tflite (tflite, 569292 bytes, 16 tensors)

arith.constant6 f4 [5, 128]
0.08264236 0.07286423 -0.13425589 -0.26269737 -0.20683841 0.10670017 0.017865913 0.018500188
0.16225904 0.11276265 0.10010662 -0.2455196 -0.005949146 -0.09339903 -0.12860332 -0.19703344
0.22602658 -0.20306952 0.08412785 -0.052700937 0.083962865 0.04889002 -0.13791533 -0.21290527
-0.23956408 0.2407524 -0.23393866 -0.04568166 0.22107019 -0.08716799 0.09013608 -0.105125785
0.17267048 0.28068304 -0.014373657 0.11323745 -0.17372064 -0.2042589 -0.052195594 -0.15693848
0.074991256 0.0015874697 -0.07347246 0.12294233 -0.12706436 0.19796096 0.028543448 -0.0072439266
-0.12490281 0.14064841 -0.10392976 -0.05740069 0.079261154 0.11043285 0.12477876 0.07897805
-0.23286036 -0.04471343 0.21039265 0.18337741 -0.12827753 0.1465084 -0.10745683 0.15037698
-0.15181081 -0.24462947 0.06213026 -0.061983876 -0.25555333 0.17979047 -0.23340282 -0.20221011
0.1579646 0.018931508 -0.22015528 0.1274127 0.0498968 -0.03195473 0.06946479 0.1489935
0.029081399 0.17145373 -0.022450477 -0.12423475 -0.18601614 -0.26483104 -0.19102171 -0.03241183
0.08745428 -0.12078071 -0.023439685 -0.13997534 -0.115746945 0.072229795 0.031595826 0.18475811
-0.18226278 0.15564401 0.03977477 0.03778384 -0.10117477 -0.25584054 -0.122749664 -0.1987843
0.05705393 0.062379424 0.22625072 -0.15760283 -0.07245444 0.12143901 -0.15929551 -0.051758446
-0.08864133 0.23896703 0.09577632 -0.0702641 0.0689388 0.21131817 -0.29661658 -0.19321457
-0.18634236 0.08172487 -0.17471685 -0.04982701 -0.12380649 0.14977112 0.0013221358 -0.1541454
0.06635639 0.059417233 -0.09573936 -0.007797141 -0.023685386 0.019529384 0.16583595 -0.11000751
-0.07308602 -0.061742257 -0.121585496 -0.07735898 -0.23377733 -0.084733225 0.15236743 -0.017767938
-0.012211995 -0.1301103 -0.02635969 0.0153427655 -0.15305413 -0.22493456 0.10220978 0.16978262
0.2168689 -0.09065329 0.09848628 0.008877261 0.00048822275 -0.096003056 -0.21745622 -0.1894777
0.10416499 0.0017847879 -0.00069795427 -0.13519253 -0.12168756 -0.16537923 0.25704923 -0.18050969
0.049069528 -0.1263034 -0.0614211 0.16217832 -0.15683047 -0.050577708 0.03798278 0.025994016
0.08908149 0.110165894 0.2616637 -0.17074744 -0.1095721 -0.01934408 0.120101735 0.12032425
0.10296724 -0.09480623 -0.005382585 -0.21956287 0.1017109 0.035677817 0.10116494 -0.22867331
-0.10158626 -0.049026575 0.18570597 0.08772233 0.18337369 -0.2269417 0.022993017 -0.22072104
0.2178704 -0.039486196 0.15428162 0.18074355 0.17985885 0.19110863 -0.10198762 -0.16633105
0.20882232 0.13203661 0.16739948 0.02166887 -0.06272378 0.05198226 -0.20245719 0.16792499
-0.08175036 -0.19935238 -0.15132177 0.050248686 0.06318535 -0.13270387 -0.20684785 -0.052849866
-0.031457152 0.19406433 -0.09251787 -0.08396039 -0.025337359 0.060731914 -0.17073502 -0.019526923
0.16459873 0.004288812 0.09145172 0.12865455 -0.096405156 -0.14925021 -0.11049098 -0.03618124
0.09941132 0.097825415 0.016925326 -0.12105031 -0.09008667 0.023469996 0.038610496 -0.1068147
0.15330006 0.119171254 0.17868441 -0.09503283 0.25695777 -0.24290662 -0.19502129 -0.028344268
00000000: 6640 a93d d739 953d 607a 09be 4580 86be
00000010: 73cd 53be 9e85 da3d 895b 923c b58d 973c
00000020: 3c27 263e 1bf0 e63d b304 cd3d 7d69 7bbe
00000030: 0ef1 c2bb fe47 bfbd 97b0 03be 22c3 49be
00000040: 8373 673e 75f1 4fbe 394b ac3d f0dc 57bd
00000050: b9f4 ab3d e740 483d ad39 0dbe d703 5abe
00000060: 4950 75be cc87 763e 9e8d 6fbe b11c 3bbd
00000070: 3960 623e 2285 b2bd 4499 b83d 304c d7bd
00000080: 88d0 303e b0b5 8f3e 7d7f 6bbc 09e9 e73d
00000090: d3e3 31be 3f29 51be 0ccb 55bd 7bb4 20be
000000a0: 0495 993d a512 d03a bb78 96bd 30c9 fb3d
000000b0: 291d 02be 47b6 4a3e f3d3 e93c 765e edbb
000000c0: 0bcd ffbd 2306 103e 20d9 d4bd fc1c 6bbd
000000d0: ac53 a23d 9e2a e23d 028c ff3d 3ebf a13d
000000e0: f272 6ebe 6e25 37bd 2c71 573e 4ac7 3b3e
000000f0: 2f5b 03be 4c06 163e 5412 dcbd 6cfc 193e
00000100: 4b74 1bbe 2680 7abe 4d7c 7e3d cee2 7dbd
00000110: e3d7 82be fe1a 383e 2601 6fbe 2b10 4fbe
00000120: 79c1 213e 4016 9b3c 6370 61be 7a78 023e
00000130: 9660 4c3d f7e2 02bd 8e43 8e3d c191 183e
00000140: 1d3c ee3c 9191 2f3e 10ea b7bc ca6e febd
00000150: 047b 3ebe ef97 87be 329b 43be 44c2 04bd
00000160: 3b1b b33d e05b f7bd 9504 c0bc b255 0fbe
00000170: bc0c edbd 37ed 933d a06a 013d 3b31 3d3e
00000180: 18a3 3abe 2561 1f3e dfea 223d 3ac3 1a3d
00000190: b834 cfbd 88fd 82be 2d64 fbbd 1d8e 4bbe
000001a0: 62b1 693d 9181 7f3d 45ae 673e a362 21be
000001b0: fe62 94bd 04b5 f83d 5d1e 23be aa00 54bd
000001c0: 9689 b5bd c6b3 743e 6026 c43d a0e6 8fbd
000001d0: c92f 8d3d ca63 583e 21de 97be 0ada 45be
000001e0: 88d0 3ebe 5e5f a73d f9e8 32be 6817 4cbd
000001f0: 428e fdbd 9a5d 193e 844b ad3a 4bd8 1dbe
00000200: dce5 873d 7c5f 733d ff12 c4bd 297f ffbb
00000210: db07 c2bc 16fc 9f3c e6d0 293e 9e4b e1bd
00000220: 20ae 95bd 73e5 7cbd d101 f9bd 636e 9ebd
00000230: 5363 6fbe 9d88 adbd 3506 1c3e 118e 91bc
00000240: d214 48bc a23b 05be 47f0 d7bc 3960 7b3c
00000250: 39ba 1cbe 3f55 66be 5c53 d13d 7fdb 2d3e
00000260: e212 5e3e 6fa8 b9bd 2db3 c93d ee71 113c
00000270: 26f8 ff39 409d c4bd d8ac 5ebe 7106 42be
00000280: 7454 d53d 8bef e93a ebf6 36ba e96f 0abe
00000290: 5437 f9bd 2c59 29be f59b 833e 88d7 38be
000002a0: 21fd 483d ae55 01be b194 7bbd 1312 263e
000002b0: 2b98 20be 922a 4fbd d593 1b3d 67f1 d43c
000002c0: 5b70 b63d a89e e13d c9f8 853e 6bd8 2ebe
000002d0: 5667 e0bd 7a77 9ebc e6f7 f53d 8f6c f63d
000002e0: 7de0 d23d c529 c2bd 6560 b0bb 17d5 60be
000002f0: ce4d d03d e722 123d 902f cf3d 5629 6abe
00000300: 750c d0bd 17d0 48bd b529 3e3e c4a7 b33d
00000310: 50c6 3b3e 6863 68be da5b bc3c b204 62be
00000320: 6b19 5f3e 47bc 21bd 00fc 1d3e d614 393e
00000330: eb2c 383e fbb1 433e e3de d0bd b052 2abe
00000340: 85d5 553e 9b34 073e c56a 2b3e ea82 b13c
00000350: 5375 80bd 5aeb 543d f050 4fbe 87f4 2b3e
00000360: bc6c a7bd 0823 4cbe 18f4 1abe 91d1 4d3d
00000370: 5267 813d 86e3 07be eccf 53be 1a79 58bd
00000380: 37d9 00bd cdb8 463e 027a bdbd 6df3 abbd
00000390: 4b90 cfbc 07c2 783d 29d5 2ebe edf6 9fbc
000003a0: 928c 283e 2a89 8c3b 0a4b bb3d 05be 033e
000003b0: 1170 c5bd 0cd5 18be 1849 e2bd c832 14bd
000003c0: 2a98 cb3d b158 c83d fba6 8a3c 3ae9 f7bd
000003d0: 5c7f b8bd 2644 c03c 0a26 1e3d aac1 dabd
000003e0: b1fa 1c3e 0f10 f43d 0cf9 363e 93a0 c2bd
000003f0: f88f 833e 83bc 78be a9b3 47be 3d32 e8bc

arith.constant7 f4 [128, 64]
-0.040175647 0.07453399 0.09626376 0.0055878763 -0.08418661 -0.14326641 0.06456074 -0.01095982
0.028168833 0.07187986 0.12976007 -0.14821576 -0.033778198 -0.0841925 -0.047866337 0.10243179
-0.13734092 0.13083872 -0.124700606 -0.08262311 -0.05479746 0.10713573 0.09799179 0.060768165
-0.13083142 -0.099966936 -0.039772905 -0.099309996 -0.036081865 -0.14268501 0.16904084 0.16508391
-0.09569014 0.13886654 0.20346363 0.11252088 0.09998548 0.1441362 0.12342337 0.053424016
-0.061325356 0.15759411 -0.16204531 0.03534043 0.1636451 -0.08711852 -0.17439137 0.15687752
-0.15238376 -0.15895745 0.07504151 0.07632607 0.0033036007 -0.18199855 -0.08172039 0.012782171
-0.11406236 -0.0015352332 -0.17279561 0.08770358 0.029279439 -0.03408212 0.0018666467 0.1092357
0.061846305 -0.01503354 0.01732028 0.1309067 0.08562118 0.13005395 -0.058360502 -0.16494532
-0.09379362 0.032426037 -0.013679617 0.030377524 -0.010235078 -0.13732621 0.06204059 -0.13099138
0.19625129 0.0759759 -0.116690606 -0.020150568 -0.10031886 0.09580495 0.13478963 0.032773465
0.12615654 -0.08418299 -0.04760244 -0.14432119 -0.13573763 -0.09270339 -0.031224357 0.16180135
-0.03904425 -0.021844497 0.10037778 -0.032289717 -0.020767385 -0.15781651 0.023923947 0.036672387
-0.10874976 -0.14180303 -0.11987986 -0.06598753 -0.13361716 0.14272518 -0.19513407 -0.06407364
0.052293524 0.13190266 0.13238949 -0.1402329 -0.016745517 0.064523995 0.09672971 -0.088728905
-0.08210904 -0.09731069 0.08898639 -0.013212712 0.09748218 -0.04566988 0.120032676 0.12876204
0.07507813 0.053310793 0.008308517 0.05829833 -0.057693776 -0.098528124 -0.13237317 -0.043846086
-0.11159101 -0.0390496 0.12248419 -0.14547111 0.035116393 0.06254244 -0.13526887 -0.046904318
0.028545124 -0.10648955 0.09075494 -0.072770774 -0.08705237 0.11583048 0.08733012 -0.013836685
-0.13357751 -0.14664043 -0.17599785 -0.13551898 0.1510262 0.04047853 0.11214285 -0.10658446
-0.1262863 0.0056606387 -0.09574381 0.14695993 0.13345625 -0.06663356 -0.07705321 -0.019376157
0.15369555 -0.14325398 0.1442311 -0.2436434 -0.17249762 0.18285175 -0.065059826 0.010345822
0.18392916 0.042468376 0.060403164 -0.16051222 0.044249583 -0.021998987 0.13987075 0.08420019
-0.09659832 0.15557909 -0.034646448 0.028139478 0.062224425 -0.08678825 0.10934778 -0.03600432
-0.049406793 0.028676588 0.06464229 0.05892379 -0.12036387 0.14000274 -0.10319701 0.09021991
-0.24680078 0.025355851 0.16820532 -0.08722378 -0.040198706 0.034495603 -0.055926174 0.0027450304
-0.03538084 -0.22095308 -0.10801177 0.029585266 -0.14389195 -0.06736468 -0.06789915 -0.04109298
0.14296952 0.15748978 -0.14013904 0.18737873 -0.10748375 0.07665867 -0.009638894 0.006514266
0.13262789 -0.0077390894 -0.008746725 -0.13416865 0.08109883 0.1424272 -0.1252759 0.12767231
-0.07099662 0.055335607 -0.14315732 0.0811725 0.14880422 0.021842929 0.042975973 -0.11705832
-0.16487014 -0.19753167 0.10142986 0.067951165 0.021288648 0.012945905 -0.05591464 -0.10263516
-0.13716339 0.00890343 -0.18842937 0.1279504 0.12102705 -0.01198023 -0.07388837 -0.07153265
00000000: 388f 24bd 47a5 983d ef25 c53d 811a b73b
00000010: 086a acbd 6eb4 12be 6c38 843d d190 33bc
00000020: 53c2 e63c bf35 933d d3df 043e dfc5 17be
00000030: 025b 0abd 1e6d acbd 7e0f 44bd c2c7 d13d
00000040: 19a3 0cbe 96fa 053e 0863 ffbd 4e36 a9bd
00000050: 4d73 60bd fa69 db3d ebaf c83d 0ae8 783d
00000060: acf8 05be 77bb ccbd eae8 22bd 0a63 cbbd
00000070: 94ca 13bd 051c 12be 0b19 2d3e c20b 293e
00000080: 31f9 c3bd 0833 0e3e c558 503e 5971 e63d
00000090: 30c5 cc3d 7198 133e 64c5 fc3d 24d3 5a3d
000000a0: 4c30 7bbd 5a60 213e 35ef 25be 20c1 103d
000000b0: 9592 273e 326b b2bd a793 32be 80a4 203e
000000c0: 7d0a 1cbe bec5 22be 5daf 993d d850 9c3d
000000d0: 3981 583b d45d 3abe 055d a7bd 506c 513c
000000e0: 8799 e9bd e139 c9ba 55f1 30be ef9d b33d
000000f0: 6fdb ef3c b199 0bbd 45aa f43a f7b6 df3d
00000100: 8d52 7d3d 3d4f 76bc 43e3 8d3c 680c 063e
00000110: 285a af3d dd2c 053e 6c0b 6fbd 6de7 28be
00000120: df16 c0bd 2ad1 043d 7920 60bc 49da f83c
00000130: 07b1 27bc 3e9f 0cbe 461e 7e3d 9b22 06be
00000140: 19f6 483e 4199 9b3d 7cfb eebd ce12 a5bc
00000150: f973 cdbd 6335 c43d 4b06 0a3e 783d 063d
00000160: 2e2f 013e 2268 acbd c7fa 42bd efc8 13be
00000170: cefe 0abe 46db bdbd 39ca ffbc 41af 253e
00000180: ddec 1fbd 3bf3 b2bc de92 cd3d 3942 04bd
00000190: 5d20 aabc a79a 21be 27fc c33c c935 163d
000001a0: 32b8 debd d034 11be 9283 f5bd 7824 87bd
000001b0: f0d2 08be 8d26 123e 3ad1 47be 0a39 83bd
000001c0: bc31 563d 7e11 073e 1c91 073e 3799 0fbe
000001d0: e52d 89bc 2825 843d 3a1a c63d 80b7 b5bd
000001e0: c928 a8bd d44a c7bd 7f3e b63d 217a 58bc
000001f0: bda4 c73d 5710 3bbd b1d3 f53d 32da 033e
00000200: 90c2 993d 6b5c 5a3d 7220 083c 3bca 6e3d
00000210: 4f50 6cbd 1dc9 c9bd d58c 07be f497 33bd
00000220: d489 e4bd 79f2 1fbd fed8 fa3d 61f6 14be
00000230: 35d6 0f3d 4016 803d ec83 0abe be1e 40bd
00000240: 77d7 e93c 3117 dabd badd b93d d808 95bd
00000250: 8348 b2bd 8838 ed3d 22da b23d 43b3 62bc
00000260: 8bc8 08be e928 16be c838 34be 7dc5 0abe
00000270: 9da6 1a3e d1cc 253d 27ab e53d f448 dabd
00000280: 3251 01be e17c b93b 5515 c4bd aa7c 163e
00000290: c1a8 083e 2d77 88bd 13ce 9dbd bfba 9ebc
000002a0: 5e62 1d3e 2cb1 12be 51b1 133e a87d 79be
000002b0: 37a3 30be 7d3d 3b3e 163e 85bd 8681 293c
000002c0: ed57 3c3e 52f3 2d3d 4f69 773d 515d 24be
000002d0: 0d3f 353d 3837 b4bc 473a 0f3e 2671 ac3d
000002e0: 57d5 c5bd 2050 1f3e 6fe9 0dbd c384 e63c
000002f0: 0adf 7e3d 0abe b1bd bbf1 df3d 4479 13bd
00000300: c75e 4abd 2aeb ea3c 2d63 843d 125a 713d
00000310: 5581 f6bd e15c 0f3e f458 d3bd 37c5 b83d
00000320: 58b9 7cbe 13b7 cf3c 043e 2c3e 62a2 b2bd
00000330: 66a7 24bd 434b 0d3d d812 65bd f8e5 333b
00000340: 80eb 10bd 8641 62be 4635 ddbd cd5c f23c
00000350: 6958 13be 7ef6 89bd b60e 8bbd 1d51 28bd
00000360: 9a66 123e 0045 213e 9c80 0fbe 36e0 3f3e
00000370: 7120 dcbd 39ff 9c3d 74ec 1dbc a075 d53b
00000380: 9bcf 073e 3098 fdbb 6c4e 0fbc 8263 09be
00000390: 2517 a63d 70d8 113e 5348 00be 88bc 023e
000003a0: ad66 91bd 97a7 623d d597 12be c53d a63d
000003b0: 2260 183e f1ef b23c 9307 303d 46bc efbd
000003c0: b8d3 28be be45 4abe 75ba cf3d fb29 8b3d
000003d0: 8865 ae3c 101b 543c c006 65bd 6232 d2bd
000003e0: 8f74 0cbe b1df 113c a1f3 40be 6e05 033e
000003f0: 08dd f73d ba48 44bc c952 97bd b67f 92bd

arith.constant8 f4 [256, 128]
-0.032110244 0.07275759 -0.07232903 -0.11733346 0.11060833 0.0050496226 0.03356188 -0.10585663
0.003081462 -0.12039238 -0.10891435 0.11904553 0.07934311 -0.087076694 0.09875882 -0.02581953
0.044990987 -0.122345775 0.10393236 0.087763645 -0.08561342 0.0013674035 -0.018284604 -0.08280321
0.06780419 -0.01707718 -0.122326136 -0.10549796 0.09947133 -0.02558176 -0.03152494 -0.10535461
0.051786598 0.08195788 -0.017372351 0.0050433213 -0.08194196 -0.031840626 -0.0115802055 0.05894108
-0.01075724 0.028742034 -0.10400205 -0.025333464 -0.088197 -0.021061376 0.118603565 -0.0531227
0.051879134 -0.050089847 -0.08294773 -0.033519644 -0.10285782 0.09225356 0.07591197 0.0045532365
0.087054245 0.10746452 -0.019993158 -0.079682596 -0.07191958 -0.11257346 -0.07251059 -0.11993456
-0.037148263 -0.046954036 0.0800594 -0.05067637 -0.03589171 -0.02986387 -0.05153392 -0.114797056
0.042188644 -0.0688728 -0.07654486 -0.060624495 0.07851174 0.05337012 0.05584625 0.01683117
0.069262266 0.081962384 0.09178227 0.11973174 -0.08148616 0.095447406 0.07370515 0.098411806
0.10266265 -0.13571031 -0.06950825 0.07773934 0.02532614 -0.10349333 0.071885854 0.08382781
-0.014260452 -0.045262467 0.053394184 -0.09239873 -0.11025604 0.044899058 -0.0627106 -0.073921576
0.016476473 0.11620477 0.05901608 0.10838801 0.09746435 -0.11841579 0.1225567 0.09236022
0.036512982 -0.05736477 -0.113980785 0.018362822 0.024006324 -0.07760348 -0.120514415 0.04942882
0.11625497 0.07090149 -0.038997944 -0.0027240617 0.096640214 -0.051975787 0.1061753 0.063108034
-0.008547634 0.12818086 -0.070603415 0.053133484 0.121369526 -0.124065734 0.12562306 0.08164086
6.0418228e-05 0.055110354 -0.0020212193 -0.11327487 0.09261618 0.057343792 -0.0022161908 -0.10534116
-0.036507547 0.115747035 0.007844831 0.06014558 -0.057051457 -0.014739321 0.08854438 -0.07018443
0.00040070084 -0.09099597 -0.07206017 0.07559545 0.010868161 -0.0034496614 0.01158121 0.083843924
0.05958605 -0.11271915 0.033098336 0.050380457 -0.04178542 -0.0032338393 0.11411983 0.0104377605
-0.02864059 -0.018469423 0.09278011 -0.012497212 -0.031369653 -0.08976028 0.02886445 0.123395085
0.014077812 0.0085590435 -0.017717278 -0.030316198 -0.009533262 -0.052807115 0.061412517 -0.016164375
0.099447966 -0.2107299 -0.07575878 0.08575235 0.09113101 -0.12098087 0.067993 -0.006702467
0.03453194 0.11411578 0.04133946 0.0063566198 -0.029155063 0.01602235 -0.04980609 0.049490813
0.12731232 -0.063583076 -0.105252214 0.12360055 -0.036398057 -0.0013061519 -0.049976163 0.06737708
0.10438781 -0.033756543 -0.01790115 0.12364849 0.031377804 -0.08146772 -0.011061553 0.0828662
-0.1042004 -0.013229827 -0.010075748 0.061088875 -0.088395834 -0.03585313 0.032295346 -0.089596756
-0.0030808393 0.0076210974 -0.037517622 -0.0761334 0.018360754 -0.024493009 -0.06116758 0.08411006
0.019929852 0.06513422 -0.08634757 -0.084409714 0.08893633 0.005448866 0.023060871 -0.12037838
-0.0873054 0.06940682 -0.081631064 -0.004479467 0.084022224 -0.017148217 -0.121455655 -0.0688917
0.033070765 0.08813122 -0.10409694 0.013601157 0.079567805 -0.01481676 -0.059730344 0.03476006
00000000: 0886 03bd ee01 953d 3e21 94bd 864c f0bd
00000010: 9f86 e23d 4e77 a53b 2f78 093d 5ccb d8bd
00000020: 5bf2 493b 4890 f6bd 7d0e dfbd 25ce f33d
00000030: a47e a23d 4455 b2bd 1042 ca3d 7b83 d3bc
00000040: 7848 383d 6c90 fabd 7dda d43d 6dbd b33d
00000050: 1756 afbd 733a b33a 98c9 95bc bb94 a9bd
00000060: ecdc 8a3d 71e5 8bbc 2086 fabd 500f d8bd
00000070: a0b7 cb3d d790 d1bc 4c20 01bd 28c4 d7bd
00000080: 2f1e 543d 88d9 a73d 7650 8ebc 7242 a53b
00000090: 30d1 a7bd 516b 02bd e7ba 3dbc 346c 713d
000000a0: 223f 30bc 6a74 eb3c 07ff d4bd 2088 cfbc
000000b0: a1a0 b4bd e888 acbc 6de6 f23d 3097 59bd
000000c0: 377f 543d 032b 4dbd 80e0 a9bd e54b 09bd
000000d0: 1fa7 d2bd 6fef bc3d bc77 9b3d 5133 953b
000000e0: 7f49 b23d 5c16 dc3d b1c8 a3bc a130 a3bd
000000f0: 934a 93bd ea8c e6bd 6f80 94bd 40a0 f5bd
00000100: c728 18bd e052 40bd 2ff6 a33d 0692 4fbd
00000110: 3003 13bd 13a5 f4bc 3b15 53bd b81a ebbd
00000120: 00ce 2c3d 2f0d 8dbd 8dc3 9cbd 6451 78bd
00000130: c3ca a03d a09a 5a3d 0abf 643d 86e1 893c
00000140: 60d9 8d3d e5db a73d 58f8 bb3d ea35 f53d
00000150: 37e2 a6bd ee79 c33d baf2 963d 218c c93d
00000160: cc40 d23d a5f7 0abe 575a 8ebd ce35 9f3d
00000170: c478 cf3c 50f4 d3bd e438 933d eaad ab3d
00000180: aca4 69bc 2365 39bd dcb3 5a3d 8c3b bdbd
00000190: ebcd e1bd 13e8 373d 6a6e 80bd 3264 97bd
000001a0: abf9 863c c4fc ed3d d8ba 713d 88fa dd3d
000001b0: 649b c73d fa83 f2bd 02ff fa3d 5b27 bd3d
000001c0: a38e 153d 52f7 6abd c26e e9bd a16d 963c
000001d0: e9a8 c43c 93ee 9ebd 43d0 f6bd e075 4a3d
000001e0: 1617 ee3d cd34 913d 4fbc 1fbd 2c86 32bb
000001f0: 4eeb c53d 90e4 54bd 7072 d93d c93e 813d
00000200: 600b 0cbc d841 033e 8698 90bd 7fa2 593d
00000210: 9690 f83d 2d16 febd 55a3 003e 5333 a73d
00000220: 9469 7d38 65bb 613d 6f76 04bb a8fc e7bd
00000230: 8dad bd3d 53e1 6a3d 833d 11bb 1bbd d7bd
00000240: f088 15bd c80c ed3d 9b87 003c 365b 763d
00000250: caae 69bd 317d 71bc c256 b53d dbbc 8fbd
00000260: 2815 d239 185c babd 4894 93bd cad1 9a3d
00000270: 5f10 323c b713 62bb 1ebf 3d3c 5db6 ab3d
00000280: 8110 743d 4cd9 e6bd 1f92 073d bd5b 4e3d
00000290: 3027 2bbd d2ee 53bb a8b7 e93d 2403 2b3c
000002a0: ac9f eabc 304d 97bc 8003 be3d 1bc1 4cbc
000002b0: 777d 00bd 3dd4 b7bd 2475 ec3c 90b6 fc3d
000002c0: a0a6 663c 3b3b 0c3c d323 91bc ad59 f8bc
000002d0: 6631 1cbc 464c 58bd b18b 7b3d 276b 84bc
000002e0: 60ab cb3d 94c9 57be 6b27 9bbd ee9e af3d
000002f0: e5a2 ba3d d2c4 f7bd ea3f 8b3d 5ea0 dbbb
00000300: 5d71 0d3d 89b5 e93d 9153 293d 314b d03b
00000310: 99d6 eebc 4e41 833c 7801 4cbd e1b6 4a3d
00000320: 295e 023e d837 82bd 798e d7bd 4922 fd3d
00000330: 2116 15bd 2f33 abba ceb3 4cbd fffc 893d
00000340: 47c9 d53d 4d44 0abd 6fa5 92bc 6b3b fd3d
00000350: 0386 003d 8cd8 a6bd 843b 35bc c1b5 a93d
00000360: 0567 d5bd ebc1 58bc c014 25bc 5438 7a3d
00000370: e008 b5bd bbda 12bd 2048 043d 817e b7bd
00000380: e8e7 49bb 66ba f93b 14ac 19bd d4eb 9bbd
00000390: 4b69 963c 90a5 c8bc db8a 7abd e541 ac3d
000003a0: ee43 a33c 1765 853d ffd6 b0bd 00df acbd
000003b0: 4024 b63d 678c b23b 27ea bc3c f188 f6bd
000003c0: 2ccd b2bd 2a25 8e3d 302e a7bd 7ec8 92bb
000003d0: d813 ac3d 6b7a 8cbc bebd f8bd 1717 8dbd
000003e0: 3675 073d 247e b43d c730 d5bd 63d7 5e3c
000003f0: 72f4 a23d ffc1 72bc cea7 74bd 9160 0e3d

arith.constant9 f4 [256, 64]
0.018348122 -0.10520253 0.092250876 0.0011338595 -0.02734641 -0.112408824 -0.1046356 0.0062433025
0.10489307 0.10506658 -0.017681098 0.027664194 0.054779183 0.03610916 0.046423726 -0.014956605
0.056120545 0.086520895 0.2016618 0.027274873 -0.052238826 -0.0009428511 0.06574166 0.040679224
0.016149951 -0.07095862 -0.056060582 -0.084647365 0.022059314 -0.09019528 0.057057973 0.09106675
0.121663846 -0.022562578 -0.033795048 0.028707357 -0.07866756 0.12654918 -0.06825946 -0.06966474
0.049384944 -0.13877136 0.02720187 0.030232966 -0.08980814 -0.059976213 -0.046010427 -0.0068686926
-0.00085860724 0.08148354 -0.02109954 0.003108881 0.028942803 0.009852816 -0.07483514 0.15649423
0.037926536 -0.08260433 -0.008259422 -0.042716376 0.14943363 -0.019123226 0.030256946 -0.011442594
-0.1277181 0.04534699 0.029429313 0.0108163785 -0.07941901 0.0013420251 0.07507406 0.051296566
0.045189936 0.16278978 0.022973312 -0.028755115 0.030594645 -0.04894898 -0.0485714 0.036138523
0.054977693 0.05801588 -0.08865506 0.005950292 -0.026724583 0.045004994 0.14375243 -0.053029973
0.08755112 -0.03658463 0.08642228 -0.11466846 0.059319843 0.0120446095 -0.061394367 0.08653132
0.021129938 0.0076217214 0.05404685 -0.0096444115 0.11883395 0.04980942 -0.040396098 -0.027109217
-0.0077505866 -0.05306215 -0.015425029 -0.002220495 -0.0804296 -0.04485358 0.048001572 -0.045021527
-0.004388011 -0.093226954 -0.02976675 -0.032976646 -0.11679093 0.046910368 -0.022902532 0.12021482
-0.018801257 -0.045012053 -0.007997094 0.0010696257 -0.0027275376 -0.007773665 0.0992541 0.025805652
0.06362087 -0.039502483 -0.11238463 -0.045499194 -0.16555934 0.025111377 -0.085544996 0.08495401
0.08285163 -0.03185431 -0.087749824 -0.10489136 0.03202241 0.025192808 -0.14111878 -0.06590114
-0.051925182 -0.040064663 -0.008172339 -0.21348593 -0.105329484 0.14265636 -0.0070068804 -0.051764622
0.003486176 0.032629427 -0.039500818 0.07684141 0.06428064 0.024356619 -0.04982904 -0.018998668
-0.053754926 -0.024004536 0.05914725 0.00025513227 -0.027709406 -0.04773215 0.076405406 -0.08851425
-0.014652513 0.12177478 0.023999993 -0.11974826 0.107125066 0.052998796 -0.037540574 0.09504763
0.11250077 -0.01164085 -0.05737556 0.08727339 0.11175492 -0.006268868 -0.015925668 0.025450991
0.031116571 0.084145635 -0.022687355 0.05386465 -0.072336316 -0.026631624 -0.025805166 0.047954254
-0.0003388992 -0.038767364 0.08875028 0.09394051 0.007342292 -0.0213846 -0.065639675 -0.010831732
-0.022191007 -0.030777091 -0.055972416 -0.013727558 -0.056982923 -0.0029787458 -0.038209137 0.08820758
0.12089176 0.048550334 -0.043254435 0.06894285 0.13858132 -0.0037858246 0.004116172 -0.021230882
0.039594617 -0.055816356 0.02669665 0.003111291 -0.013323599 0.0035459008 -0.09239046 0.012281534
-0.038986187 0.041617427 0.037540883 -0.093855284 0.0028322297 -0.00614088 0.07190349 -0.03773134
-0.032097664 0.02301684 0.05437076 0.0032660526 -0.016661908 -0.09973768 0.03984625 -0.092136934
-0.031235762 0.110306606 0.11729016 0.006389937 -0.009815137 0.11667496 -0.11581019 0.008124265
0.12534755 -0.024390217 -0.020042578 -0.0289458 0.090376094 -0.14041524 -0.12895039 0.09812383
00000000: cd4e 963c 6d74 d7bd 07ee bc3d 039e 943a
00000010: 9405 e0bc 9936 e6bd 304b d6bd 9e94 cc3b
00000020: 2ed2 d63d 262d d73d f3d7 90bc 05a0 e23c
00000030: 2360 603d 33e7 133d ce26 3e3d 8c0c 75bc
00000040: a8de 653d de31 b13d 6e80 4e3e 8e6f df3c
00000050: 61f8 55bd ab29 77ba 90a3 863d 429f 263d
00000060: e74c 843c c152 91bd c89f 65bd 995b adbd
00000070: bcb5 b43c 4eb8 b8bd 9fb5 693d 3481 ba3d
00000080: e52a f93d 28d5 b8bc ad6c 0abd b12b eb3c
00000090: 751c a1bd 1c96 013e 9ecb 8bbd 63ac 8ebd
000000a0: de47 4a3d 141a 0ebe 75d6 de3c 20ab f73c
000000b0: 55ed b7bd 9ea9 75bd 6e75 3cbd c512 e1bb
000000c0: 2814 61ba d8e0 a63d f1d8 acbc 5ebe 4b3b
000000d0: 7519 ed3c b56d 213c 2a43 99bd 0640 203e
000000e0: db58 1b3d 752c a9bd 8752 07bc 5ef7 2ebd
000000f0: 2105 193e 50a8 9cbc 6add f73c b879 3bbc
00000100: 89c8 02be c4bd 393d be15 f13c 2e37 313c
00000110: 6fa6 a2bd e4e6 af3a 6ec0 993d 591c 523d
00000120: 1519 393d 5db2 263e 8732 bc3c d98f ebbc
00000130: 9fa1 fa3c ba7e 48bd cef2 46bd fd05 143d
00000140: 4a30 613d 0fa2 6d3d c990 b5bd abfa c23b
00000150: 83ed dabc 2857 383d d633 133e f535 59bd
00000160: 004e b33d c4d9 15bd 2afe b03d 4cd7 eabd
00000170: 5df9 723d c156 453c a978 7bbd 5537 b13d
00000180: b118 ad3c a2bf f93b 3b60 5d3d 9803 1ebc
00000190: 375f f33d f604 4c3d 6176 25bd 2614 debc
000001a0: a2f8 fdbb b257 59bd 43b9 7cbc b985 11bb
000001b0: 46b8 a4bd 63b8 37bd 4c9d 443d 7e68 38bd
000001c0: 4ec9 8fbb c6ed bebd 66d9 f3bc 8512 07bd
000001d0: 1530 efbd 1625 403d 179e bbbc 3033 f63d
000001e0: 1805 9abc 8f5e 38bd 3e06 03bc af32 8c3a
000001f0: 7dc0 32bb 3aba febb bc45 cb3d 6066 d33c
00000200: a94b 823d 5bcd 21bd ea29 e6bd 5d5d 3abd
00000210: 6388 29be 60b6 cd3c 3732 afbd 5efc ad3d
00000220: 1eae a93d aa79 02bd 2eb6 b3bd 48d1 d6bd
00000230: ee29 033d 2661 ce3c 7181 10be 2df7 86bd
00000240: 80af 54bd d81a 24bd 46e5 05bc 0e9c 5abe
00000250: fcb6 d7bd 8214 123e f999 e5bb 2407 54bd
00000260: 5478 643b 6fa6 053d 9ccb 21bd 075f 9d3d
00000270: 91a5 833d 8887 c73c 8919 4cbd 18a3 9bbc
00000280: 202e 5cbd 29a5 c4bc 6344 723d 46c3 8539
00000290: d6fe e2bc c982 43bd 707a 9c3d f646 b5bd
000002a0: 1811 70bc 0e65 f93d a29b c43c 933e f5bd
000002b0: 6364 db3d 4415 593d 25c4 19bd 55a8 c23d
000002c0: ce66 e63d 44b9 3ebc a302 6bbd 64bc b23d
000002d0: c3df e43d 146b cdbb 8c76 82bc 997e d03c
000002e0: 2ee8 fe3c 8c54 ac3d d5da b9bc 2ea1 5c3d
000002f0: 1025 94bd 902a dabc 5b65 d3bc ae6b 443d
00000300: 48ae b1b9 87ca 1ebd b5c2 b53d e263 c03d
00000310: 9c97 f03b c22e afbc 186e 86bd 9477 31bc
00000320: eac9 b5bc 3d20 fcbc 5543 65bd 8de9 60bc
00000330: ed66 69bd 1037 43bb 2f81 1cbd 2da6 b43d
00000340: 1996 f73d b7dc 463d 902b 31bd e931 8d3d
00000350: 43e8 0d3e 991b 78bb f4e0 863b 63ec adbc
00000360: f72d 223d b19f 64bd efb2 da3c cde6 4b3b
00000370: 394b 5abc 5862 683b 3637 bdbd 7d38 493c
00000380: fbaf 1fbd 0977 2a3d 78c4 193d 3337 c0bd
00000390: ee9c 393b 6f39 c9bb 2342 933d 2d8c 1abd
000003a0: d778 03bd d08d bc3c e0b3 5e3d 450b 563b
000003b0: 8e7e 88bc 4543 ccbd d235 233d 4ab2 bcbd
000003c0: 24e2 ffbc 6ee8 e13d d335 f03d ad62 d13b
000003d0: abcf 20bc 48f3 ee3d e52d edbd a31b 053c
000003e0: 1c5b 003e fecd c7bc 5530 a4bc be1f edbc
000003f0: 1a17 b93d 03c9 0fbe 920b 04be 26f5 c83d

arith.constant10 f4 [512, 20]
0.08195219 -0.04704049 0.017632898 0.10600224 0.057791382 0.08234681 0.058929652 0.09308718
-0.10446234 -0.08396433 -0.09715242 0.037011385 0.094252035 -0.027023017 0.08999112 0.026877344
-0.0039060193 0.0014046968 0.04177022 0.0950183 -0.035625678 -0.015931498 0.06717213 -0.049362406
-0.11471652 -0.041334182 0.039227434 0.12075601 0.10726478 0.034967516 0.03530431 0.049892776
-0.04286613 -0.03885497 0.049969926 0.051440544 0.0788038 0.13873558 0.03226262 0.023208158
0.053333074 0.01327868 -0.06664711 0.0073108245 -0.08431675 0.061867405 0.035608225 0.046935968
-0.050062083 -0.03290726 -0.055420198 0.0715076 0.030355176 0.008823754 -0.1254205 -0.08947854
0.049678065 -0.06235722 0.1112993 0.016071681 0.1072225 -0.055930566 -0.041447215 -0.08497168
0.04426818 -0.09346491 -0.079816945 -0.033640664 0.043731604 0.08298062 0.05780395 -0.011018002
-0.0050705457 -0.0685893 0.06734202 0.006662295 0.07652136 -0.015925732 -0.0437178 0.09823344
0.07643744 -0.097542666 0.0055041863 -0.15214328 -0.035140797 -0.034085665 -0.051963728 0.062321197
0.011062302 -0.08615535 -0.038333174 0.1150473 0.03381807 0.06424733 0.077134155 -0.024096798
-0.058862217 0.099659644 -0.002611785 -0.044184666 -0.028993169 -0.054290272 -0.0654699 -0.07240576
-0.08556372 -0.06004492 0.068261154 -0.065738335 -0.00687693 0.080968216 0.054472722 -0.027651502
-0.05206898 -0.13840735 -0.0816717 0.038002916 0.06951935 -0.034767542 0.045850456 -0.12004461
0.060157157 -0.04176395 -0.09127959 0.017272048 0.07641978 -0.027261049 -0.09154116 0.017447481
-0.05143718 -0.009354071 0.01871441 -0.020284113 0.019125726 0.11626477 0.11631785 0.073087014
0.008703684 0.09053936 0.06678615 -0.10349082 -0.06766644 -0.005852254 0.038345136 0.09254261
0.09696263 0.08839088 -0.08875959 -0.042368498 -0.09250929 -0.09102467 0.011828676 -0.05488837
0.018151479 -0.07265804 -0.047276624 0.007910878 -0.10419788 0.07742893 -0.057499815 0.08248131
0.08857064 0.03908874 0.110415414 -0.037693687 0.0004535023 0.0024092668 -0.08238769 0.0875206
-0.0037924487 0.0019705049 -0.06375247 0.031868253 -0.07181792 0.020484304 0.07478059 0.02655442
-0.024384256 -0.09960578 0.103190035 -0.015520786 0.099764474 -0.041742492 -0.04729728 -0.07543899
-0.057895817 -0.0026391316 -0.06623135 0.10685633 0.010532054 0.016626773 -0.009767957 0.04051954
-0.0426634 0.045732148 0.013094548 -0.008298643 0.09513642 0.08299183 0.048489403 -0.06761333
-0.07227729 -0.037929513 0.089588016 0.066809066 -0.07890285 -0.114880495 0.002049508 -0.01794006
-0.07054854 0.011810624 0.015272733 0.044223964 0.013297867 0.08405422 0.08440241 0.04209475
0.038420998 0.07556274 -0.03630627 -0.034164593 -0.10565865 -0.015469849 0.03985007 -0.04009121
0.0038068816 -0.042935453 -0.07716653 -0.03222861 0.03713484 -0.07024486 0.029155418 -0.06079327
0.08196947 0.014096938 -0.04184655 0.10091193 -0.100532405 0.018751651 -0.07446777 0.08918801
-0.10208179 0.045452416 -0.06736187 0.028143682 0.03952869 0.0330101 -0.02778964 0.10382501
-0.083920546 0.08696802 0.001596111 0.05234123 0.09675831 0.036166534 0.091910966 -0.019546432
00000000: 8dd6 a73d 87ad 40bd de72 903c b417 d93d
00000010: a8b6 6c3d 72a5 a83d 3860 713d 7ea4 be3d
00000020: 5af0 d5bd 7ef5 abbd d9f7 c6bd 4099 173d
00000030: 3607 c13d 605f ddbc 444d b83d e02d dc3c
00000040: 21fc 7fbb ce1d b83a 4017 2b3d f498 c23d
00000050: 3bec 11bd c682 82bc 8b91 893d 3c30 4abd
00000060: 7ff0 eabd 084e 29bd f2ac 203d ed4e f73d
00000070: a3ad db3d 193a 0f3d 419b 103d 5e5c 4c3d
00000080: 6594 2fbd 6426 1fbd 44ad 4c3d 52b3 523d
00000090: e363 a13d b310 0e3e cf25 043d 091f be3c
000000a0: c873 5a3d d28e 593c 487e 88bd a48f ef3b
000000b0: 43ae acbd ad68 7d3d eed9 113d ee3f 403d
000000c0: e60d 4dbd c3c9 06bd 4a00 63bd 9472 923d
000000d0: 6bab f83c 8291 103c 3b6e 00be 8640 b7bd
000000e0: 3a7b 4b3d 496a 7fbd e3f0 e33d c2a8 833c
000000f0: 7897 db3d 7317 65bd 8ec4 29bd a205 aebd
00000100: 8d52 353d 886a bfbd 1177 a3bd cbca 09bd
00000110: e91f 333d bef1 a93d d6c3 6c3d da84 34bc
00000120: d226 a6bb 8c78 8cbd 9dea 893d 624f da3b
00000130: 3bb7 9c3d ae76 82bc 7011 33bd 9d2e c93d
00000140: 3c8b 9c3d 73c4 c7bd 765c b43b 73cb 1bbe
00000150: ccef 0fbd 699d 0bbd ebd7 54bd 8344 7f3d
00000160: a83e 353c 3772 b0bd 3f03 1dbd eb9d eb3d
00000170: d184 0a3d 1b94 833d 83f8 9d3d a666 c5bc
00000180: 8219 71bd 5b1a cc3d 7b2a 2bbb fbfa 34bd
00000190: 1583 edbc 7a5f 5ebd 1515 86bd 7949 94bd
000001a0: 083c afbd a9f1 75bd 81cc 8b3d d2a1 86bd
000001b0: df57 e1bb aad2 a53d ca1e 5f3d 6785 e2bc
000001c0: 4846 55bd a8ba 0dbe 7e43 a7bd f2a8 1b3d
000001d0: 2960 8e3d 6968 0ebd b0cd 3b3d f3d9 f5bd
000001e0: 5a67 763d ad10 2bbd cbf0 babd 1c7e 8d3c
000001f0: f981 9c3d 9052 dfbc ef79 bbbd 05ee 8e3c
00000200: cbaf 52bd d141 19bc f64e 993c de2a a6bc
00000210: 8ead 9c3c 391c ee3d 0e38 ee3d a5ae 953d
00000220: e699 0e3c b36c b93d 2dc7 883d fff2 d3bd
00000230: b494 8abd 44c4 bfbb ca0f 1d3d fb86 bd3d
00000240: 5894 c63d 4706 b53d 97c7 b5bd 978a 2dbd
00000250: 8375 bdbd 246b babd 10cd 413c a1d2 60bd
00000260: 69b2 943c bdcd 94bd 22a5 41bd a19c 013c
00000270: b365 d5bd 0f93 9e3d ed84 6bbd f6eb a83d
00000280: 8664 b53d 841b 203d 7a21 e23d b264 1abd
00000290: 0cc4 ed39 cae4 1d3b e1ba a8bd 003e b33d
000002a0: bb8a 78bb 9623 013b a890 82bd 4988 023d
000002b0: 4615 93bd b3ce a73c 9126 993d a888 d93c
000002c0: 7ec1 c7bc 1dfe cbbd 4c55 d33d e54a 7ebc
000002d0: 5151 cc3d 2dfa 2abd cbba 41bd c27f 9abd
000002e0: 2a24 6dbd 48f5 2cbb 4da4 87bd 7ed7 da3d
000002f0: a38e 2c3c df34 883c c809 20bc d1f7 253d
00000300: d1bf 2ebd a251 3b3d 848a 563c 08f7 07bc
00000310: e2d6 c23d 9ff7 a93d d39c 463d dc78 8abd
00000320: 1e06 94bd fa5b 1bbd ec79 b73d 31d3 883d
00000330: d197 a1bd 7746 ebbd 0a51 063b 08f7 92bc
00000340: c17b 90bd 5981 413c 7c3a 7a3c 3024 353d
00000350: 4cdf 593c 9e24 ac3d 2cdb ac3d 8b6b 2c3d
00000360: 565f 1d3d a3c0 9a3d e2b5 14bd 2cf0 0bbd
00000370: 9063 d8bd 4075 7dbc d439 233d ae36 24bd
00000380: e07c 793b 16dd 2fbd 7c09 9ebd 2602 04bd
00000390: b41a 183d 8adc 8fbd 58d7 ee3c 5d02 79bd
000003a0: 9cdf a73d d8f6 663c 4a67 2bbd eaaa ce3d
000003b0: efe3 cdbd 109d 993c 8f82 98bd 34a8 b63d
000003c0: 4210 d1bd 502c 3a3d 05f5 89bd 948d e63c
000003d0: d6e8 213d 9935 073d 19a7 e3bc 35a2 d43d
000003e0: 89de abbd 4a1c b23d 9934 d13a c263 563d
000003f0: 3929 c63d 5c23 143d d13b bc3d d71f a0bc

arith.constant11 f4 [512, 128]
-0.09685123 0.04352628 0.05748087 -0.019518228 -0.0329988 0.050138388 0.042777613 0.03437528
0.0062290095 -0.006228864 0.036620844 -0.047780335 0.01568506 -0.025333486 0.06528735 -0.035458885
0.06257868 -0.038272664 -0.025325768 0.03223487 -0.09923814 -0.043651186 0.06493536 0.011257398
0.003719727 -0.014826598 -0.0004841406 0.10485851 -0.019138256 -0.029641742 0.02932678 -0.051576532
-0.02260816 -0.033210788 0.058782868 0.05459852 -0.02066608 -0.0033861455 -0.046518356 -0.012593928
0.044235293 0.025650484 0.057773873 -0.0673717 -0.050053034 -0.04462352 0.011094697 0.017378006
-0.033271432 0.078612216 -0.013968777 0.050264306 0.014736846 -0.07673405 0.047335915 0.043126654
0.030012805 0.024319503 -0.07597008 -0.030707292 -0.0034675873 -0.01140397 0.059570104 -0.05535116
0.04730056 0.05861961 0.0030073326 -0.04650498 -0.0406192 -0.010799709 -0.013152588 -0.01830604
0.06485634 0.020225387 0.0069604926 0.030820671 0.046666574 -0.006697825 -0.038608447 -0.0084669925
0.041421164 0.0047168494 -0.1017681 -0.013380275 -0.00952706 0.01563582 -0.043815188 -0.039395053
-0.027191639 -0.0077095474 -0.03056769 0.03656123 -0.021246284 -0.042902004 0.0060656266 0.075480185
-0.008012509 0.012968447 -0.0068849204 -0.0432434 0.02714511 -0.047321625 0.013976261 0.0111946585
-0.021044299 0.047240112 0.042341758 -0.023240428 -0.008139424 -0.04450984 -0.008386357 0.10610872
0.00013740268 0.014846411 0.0014611178 0.09745661 0.0060269227 0.051355295 -0.004561153 0.070076905
-0.015428582 0.067220956 0.0169861 -0.059778556 0.018439155 0.021879662 -0.052565083 0.08689361
-0.0064327056 -0.027573962 -0.053085003 -0.035540387 -0.022990692 -0.047017258 -0.014214955 0.081747994
0.046292074 -0.06265314 -0.01917723 0.05714647 -0.0047332537 0.07871667 0.007996672 0.010877511
-0.018831942 -0.06606553 -0.025222857 0.049734224 0.060306255 -0.0054381713 -0.07048824 -0.04656125
-0.0049694725 -0.056859545 0.06544578 0.07407846 0.026116582 0.033758674 0.014634004 -0.033184886
0.07186487 0.038251057 0.10108023 0.028369308 0.08153944 0.018965578 -0.039092537 -0.056514144
0.02775074 0.013411036 -0.049087998 0.035420977 -0.009254415 0.0046177465 0.023050077 0.00486003
-0.06680737 0.027654262 -0.06515403 0.05972483 -0.13162614 -0.09691721 -0.08642372 0.06709341
-0.026565352 -0.009067125 -0.073168814 -0.03009849 -0.001211539 -0.034547452 0.009659781 -0.014046446
-0.041243576 0.0909685 -0.048730932 0.074533336 0.052219875 -0.0314631 0.011566649 -0.07646941
-0.038655724 -0.050697953 -0.04455345 0.007253751 -0.053400945 -0.007880982 -0.05038322 0.013957267
0.019387975 0.012319388 0.052868847 -0.01333443 -0.071211725 -0.011173921 0.014018137 0.056525953
0.033097122 -0.020764153 -0.012635819 -0.051022023 0.0074315122 -0.0028290828 0.016345132 -0.0152429
0.044373017 -0.038460057 -0.020865962 -0.016736852 -0.060862396 0.02593809 -0.0032112694 -0.010607762
-0.046821043 0.06836161 -0.057859067 0.028838867 0.00712519 -0.0022029923 -0.01733262 -0.032355297
0.034914397 -0.015352509 0.028508514 -0.052463017 0.0012454917 0.06305166 0.06793818 0.002642492
0.020625189 0.058396857 -0.03722789 -0.026221042 0.14582011 0.01168273 -0.017029041 -0.03209154
00000000: f059 c6bd 9d48 323d 1071 6b3d b1e4 9fbc
00000010: c029 07bd e95d 4d3d 9437 2f3d 18cd 0c3d
00000020: b81c cc3b 801b ccbb bdff 153d 50b5 43bd
00000030: f47d 803c 2c88 cfbc 60b5 853d 563d 11bd
00000040: 4029 803d ccc3 1cbd fc77 cfbc b608 043d
00000050: 5e3d cbbd 96cb 32bd d4fc 843d f370 383c
00000060: aac6 733b 42eb 72bc 40d4 fdb9 0fc0 d63d
00000070: d5c7 9cbc 3dd3 f2bc b73e f03c ea41 53bd
00000080: bf34 b9bc 0908 08bd 4ec6 703d b3a2 5f3d
00000090: e94b a9bc 18ea 5dbb 088a 3ebd c356 4ebc
000000a0: 1130 353d f720 d23c 4ca4 6c3d 2dfa 89bd
000000b0: 6904 4dbd 27c7 36bd 88c6 353c 525c 8e3c
000000c0: a047 08bd 71ff a03d 4cdd 64bc f2e1 4d3d
000000d0: d072 713c be26 9dbd 4ee3 413d 93a5 303d
000000e0: 6add f53c b239 c73c 3496 9bbd dc8d fbbc
000000f0: 7640 63bb b8d7 3abc c8ff 733d e6b7 62bd
00000100: 3bbe 413d 1e1b 703d ab16 453b 027c 3ebd
00000110: 5160 26bd 43f1 30bc f47d 57bc 8cf6 95bc
00000120: 67d3 843d b6af a53c d814 e43b a27b fc3c
00000130: 7325 3f3d 6e79 dbbb e423 1ebd 24b9 0abc
00000140: 3da9 293d cd8f 9a3b cb6b d0bd f138 5bbc
00000150: 6317 1cbc b116 803c 8e77 33bd b55c 21bd
00000160: 00c1 debc 5fa0 fcbb 1869 fabc 3ac1 153d
00000170: b00c aebc 03ba 2fbd 2ac2 c63b 5b95 9a3d
00000180: e646 03bc 9c79 543c e69a e1bb fe1f 31bd
00000190: 6c5f de3c 52d4 41bd b0fc 643c cd69 373c
000001a0: 1865 acbc d97e 413d 8d6e 2d3d b662 bebc
000001b0: 385b 05bc f34f 36bd ee66 09bc 874f d93d
000001c0: c013 1039 5c3e 733c fa82 bf3a 5597 c73d
000001d0: 7e7d c53b ee59 523d b975 95bb 7b84 8f3d
000001e0: 2ac8 7cbc 24ab 893d 6f26 8b3c 5cda 74bd
000001f0: b60d 973c fa3c b33c 7c4e 57bd 47f5 b13d
00000200: 72c9 d2bb cae2 e1bc a96f 59bd cc92 11bd
00000210: fa56 bcbc 2b95 40bd d8e5 68bc 7e6b a73d
00000220: c29c 3d3d 4a50 80bd 9119 9dbc 6b12 6a3d
00000230: 6919 9bbb 3536 a13d 7904 033c 9737 323c
00000240: 7245 9abc 5d4d 87bd 2aa0 cebc 1db6 4b3d
00000250: b103 773d b032 b2bb 235c 90bd 02b7 3ebd
00000260: f5d6 a2bb 8ee5 68bd 7008 863d 73b6 973d
00000270: 71f2 d53c 8946 0a3d 76c3 6f3c e0ec 07bd
00000280: e42d 933d 24ad 1c3d 2703 cf3d c066 e83c
00000290: 26fe a63d b35d 9b3c 7f1f 20bd 607b 67bd
000002a0: 8555 e33c f6b9 5b3c 7f10 49bd 9615 113d
000002b0: d49f 17bc 7750 973b 84d3 bc3c e340 9f3b
000002c0: 4dd2 88bd 318b e23c 7a6f 85bd 06a2 743d
000002d0: 01c9 06be 887c c6bd ebfe b0bd 4568 893d
000002e0: 959f d9bc 478e 14bc 88d9 95bd 1c91 f6bc
000002f0: 81cc 9eba a181 0dbd 0f44 1e3c 1123 66bc
00000300: 06ef 28bd b14d ba3d 169a 47bd efa4 983d
00000310: 82e4 553d 74df 00bd 0b82 3d3c fe9b 9cbd
00000320: 7755 1ebd a8a8 4fbd ae7d 36bd e0b0 ed3b
00000330: f3ba 5abd 3c1f 01bc a35e 4ebd 05ad 643c
00000340: 88d3 9e3c 42d7 493c 018d 583d a778 5abc
00000350: 74d7 91bd d212 37bc 54ac 653c c287 673d
00000360: d990 073d 9619 aabc 7706 4fbc 78fc 50bd
00000370: 0b84 f33b 2268 39bb 3ae6 853c 5bbd 79bc
00000380: 7bc0 353d 4b88 1dbd 18ef aabc b91b 89bc
00000390: d94a 79bd 1e7c d43c 2974 52bb 2ecc 2dbc
000003a0: 6cc7 3fbd 2c01 8c3d a1fd 6cbd 7d3f ec3c
000003b0: 6d7a e93b 1460 10bb 24fd 8dbc fd86 04bd
000003c0: 6602 0f3d 1789 7bbc b08a e93c 76e3 56bd
000003d0: c43f a33a 3b21 813d 2c23 8b3d a92d 2d3b
000003e0: 28f6 a83c 8b31 6f3d 467c 18bd 83cd d6bc
000003f0: de51 153e ec68 3f3c 7d80 8bbc 6b72 03bd

arith.constant12 f4 [256]
-0.0055957087 -0.010299162 0.015650433 0.003995379 -0.00946159 0.00041004832 -0.0069141625 -0.010934898
-0.010255351 0.0029746485 -0.0052424916 0.007939591 -0.0072662267 0.006464302 -0.009200185 -0.0053146468
0.024326185 0.0049246736 0.0032764266 0.004797309 0.00064018695 -0.019949127 0.00083569036 -0.025187826
0.0036891042 -0.026298042 0.017902689 -0.0012737968 -0.01632416 0.01212184 -0.02518693 -0.011143043
0.012914916 -0.013928519 0.017791353 -0.028553061 -0.0027810663 0.005969585 -0.000105919746 0.04106534
-0.0004984832 -0.0030072944 0.00930157 0.011618213 -0.014704728 0.016694251 0.004905406 0.0052907527
-0.009102463 -0.01448005 -0.015755959 -0.015584549 0.021532385 0.042158473 0.0040923124 0.0022138827
-0.0011221642 -0.027465522 0.014005426 0.016433083 0.042163745 -0.0035234748 0.0046479013 0.024943948
0.9952182 0.9974619 1.0250225 1.0020866 0.99634814 1.0117315 1.0005509 0.99879
1.0083474 1.0386057 1.0589488 1.0045533 0.9989094 1.0153039 0.9972779 0.9986528
1.0191495 1.0150836 1.0105039 1.0076224 1.0016309 0.97691995 0.9923649 0.9803818
1.0194467 0.97424525 1.0076871 1.0241636 0.9889136 1.0395463 0.98559165 0.9899152
1.01146 0.9969462 1.035551 0.97665644 0.99147975 0.99877137 1.005666 1.0280722
0.9988564 1.0003064 1.0125583 1.0146551 0.9843218 1.02332 1.0109335 1.0182807
0.99483645 0.9885498 0.98915315 0.98067945 1.0468189 1.0286766 1.028643 1.0176488
1.0021342 0.97716963 1.0127928 1.0033872 1.0265111 0.99640584 1.0065827 1.0171057
0.007491632 -0.0027972132 -0.002784483 0.015218343 0.003968399 0.0070841797 0.004732396 -0.005265325
-0.012535942 -0.008557853 -0.007317419 0.0111585865 0.008242463 -0.010482835 0.00941645 -0.021370716
0.0041449396 0.000947026 -0.007320913 0.0039049143 -0.005543152 -0.0076796287 -0.005175466 -0.0015694416
-0.00036628114 -0.003474499 0.0035611812 -0.0065466687 -0.0010900524 0.011570066 0.003057695 0.0050060325
0.015219096 -0.0060985107 0.0066252635 -0.0035221956 -0.0132229095 -0.022242827 -0.010803095 0.007933018
-0.01142833 0.0005880613 -0.01687673 -0.0059402534 0.007004932 0.002307461 -0.0037974776 0.0049284734
0.00047879756 -0.0066670673 0.0010657762 -0.008337753 0.018065564 -0.0021735616 -0.009324231 -0.00035763174
0.014712203 0.01629066 0.010407297 0.002830654 -0.012044384 -0.018303366 0.0012877824 0.007082958
0.0004974038 -0.010252945 0.035531595 0.028881013 -0.0010911565 0.020165004 0.0048252204 0.0023833301
0.028916521 0.034670882 0.07205974 0.01008317 -0.005865093 0.02343562 -0.008964506 -0.010021211
0.020033436 0.0047016344 0.024980308 0.03438322 0.005676482 -0.01843091 -0.004698821 -0.029567404
0.018298227 -0.020482687 0.032978464 0.047348924 -0.017090037 0.024443738 -0.013107011 0.0007443747
0.010166794 -0.0121204695 0.030395512 -0.0281336 -0.009141189 -0.022395352 0.029030308 0.04856947
-0.0054917103 0.026099449 0.010008433 0.030774215 -0.018578762 0.028153665 0.014595568 0.013296639
-0.010767252 -0.018060906 -0.0044505955 -0.015803998 0.040856738 0.062467154 0.023577277 0.019306974
0.014509856 -0.015142012 0.018828012 0.03748352 0.047209773 -0.0019699044 0.011613752 0.05014709
00000000: 355c b7bb d1bd 28bc 5635 803c abeb 823b
00000010: c904 1bbc c1fb d639 3390 e2bb 4928 33bc
00000020: 0f06 28bc 52f2 423b 35c9 abbb 0f15 023c
00000030: 8719 eebb 7fd2 d33b 5fbc 16bc 7d26 aebb
00000040: b547 c73c 285f a13b 51b9 563b bf32 9d3b
00000050: 38d2 273a 5a6c a3bc 3b12 5b3a b356 cebc
00000060: e6c4 713b fe6e d7bc a9a8 923c 87f5 a6ba
00000070: 3fba 85bc af9a 463c d254 cebc 4f91 36bc
00000080: 1599 533c 7134 64bc 2cbf 913c 1ce8 e9bc
00000090: 8d42 36bb 829c c33b 3b21 deb8 2134 283d
000000a0: a4ac 02ba 0716 45bb 9d65 183c 515a 3e3c
000000b0: 19ec 70bc 62c2 883c 87bd a03b 0d5e ad3b
000000c0: 7f22 15bc bb3d 6dbc a412 81bc 5656 7fbc
000000d0: af64 b03c 5dae 2c3d ce18 863b ca16 113b
000000e0: 9515 93ba 60ff e0bc 0477 653c ac9e 863c
000000f0: e4b3 2c3d 19ea 66bb 6c4d 983b 4057 cc3c
00000100: 9fc6 7e3f aa59 7f3f f033 833f 6044 803f
00000110: ac10 7f3f 6b80 813f 0d12 803f b4b0 7f3f
00000120: 8711 813f 08f1 843f a28b 873f 3495 803f
00000130: 87b8 7f3f 7af5 813f 9b4d 7f3f b6a7 7f3f
00000140: 7e73 823f 42ee 813f 3158 813f c5f9 803f
00000150: 7135 803f 6d17 7a3f a00b 7e3f 4dfa 7a3f
00000160: 3b7d 823f 2368 793f e4fb 803f cb17 833f
00000170: 7129 7d3f da0f 853f bc4f 7c3f 156b 7d3f
00000180: 8577 813f de37 7f3f ef8c 843f 2806 7a3f
00000190: 9ed1 7d3f 7baf 7f3f aab9 803f df97 833f
000001a0: 0eb5 7f3f 0a0a 803f 839b 813f 38e0 813f
000001b0: 83fc 7b3f 26fc 823f 4566 813f 0657 823f
000001c0: 9aad 7e3f 9a11 7d3f 2439 7d3f cf0d 7b3f
000001d0: 29fe 853f adab 833f 93aa 833f 5142 823f
000001e0: ef45 803f ca27 7a3f 32a3 813f fe6e 803f
000001f0: b764 833f 7414 7f3f b4d7 803f 8530 823f
00000200: 5d7c f53b 7351 37bb df7b 36bb 5b56 793c
00000210: 5809 823b 6822 e83b 3712 9b3b bf88 acbb
00000220: 8d63 4dbc 3d36 0cbc f6c6 efbb 81d2 363c
00000230: 650b 073c 32c0 2bbc 7447 1a3c a411 afbc
00000240: 46d2 873b d741 783a 45e4 efbb 97e9 7f3b
00000250: 54a3 b5bb 65a5 fbbb f596 a9bb b9b5 cdba
00000260: 6c09 c0b9 6cb4 63bb b562 693b 7085 d6bb
00000270: 17e0 8eba 6090 3d3c 9c63 483b a509 a43b
00000280: 8459 793c 04d6 c7bb bd18 d93b a3d4 66bb
00000290: e7a4 58bc 9736 b6bc 77ff 30bc 7df9 013c
000002a0: e43d 3bbc 2028 1a3a 1141 8abc 75a6 c2bb
000002b0: a189 e53b c638 173b 1adf 78bb 087f a13b
000002c0: 1f07 fb39 6a77 dabb 84b1 8b3a 129b 08bc
000002d0: 3cfe 933c 5072 0ebb a9c4 18bc 8580 bbb9
000002e0: 740b 713c fd73 853c 5e83 2a3c 7e82 393b
000002f0: cf55 45bc f1f0 95bc cfca a83a 2818 e83b
00000300: 3464 023a f8fb 27bc 9489 113d e097 ec3c
00000310: 2305 8fba 1431 a53c e21c 9e3b a531 1c3b
00000320: 57e2 ec3c 0e03 0e3d 0f94 933d e133 253c
00000330: f72f c0bb 0ffc bf3c dddf 12bc 0130 24bc
00000340: 291d a43c 2b10 9a3b 81a3 cc3c 6bd5 0c3d
00000350: c801 ba3b 6bfc 96bc 91f8 99bb 5737 f2bc
00000360: 2ae6 953c 4fcb a7bc 6d14 073d f2f0 413d
00000370: 6800 8cbc 3c3e c83c cabe 56bc 2422 433a
00000380: a092 263c ef94 46bc 0200 f93c 6f78 e6bc
00000390: edc4 15bc 7576 b7bc f8d0 ed3c c8f0 463d
000003a0: cef3 b3bb 83ce d53c 69fa 233c 351a fc3c
000003b0: 7d32 98bc 84a2 e63c 4022 6f3c 25da 593c
000003c0: 2169 30bc 77f4 93bc 4dd6 91bb 6377 81bc
000003d0: 6559 273d 8fdd 7f3d 2225 c13c a929 9e3c
000003e0: bfba 6d3c 3416 78bc 343d 9a3c 5288 193d
000003f0: 095f 413d 8319 01bb 9b47 3e3c 0967 4d3d

arith.constant13 f4 [512]
-3.3578174e-09 -0.0033924996 -0.0015770808 -0.0024898907 0.016523847 0.02062773 0.006309039 0.013135065
-0.0004402783 0.00013729041 -0.0009205692 6.287631e-12 -1.7381942e-07 0.0124876825 -0.00015344105 0.019468892
-6.3641283e-09 -1.2629453e-08 -0.0074395393 7.710696e-14 0.012508077 0.023597643 -1.4633796e-08 1.78668e-11
-0.001419689 7.970607e-07 -1.0490587e-07 -5.1667597e-05 0.0005215087 -0.0019364599 0.010681106 -0.002883118
0.017673202 -0.00032264204 -8.03695e-08 -0.00034305945 -2.707559e-07 -0.0024943475 0.00022444713 0.011294682
0.018203847 -2.0395702e-05 -0.013634467 0.009022244 -2.9125093e-08 3.3544966e-05 1.4054461e-07 -4.274335e-09
0.006390707 0.0021801307 -4.5148586e-06 0.0007726877 -0.028744081 3.5712287e-06 0.024272203 -0.014993486
8.722466e-06 0.016076729 -0.016859904 -1.4314703e-09 0.00026255244 3.9368274e-06 -5.1109673e-06 -0.012832187
0.01671382 -0.04919459 0.00014351954 4.0579638e-05 -3.9719183e-07 0.006624714 -0.008698079 -5.9661637e-05
0.0012414706 5.8961453e-09 0.00016201423 -0.00022299014 -0.00023404096 -0.009140338 4.0335803e-07 0.00046077583
0.0029162667 9.839633e-07 -0.014691492 0.012415114 -2.3791716e-07 0.021610593 3.007446e-05 -0.011068222
-0.003106304 0.025233287 0.0024434305 0.00022821542 -0.018359292 -9.9935256e-05 8.219731e-06 0.00031828077
0.0050693136 -0.0035602038 0.0038909852 2.3462673e-07 0.0013820557 0.00027129377 0.009355019 0.015124044
-0.014410039 -4.9427e-06 0.030818587 1.3398205e-09 8.578529e-07 -0.000264181 -0.002712868 -0.0003139082
-8.635571e-06 0.01773042 0.0008569431 3.225329e-05 6.543245e-08 0.013180273 2.8896433e-13 0.0042814193
0.013290624 0.0014622562 -0.017994061 7.176086e-07 -0.0028995366 -0.010059895 0.0063010724 -6.404417e-08
1.0 0.9800046 1.0000008 1.0037086 1.0082964 0.9906996 0.9992227 1.0003101
1.0 1.0 0.9752163 1.0119706 0.994472 1.0003507 1.0053686 1.0001853
1.0 1.0 0.99849343 1.0000093 1.0053307 0.9998107 1.0 1.0
1.0 1.0203077 1.0 0.9802257 1.0093117 0.99743146 1.0194325 0.9999946
1.0000035 1.0062462 1.0 1.0 1.0 1.0085676 1.0 1.0143471
0.97915035 0.9999993 1.0 1.0193701 0.99984396 1.0177288 1.000001 1.0
0.96884537 1.0 1.0 0.9973527 1.0180274 1.0000004 1.0275991 0.99076986
1.0 0.9882882 0.97529185 0.999997 1.0031688 1.0 0.98705083 0.99950314
0.99333125 1.0 1.0000021 1.015844 1.0 0.9699577 0.99735934 1.0
1.011547 1.0051864 1.0024487 1.0000259 0.9999955 0.999999 1.0 1.0128133
1.0010697 0.9987937 0.99103373 1.0052317 0.99990267 0.9999958 1.0 0.994346
0.9997571 0.9707653 0.9999962 0.9999933 0.9997838 1.0000007 1.0 1.0109284
0.9959877 0.9968378 1.0199702 1.0 0.9697986 1.0001931 1.0 1.0
0.9976173 1.0226964 1.0056614 1.0 0.99983954 1.0001287 1.0000343 0.99999994
1.0 1.0 1.0332794 1.0 0.987805 1.0186149 1.0 1.0
0.9664235 1.0 1.0 1.0 0.9763924 1.0 0.99216783 1.0
00000000: 59bf 66b1 b354 5ebb 0db6 ceba 6f2d 23bb
00000010: 055d 873c 7cfb a83c 0ebc ce3b 7534 573c
00000020: 27d5 e6b9 9df5 0f39 5a52 71ba f239 dd2c
00000030: 1ea3 3ab4 2399 4c3c 05e5 20b9 3a7d 9f3c
00000040: 77ab dab1 ecf8 58b2 61c7 f3bb 23a1 ad29
00000050: adee 4c3c d84f c13c 1e68 7bb2 7528 9d2d
00000060: dc14 baba 98f5 5535 9d48 e1b3 a9b5 58b8
00000070: dbb5 083a d0d0 fdba ceff 2e3c b2f2 3cbb
00000080: 64c7 903c 4828 a9b9 9a97 acb3 a9dc b3b9
00000090: 685c 91b4 3578 23bb 9159 6b39 540d 393c
000000a0: 3c20 953c 7017 abb7 1963 5fbc 09d2 133c
000000b0: c22e fab2 a2b2 0c38 9ce8 1634 73dd 92b1
000000c0: 2369 d13b 86e0 0e3b 577e 97b6 328e 4a3a
000000d0: b578 ebbc 3ea9 6f36 80d6 c63c 3da7 75bc
000000e0: b556 1237 58b3 833c c81d 8abc 62bd c4b0
000000f0: 31a7 8939 1719 8436 e07e abb6 183e 52bc
00000100: 6ceb 883c 4480 49bd bc7d 1639 0e34 2a38
00000110: a13d d5b4 2114 d93b 6382 0ebc 323d 7ab8
00000120: d7b8 a23a 0b97 ca31 5de2 2939 76d2 69b9
00000130: e468 75b9 5bc1 15bc 1b8d d834 4994 f139
00000140: d61e 3f3b b910 8435 95b4 70bc c368 4b3c
00000150: 2c76 7fb4 b308 b13c 6948 fc37 7d57 35bc
00000160: 2293 4bbb 0ab6 ce3c f621 203b 1c4d 6f39
00000170: 3a66 96bc 5594 d1b8 7ae7 0937 ecde a639
00000180: 7c1c a63b 4f52 69bb e6ff 7e3b b4ed 7b34
00000190: 1826 b53a 6f3c 8e39 cb45 193c d7ca 773c
000001a0: 1618 6cbc 78d9 a5b6 4377 fc3c be24 b830
000001b0: 3447 6635 c681 8ab9 5fca 31bb 0c94 a4b9
000001c0: 7fe1 10b7 633f 913c 7aa4 603a b547 0738
000001d0: df83 8c33 12f2 573c 26ac a22a 264b 8c3b
000001e0: ebc0 593c 2da9 bf3a 4868 93bc b0a1 4035
000001f0: 2706 3ebb 42d2 24bc 3a79 ce3b a888 89b3
00000200: 0000 803f 95e1 7a3f 0700 803f 8679 803f
00000210: db0f 813f 7d9e 7d3f 0fcd 7f3f 290a 803f
00000220: 0000 803f 0000 803f c7a7 793f 4188 813f
00000230: b895 7e3f 7e0b 803f ebaf 803f 1206 803f
00000240: 0000 803f 0000 803f 449d 7f3f 4e00 803f
00000250: adae 803f 98f3 7f3f 0000 803f 0000 803f
00000260: 0000 803f 7199 823f 0000 803f 12f0 7a3f
00000270: 2031 813f ab57 7f3f c47c 823f a5ff 7f3f
00000280: 1d00 803f adcc 803f 0000 803f 0000 803f
00000290: 0000 803f be18 813f 0000 803f 20d6 813f
000002a0: 99a9 7a3f f4ff 7f3f 0000 803f b87a 823f
000002b0: c6f5 7f3f f044 823f 0800 803f 0000 803f
000002c0: 4006 783f 0000 803f 0000 803f 8252 7f3f
000002d0: b94e 823f 0300 803f 5e88 833f 18a3 7d3f
000002e0: 0000 803f 7500 7d3f baac 793f ceff 7f3f
000002f0: d667 803f 0000 803f 5daf 7c3f 70df 7f3f
00000300: f54a 7e3f 0000 803f 1200 803f 2d07 823f
00000310: 0000 803f 264f 783f f152 7f3f 0000 803f
00000320: 5f7a 813f f3a9 803f 3d50 803f d900 803f
00000330: b5ff 7f3f efff 7f3f 0000 803f dea3 813f
00000340: 0d23 803f f2b0 7f3f 63b4 7d3f 6fab 803f
00000350: 9ff9 7f3f baff 7f3f 0000 803f 768d 7e3f
00000360: 15f0 7f3f 1384 783f c0ff 7f3f 90ff 7f3f
00000370: d5f1 7f3f 0600 803f 0000 803f 1a66 813f
00000380: 0df9 7e3f c330 7f3f 628e 823f 0000 803f
00000390: b944 783f 5406 803f 0000 803f 0000 803f
000003a0: d963 7f3f b7e7 823f 83b9 803f 0000 803f
000003b0: 7cf5 7f3f 3804 803f 2001 803f ffff 7f3f
000003c0: 0000 803f 0000 803f 8042 843f 0000 803f
000003d0: cae0 7c3f f961 823f 0000 803f 0000 803f
000003e0: 8867 773f 0000 803f 0000 803f 0000 803f
000003f0: daf4 793f 0000 803f b6fe 7d3f 0000 803f

arith.constant14 f4 [5]
-0.011141908 0.006632639 0.015689984 -0.0027891248 -0.015390374
00000000: 8d8c 36bc 9c56 d93b 4888 803c c0c9 36bb
00000010: e827 7cbc
