app/src/main/assets/model.tflite (tflite, 633200 bytes, 16 tensors)

arith.constant6 f4 [130, 128]
00000000: 4ace 7cbe 98d3 8d3d 1233 e13d 9648 ccbd
00000010: 4a84 9bbc 9b27 99bd 89ce 273e 21de 7bbe
00000020: 22cd 92be a7a7 1dbe 1b5e dbbe 62d8 123e
00000030: a46a 0dbb cf24 9f3d 1417 c9be 8859 0d3d
00000040: 34ff 9dbe 0c7c dc3d 7bc4 a6be 559f 87be
00000050: 29b6 efbb 9583 07bf 64cf 6ebe 6241 ebbc
00000060: c911 04be 3988 2c3e 9f68 46be bb13 99be
00000070: 09a4 cd3d 67a3 48be a342 123e bc9b 5ebe
00000080: 3dfb 473c efd0 aebe 20f8 e4be f9ee 103e
00000090: 97f7 2c3e 60aa ff3d a06d b73d 19e3 78be
000000a0: faf1 13bf 6658 a93d e5a4 66be 5732 3dbe
000000b0: 45ee 90bd 67c0 a73d 35a5 28bd 9a79 633d
000000c0: 9a3c 973d 67d7 6d3d 4cdd e3be 5fa1 cfbe
000000d0: c91c 823d 7878 543d a7f0 0e3e f5f9 be3d
000000e0: effd 033e 953d 76bd 8790 9ebe bd91 a3be
000000f0: 3268 92bd ebc4 30bf 2487 dfbe d346 c0bd
00000100: 53a4 203d c8dd 2dbe 6590 e83d 1f25 10be
00000110: 8555 a03d 015a 053e 3d72 f7bd 0e3b fcbd
00000120: b37a e3be 0bef c7bd 3821 90bd 49fc 85bd
00000130: da64 bbbe ff6f 543b 9d0a 433d e65b 60bd
00000140: 17f6 d3bd 5311 8dbe 9f7d b63d fedc 6abe
00000150: 3a70 01bf 42f7 5bbe 6ad3 89bd 7188 88bd
00000160: b27d 8ebe 7c81 143e 3fc8 b7be 17a3 f6bd
00000170: 39d6 90be a246 afbd 08d2 ec3d bdd6 2b3e
00000180: dd7c cbbe 3a0e 94be 23a3 263e 8348 44be
00000190: 6524 853c 2970 b3be 6ce0 0cbe f658 b6bd
000001a0: 55d1 4a3e 38f4 d5bc d2cb cd3d d489 00bf
000001b0: 2931 1dbe 8279 0cbf 5158 0cbe e234 d8bc
000001c0: 1592 0abe 737e 2dbe 80f7 ddbd 7e05 d8be
000001d0: 98a5 d0be 83c7 5ebe 4ce4 0ebf d914 1ebe
000001e0: 1add 83bd ddf0 cd3d 25ed eebc e27d 473e
000001f0: f973 dabe 3df2 4abe f419 8ebe 5d99 3ebe
00000200: 254c 16be 222f 793d 896a eb3d 2ef1 0bbe
00000210: a4c0 2d3d 477c 62be 5554 b63d 5db6 77be
00000220: 13a3 bdbd 94b0 103e ecf3 80bd f5f0 a4be
00000230: 85d1 1f3e 16d6 883c fd4f 46be 3965 0a3e
00000240: c441 00bf 8fc5 a63c e16c 47be 104e fa3d
00000250: 2b9f b93d 1537 f93d 71d9 92bd b6ca 703c
00000260: c22c 98bd b564 54bd c7f4 963d 0bda 48bd
00000270: e849 17be 6306 b53c 6a9b 13be 0ef5 00be
00000280: e7c3 15bc 4ca5 a8be e712 e63d df16 363e
00000290: abbf 1cbe 1be4 79be 49d8 74be ae7b c5be
000002a0: 9e53 8c3c 5a7e f43d 2957 bc3c 4866 263e
000002b0: 2fa4 293d 82a5 b3be ae45 88bd 4144 34bd
000002c0: 412c d9bd 5434 c23d e5b1 e9be 3ab7 80bc
000002d0: b39a d6be b532 f0be c42c d53d 9354 a2be
000002e0: 0d6e cbbe e9ea 0f3e 40b7 303b 1060 393d
000002f0: 55d8 3ebe 2a2b 60be 89c5 a6be a3e7 b6bd
00000300: a7df 7abe 8f9f aa3d 74c3 63be f5ef 66bd
00000310: c818 3b3d 771b 8ebe 5067 c4be b9c6 85be
00000320: 6ad5 e9be 2b9b 0abe 16e9 97be 9f31 c7be
00000330: 4260 28bb 2a7f e13d e90a 04bd 1498 663c
00000340: 280c aa3d 40c0 4c3d 22b3 6f3d 5a18 313e
00000350: 6c77 eb3d 4a71 f83d 6749 c03d fd7b 05bd
00000360: 0f26 80be 5393 75be 9781 0fbe 6880 91bc
00000370: 0ae8 383d 81e6 75be b433 4a3d 0283 10bf
00000380: db88 173e 846d 64bd 4992 fd3d 0002 22be
00000390: 9ca9 56be 09e9 bfbe c279 16be 387c dbbe
000003a0: f642 19be ed42 e13d 3b17 a7bc edc7 173e
000003b0: d748 7cbe 8e77 fcbd 0b3c cf3d 61a3 acbe
000003c0: 710c fb3d 7488 e7be d1d1 8dbe 7e9c 3ebd
000003d0: 8122 8bbd a5e8 4cbe c782 93bc 2e0f 3abe
000003e0: 229e 273d 73d4 0c3e 9a91 11bd a311 e4be
000003f0: 267c b6be fe62 26be e625 4abe 01c2 a3bd
-0.24688068 0.06925124 0.10996069 -0.09974782 -0.018983979 -0.07478257 0.1638738 -0.24596454
-0.2867213 -0.15395986 -0.42845234 0.14340356 -0.0021578455 0.077706926 -0.3927542 0.03450921
-0.30858767 0.107658476 -0.32571778 -0.26488748 -0.0073154164 -0.52935153 -0.233213 -0.0287177
-0.1289741 0.1684884 -0.19375847 -0.29897866 0.10041053 -0.19593583 0.14283232 -0.21739095
0.012205896 -0.3414378 -0.44720554 0.14153661 0.16891323 0.12483668 0.08956456 -0.24305381
-0.577911 0.08268814 -0.2252384 -0.18476234 -0.07076696 0.08190995 -0.04117318 0.05553589
0.07384606 0.05806675 -0.44504774 -0.40552804 0.063531466 0.0518727 0.13958989 0.09325019
0.12889837 -0.060117323 -0.3096964 -0.31947127 -0.0714878 -0.6905047 -0.43657792 -0.09388509
0.03921921 -0.16979134 0.11355666 -0.1407666 0.078288116 0.13022615 -0.12082336 -0.12315951
-0.4442955 -0.09762391 -0.07037586 -0.0654226 -0.3660038 0.0032415388 0.047617543 -0.05477514
-0.10349672 -0.2755228 0.08910679 -0.22935864 -0.5056187 -0.2148104 -0.06729777 -0.06666649
-0.27830273 0.1450252 -0.35894963 -0.12042826 -0.2828844 -0.08558394 0.11563498 0.16781135
-0.397437 -0.28917104 0.16273169 -0.19168286 0.016252706 -0.3504651 -0.13757485 -0.08903687
0.19806416 -0.02611743 0.10048641 -0.5021031 -0.15350784 -0.54872906 -0.13705565 -0.026392404
-0.13532288 -0.16942768 -0.108382225 -0.4219169 -0.40751338 -0.21755795 -0.55817103 -0.1543764
-0.06438656 0.10055707 -0.029165814 0.19481614 -0.42666605 -0.19818969 -0.27754176 -0.18613191
-0.14677484 0.060835965 0.11494929 -0.13666221 0.042420045 -0.2211772 0.08902804 -0.2419066
-0.092596196 0.14129859 -0.062965244 -0.32215086 0.15607269 0.016703647 -0.1936645 0.13515176
-0.5010035 0.020357875 -0.19475128 0.122219205 0.09063562 0.12168709 -0.0717038 0.014696768
-0.07430412 -0.051853854 0.07370906 -0.049036067 -0.14774287 0.022097772 -0.14414755 -0.12593481
-0.009140945 -0.32938612 0.11234074 0.17782162 -0.1530749 -0.24403422 -0.23910631 -0.38570923
0.017129716 0.11938162 0.02299078 0.16249955 0.041416343 -0.3508721 -0.06653915 -0.044010404
-0.10604144 0.09482637 -0.45643535 -0.01571237 -0.419149 -0.46913686 0.10408929 -0.3170515
-0.397324 0.14054455 0.0026964694 0.045257628 -0.18637212 -0.21891466 -0.32572582 -0.089309
-0.24499379 0.08331215 -0.22242528 -0.056381185 0.04567793 -0.2775533 -0.3836007 -0.26128176
-0.45670635 -0.13535754 -0.29670018 -0.38905045 -0.002569214 0.11010583 -0.032236967 0.014074344
0.083031 0.04998803 0.058520444 0.17294446 0.11497387 0.12130983 0.093890004 -0.032588948
-0.25029036 -0.23981981 -0.14014278 -0.017761424 0.045143165 -0.24013712 0.049365714 -0.564499
0.147983 -0.055768505 0.12381417 -0.15821075 -0.20963138 -0.3748248 -0.14694884 -0.4286821
-0.1496695 0.10999093 -0.02039682 0.1482236 -0.24637161 -0.12327491 0.10118874 -0.33718398
0.122582324 -0.45221293 -0.2769914 -0.04653596 -0.067936905 -0.20010622 -0.018006695 -0.18169853
0.04092229 0.13752918 -0.035539247 -0.44544706 -0.35641593 -0.162487 -0.1974102 -0.07995988

arith.constant7 f4 [128, 64]
00000000: 2e31 a83d 9993 0abe 38da 9c3d fb7e 0dbf
00000010: f01d d5be d8fa 013e ed2d b6bc 5251 cdbd
00000020: d578 b93e b345 ec3d 0443 03bf 1fbe 003e
00000030: 4b81 f1be bf88 abbe 2875 91be c7d4 6f3e
00000040: 9df2 893e 1eda b0bd d5bf 8cbe eb8e fc3e
00000050: 6daa 3b3d 2b44 4f3c fad0 4bbe f545 3e3e
00000060: f5ae 103e afcd 98bb 5819 ddbd c002 c13d
00000070: 7299 52be ea09 57be bb54 f23e cec4 4dbe
00000080: a16b c4bd d6f7 293e dafe 5bbe b025 143e
00000090: c648 0c3d f3f3 8abe c8d6 34be 9f8c 8f3e
000000a0: de84 173d 0ccd 283e ec86 04be 7c7b 9cbe
000000b0: 2bbe 16be 2799 2cbb f568 753d 7a32 403e
000000c0: 99c6 303e 5cbf 35bc 0629 08be 02ea 8fbe
000000d0: d266 3f3e 6880 4fbe 3ed5 5abe ff72 2e3d
000000e0: ca90 ee3e 2bb7 50bd 4511 103e b42b dabc
000000f0: 56d6 123e ea5b 09bd eb2f b93e 0114 823c
00000100: 61b1 25be 1ee1 dcbd 2d42 08be a400 3dbe
00000110: f2da d3bd d028 713e 1e9d 9f3d 6989 b7bd
00000120: 98a0 063e ad75 1a3e 3407 cfbc aecb 13be
00000130: 6877 acbe f782 f23c 3bfb 48be ec03 19be
00000140: 3b9a bb3e 86e1 f6bc cc7a 03be d86f c43e
00000150: 19f2 373e 943b 093e b913 8dbd 5629 933d
00000160: 6229 d23e 8f92 d53e 4d74 e63d 1cbc b1be
00000170: 5ab1 2cbd d612 c0bd a3db 4f3d 261a d7bc
00000180: 8a8b 283d ee52 113e 94a1 3a3e ad87 bc3d
00000190: fd07 c9be 4cf1 de3c 5b0d b63d e6f3 6dbe
000001a0: 49f4 973e 210a babe 3927 bc3e 95d5 c73e
000001b0: 2739 303e abe4 4ebd 9ebe f13e 2bb0 c63b
000001c0: bf4a 673d f1d5 fabd 9252 873c 8334 07bc
000001d0: 239e 27be 8e8d ee3d d502 97bb 07e8 56be
000001e0: 1126 f13c cfc3 42bc 83c1 c2bd 3bc4 4ebe
000001f0: a1a2 d33d 84a8 433f 6a61 d9be 5876 fdbd
00000200: 0e78 b53e 4e89 5fbd fe27 3bbe 6d78 573e
00000210: 6aa3 223d e5aa 9bbe b343 eb3e f4ee 26be
00000220: 21a2 d83e 4167 fbbc 0398 563d fa18 3dbd
00000230: fd83 f13c 5052 25be bd24 a7be a8d9 283c
00000240: 272e 243e 4878 603e 1539 2c3e 932d 99bd
00000250: 522b 1abe b21d f33e 9105 e0bd 6760 c4be
00000260: 8cf8 02be 4068 bd3d 6f6e 0abd b3c4 3c3e
00000270: 2cfe 4c3d 04ff 673d ab15 0abe 89e5 6c3e
00000280: 8858 303e 60d6 b23e f34e b03d 8cca a73e
00000290: 8d6a 85be bab2 bb3e 2fcc ee3c 4657 93be
000002a0: 0447 13be dacf 08bd 376d a1bd 29ba 173e
000002b0: f18a 653d 2e3e 48be 5b74 d03d 3a48 a1be
000002c0: 3344 35be 2c98 6e3d dd1a d03d 29d0 93bd
000002d0: 50b4 b33d b857 803e 4e63 b13d a930 ac3d
000002e0: c339 23be 1125 7dbd bbd8 03be 008b 83be
000002f0: a6ff a73e 3232 053d 5990 7cbe 5b16 ac3d
00000300: 89aa af3c 761d 27bf 9155 a43e 5fcb 223d
00000310: f360 6cbe 7d10 2ebe 1334 593e ea3e 823e
00000320: 6580 2ebe 55ae 1ebe eefd 49bd d4bc a2bd
00000330: 768d 58be e3cf 56bd b5c4 6cbe fcf5 87be
00000340: e476 9a3e 243b 493e cf45 e7bc 6d56 92bd
00000350: 1cfb fb3d bc47 7e3e 12d5 063e 1ff2 5dbe
00000360: acf7 bc3e 829d 4dbe d2bc b93d 4614 3b3d
00000370: 4073 cf3d d448 0cbf 8565 a1ba f21b 643e
00000380: 7e80 553d c692 27bd a6f1 28be 2b02 53be
00000390: a6da 833c 7a0b 72be e8a1 43be c32e 9bbd
000003a0: 5b55 2a3e 48f8 12be cc49 c6bd 7508 733e
000003b0: d414 c13d 707a a6bd 5955 c23c af04 83be
000003c0: 650e 3b3e cfac eb3d 76fe 99be 8ecd b9bd
000003d0: a6f0 14be 931b 14be 9f26 793d 5d15 f5be
000003e0: 686f bb3d ae7c 323d 648d 2d3e ff24 fc3d
000003f0: 1b3d 8bbd a05b 89bd 7b36 c9bd 5e7b 3fbe
0.08212505 -0.13532867 0.076588094 -0.5527188 -0.41624403 0.12693346 -0.022238696 -0.10025276
0.36225 0.115367316 -0.5127413 0.12572525 -0.47168955 -0.33502766 -0.28409696 0.23421012
0.26942912 -0.086353526 -0.27490106 0.49327788 0.045816828 0.01265053 -0.19903937 0.18581374
0.14129241 -0.0046631913 -0.107958496 0.09424353 -0.20566347 -0.20999876 0.4733027 -0.20094606
-0.09590841 0.16598448 -0.21483937 0.14467502 0.03424909 -0.27139243 -0.17660058 0.28036973
0.036991946 0.16484469 -0.12942094 -0.3056296 -0.14720981 -0.0026336403 0.059914548 0.18769255
0.17263259 -0.011092987 -0.13296899 -0.2810822 0.18691567 -0.20263827 -0.21370408 0.042590138
0.4659484 -0.050955933 0.14069088 -0.026632167 0.14339575 -0.03353492 0.3616937 0.01587868
-0.16180946 -0.10785125 -0.13306494 -0.18457276 -0.10344495 0.23550725 0.077936396 -0.08961756
0.13147199 0.15083952 -0.02527199 -0.14433166 -0.3368485 0.029603465 -0.19627087 -0.14942902
0.36641106 -0.030136835 -0.12839812 0.3836658 0.17963447 0.13401634 -0.068885274 0.071856186
0.41047198 0.41713378 0.11252651 -0.3471383 -0.042161323 -0.09378593 0.05074657 -0.026257586
0.0411487 0.14191791 0.182257 0.092055656 -0.39263907 0.027214669 0.08889266 -0.23237571
0.29678562 -0.36335853 0.36748675 0.39030138 0.17209302 -0.050511044 0.47215742 0.0060634813
0.056467768 -0.12247837 0.016518865 -0.008252266 -0.16368918 0.11648093 -0.004608492 -0.20986949
0.029437097 -0.011887505 -0.09509566 -0.20192043 0.103337534 0.7642901 -0.42457134 -0.12376088
0.35443157 -0.054574303 -0.18276975 0.21042033 0.039706625 -0.3040382 0.45950088 -0.16302091
0.42311195 -0.030688884 0.052391063 -0.046166398 0.029481882 -0.16144681 -0.32645217 0.0103058
0.1603323 0.21920884 0.1681865 -0.07479396 -0.15055588 0.47483593 -0.10938562 -0.383548
-0.12790126 0.092484 -0.033796724 0.1843441 0.050047085 0.056639686 -0.13484828 0.23134436
0.17221272 0.3492918 0.08608808 0.32771719 -0.26057854 0.36659795 0.029150097 -0.28777522
-0.14382559 -0.033401348 -0.07882159 0.14817108 0.056040708 -0.1955497 0.10178443 -0.31500417
-0.17701797 0.05825059 0.10161374 -0.07217438 0.08774626 0.25066924 0.08661519 0.08407719
-0.15940003 -0.061802927 -0.12875645 -0.25691986 0.32812232 0.032518573 -0.2466444 0.084027015
0.021443622 -0.6527933 0.32096532 0.03974473 -0.23083858 -0.16998477 0.21211271 0.25438625
-0.17041166 -0.1549619 -0.04931443 -0.07946172 -0.21147713 -0.05244435 -0.23121913 -0.2655486
0.3016883 0.19651467 -0.02823153 -0.07145391 0.12303755 0.24832052 0.13167217 -0.21674393
0.3690771 -0.20079616 0.09069218 0.04567363 0.10129404 -0.54798627 -0.001231358 0.22276285
0.052124493 -0.04091146 -0.16498432 -0.20606296 0.01609547 -0.2363719 -0.19104731 -0.075772785
0.16634123 -0.14352524 -0.096820444 0.23733695 0.09427801 -0.08128822 0.023722338 -0.2558951
0.1826721 0.1150757 -0.3007695 -0.090724096 -0.14544925 -0.14463644 0.060827848 -0.4786786
0.091521084 0.043575935 0.16948467 0.12311744 -0.06798764 -0.06706929 -0.098248444 -0.18699405

arith.constant8 f4 [256, 128]
00000000: 201e 173e e7df 833d def6 37be 1e34 293c
00000010: ceeb 733d ac75 9dbc 6327 333d 80dc 19be
00000020: 01aa c9bd d90b bf3c bd1a 943c fd5b b7bd
00000030: 2500 503d ab3e f0bd 27f8 5dbd b5ad 983a
00000040: 9ae2 50bd 76df a8bd 5287 eb3c e07d 21bd
00000050: 8d59 f3bd 5f76 5a3e 0ff4 fb3d 116c 6bbe
00000060: b544 c1bd 78e7 2d3a 038b 94be c460 0b3d
00000070: 2a97 da3d 75eb 4c3c 184d 843d f097 a53d
00000080: 4061 123c f8ae 74bd b23e 573d 19e3 c23d
00000090: 6171 f4bd 96ab 20bd 2dc9 86bc e612 cebd
000000a0: cd07 d9bc 64fb 1d3e a5a3 a43c 5d92 b1bc
000000b0: ddab 023c a70a f33d be6d f83c 2a44 84bb
000000c0: 1186 bebe b320 943d 6029 a3bd 2dbd ab3d
000000d0: bfa9 bebd 0fd6 6fbe 81a9 1bbd f90f 20bd
000000e0: a0f7 253e b9fe b3bd 9afe 863e dfc0 3b3e
000000f0: 1274 13be 2a9d 7ebd d2b0 37bd 331a b7bb
00000100: 0ca6 49be 6dbb 643d 7af8 16bd 6d10 f0bd
00000110: b517 483e 199c 063e 909b ddbd 1cc9 763d
00000120: 0775 463d 3f23 a73d 7fd2 eb3d fa6f f0bd
00000130: 13e7 873d 8b1f 283e f0d4 12bc 11c9 623e
00000140: e469 4abe 62b9 2b3d 0fc2 403e 33c0 4abc
00000150: 671b dbbd 55e9 113d 6d67 483e 7e22 07be
00000160: 4883 14bd fb18 3e3d 3317 3abe 3450 dc3d
00000170: 0322 34be 6eb0 503e 4b23 4cbe ab9d edbc
00000180: 4db9 953d 33b4 0b3e 4538 93bd 1ec9 37bd
00000190: 4753 0dbe 4d70 2d3d 5334 99bd f950 273e
000001a0: ea3f 45be 7877 ba3d f15c 8fbd a2ed 6abe
000001b0: 5cff 8cbe 7f75 86bd 897e 823d cf9b e6bd
000001c0: 0bea c33c fd10 08bd e1fd 1c3d 03bf 88bc
000001d0: d21c 81bd 7254 4dbe 7a8f 9c3d e595 38bd
000001e0: 975e aabd 63d7 aabd 046a 4dbd e667 5e3e
000001f0: df2e 923d 3281 19bd 7a8c 3bba 8ee2 7dbd
00000200: 9e27 2cbe 7637 c0be 8207 77bd cb70 153e
00000210: 3913 93bd 02ac ddbc 2a63 60bd 14f0 463b
00000220: 47b0 97bd 016c f03d 2451 603c 1d28 52be
00000230: bfaa b4bc cba3 d7bd 81e5 863d dd13 32bd
00000240: f9f2 62bd 0b8c a1bc 1a93 023e 4bb4 c8bd
00000250: 2ff0 acbd 15ad 463d 702d 41be 6ad7 cc3d
00000260: 364a bdbd 4e81 1c3e 4a91 8b3c 49ed 213c
00000270: cc96 303e 1770 9a3d e0b7 203b d575 9e3d
00000280: 7409 80bc 6c7f b23d 7784 d93d a84c a43d
00000290: 1aee 2bbe 55df 7ebe 7d39 a53d 8955 223e
000002a0: 60f9 3d3e eade 5b3d 6ddc 1cbc b861 bbbd
000002b0: 25c2 8ebd 4483 dd3d 3c46 92bc 699b bcbd
000002c0: fdb0 8fbe 4f7d 193e 2592 e53d 5927 403e
000002d0: dd19 9ebe ff42 09be b2a7 98bd 6e42 59bd
000002e0: 443d c53d 411c 8a3e 17df b3bd ba50 863d
000002f0: 8159 e9bc 9c8f 8ebd 64db 243c 2a33 253d
00000300: abf9 8ebe d941 d53c 9d3c 903c 7d2e 043d
00000310: 799c 923d ae3b 053d a1b5 cb3c f971 1a3d
00000320: ae01 c23d 123d a93d 2db5 003b 0a75 3bbe
00000330: d188 733d 052d 203e 15e6 17be 298d 9d3d
00000340: 3cb5 b53d 972d 8c3d cbf5 a93c 9fd0 12be
00000350: 7a8b 223d eb62 023e 07f7 7a3e 836e 093e
00000360: 5a1a 8ebd 5fda b4bd 693b e2bd cb2e 373e
00000370: e4ca a6bd 63d2 e03d b53e c8bc f99a 823e
00000380: da31 243e ad9e 23be 2316 71bd ce82 96be
00000390: 71f3 513e b7f3 52bd ed8a 1a3e 7841 893c
000003a0: 6ba7 dabd 8684 d23c a404 e8bd a83f 7abd
000003b0: 64e6 5ebe 68d8 b9bc d6eb c1bd 2224 183d
000003c0: 72d7 823d 01f9 0c3e c134 b63d 24e2 44be
000003d0: b033 61bd fee4 36be e50a 6bbc a1d9 bd3d
000003e0: e998 043d 2fad 54bd fe64 4abd 40bc 763e
000003f0: 1d3b 863e 885f d63c 62c4 3b3e 8e2e 453e
0.14757586 0.0643919 -0.17965266 0.010327367 0.059551053 -0.01922115 0.043738734 -0.1502552
-0.09846879 0.02332108 0.018079156 -0.08953092 0.050781388 -0.11730703 -0.054191735 0.0011648448
-0.050997354 -0.08245747 0.02875105 -0.039426684 -0.11882315 0.21334217 0.1230241 -0.22990443
-0.09436933 0.0006633918 -0.29012308 0.03402783 0.106733635 0.012507309 0.06460017 0.080856204
0.008934319 -0.059737176 0.052550025 0.09515972 -0.11935688 -0.039226137 -0.01645335 -0.10062198
-0.026492978 0.15427929 0.020097563 -0.021676237 0.007975546 0.11867266 0.030325767 -0.004036446
-0.3721166 0.072327994 -0.07966876 0.08385692 -0.0930972 -0.234215 -0.03800345 -0.039077733
0.16207743 -0.08788819 0.2636612 0.18335293 -0.14399746 -0.062161602 -0.044846363 -0.00558784
-0.19692248 0.055842806 -0.03685806 -0.11721883 0.19540294 0.13145484 -0.10820687 0.060250387
0.04845145 0.081610195 0.11514758 -0.11740108 0.06635871 0.16418283 -0.008961901 0.22147013
-0.19766957 0.04192484 0.18824027 -0.012374925 -0.10698586 0.035622913 0.19570704 -0.13196751
-0.036258012 0.046410542 -0.18172912 0.10757485 -0.175911 0.20379803 -0.19935338 -0.029005846
0.07310734 0.1364296 -0.07188467 -0.044869535 -0.13801299 0.042343426 -0.07480683 0.16339482
-0.19262663 0.09104818 -0.07000149 -0.22942212 -0.27538574 -0.06565379 0.06371791 -0.11260187
0.023915311 -0.033219326 0.038328055 -0.016692644 -0.06304325 -0.20051745 0.076445535 -0.045064826
-0.08318823 -0.08341863 -0.050149933 0.21719322 0.07137846 -0.037476726 -0.00071544165 -0.061983638
-0.16811988 -0.37542313 -0.060309894 0.14593808 -0.07181401 -0.027059559 -0.05478207 0.00303555
-0.07406669 0.1173935 0.01369122 -0.20523115 -0.022054074 -0.10529288 0.06586743 -0.043475974
-0.055407498 -0.019720098 0.12751427 -0.09800013 -0.08444249 0.048504908 -0.1886499 0.100020245
-0.0924267 0.15283701 0.017037053 0.009883233 0.17245024 0.07540911 0.002452366 0.077373184
-0.015629508 0.0871571 0.10620969 0.080224335 -0.16790047 -0.24889882 0.08067606 0.15852942
0.1855216 0.053679384 -0.009574038 -0.09149498 -0.06970624 0.108160526 -0.017855756 -0.0920933
-0.2806472 0.14989208 0.112095155 0.1876501 -0.30879107 -0.13404463 -0.0745386 -0.053041868
0.09630826 0.2697468 -0.087827854 0.06558366 -0.028485062 -0.06960985 0.010062072 0.040331997
-0.27924857 0.026032375 0.017607028 0.032270897 0.07158751 0.032527618 0.02486688 0.03770635
0.094729766 0.08263601 0.001963924 -0.18306366 0.05945665 0.15642174 -0.14833863 0.0769294
0.08872458 0.06844633 0.020747086 -0.14337395 0.039683796 0.12733047 0.24508296 0.13421063
-0.0693862 -0.088307135 -0.11046488 0.17888944 -0.08144167 0.10977628 -0.024443964 0.2550886
0.16034642 -0.15978499 -0.058859 -0.2939667 0.20503022 -0.051501956 0.15092058 0.01675485
-0.10676464 0.025697958 -0.1132901 -0.061095864 -0.21767575 -0.022686198 -0.0946881 0.037143834
0.06388749 0.13766862 0.08896781 -0.19226891 -0.054980934 -0.17860791 -0.014345859 0.09270025
0.03237239 -0.051922973 -0.04941272 0.24095249 0.26216975 0.0261686 0.18336633 0.1925604

arith.constant9 f4 [256, 64]
00000000: 716a 17be f308 b33c 46cf 053e 0e05 7a3d
00000010: 60fe 943c 0186 2bbd dff4 ea3d 312a 423e
00000020: 0ad7 6c3c 29c1 e8bd c1b6 323d 5499 8c3d
00000030: 5ac8 4a3e eaa7 163e cc7f 9cbb 2656 4f3c
00000040: c2e3 df3c 5113 43bb c304 0dbe 8c78 9abd
00000050: 746a ba3d 1ad5 79bd 0508 903d b988 b8bd
00000060: c725 a1bd c1f5 dd3b ea14 86bd cff1 b33d
00000070: bc17 1b3e 92d8 123d e4b0 ce3d e563 743c
00000080: 8e78 24be 02da aa3d 12ec 98bc 4def 953c
00000090: 7fb2 b7bd 92a1 52be 33e5 1abd a49f 1dbd
000000a0: 1665 3a3e 71e9 993c 2760 5f3d ea67 403d
000000b0: daab 33bd 8325 6c3e 2312 73be 21db babd
000000c0: bf06 c2bd 293b 9dbc dc1f 0bbe d23f 9c3d
000000d0: 9f25 f63d d16d 39bd 8b20 c6bb 3ca5 3ebd
000000e0: 82cb 0bbd 33f0 d0be 62d1 a83e d32c 30be
000000f0: e5b7 a4bd 5d7e 80bb c893 503e 2e4f 8e3d
00000100: f5b5 6cbe 992f 83bc 455c 033e 0933 16be
00000110: 9387 a53e 6eda 81bc 1ca4 39bc eac7 8539
00000120: b3ad bcbc b854 3ebe 38c3 34be 67b2 6e3d
00000130: bfd1 983e 2a35 b13c 921c 8dbd 046d 023e
00000140: 57cb 55be 7e9b 8bbe 9207 54be 24e0 74bd
00000150: 3127 20bb 4a1d 913b b335 63bd 89cb 143d
00000160: 5be1 af3e d10c 1d3e 838d 07be e2ed afbd
00000170: 7e8c d93c 68a5 723e 20de e43d c89c f23c
00000180: e7a7 86be e30d ac3c cade 1fbe 40ab cc3d
00000190: fb0c a4be 18e1 dfbd e0bd 91bc c773 3b3e
000001a0: b395 5c3e 77dc bb3c 7e3a a13d e624 d8bd
000001b0: 5e4e 643c ebb4 37bd 2d8c 933d 1096 8c3d
000001c0: 39a3 8b3b 6244 35bd 2b9f be3d 4f38 763e
000001d0: 6f84 18bc ab64 c23e c9b5 1ebd 2bca 29be
000001e0: a6aa c23d 90f0 1c3c 090b 7abd 6e07 5fbe
000001f0: 652c 03be e430 d23c fce5 16be c6b1 02bc
00000200: be46 1cbe 3691 7d3d 76cd 0ebe c3ef 30be
00000210: 982c 90bd 1902 c4be c710 05be 614b 823d
00000220: 27a5 d0bd ae5e 68bd 40dd 71bc ed08 103b
00000230: d0b5 93bd 52e4 82bd 5270 3bbd f421 8e3d
00000240: 8e44 c73d c777 623d 7025 e33c eb47 8fbd
00000250: 4c27 94bb b9e3 f0bd b7b8 aa3d 6dfd cabc
00000260: 6c90 18bc 0aca 883d 551f ffbd c99f 8ebd
00000270: f4e0 13be 3fe3 6bbc 196d cc3d 6410 6e3d
00000280: 330c 2a3e cf12 bc3d ddad 20be 0895 903d
00000290: 8c1c 64bc 8985 0ebe 5f69 14bc 2170 ae3d
000002a0: 671a 37be 33ea 1b3e 9f5b 8abc 3f68 f23d
000002b0: 6e6c 233e d290 97bc 6c50 3fbe ed05 1e3d
000002c0: c059 6abd 18f4 afbc 0480 313d 2dce 483d
000002d0: d3ab c3bd bbee 20bd a3c9 6b3e 72dd cb3c
000002e0: 4bdd 45be de1e 9ebd 1f64 123d 586a 683d
000002f0: 2ba8 c2bd 3f9d bd3d a8c2 e73c f2ca 44bd
00000300: 1322 113e d770 073e 7888 d9bc 769f 4e3d
00000310: 04a1 09bd d798 6b3e 6435 a53d 5aa6 41be
00000320: d04c 7abd fc12 253e 0f9a bcbc 4bf4 86bd
00000330: 7cc6 b23d 3856 2dbc 3f93 9ebc 1575 873d
00000340: afc3 e0bd 191d 9a3c fd7f a03c 2838 863e
00000350: de16 33be 2538 78bd 33c4 a03d 8bd3 683d
00000360: 0046 123d 1a77 b83d b96f dfbd 69d1 2d3c
00000370: 984e 303d dc49 d33b 8b6c 353e 3496 11be
00000380: 4f7e 0ebe 158c f8bd b8aa 85bc ffe6 d4bc
00000390: 9e6a ccbc f4da 97bd 5592 39be 229c e93c
000003a0: e552 11be afd3 38be 3778 733e 3627 9c3d
000003b0: 4b9c 693c 1f51 9fbd 27c2 d6bd 687b 013e
000003c0: 6bf3 173e 5a7d 1f3e fd2e e83c d066 8abd
000003d0: 91e7 57bd 68fd 98bc 68a0 0f3d 3805 e13c
000003e0: 64ae 83bd c98f 123d 96f2 d9bd bea2 9bbd
000003f0: aec5 25bb 0f0e cbbd f903 1fbe 4c3a 4abd
-0.14786698 0.021854853 0.1306735 0.061039977 0.018187702 -0.041875843 0.11472487 0.18961407
0.014455566 -0.113649674 0.04363132 0.068651825 0.1980299 0.14712492 -0.0047759768 0.012654817
0.027330283 -0.0029766152 -0.13771348 -0.07542524 0.091023356 -0.060994245 0.070327796 -0.09010453
-0.078685336 0.006773681 -0.06546958 0.08786356 0.15145773 0.03585107 0.10092333 0.014916395
-0.16061613 0.08342363 -0.018667255 0.018302584 -0.08969592 -0.20569447 -0.037816238 -0.038482323
0.18202624 0.018788071 0.054535057 0.0469741 -0.043865062 0.23061185 -0.23737387 -0.09123827
-0.09473943 -0.019193249 -0.13586372 0.0762936 0.120188944 -0.045270745 -0.00604636 -0.0465443
-0.034129627 -0.40808257 0.32972246 -0.17204599 -0.080428876 -0.0039213137 0.20368874 0.06948696
-0.23116286 -0.016013907 0.12828167 -0.14667906 0.32329997 -0.015851226 -0.011330631 0.00025516684
-0.023032045 -0.18587005 -0.17652595 0.058275606 0.29847524 0.021631796 -0.06890215 0.12736899
-0.20878349 -0.2726707 -0.20706013 -0.05978407 -0.0024437422 0.0044285404 -0.055471133 0.03632692
0.3435162 0.1533692 -0.13237576 -0.085902944 0.02655625 0.2369591 0.111751795 0.029615775
-0.26299974 0.021002715 -0.15612331 0.09993601 -0.32041153 -0.10931605 -0.017790735 0.18305884
0.2154148 0.022932274 0.078724846 -0.10553913 0.0139347 -0.04485027 0.07204471 0.0686456
0.004261401 -0.044254668 0.09307703 0.24044918 -0.009308918 0.3796743 -0.038747583 -0.16581027
0.09505205 0.009578839 -0.06104568 -0.21780178 -0.12809904 0.025658078 -0.1473617 -0.007976955
-0.15261361 0.061906062 -0.13945565 -0.17278962 -0.070397556 -0.3828285 -0.12994681 0.06362034
-0.1018775 -0.05673092 -0.014762223 0.0021977976 -0.07212412 -0.06391205 -0.045761414 0.0694007
0.09729873 0.05529001 0.027727813 -0.06996139 -0.004521286 -0.11762185 0.08336013 -0.024779046
-0.009311777 0.06679161 -0.12457148 -0.0696407 -0.14441282 -0.014397441 0.09981746 0.0581211
0.16606216 0.09183275 -0.15691324 0.070596755 -0.013922822 -0.13918127 -0.009058326 0.08517481
-0.17881165 0.15226059 -0.016889391 0.118362896 0.15959331 -0.018501673 -0.18683022 0.03857987
-0.0572145 -0.021478698 0.043334976 0.04902475 -0.09554257 -0.03929017 0.23026137 0.024885867
-0.19322698 -0.07720731 0.035740014 0.056742042 -0.09504732 0.09258508 0.028291062 -0.048045106
0.14173155 0.13226639 -0.026554331 0.050445043 -0.033600822 0.23007523 0.08066824 -0.18911114
-0.06110841 0.16120523 -0.02302268 -0.06589564 0.08729264 -0.010579638 -0.019357322 0.066141285
-0.10974824 0.018812703 0.01959228 0.2621472 -0.17489192 -0.06060042 0.07849922 0.056842368
0.03571129 0.09007092 -0.10909981 0.010609009 0.043043703 0.0064480137 0.17717187 -0.14217454
-0.1391537 -0.121360935 -0.016316757 -0.025989054 -0.024953183 -0.07414809 -0.18122227 0.028516833
-0.14191778 -0.18049501 0.23776327 0.076246664 0.014258455 -0.077791445 -0.1048625 0.12644732
0.1483895 0.15575162 0.028342718 -0.06757891 -0.052711073 -0.018675521 0.035065085 0.027468309
-0.06429747 0.035781655 -0.10641973 -0.075994 -0.0025294828 -0.09914791 -0.15528859 -0.049372002

arith.constant10 f4 [512, 20]
00000000: 3d1f 143d 8dd9 bbbb 9d3a df39 11bb b63d
00000010: 0a2c 173e d98b cd3d f0da e6bd 5a6e afbd
00000020: 4551 03bd 7751 f33c e748 2bbe c56c 90bd
00000030: b7db 0ebe fe24 f4bd f2eb 1dbd 7338 21bd
00000040: 8a88 a8bc 1bf8 d7bc 178d 1ebd 3511 253e
00000050: 9848 4cbd 41e8 ab3d 6b08 5f3d 6bcf 51be
00000060: cf18 d3bd ac4d ec3d 8ba6 9abd 738b c83d
00000070: 12bb 053e 9921 2dbd 6b19 9e3d c589 773d
00000080: 1325 32bd f834 a43d b069 87bd 6cae 4c3e
00000090: 172d 513e c49a 7d3d bcd9 b8bd 4ae0 da3b
000000a0: 49b9 88bd f6df eb3d ad23 943d 754e fdbd
000000b0: 09e9 bc3d 50db 133e d866 51bd 412e 40be
000000c0: c542 ae3c 6b44 123e bb65 773c 9228 953e
000000d0: 806a 743d e5d6 79bd 953e 903c 5516 c7bd
000000e0: 784a c23d 4317 2dbe 9dce e5bd 8830 a8bc
000000f0: 49c6 89bd 4c50 b3bc 24a4 a1bd b6d7 7cbd
00000100: 9e03 dbbd ce30 8cbd b80a aabd ef04 f4bc
00000110: 6e4e 88bd 17c8 0ebe dd38 abbd d393 d23d
00000120: 3569 903c edd7 e33d 233f 12bd 57e9 3d3d
00000130: bca6 0f3c 2061 e23d 76e8 693d 47f1 d03c
00000140: c7b6 aabd 2782 9bbd eb2f a43d 00c5 6e3d
00000150: 4afc 133c aebf 67bd f670 0d3d ff87 7f3d
00000160: fa84 743d 2cad e63a 9a9d a1bd ced5 4abd
00000170: 9de0 d0bd 3109 4ebd 049d 92bd 0001 fb3c
00000180: 0b13 c83b 8f2e d0bc 6ea9 48bc 246e 41bd
00000190: fc70 50bd bee0 883a 324c 01be 56c4 003d
000001a0: ced0 ee3b 948f a13d 85ca c33d d69a afbd
000001b0: 7ad8 843d 0c80 0b3e 35a8 b23d 4abf d53b
000001c0: 7fb6 e33d 19b4 703d f0cc 29be 2c6e 79bd
000001d0: 91f7 183d a859 d1bd de4a 21be d377 b4bd
000001e0: 8851 a63d 92d4 113d ea13 263d 1cf8 56bd
000001f0: 372f 12bd 2dd5 4f3b 9310 6d3c 4756 7a3d
00000200: 97b8 bb3c d8ef cbbd e28a 2abb 8c8a 5cbd
00000210: ba05 9ebd 3d1d ae3d 02b3 373d 4775 9e3d
00000220: b702 b3bd 0d7b 92bd dc0c 95bd 85df b93d
00000230: 3979 e73c a029 fa3d 049a 963e 7a32 913d
00000240: f739 8dbe 1976 85be 340b 45be 9583 c3bb
00000250: 39aa 863d b5a9 b33d 1611 06bd 57e9 ec3d
00000260: 8851 a9bd e8a0 dfbb 4aac 183e 4004 b13e
00000270: 8654 4b3e 6f58 7a3e fda3 583d 6c16 063e
00000280: 5f01 9d3d 610f 63bd 7c32 3b3d 4edd 98bd
00000290: 5003 773c 95f9 8b3d cea8 903d ad11 28bd
000002a0: f0a0 ffbc 0326 04bd 03f6 2d3b 9499 bd3d
000002b0: a33b 683d 9dcd f7bc ea11 533d a51d 06be
000002c0: 41d1 6dbd 174c 0abd e962 d1bd 42c1 66bc
000002d0: 80ee a63c 03c0 18bd 8696 8fbd 6239 c63d
000002e0: b8ee 253e c08a 6c3d 03ca fabd 38d7 1cbe
000002f0: db12 acbc 3072 193e 1ba8 c33d 0b8d 363d
00000300: b56f 6cbc 3588 cdbb 9f67 213e 61c1 0c3e
00000310: f0db b73d 49dc a8bd 0bcd 4dbe 7842 873d
00000320: 6867 04bd 75ce fc3c a262 01bc 1c9a 16be
00000330: 720b 0bbe 363a efbd 23fb 5c3d b930 1d3d
00000340: ddd8 8ebd 54d5 fcbd bbfa c7bd 9f1b 81bc
00000350: 4c82 d73d bdf9 81bd 6d4a 343d 9a01 0dbe
00000360: 4a89 5ebd ce7f eabc 9162 a6bd bb9d 093d
00000370: 73fb 523c c9cc 59bc 906c 74bd c60d 6abc
00000380: 19cb dfbc b9cb 59bc a37d 243e 24a4 363e
00000390: 6e40 f13d a9f7 563e 9d09 bd3b e4ac f9bd
000003a0: becb 6dbe 8750 f8bd 5600 24be cb5c c83d
000003b0: 37be a53a d536 f6bc 406f 41bd 52c8 42bd
000003c0: 52be 163c 5319 b8bc 26c5 15bd b16f 03bd
000003d0: 074d a73c fe36 b8bc c7c7 9dbc ec3e 40be
000003e0: b6b5 ecbd 3a47 523e 0549 f3bd 5717 37be
000003f0: 0734 13be c7cc 69bd a798 b1bd 5a58 8abd
0.036162604 -0.005732721 0.00042577545 0.08922399 0.14762893 0.100364394 -0.11272228 -0.0856597
-0.032059927 0.029701931 -0.16727029 -0.07051996 -0.13951002 -0.11921118 -0.038555093 -0.039360475
-0.02057292 -0.026363423 -0.038708773 0.16119845 -0.04987392 0.08393908 0.054451387 -0.2048928
-0.10307466 0.11538252 -0.07551297 0.09792223 0.13059643 -0.04226837 0.07719692 0.06043412
-0.043492388 0.080179155 -0.06611955 0.19988412 0.20427357 0.061915174 -0.090259045 0.0066795694
-0.06675965 0.115173265 0.07233367 -0.1236848 0.092241354 0.1443913 -0.05112347 -0.18767644
0.021272073 0.14283912 0.015099938 0.29132515 0.05967188 -0.060995955 0.017607966 -0.09721056
0.0948686 -0.16903405 -0.11221049 -0.020530954 -0.06727273 -0.021888874 -0.078926355 -0.061729155
-0.10694049 -0.06845246 -0.08302826 -0.029787509 -0.06655584 -0.13943516 -0.08360455 0.102821015
0.017628292 0.11125169 -0.035704743 0.04636511 0.00876778 0.110536814 0.057106458 0.025505675
-0.08335643 -0.07593184 0.08016952 0.058293343 0.009032318 -0.056579284 0.034531556 0.062385555
0.05969713 0.0017599217 -0.07891388 -0.049520306 -0.101990916 -0.050301734 -0.071588546 0.030640125
0.0061057857 -0.025412826 -0.012247426 -0.04722418 -0.050889 0.0010442955 -0.12626722 0.03143724
0.007288075 0.078887135 0.09560112 -0.085744545 0.06486602 0.13623065 0.08723489 0.0065230476
0.11118793 0.058765505 -0.16582084 -0.060896084 0.037345473 -0.10222179 -0.15751216 -0.08811917
0.081210196 0.035603113 0.040546335 -0.05248271 -0.03568956 0.0031712756 0.014469284 0.061117437
0.022915168 -0.09957856 -0.0026022722 -0.053843066 -0.07715936 0.085016705 0.04484845 0.07737213
-0.08740752 -0.07152376 -0.07277843 0.09075836 0.028256046 0.122149706 0.2941438 0.07089706
-0.27583286 -0.26066664 -0.19242555 -0.0059666135 0.06575436 0.087726034 -0.03273114 0.115679435
-0.08267504 -0.0068246014 0.14909473 0.34573555 0.19856462 0.24447797 0.052890766 0.13094491
0.07666277 -0.05543459 0.045702443 -0.074640855 0.015076473 0.06834713 0.07063447 -0.041032482
-0.03120467 -0.032262813 0.002654434 0.09257808 0.0566975 -0.030249411 0.051530756 -0.13097246
-0.05806089 -0.03376397 -0.10223944 -0.014084162 0.020377398 -0.03729249 -0.07011132 0.09678914
0.16204345 0.05774951 -0.12245562 -0.15316474 -0.021005085 0.14984965 0.09553548 0.044568103
-0.01443093 -0.0062723407 0.15762185 0.13745643 0.089774966 -0.08245141 -0.20097749 0.06604475
-0.03232518 0.030860165 -0.007897051 -0.14707226 -0.13578585 -0.11681025 0.05395044 0.038376544
-0.06974957 -0.123453766 -0.0976462 -0.015760241 0.10522899 -0.06346462 0.04401629 -0.13770142
-0.054330148 -0.028625395 -0.08124269 0.03359769 0.012877333 -0.0132934535 -0.059673846 -0.01428551
-0.027318524 -0.0132932 0.16063552 0.17836052 0.11779867 0.20992912 0.0057689683 -0.121911794
-0.23222253 -0.12124734 -0.16015753 0.09783324 0.0012645189 -0.030055443 -0.047225237 -0.04755432
0.009200649 -0.022473013 -0.03656497 -0.03208894 0.020422472 -0.02248716 -0.0192603 -0.18774003
-0.11558096 0.20534983 -0.11879162 -0.17879997 -0.14375316 -0.057080057 -0.08671694 -0.06755133

arith.constant11 f4 [512, 128]
00000000: fd25 0fbf 0cf3 ae3e 265b 47be 1573 453e
00000010: 5367 c43d 0134 debd 8dfb 0ebd d9a0 0f3f
00000020: dd01 09bd 6606 1a3e 79ae e2bc 57db a63d
00000030: 1490 c4bd b5bd 7e3e 1871 79bc 3288 9ebd
00000040: 7861 afbe 2a2d 94bb 2439 af3d cdc9 513e
00000050: 4963 3abe 2674 edbd 6ed9 f3bd 5b54 4dbe
00000060: 5eee 833c 55d6 0a3e 82bb bebe 20a3 46bd
00000070: 4b5b 063e dc9f 803c 44cf 0f3e 49e3 ba3c
00000080: 23b3 6ebd 1a5f 333d 5a0c 293e 2af4 af3d
00000090: 131d d2bd d814 b73e e5a3 a4bc 0c3f 003e
000000a0: 0e0b ec3d 9eab 783e 6c28 4a3c 9d8c d7bd
000000b0: cb7a ebbd 84eb bebd 3a27 9dbe abcc e13b
000000c0: 5b50 8a3e 8408 273e 366c c93d b4a8 263e
000000d0: 5fc2 b13e 969e 13be d646 1bbd bd38 5e3e
000000e0: b7fb 083e 228e b6be 03cd 4f3e 7794 7c3e
000000f0: 29cc 6fbd 2292 d03c e413 5ebe fe55 173e
00000100: 0e87 a7be 5f00 6a3d d72d 943e 9466 e83b
00000110: 974b 393e 58ba e53d e704 173c 7a64 bf3d
00000120: 1ad8 debd ac7e c63e 5287 aebd 6a8f 853e
00000130: 8ca6 8fbc 5f9f 83be d1ab 10be d2d6 e63d
00000140: 18c3 fc3d 0a09 493d f7a8 61be 01fd ba3d
00000150: a951 6dbe c423 183e 35c5 a43d 4b81 aabe
00000160: f4df f0bd 5b59 6e3d 54cb c5bd b449 c0be
00000170: a08b d7bd bc21 1abe 07bd e63c 2825 ed3d
00000180: 1aa0 1fbe fc38 ef3d b848 98bc 6907 5ebe
00000190: 2508 9abe e7fc acbd c1f7 58bd 6ead ad3d
000001a0: c41d debd 440e a53d ac24 83be a8bc 4f3e
000001b0: ae18 28be b58f 94be b4ad a3be 4672 d13d
000001c0: 8dc9 753d 2c7d 013e 8e71 4c3d e4d8 6bbe
000001d0: b2ab 0cbe 9769 d3bd 34d1 d83c c3ef af3e
000001e0: 953f b13e 7a49 acbd ebf2 60bc 22a6 c73d
000001f0: 7d16 d33d d3df eabd ab48 74bd 8d04 ebbe
00000200: 7da6 cabd 24c5 5f3d 1bb2 a2bc 98b4 8a3d
00000210: dfda 64bd 913d 0e3e c2a4 a1bd 0fee 433d
00000220: d15f 27be 1ccb 273d 6a5d 3b3b b7c0 523c
00000230: 96b9 f8bd 3e79 21bd 521e 19bc 74f1 6d3e
00000240: 027a 5f3e fb14 863d 3676 d8bd 9799 d73d
00000250: cc0e f63d 6c5f da3c 94e3 953d 8e21 14bd
00000260: 0942 ba3d 88e6 c4bb 37de 033e ffd2 1f3b
00000270: 059f 25bc e116 42bd bc27 5bbd 0b65 133d
00000280: 0ab7 073d 138e c3bc 019f 0abe c801 7ebc
00000290: 0c51 cc3d 86fd 6a3d 0ea1 163c 792e 9c3b
000002a0: c7b2 5bbd d96c f1bd 336f 0bbc 5934 b33d
000002b0: d49a 07bd 25cd 5e3e ad66 063e d3a4 633d
000002c0: eb03 17be 28d1 173c c44f 0a3d 80bf efbd
000002d0: 699a 84bd e87b 193e caa8 6e3d 99a2 943e
000002e0: 839d 4abc 2731 cb3c 695e 92bd 4e6f bf3d
000002f0: a5d6 4f3c 6be7 943c 3a22 86bd 57b6 9fbd
00000300: 332c 20bc 28bd 52bd 5131 07be 8e0b f2bc
00000310: bd29 d63b c104 fabb 516c d8bc 97de d9bc
00000320: db34 b83d a5bc 4cbd 1c39 61bd ea75 833d
00000330: bbeb 233d 301e e03d 61b2 bd3c 2e13 bbbc
00000340: 32ff 833d 0b02 9e39 20e2 0c3e 5b84 6cbc
00000350: 4917 29bd 50e6 bbbd 6c9c 803d 236d 66bd
00000360: 5411 f3bb 5088 7abd fe41 6b3d 1f47 3f3e
00000370: 3325 5bbd 4fcf bfbc 0db8 86bb 802a 75be
00000380: c719 013e d770 10bd 168c 8f3d 2cb0 c23d
00000390: 7320 94bd ecfc e93d 99d4 a23d e4a5 26be
000003a0: 11f7 073e e47e 323c ed54 b83d 1c22 9fbc
000003b0: e5e1 343d a003 9dbd 960d db3c 3a12 1c3b
000003c0: 3162 04be 8227 7d3b 6852 f73a 4f5e e73d
000003d0: 7653 78bd 9fce 1f3e cda3 81bd 94a1 44bd
000003e0: 71cc 30bd 44e6 3dbd 0c63 aa3c c3cd b13c
000003f0: 33bc 12bd 3471 533d 6032 8bbd d3e4 a63d
-0.5591734 0.34169805 -0.19468364 0.19282182 0.0959002 -0.10849763 -0.034907866 0.5610481
-0.033449043 0.15041503 -0.027671086 0.081473045 -0.09597793 0.24877055 -0.015224718 -0.07740821
-0.3425405 -0.0045219855 0.085558206 0.20487137 -0.18201937 -0.11594419 -0.11906706 -0.2005171
0.016104873 0.13558324 -0.37252432 -0.048495412 0.13120763 0.015701227 0.1404391 0.022813456
-0.058276307 0.043791868 0.16508618 0.085914925 -0.10259452 0.3575809 -0.020097682 0.1252405
0.11525546 0.24284217 0.012338739 -0.10524867 -0.1149803 -0.09322265 -0.3069399 0.0068908534
0.2701443 0.16311842 0.09835093 0.16275293 0.34718606 -0.14415964 -0.03790935 0.21701331
0.13377272 -0.35655314 0.2029305 0.2466601 -0.05854431 0.025460307 -0.21687275 0.14778897
-0.32720226 0.05712926 0.28941223 0.0070923064 0.18095241 0.11217183 0.009217477 0.09345336
-0.10881062 0.38768518 -0.08521904 0.2608598 -0.01753547 -0.25707528 -0.14128043 0.112714425
0.12341899 0.049080886 -0.22037111 0.09130288 -0.23175682 0.14857394 0.08045427 -0.33301768
-0.11761466 0.058190685 -0.096579224 -0.3755623 -0.10524678 -0.15051931 0.028166307 0.115793526
-0.15588418 0.11680791 -0.018589363 -0.21682514 -0.3008434 -0.08446675 -0.05297065 0.08480345
-0.10845521 0.080593616 -0.25613916 0.2028681 -0.16415665 -0.2901589 -0.31968462 0.10226874
0.060006667 0.12645406 0.04991298 -0.23031956 -0.13737372 -0.10322874 0.026466943 0.3436261
0.34618822 -0.08412452 -0.013729791 0.09748484 0.10307024 -0.11468472 -0.059639614 -0.4590191
-0.09895036 0.054631367 -0.019860318 0.06772727 -0.055872794 0.13890673 -0.07892753 0.047834452
-0.16345145 0.040965185 0.0028589615 0.01286333 -0.12144773 -0.039422266 -0.009345608 0.23236638
0.21823886 0.065469705 -0.10569422 0.10527342 0.12014541 0.026656829 0.07318798 -0.036164813
0.090946265 -0.006008927 0.12877737 0.0024387238 -0.010108714 -0.0473851 -0.05350469 0.035985034
0.033133544 -0.023871457 -0.13537218 -0.015503354 0.09976396 0.057370685 0.009193672 0.004766282
-0.053637292 -0.11788339 -0.008510399 0.08750219 -0.03310664 0.21757944 0.13125105 0.05557711
-0.14747588 0.009266175 0.033767477 -0.117064476 -0.06474764 0.14988673 0.05826644 0.29030302
-0.012366655 0.024803711 -0.071469136 0.093474016 0.012685453 0.018176755 -0.06549497 -0.077984504
-0.009776163 -0.051449925 -0.13202406 -0.029546525 0.0065357373 -0.0076299612 -0.026418837 -0.026595397
0.089944564 -0.049984593 -0.054986104 0.06418975 0.040019732 0.10943258 0.023156347 -0.022836294
0.06445159 0.0003013763 0.13758135 -0.014435853 -0.041281972 -0.09174788 0.06279835 -0.056256425
-0.007417837 -0.061165154 0.057435982 0.18679474 -0.053502273 -0.023414282 -0.004111296 -0.23941994
0.1260749 -0.035263862 0.07009141 0.09506258 -0.07232752 0.11425194 0.07950706 -0.1627422
0.13277842 0.010894511 0.09000573 -0.019425444 0.044160742 -0.07666707 0.026739877 0.0023814575
-0.12928082 0.0038628285 0.0018869163 0.11297285 -0.06062647 0.15606163 -0.06330071 -0.048005655
-0.04316372 -0.046362177 0.020799182 0.02170456 -0.035824012 0.05162163 -0.06796718 0.081491135

arith.constant12 f4 [512]
00000000: 6cf5 11be 9f4e 6b3d e0a1 8e3d dc0f 963d
00000010: f27f 11b5 9d2b 2ebb c9aa f0ba 1813 5dbc
00000020: 9b8a bcbb 1862 43be 411d 563d c724 96bb
00000030: 4645 9a3c 08b7 afbc 3320 c0bc 7262 a5bc
00000040: d20b ba3a a4b8 a1bd 5496 cc3c db26 04bd
00000050: 8308 813d d02e 0c3d 22f8 dc3c 1d72 76b8
00000060: 5e7f 21bc b23b c2bc 8f95 953c 261a 4a3d
00000070: e1af 043d 8dca 28ba d4ac 493d b5af 84bc
00000080: 8c51 eabc bf5b 553d a8ff 903d 6ba8 663d
00000090: b696 0dbe 466d 59be 18ed 26bd 4a10 403d
000000a0: be2d f43c 0b3b 773c d070 98bb 136b 0fbd
000000b0: 2dd8 ec3c 4408 843d 243c 2d3c c94e a8ba
000000c0: 77db 193d 98cf 1c3d ff5f 6fba 4727 d1bd
000000d0: c9f9 b338 04e4 803d 58e4 103d cda7 b13a
000000e0: 3a74 f03a f596 1ebd bdbc 8dbc 55ae 81bd
000000f0: f61d 0d3c c5e4 ed39 4575 343c 9553 a2bd
00000100: 8b28 90bd 30be c8ba ef8b 773c 4dce b6bb
00000110: 1052 88bc fa88 36bd 3b96 bdba 157a 05bd
00000120: 4b0d 703d c9c0 493d e792 4dbc 1c5f 3cbe
00000130: 41f4 d33b 0624 0b3b 0ec7 b9bc 551b d2bc
00000140: 115a b6bc 38ff ecbb 84a7 a23b 324d 52be
00000150: d2d7 8dbc 451a a73d 7c2c 763b c239 583d
00000160: ad67 c0bd a972 48bd 6301 653d 8661 113e
00000170: a909 d53c 4720 4cbe 9ba4 a7bd ae48 943d
00000180: feff fdbd 8b79 da3c cb7e 383b 895c e93d
00000190: c9e6 803d 3d5c 30bd d0a1 623d 4797 c43c
000001a0: 0b57 383d c5c2 c03d d747 4c3d 3e1f 68be
000001b0: e67f 18bd 9313 323e 9a3c a93d 4b34 ac3c
000001c0: 5351 fc3c 7ff4 0a3d e18a 09bd f98c a9bc
000001d0: 214a 0cbd ee5c 933d 1980 fbbb f6e7 a9bc
000001e0: 0149 c43b 09a3 22be f7cf f8bc db85 0fbe
000001f0: 05ba b3bd c0f9 bc3c 943b e9bc d7d2 0c3e
00000200: 70dc 7d3f 9582 853f 4b9c 963f 5b92 743f
00000210: f0ff 7f3f 09e9 833f 8ada 7f3f b3da 703f
00000220: c94a 853f f485 833f 6310 833f 7a55 853f
00000230: 6aaa 803f 2971 7a3f 6f08 863f 0d59 853f
00000240: dd87 8c3f a382 873f a809 803f 1618 803f
00000250: d8f5 833f d96b 803f 5118 7b3f 047b 7d3f
00000260: 8009 803f cc49 7f3f f747 723f d41c 833f
00000270: c708 883f e4f5 7f3f 0f90 7a3f 9b4c 7c3f
00000280: 5bff 7d3f ecf1 7d3f 99fb 823f 5b93 803f
00000290: 0015 6e3f f852 653f 7282 793f 94a6 883f
000002a0: 1778 863f f593 803f 945a 763f 9d0b 833f
000002b0: 4451 813f 59ec 883f d40a 803f eb00 803f
000002c0: 4f2e 693f 4c50 843f 9e02 803f 3f2a 7f3f
000002d0: 2006 7e3f 051d 7f3f db08 6f3f 30bd 813f
000002e0: cc20 713f 0486 713f 1ee7 773f d95c 833f
000002f0: 214d 843f c7ad 7f3f 734f 813f 13e0 853f
00000300: 8394 813f f959 813f 478b 843f 56bd 803f
00000310: 404e 7f3f 6632 803f 7ddf 7f3f 97ac 7a3f
00000320: b9cb 853f a83b 893f 7c4b 833f c788 823f
00000330: 6f62 7d3f 4bf9 823f ed81 7c3f 36ea 813f
00000340: 30bd 7d3f 24c7 7f3f 3bc2 813f c831 6d3f
00000350: 6ac6 833f 32b4 6b3f b0dd 773f c70e 6d3f
00000360: 6a54 6c3f f464 723f ab38 783f 4468 973f
00000370: c825 7c3f 2889 863f eb34 8b3f ddc3 803f
00000380: ac18 7d3f d1c7 823f 370f 8f3f 625c 783f
00000390: 4a3d 7b3f 88e6 833f edea 843f 5cc9 843f
000003a0: c3f4 723f ad0f 873f 8cef 813f 8f21 833f
000003b0: 2463 693f 44e9 713f dcc6 863f 2b87 813f
000003c0: 220a 813f a87c 743f 1f83 763f 1b72 833f
000003d0: 9169 763f c9c3 6d3f 9c84 833f bcb1 833f
000003e0: 8361 873f 4ac0 793f 5859 813f 0695 723f
000003f0: 4032 703f 4c4e 813f 140f 6e3f 661f 893f
-0.14253777 0.057448026 0.06964469 0.07327244 -5.4202894e-07 -0.0026576289 -0.0018361445 -0.013493322
-0.0057538277 -0.19080389 0.052273992 -0.004582021 0.01883186 -0.02144958 -0.023452854 -0.020188544
0.0014194197 -0.078965455 0.024974026 -0.032263618 0.063004516 0.03422433 0.026973788 -5.8757247e-05
-0.009857027 -0.023710106 0.018259792 0.049341343 0.032394294 -0.0006438874 0.049237087 -0.016197065
-0.028603338 0.05208945 0.070800126 0.05631296 -0.13827023 -0.21233091 -0.040753454 0.046890534
0.029806968 0.015089761 -0.00465212 -0.035014223 0.028911674 0.06446889 0.010573421 -0.0012840863
0.037562814 0.038283914 -0.0009131431 -0.1021257 8.581911e-05 0.062934905 0.035374016 0.0013554037
0.0018345185 -0.038718183 -0.017301911 -0.06332079 0.0086131 0.0004537461 0.011014287 -0.07926098
-0.07038983 -0.0015315469 0.015109046 -0.005578792 -0.016640693 -0.044564225 -0.0014464328 -0.03258713
0.058606427 0.04925612 -0.012547231 -0.18395656 0.0064683263 0.0021231188 -0.022677924 -0.025647799
-0.022259744 -0.007232573 0.004963817 -0.2053726 -0.017314825 0.081593074 0.0037563136 0.052789457
-0.093947746 -0.048937473 0.055909526 0.14197358 0.026005583 -0.19934188 -0.08185693 0.07240425
-0.12402342 0.026669284 0.0028151746 0.11394603 0.06294019 -0.043056715 0.055330098 0.023997916
0.045004886 0.09412149 0.0498732 -0.22668168 -0.03723135 0.1739028 0.08263512 0.021021029
0.030800497 0.033924576 -0.03357971 -0.020697104 -0.034250382 0.07195459 -0.0076751825 -0.02074049
0.005990148 -0.15882505 -0.030372603 -0.14015906 -0.08775715 0.023068309 -0.028470792 0.13752304
0.99164486 1.0430475 1.1766447 0.9553582 0.99999905 1.0305492 0.9994284 0.9408371
1.0413448 1.0275254 1.0239376 1.041671 1.0052006 0.9782892 1.0471324 1.0417801
1.0978962 1.0586742 1.0002947 1.000735 1.03094 1.0032912 0.9808398 0.9901583
1.0002899 0.9972198 0.9464106 1.0243173 1.0627679 0.99984574 0.97876066 0.9855439
0.99217767 0.9919727 1.0233032 1.0044969 0.93000793 0.89579725 0.9746467 1.0675836
1.0505399 1.0045153 0.9623196 1.0237919 1.0102925 1.0697128 1.0003304 1.000028
0.91086286 1.0337005 1.0000799 0.9967384 0.99228096 0.99653655 0.9337289 1.013586
0.9419067 0.94345117 0.9683703 1.026271 1.0336038 0.9987454 1.0102371 1.0459007
1.0123447 1.0105582 1.0355004 1.0057781 0.99728775 1.001538 0.9995039 0.979196
1.0452796 1.0721331 1.0257411 1.0197991 0.9897832 1.0232328 0.9863575 1.01496
0.991168 0.9991324 1.01374 0.92654085 1.0294926 0.9207183 0.96822643 0.92600673
0.92316306 0.9468529 0.9696147 1.1828694 0.9849515 1.0510607 1.0875524 1.0059773
0.9886577 1.0217229 1.1176518 0.97015965 0.98140395 1.0304728 1.0384194 1.037395
0.94904727 1.0551659 1.0151229 1.0244616 0.911669 0.9449656 1.0529437 1.0119375
1.0081217 0.9550271 0.96293825 1.0269197 0.9625483 0.9287687 1.0274844 1.0288615
1.0576633 0.97559035 1.010539 0.9475864 0.93826675 1.0102019 0.9299176 1.0712707

arith.constant13 f4 [256]
00000000: 6408 16be 7ace f8bd 106c 5dbd d60a 9abd
00000010: 62e8 3dbd 22c1 7ebe c94f 8cbd 5d7b 56bd
00000020: f064 2abe 9923 0fbe 0d29 d3bd 7470 91bc
00000030: 16ff 2cbd 6c60 53be 8918 5cbc 3d60 4cbe
00000040: fe41 eabd 4824 05be 6170 bdbd d4c4 23be
00000050: bbaa 0cbe 18cd abbd bd8f 1ebe 44f7 fcbd
00000060: 0c79 d5bd 21c3 aabd f1d2 07be b189 a0bd
00000070: b993 57bd 8b58 aebd 7c3a 01be 028d 4bbd
00000080: c686 353b 1fa1 18be 3ddc 70bd 591e d1bd
00000090: 2dc9 17bd 76a1 42bd 72ce cbbd deb9 85be
000000a0: 8051 bdbd adb9 79bd 45b6 a3bd 46a4 98bd
000000b0: 1f73 90bd e4b3 4abd e550 ccbd d229 8fbd
000000c0: 5d94 ccbd 8502 24bd 37d8 00be fff9 8fbd
000000d0: 6e3d c5bd 6bcf e8bd 2505 b5bd d5f5 b0bd
000000e0: 7e7f bbbd f608 d9bd deeb 91bc b96e abbb
000000f0: f47e 123c c0a2 20be 1407 6dbd dcf5 88bd
00000100: 9fd6 893f 1164 953f 8ef3 843f 2426 8c3f
00000110: 64a1 833f 00b5 863f 44e5 8c3f 79d1 903f
00000120: 20bc 8f3f b8f1 8b3f 7b4e 953f 606f 8d3f
00000130: a761 883f 8f40 923f 16a8 893f 0782 903f
00000140: e337 8a3f e15b 8e3f 3105 863f 5b9a 8f3f
00000150: 9581 883f d426 8d3f 9cb4 8a3f c7cb 8c3f
00000160: 0f53 883f 9ef5 8a3f f3a0 913f 4137 8b3f
00000170: f56c 8c3f 46dc 943f f661 913f 5b97 8c3f
00000180: 4e4c 873f 37e3 903f ab82 873f 7fd0 8c3f
00000190: 4f65 883f bad6 883f 2bd4 8e3f 1321 933f
000001a0: 8bc0 8a3f a308 883f 3ada 873f 524e 893f
000001b0: 0c97 8b3f bfda 863f e01c 883f 4ef8 883f
000001c0: ecb9 8f3f 3d91 8f3f b352 8c3f 88e9 8a3f
000001d0: 4856 893f 35c5 913f 4877 8b3f 935e 8a3f
000001e0: f389 893f 6efa 8d3f 3b59 863f 9f73 863f
000001f0: dd14 8d3f 30ac 943f a8c8 8e3f 3b64 873f
00000200: bd16 c7ba 66bb 683a 2eaa bb3c b6f7 233b
00000210: c41d 15bd 7ccd 0c3c 3570 b03c abc3 3dbc
00000220: 4c62 aabc df6c 1ebc ffde 173d 9c82 bcbb
00000230: b273 7abc 09b4 92ba 6728 77bd e49f 05bd
00000240: 1ef4 1b3c 7bbf 95bb 5cbc c63b e584 3ebb
00000250: b4c6 aabc 81be 8dbc 3459 52bc 09c5 9d3c
00000260: fcf3 1f3d fc72 713c 83bb 84bc 4c1c fc3c
00000270: 4daa 2fbd fbb3 8e3c 63e3 663d 8d8d 2d3d
00000280: 1da8 cc3c b983 803c 9784 b4bc c88d 00bd
00000290: cb46 d73c 4552 c8bd bc68 d8bb 7c71 abbc
000002a0: b72e b73b 23c6 0cbd d2bc 56bc 3e5d 533c
000002b0: c15d 50bc cdb8 ebbc e11a 313d 3ca5 20bd
000002c0: faba 8d3c 7d3a 00bd 3c31 f13c 805c 92bb
000002d0: ea37 8a3c 7f55 3ebc 24bf 2e3d 1422 8d3c
000002e0: e042 143c 37d3 51bd 76d0 093d f5b3 db3c
000002f0: 6044 66ba 3b33 8b3b 1c0c 0abd 5418 2fb9
00000300: e7cd a63d fd27 b63d af41 263d 4734 c83d
00000310: 636a d63d f33b 0f3e 65e1 ec3d 5c8d b13d
00000320: c1cd 2c3e 0b0d 843d 3d1d f13d 9dcc a73d
00000330: 5fea b63d 0a4e c33d 1525 c53d cb68 193e
00000340: 56a7 183d 2fe5 b03d 47ce b93d f6a1 b93d
00000350: bf5d 2a3d 81fd 9b3d 675b 253e 5912 603d
00000360: cd73 993d 3ba8 0b3e 1392 923d 77b9 b73d
00000370: e7e5 763d be1b e43d d491 a63d e2fe c23d
00000380: 8845 873d 569f eb3d 4cdb e83d ec4d 7f3c
00000390: 3f0c 043e 6328 a23d 92fb ab3d 05e0 953d
000003a0: 5014 013e f036 6d3d a3a8 0d3d db0d 0d3e
000003b0: 877e 7d3d 8d06 843d e23f 7a3d 25f9 a73d
000003c0: 98ee ba3d 4e37 2e3d f67e 8c3d a5cb 493e
000003d0: faf6 1f3d 310f a33c 2c6f 043e f80e 063e
000003e0: fe56 e93d e769 873d 5872 813d 86f7 d83d
000003f0: fc53 073c 1fab ee3d ddbf ca3d 51c0 f93d
-0.14651638 -0.12148757 -0.054058135 -0.07521598 -0.046364196 -0.24878362 -0.06851155 -0.052363742
-0.16640067 -0.13978423 -0.10310564 -0.017753817 -0.042235456 -0.20642251 -0.013433584 -0.19958587
-0.11438368 -0.13002121 -0.0924995 -0.15993053 -0.13737004 -0.08388728 -0.1548452 -0.1235185
-0.104234785 -0.08337999 -0.13264062 -0.078387626 -0.052631114 -0.08512982 -0.12619966 -0.049695022
0.002769874 -0.14905213 -0.058803786 -0.102108665 -0.03705709 -0.047517262 -0.09951486 -0.26118368
-0.092440605 -0.06096809 -0.079937495 -0.07453208 -0.070532076 -0.049487963 -0.09976367 -0.069903985
-0.099892356 -0.040041465 -0.1258248 -0.07030105 -0.096308574 -0.11367687 -0.08838872 -0.08640639
-0.091551766 -0.10597412 -0.017812666 -0.005231705 0.008941401 -0.15687084 -0.05786808 -0.06687519
1.0768622 1.1671163 1.0386827 1.094914 1.0283628 1.0523987 1.1007466 1.1313926
1.1229286 1.0933142 1.1664575 1.1049614 1.0654801 1.1425952 1.0754421 1.1289681
1.0798305 1.1121789 1.0470334 1.121898 1.0664545 1.1027474 1.0836368 1.0999688
1.0650347 1.0856206 1.1377243 1.0876237 1.0970751 1.1629722 1.135802 1.098369
1.0570161 1.131934 1.0586752 1.1001128 1.0655917 1.0690529 1.1158499 1.1494468
1.084001 1.0627636 1.0613472 1.0727026 1.0905471 1.0535506 1.0633812 1.0700777
1.1228614 1.1216198 1.0962738 1.0852518 1.0729456 1.1388308 1.0895777 1.0810112
1.0745224 1.109205 1.0495981 1.0504035 1.1021992 1.1615047 1.1154985 1.0577463
-0.0015189272 0.0008878022 0.022908296 0.0025019473 -0.03640534 0.008593913 0.02153788 -0.011582295
-0.020798825 -0.009669512 0.0370779 -0.0057528745 -0.015286373 -0.0011192571 -0.060341265 -0.032623187
0.009518651 -0.0045699454 0.0060649347 -0.002907091 -0.020846702 -0.017302753 -0.0128386505 0.019258993
0.03905104 0.014736887 -0.016202694 0.030775212 -0.04288702 0.017419806 0.056369197 0.04237132
0.024982506 0.01568781 -0.02203588 -0.031385213 0.026278874 -0.09781317 -0.006604282 -0.020928137
0.0055902856 -0.034368645 -0.013106542 0.012900649 -0.012717665 -0.028774643 0.043238524 -0.03922008
0.017301071 -0.03130578 0.029442422 -0.0044665933 0.016872365 -0.011617064 0.042662755 0.017228164
0.009049147 -0.05122682 0.03364607 0.026819209 -0.00087839924 0.0042480505 -0.033702955 -0.00016698363
0.081447415 0.08894346 0.040589985 0.09775596 0.104695104 0.13987713 0.11566428 0.0866954
0.16875364 0.064478 0.11773155 0.08193324 0.089314215 0.09536369 0.096262135 0.14981382
0.03726896 0.08637463 0.090725474 0.09064095 0.04159331 0.076167114 0.16148148 0.054704998
0.0749279 0.13638394 0.07156768 0.089709215 0.060277846 0.11138104 0.08133283 0.09521271
0.06605059 0.11505 0.113699526 0.015582543 0.12895297 0.079178594 0.083975926 0.07318119
0.12605405 0.05791372 0.034584653 0.13774817 0.061888244 0.06446562 0.06109608 0.082018174
0.091275394 0.04253321 0.068601534 0.1970659 0.039053895 0.019904705 0.12933034 0.13091648
0.113935456 0.06611996 0.063206375 0.10594086 0.0082597695 0.116537325 0.09899876 0.121948846
