app/src/main/assets/model.tflite (tflite, 720912 bytes, 16 tensors)

arith.constant6 f4 [300, 128]
000000 48 a3 f1 3d 34 d7 bf 3d 60 d0 dd 3d 92 30 f2 3d
       0.117987216 0.093672186 0.1083076 0.1182567
000010 51 0b d1 3d a1 ec 92 be 9e a0 ee 3d cd f6 c5 3d
       0.102072366 -0.2869616 0.11651729 0.09666214
000020 2e 95 18 bf 74 1b 21 be d9 1e c7 3d 3a 23 66 be
       -0.5960263 -0.15733129 0.097226806 -0.22474375
000030 da 00 53 bf 5d 96 d1 be 52 fe 07 be 17 ac 8f be
       -0.82423174 -0.4093503 -0.13280609 -0.28060982
000040 c5 4c 3b bf 0f 3a fa 3d 57 a8 4b be 55 65 c6 3d
       -0.73164016 0.12218105 -0.19888435 0.09687296
000050 3c ac cf be b8 49 ec 3d 21 ff 05 3e bc bb 1f bf
       -0.40561092 0.11537498 0.13085605 -0.62395835
000060 be d1 51 bd 9d e2 a0 bc 63 c6 9a be e8 21 d5 3d
       -0.051225416 -0.019639308 -0.30229482 0.10406858
000070 39 00 a5 3c 24 2f 8e 3d ea 15 27 3e a9 2e 1a be
       0.020141708 0.06942585 0.16316953 -0.15056862
000080 8e 35 f2 bd d7 77 13 bf 2b aa 0f bc 21 46 09 bf
       -0.11826621 -0.57604736 -0.008768599 -0.53622633
000090 37 7a ce be 77 fb 9f be b8 06 f4 3d d6 0b 0c 3e
       -0.40327618 -0.3124654 0.11915344 0.1367639
0000a0 c5 c4 d9 3c 35 a3 4f bd 02 8e 0a bf 19 42 ac 3d
       0.026583085 -0.050692756 -0.54122937 0.084110446
0000b0 29 72 12 be 36 18 23 bf 5f fe 8b 3d 8b 51 0b be
       -0.14301361 -0.6370882 0.06835627 -0.13605325
0000c0 08 b0 ae be c9 58 8e 3d 63 24 81 be 80 98 a7 3c
       -0.34118676 0.06950528 -0.25223073 0.02045846
0000d0 e3 60 62 bd 78 a6 dc be 8b fe 83 3d ab d4 95 bb
       -0.05526818 -0.43095756 0.064450346 -0.004572471
0000e0 5b 32 21 3c 77 9d 22 bf cb f3 13 bf e7 42 2f bd
       0.009838666 -0.6352152 -0.57793874 -0.042788412
0000f0 2e 78 ba 3d 4e 69 35 be 66 64 28 bf a2 ca fc be
       0.09104954 -0.17715952 -0.65778196 -0.49373347
000100 bf cf 0b bf 84 da 0c 3d 2d 83 14 bf 51 fc 3c be
       -0.5461387 0.03438808 -0.5801266 -0.18455626
000110 b5 08 ae 3d 8a b7 60 bd 11 1a c5 ba b6 d3 07 3d
       0.084977545 -0.054862536 -0.0015037676 0.033160888
000120 c5 97 f2 3d 0c eb f6 3b 4e 80 31 bf 34 5c 90 be
       0.11845354 0.007535344 -0.693364 -0.28195345
000130 9f 04 90 3d 2d 0b c5 3d f8 68 f2 3d d5 7d 42 bf
       0.070321314 0.09621272 0.118364275 -0.75973254
000140 17 66 00 3d 81 52 12 3e e8 ca bf 3d 22 92 8e be
       0.03134736 0.14289285 0.09364873 -0.27845865
000150 42 27 bf 3d 21 89 60 be 06 55 3a be 76 4c 82 bf
       0.0933366 -0.2192731 -0.18196496 -1.0179584
000160 a9 1a 2b bd 86 87 17 bd 2b 03 05 bf be 27 b5 be
       -0.041773472 -0.03699448 -0.5195796 -0.35381883
000170 ef ef 8c be 08 0a cf 3d 10 47 59 bf b2 50 20 be
       -0.27526805 0.10109335 -0.8487406 -0.15655783
000180 87 33 dd 3c 83 0f 8d be 85 de 1f bf 36 27 40 bf
       0.02700211 -0.27550897 -0.6244891 -0.7505983
000190 1b 20 04 bd d3 ae 09 bf 00 aa e3 3d 3f 43 a6 be
       -0.03225718 -0.53782386 0.11116409 -0.3247318
0001a0 a0 15 66 3c f0 23 a7 bd 5f 03 3a be 9f 03 e5 be
       0.014043242 -0.081611514 -0.18165348 -0.44729325
0001b0 4b 37 19 bf 2b 25 01 be 88 22 22 bd a8 01 4f be
       -0.59849995 -0.12611835 -0.039583713 -0.20215476
0001c0 38 40 9c bc 05 e3 d3 bd d0 9d 2b bf ba 3a 87 be
       -0.01907359 -0.10346035 -0.6703768 -0.26411992
0001d0 9f ec e2 bd 4f 94 b8 be 5a 84 9c 3d ed 10 e3 3c
       -0.11080288 -0.3605065 0.076424316 0.027718032
0001e0 e5 98 c0 3d a7 ed 4b bd 6a 46 0a bf 24 be b4 3d
       0.09404162 -0.04978719 -0.54013693 0.08825329
0001f0 e9 91 ea 3d 20 d8 1e 3e ac df 04 bf f6 75 b3 be
       0.114536114 0.15512133 -0.51903796 -0.35050935
000200 da 88 d6 3d 34 75 fe 3d c4 4e 95 be 5d cd 09 3e
       0.10475321 0.124246985 -0.29161656 0.13457246
000210 d6 0c a5 3d c1 86 e1 be 5b 3f 94 3c ce a7 10 3d
       0.08059089 -0.44048122 0.018096616 0.03531628
000220 32 24 e4 be 1d 6f c5 3d 1c 9b 72 be af 0d c5 bd
       -0.44558865 0.09640334 -0.23691982 -0.096217506
000230 ca eb 1b be 09 2d 68 be de fc 05 bf 0b 17 c4 bc
       -0.15226665 -0.2267343 -0.5233897 -0.023936769
000240 3e d8 aa be 12 f4 13 3e 72 69 bc 3c 7a b5 9a be
       -0.33368105 0.14448574 0.022999499 -0.3021658
000250 06 85 47 3e e1 7c 1e 3d 5e 30 81 be c0 9f cf be
       0.19484338 0.038693313 -0.25232214 -0.40551567
000260 42 99 8d be ad b4 18 bf 6b f7 fe be f8 e3 3f be
       -0.2765599 -0.5965069 -0.4979814 -0.18739307
000270 7b 5d 06 be 4b d9 fe be f2 4e 0a bf 3f e2 97 bd
       -0.13121597 -0.49775156 -0.5402671 -0.074162
000280 69 6e 74 be 50 26 e6 be 19 9a da 3d 13 37 cb bd
       -0.23870243 -0.44951105 0.10673923 -0.09922614
000290 f8 62 21 bf f2 32 ab be 9c 14 04 bd 87 00 13 bd
       -0.6304164 -0.33437306 -0.032246217 -0.035889175
0002a0 d1 6f df be bc df 12 bf fd 1f 38 bf 79 ca 04 bf
       -0.43639997 -0.5737264 -0.7192381 -0.5187145
0002b0 7f ac 06 3e a6 bc 84 be 72 dd 58 3d 9b b8 45 3c
       0.1315174 -0.25925177 0.05294556 0.012067939
0002c0 2b 7a 9e 3d 51 c9 1c be 37 0c 96 be 5a c1 9f be
       0.077381454 -0.15311171 -0.29306194 -0.31202203
0002d0 58 ef 23 be 1b 5e 9d 3d 27 96 47 be 9f 97 3b bf
       -0.16009271 0.07683965 -0.19490872 -0.7327823
0002e0 eb ce 46 3e 33 ed 4a bf 67 95 17 3b f6 7f 14 3e
       0.1941487 -0.7926819 0.0023129822 0.14501938
0002f0 91 a4 73 3d 42 73 cd bc f4 9b 71 ba 0e 80 7c bc
       0.059483115 -0.025079373 -0.0009216659 -0.01541139
000300 ca 65 51 bd f9 21 01 bf 9c f5 8c be cf 9a 09 bf
       -0.051122464 -0.50442463 -0.27531135 -0.53751844
000310 a6 7d 3c be ba 7d a0 be a7 2e fe be 0a 79 10 bd
       -0.18407306 -0.31345922 -0.49644968 -0.03527168
000320 8b 00 b5 3d 63 14 49 3d 27 8e cb be a6 3f 10 be
       0.08837994 0.049091708 -0.3975689 -0.1408678
000330 b1 b8 c8 3d c8 d8 6a be bd 6f f2 3d e0 f9 df 3d
       0.09800852 -0.22934258 0.11837719 0.10936332
000340 07 2e f5 3d 4e e9 23 3e 9c 52 69 bd 92 10 d2 3d
       0.1197167 0.16006967 -0.056963548 0.10257067
000350 63 b8 c2 3d 6a df 54 3d 1f 66 9e bd 9a e6 5b bf
       0.09507825 0.051970877 -0.07734322 -0.85898745
000360 43 f5 3d bf 8f bc 16 bf 2d 01 fd bd 2c 42 9e bd
       -0.74202365 -0.5888147 -0.1235374 -0.07727465
000370 e8 ce e9 3d 26 4a ef bc ec 53 14 bf 48 d8 06 bf
       0.11416417 -0.029210161 -0.57940555 -0.5267377
000380 17 79 1e be 89 29 b6 be a1 f5 af bd 11 f9 04 be
       -0.1547588 -0.35578564 -0.08591772 -0.12985636
000390 32 b4 66 be 90 f3 82 be d1 46 1f bf 8d 77 00 3e
       -0.22529677 -0.25576448 -0.6221743 0.12545605
0003a0 7e 80 a7 3d d1 d4 c7 bd 51 04 a9 3b e2 fb 71 bf
       0.08178805 -0.097573884 0.0051579853 -0.9452497
0003b0 f6 5b 38 bf 74 1b 08 3d 73 0f 54 3d 9b 2a 44 3e
       -0.7201532 0.033229306 0.051772546 0.19156878
0003c0 1d 73 c6 3d de 8c 27 3d 2a 78 41 bf 4b 2b 99 3d
       0.09689925 0.040905826 -0.7557398 0.074789606
0003d0 04 14 65 3c 89 14 a2 be 33 53 02 3e d6 d2 e6 be
       0.013981823 -0.31656292 0.1272705 -0.4508273
0003e0 b5 20 0e 3e 2d b8 43 be 3d 4a f8 bd a5 11 04 bf
       0.13879664 -0.19113226 -0.12123535 -0.51589423
0003f0 38 63 9e be ac 2b 12 be 28 ed a9 be 32 a3 a6 be
       -0.30935073 -0.14274472 -0.33188748 -0.32546383

arith.constant7 f4 [128, 64]
000000 7a cc 56 3e 02 5b bf bc 6a 27 63 bd 1b 27 37 bd
       0.20976439 -0.023358826 -0.05545751 -0.04471503
000010 a0 88 e5 bd 26 ba 04 3d 15 f3 d0 be c0 18 1b be
       -0.112077 0.032404087 -0.40810457 -0.1514616
000020 bd ba 32 be 20 a4 da 3d d3 4f 89 bd 40 a0 3a be
       -0.17454048 0.106758356 -0.067046784 -0.18225193
000030 5c 5a 3a 3e e7 87 c5 3e 15 70 1f ba bb d0 77 be
       0.18198532 0.38580248 -0.000608207 -0.24200718
000040 a2 17 00 3f 07 86 a5 3d 08 89 8c 3e e2 7e 59 be
       0.5003606 0.08082204 0.27448297 -0.21239808
000050 ef 91 87 bd b9 0a 3e bc a4 c7 b2 be 3b 3c 28 be
       -0.066196315 -0.011599236 -0.3491794 -0.16429226
000060 e9 97 e2 3d e1 43 32 3e b9 12 35 3d e0 f2 14 3d
       0.11064131 0.17408706 0.04420731 0.036364436
000070 fa 32 ba be 94 7c 38 bf 07 56 41 3e e8 8e b4 3d
       -0.36367017 -0.7206509 0.18880473 0.0881632
000080 17 2e 26 bd 24 e6 e0 3e 2f 53 ce 3e 9f f8 67 3c
       -0.0405713 0.43925583 0.4029784 0.014158397
000090 65 3d 03 be 07 61 56 3e 5b 67 4e 3e 0a fa a1 3c
       -0.12816389 0.2093545 0.20156614 0.019772548
0000a0 77 8c 9d bd 2b 60 9f 3d 61 a1 16 3e fe ca 86 3f
       -0.07692807 0.077820145 0.14709999 1.0530698
0000b0 07 07 bc 3e b0 28 88 37 2c b0 67 be a8 87 1f bd
       0.3672411 1.623141e-05 -0.22625798 -0.03894773
0000c0 23 23 2f be 5a d9 d2 be 1c 16 fd bd 9b db 98 3c
       -0.17103247 -0.4118145 -0.12357733 0.018659404
0000d0 16 8e d6 be 12 22 0c bf af 76 d6 3e 67 0c 15 3e
       -0.41905278 -0.5473949 0.41887423 0.14555512
0000e0 89 21 fc 3d 02 80 62 be 34 44 f4 3b b7 25 a9 be
       0.12311084 -0.22119144 0.0074544195 -0.33036587
0000f0 a5 a2 e0 3d fb 7a 14 3f c4 00 4c bd 81 c9 25 3f
       0.10968522 0.58000153 -0.049805418 0.64760596
000100 96 fd 32 3d 5a 54 94 3e b6 a3 7a 3d 96 cd 90 3e
       0.04369887 0.28970605 0.061191283 0.2828185
000110 c3 88 03 3e 98 5e 3b be ad e5 a8 3e 63 28 9c 3e
       0.12845139 -0.18297803 0.3298773 0.30499563
000120 00 b6 87 3e 96 cd cf be 9a 85 ee be 64 f8 e0 bd
       0.26506042 -0.40586537 -0.46586305 -0.10984877
000130 17 0c 2a be bf aa 30 3e 67 4e 84 bc 6d 9e 19 3e
       -0.16606174 0.17252634 -0.016150666 0.15001841
000140 21 3b 45 3e e9 74 c3 be 57 31 a4 3e e2 7f fb bd
       0.19260837 -0.38175133 0.32068893 -0.12280251
000150 52 f0 19 3d b4 c2 73 bd 4b 67 d3 3e 26 86 ee be
       0.037582703 -0.059511855 0.41289744 -0.46586722
000160 31 68 26 3e 1f 29 fd be b0 f1 86 3e 0f 01 a2 3d
       0.16250683 -0.49445435 0.26356268 0.07910358
000170 6b fd f8 bd 6a 40 b7 3d b7 70 32 3c e8 19 8d be
       -0.12157711 0.08947833 0.010891131 -0.27558827
000180 12 dc b5 be d6 26 00 3e d9 d7 a2 be 06 ce b9 be
       -0.35519463 0.12514815 -0.31805304 -0.36289996
000190 5f fe 97 be 1c 19 c2 be 32 46 24 3e 9d b1 fa bd
       -0.29686257 -0.37909782 0.16042402 -0.12240908
0001a0 36 20 86 be a6 c6 54 3d be b8 e6 be 7b 4a 99 3d
       -0.2619645 0.05194726 -0.45062822 0.07484909
0001b0 42 05 07 be f8 46 e2 be f0 98 0b be 6b 09 e4 3c
       -0.131856 -0.4419477 -0.1363256 0.027836522
0001c0 64 19 4b 3e d0 db 3c 3f ca f6 ef 3d 7f a1 59 be
       0.19833905 0.7377291 0.11716993 -0.21253012
0001d0 51 3f a1 be 6a a7 39 3d d0 b7 a6 3e 78 bc 5d be
       -0.3149362 0.045325674 0.32562113 -0.21653926
0001e0 3e d4 5e 3d 27 b0 00 bf 20 d2 89 bd 84 e7 f3 3d
       0.05440163 -0.5026879 -0.06729531 0.119093925
0001f0 85 51 c8 be 93 db 8f 3e ae c3 b7 be 2b 40 17 bd
       -0.39124694 0.2809721 -0.3589148 -0.03692643
000200 78 89 a2 3e 90 94 85 be f3 43 a0 be 48 59 2d 3e
       0.31745505 -0.26089907 -0.3130184 0.1692859
000210 77 a1 15 be 3e cb aa 3e 7b 4b 25 be 96 4e 55 3e
       -0.14612375 0.33358186 -0.16142075 0.2083076
000220 4e ed be be 2f 28 86 be 31 00 b2 bc be 74 b8 be
       -0.37290424 -0.26202533 -0.021728607 -0.36026567
000230 bb 34 c9 be 56 3e 55 bf 37 b4 dd bd 76 69 91 be
       -0.39298043 -0.8329824 -0.10825389 -0.28400773
000240 a5 56 ed be 77 74 bd 3e 68 a7 6f be 62 48 ee bd
       -0.46355167 0.37002918 -0.23403704 -0.116349
000250 4b 8c f7 3e d4 c8 d2 bd ab 44 a9 bb be c4 58 be
       0.48349223 -0.10292211 -0.0051656566 -0.21168801
000260 5d 35 75 be 7b c1 5f 3d a3 7c 9a 3c a6 09 57 3e
       -0.23946138 0.054627877 0.01885826 0.20999774
000270 eb 85 bb be 09 55 72 bb f9 57 74 be b8 90 12 be
       -0.3662561 -0.0036976954 -0.23861684 -0.14313018
000280 18 2c af 3d db 23 23 bf 3a d1 36 be b8 17 2e bf
       0.08553332 -0.63726586 -0.17853251 -0.6800494
000290 26 42 56 bc a6 36 d2 3c a3 6c d3 3d af a5 9a 3c
       -0.013077294 0.025660824 0.10323455 0.018877832
0002a0 a4 f8 9a 3e dc 6b 22 3f c9 f1 8a 3d 50 7c b7 3d
       0.30267823 0.6344583 0.06784398 0.089592576
0002b0 c5 75 f5 bd 0b 5d 25 3e 3f 3e 6c 3b c8 1f 91 bd
       -0.119853534 0.16148774 0.0036047844 -0.0708614
0002c0 7a 2d 1c bd bd 52 2d 3d f9 87 b0 be a3 32 e8 bc
       -0.038129307 0.042315233 -0.3447874 -0.028344458
0002d0 17 ee b6 3e e1 44 8c 3e 3f 0c 92 3e bb 4e 25 3b
       0.35728523 0.273963 0.28524968 0.002522393
0002e0 83 87 77 3d a0 b5 86 3d 56 a1 50 be e8 45 41 3d
       0.06043197 0.06577611 -0.20374045 0.04718581
0002f0 16 5c 32 3e be 68 58 be aa 00 80 3e 18 34 e3 39
       0.1741794 -0.21133706 0.25000507 0.00043335627
000300 c2 66 97 3e 79 5e e5 3c 86 29 0b be 21 4a e5 3d
       0.29570585 0.02799915 -0.13590059 0.111957796
000310 ce 46 81 3e 0b 93 01 3f d7 96 09 3e 5a 72 2e be
       0.25249332 0.50614995 0.13436447 -0.17035809
000320 70 b3 81 3e fb d9 9e 3e 77 00 95 bd ca c9 c5 be
       0.25332212 0.3102568 -0.07275479 -0.38630515
000330 07 96 08 3e ee 9e bf 3e 05 9c 06 3e cb 96 86 3f
       0.13338481 0.3742594 0.13145454 1.0514768
000340 0e 7d 24 3e e8 8b 98 3e 28 18 2d be dc 4d 94 bd
       0.1606333 0.2979424 -0.16903746 -0.07241413
000350 d1 71 cc 3e 7f 39 a7 3e 89 74 7f 3e 1c b2 86 be
       0.39930585 0.32661054 0.24946798 -0.26307762
000360 bb c5 d4 3c f3 ee 50 3e 16 e1 8c 3e 4c 52 4e 3d
       0.025973191 0.20403652 0.27515477 0.050371453
000370 84 c3 ea be 75 aa a8 3d eb 8b 50 bd 98 89 b3 bd
       -0.45852292 0.08235637 -0.050914686 -0.08766478
000380 93 e0 6d 3d 05 91 60 ba 40 b4 dc 3e d3 06 be bd
       0.0580755 -0.00085665315 0.4310627 -0.09278645
000390 a3 2f 85 be bb c6 0b bd cc 00 07 be e8 43 a7 be
       -0.26012906 -0.03412507 -0.13183898 -0.32668996
0003a0 a4 12 5a 3e d7 33 be 3e 2b e2 09 be eb e9 dc 3e
       0.21296173 0.37148926 -0.13465182 0.43147215
0003b0 a1 11 a7 3e aa 4e 25 be bb c0 11 be 07 dd 2a 3c
       0.32630637 -0.16143289 -0.14233677 0.010428674
0003c0 c1 1d cb bd 85 e8 f7 3e b3 b6 4e 3e 16 59 e6 3d
       -0.099177845 0.48419586 0.20186882 0.112474605
0003d0 d2 9f 00 3f 02 f6 02 3e db 68 6c 3e 0a 96 10 3e
       0.50243866 0.12789157 0.23086874 0.14119735
0003e0 1a f1 12 3e 6f 7b 6d 3e 41 12 b8 be b6 0e df be
       0.14349785 0.23191617 -0.35951427 -0.4356591
0003f0 ce 45 c2 be c6 e4 02 3d 1d f5 d8 3e 85 7e 16 be
       -0.37943882 0.031956457 0.42374507 -0.14696701

arith.constant8 f4 [256, 128]
000000 c9 5c f5 bd 9e ca 79 bd 5e f9 50 bd 4c 68 84 3c
       -0.11980588 -0.060984246 -0.051019065 0.016163014
000010 f2 b7 24 3d c7 6f e0 bd 54 7a c9 3d 67 d3 24 bc
       0.040214486 -0.1095882 0.09837785 -0.010060168
000020 59 f8 c2 3c d2 f2 fd bd 0f b4 3e 3e d3 a4 be bd
       0.023800062 -0.1239983 0.18623374 -0.093087815
000030 31 b7 be 3d e2 89 55 bd 3a 33 ba 3d 9e 6e c1 bc
       0.09312285 -0.05213345 0.09091802 -0.023612317
000040 98 5a 75 bd ca db 21 be d3 72 ff 3d 6a 97 20 3e
       -0.05990085 -0.15806499 0.12473073 0.1568276
000050 7d fc bf bd 00 bf 80 3d d7 8d 9a 3e af 89 63 be
       -0.0937433 0.0628643 0.3018634 -0.22220491
000060 3d c4 92 3e 67 3d 43 3e 7b 4f a5 3d 8b 44 30 bd
       0.28665343 0.19066392 0.080718 -0.043034118
000070 c0 ce 07 be 64 6f 89 be 3e b4 65 be 26 9e f4 bc
       -0.13262463 -0.26842797 -0.22432038 -0.029860567
000080 72 1c 74 3e 03 75 98 3e 92 15 ff 3d 4c 07 78 3e
       0.23838976 0.29776773 0.12455286 0.24221534
000090 a8 da 1a bd c7 57 ec 3c ac 96 27 be e2 da 65 3e
       -0.037806183 0.02885045 -0.1636607 0.22446778
0000a0 cc 21 ec be 02 0a 89 3e a8 c1 20 bd 0f fc 72 3d
       -0.46119535 0.26765448 -0.039247185 0.059322413
0000b0 a6 d8 9d 3c a4 01 40 3d 26 23 e9 bc a6 42 a8 be
       0.019268345 0.046876565 -0.028459143 -0.3286335
0000c0 4d 0a 3a 3e 40 20 74 be 83 96 4e 3c bd cb 12 be
       0.18167992 -0.23840427 0.012609127 -0.14335532
0000d0 da 4f fe 3d e2 69 c6 bd 79 cc 4e bd c0 17 c0 bd
       0.12417574 -0.09688164 -0.05048797 -0.0937953
0000e0 9e 17 3d be 25 06 0c 3e cd 63 4a bd a4 cd 3b be
       -0.1846604 0.13674219 -0.049411584 -0.18340164
0000f0 02 4a aa be f5 cc 81 bd a6 c3 4e 3e 63 41 df bd
       -0.33259588 -0.063379206 0.20191821 -0.109011434
000100 12 04 87 bc 63 7c 20 be 61 66 ce bb f2 4c ad bd
       -0.016481433 -0.1567245 -0.0062988256 -0.08461942
000110 86 7a 20 be 4b 85 af 3d fd 16 f6 bb 6e 96 f6 bd
       -0.15671739 0.085703455 -0.0075100646 -0.12040411
000120 2f 28 f5 3d f3 9e ac bc 3b d7 55 3e 87 ff 9a 3d
       0.11970555 -0.021071887 0.20882885 0.07568269
000130 f0 2a c7 3d 37 c6 25 be 7e c1 37 be cb a0 30 3e
       0.097249866 -0.16188894 -0.17944905 0.17248838
000140 fa 7f ee bc d7 75 41 3e c0 88 72 bb 0c 06 fa bd
       -0.029113758 0.18892609 -0.003700778 -0.122081846
000150 d5 12 10 be dc 43 c8 3c d7 5f 2f be 9d 1f 22 ba
       -0.14069684 0.02444642 -0.17126404 -0.00061845203
000160 ff ae 20 bd cd 6c c0 bd 98 50 8d 3e 65 c9 8d 3d
       -0.03922939 -0.09395752 0.2760055 0.069231786
000170 6a c7 bf bd 81 f4 94 bc 1d 77 bc 3c 72 97 2f bd
       -0.09364207 -0.018182995 0.023006016 -0.04286904
000180 ae 43 08 be e9 6e 8c bd 66 e6 39 bc c9 77 c8 bd
       -0.13307068 -0.06857092 -0.011346435 -0.09788472
000190 36 e0 5e 3d e9 41 09 3d 30 2f 1a 3e b2 ae 9e 3c
       0.054413043 0.033510122 0.15057063 0.01937041
0001a0 16 ef 70 bd b6 6b 0c 3e c1 40 9b bb e6 34 c0 3d
       -0.05882176 0.13712963 -0.004737944 0.093850896
0001b0 0b a5 8c 3a d2 05 ad 3e 3f 91 d9 bd be d6 50 3e
       0.0010730339 0.33793503 -0.106234066 0.20394418
0001c0 66 a8 14 3e 10 7e 8c 3d 5b f3 f2 3c 47 8e a8 bd
       0.14517364 0.06859982 0.029657057 -0.08230262
0001d0 0e 8c 67 3c cc d0 ed 3c 75 64 af 3d ec 7d 8d 3e
       0.014132513 0.029030226 0.085640825 0.27635133
0001e0 76 95 ec 3c f8 4a 56 3e cb 70 43 be d1 13 62 3e
       0.028879862 0.20927036 -0.19085996 0.22077872
0001f0 36 a4 c6 3a 3b 50 a3 3e d4 6a 98 bd 68 67 89 bd
       0.001515514 0.31897148 -0.07442251 -0.06709176
000200 f1 27 a2 3c fc 6a 14 3e 11 99 39 bd 78 22 85 bd
       0.019794436 0.14493936 -0.04531199 -0.06500715
000210 4e c9 1c be 91 ea ba 3d c4 9c 9d 3e d2 33 94 3d
       -0.15311167 0.09126771 0.30783665 0.072364464
000220 a9 4f 95 3e 6f 7a c9 3d 90 72 44 be bd 1f 76 bd
       0.29162338 0.098378055 -0.19184327 -0.06008886
000230 a8 ec ef 3d 03 f7 c5 bd 52 57 0c 3e 3b f2 1f bd
       0.117150605 -0.09666254 0.13705185 -0.03904937
000240 60 96 dd 3d 8f 1d cf be 7f 21 d5 3d f0 7b 17 be
       0.108196974 -0.4045224 0.104067795 -0.14793372
000250 ed 03 84 bd 71 c5 9a 3d d2 2b a4 be 8a f1 72 bd
       -0.06446061 0.0755719 -0.32064682 -0.05931238
000260 8a 4d a6 3d 16 6a 0f bf 95 16 8a 3e 32 16 7c bc
       0.08120258 -0.5602125 0.26970354 -0.015386151
000270 4f 4f 25 3c 6e 53 35 bd 93 07 04 bd a4 1b 4c 3e
       0.010089709 -0.044269018 -0.032233786 0.19932419
000280 8e a1 5c 3d 7c 93 4d be 27 17 bb bd 5f 4c 8b be
       0.053865008 -0.20075792 -0.09135275 -0.27206704
000290 e2 e2 8e 3e 9c b8 8d 3d e0 7a db bd db 9f 69 bd
       0.27907473 0.06919977 -0.10716796 -0.057037216
0002a0 35 fe 9e 3d 75 93 e9 3d 56 93 d3 bd 2d 18 b4 3d
       0.0776333 0.11405078 -0.103308365 0.08793674
0002b0 d8 2e 3c bb f6 22 c6 be 56 df 3e 3c a7 1d 65 be
       -0.0028714444 -0.38698548 0.011649927 -0.22374593
0002c0 07 97 9a 3e d8 32 46 bd 67 c8 11 bd 50 e1 10 3e
       0.3019335 -0.048388332 -0.03559151 0.1414845
0002d0 b8 e1 94 3d d0 84 9c 3e 40 61 05 bd c1 b3 73 bd
       0.07269615 0.30570078 -0.032563448 -0.0594976
0002e0 ee 03 22 3d 9e 68 60 bd 38 1e 2b bd 9e 52 02 3f
       0.03955453 -0.05478727 -0.041776866 0.50907314
0002f0 2c c0 ef 3c b1 fa 17 bd ec ce a7 3d 87 d6 e2 3d
       0.02926644 -0.037104312 0.08193764 0.11076074
000300 0b df 27 be 74 1e 9d bd 18 0d 0a bd f2 8e 0d bd
       -0.16393678 -0.07671824 -0.033703893 -0.03456015
000310 7f 33 43 3d 34 b2 83 bc 24 b7 32 3d 04 55 4d be
       0.047656532 -0.016076185 0.043631688 -0.20051962
000320 50 0c cd bd 95 f9 c8 bb 50 8a 25 3d 5a 1f 8e 3d
       -0.10012114 -0.006133268 0.04041511 0.069395736
000330 cb 6b 74 3d 28 7c 9e 3e 88 5e 89 be a9 76 89 3d
       0.059673112 0.309541 -0.26829934 0.06712086
000340 b6 52 03 bd 77 93 47 be 15 39 9c be 8a 5c 56 be
       -0.0320613 -0.19489847 -0.305123 -0.20933738
000350 17 f4 6b bd dd 0d 18 be 4c f1 30 bd 32 1c 07 3e
       -0.05760583 -0.14849038 -0.04319887 0.1319435
000360 70 02 c7 bc 87 1d 70 be ae e0 32 3d bc 95 53 3d
       -0.024293154 -0.23448764 0.043671302 0.05165647
000370 fd 65 ac be 53 54 04 be e6 0a bc 3d 24 ca 88 bd
       -0.3367156 -0.12922792 0.09181766 -0.0667918
000380 e9 ce 85 3e ed 5a 95 bc 80 fd 09 3e 40 06 ce be
       0.26134422 -0.018231833 0.13475609 -0.40239143
000390 3b 45 c8 3d e9 9b 83 bc 96 2b 0c bf a0 51 c5 bb
       0.0977883 -0.016065555 -0.54754007 -0.0060216933
0003a0 24 f5 1a 3d 0f 1b 11 3c eb 6d 71 3d bd 2d be 3d
       0.03783144 0.008856549 0.058942717 0.09286068
0003b0 1c b7 1c 3e 9b 7e f4 bd 6c 24 1d 3d ff 40 00 3e
       0.15304226 -0.119382106 0.038364813 0.12524794
0003c0 f1 e4 1a 3f f9 5c bd be 75 ae b3 be 08 35 c1 bd
       0.60505587 -0.36984995 -0.35094038 -0.09433943
0003d0 c3 58 2e be e5 0d 5d 3d bc 3e 46 be 08 b9 98 3d
       -0.17026047 0.05396833 -0.19359869 0.07457167
0003e0 61 b8 06 3d 55 47 12 bd 79 9f 08 3d 1b 40 f8 3c
       0.03289068 -0.03571256 0.03335521 0.030304005
0003f0 26 61 07 be c7 f1 9f 3d 6f b0 01 3e eb eb af 39
       -0.13220653 0.07809787 0.1266496 0.00033554374

arith.constant9 f4 [256, 64]
000000 ef 7d 94 3e 90 41 6a bd 9e d4 1e bd 27 61 56 3e
       0.2900233 -0.05719143 -0.038776986 0.20935498
000010 cd f5 2f 3c e2 6a 12 3e 81 0c 03 3e f6 3b fb be
       0.010739756 0.14298585 0.12797739 -0.49069184
000020 e6 fd c8 bc 95 7b 0a 3f c4 94 5e be 61 36 11 be
       -0.02453513 0.5409482 -0.21736437 -0.141809
000030 b7 f1 89 3e df 33 96 3d e5 43 65 be 33 3c 07 be
       0.26942226 0.073341124 -0.22389181 -0.13206558
000040 16 c9 fd bd 5c ba 8f 3d ec d1 b9 3d bd 8f 29 3e
       -0.1239187 0.07017967 0.090732425 0.16558738
000050 5e 58 2f be 14 9d a4 3e 03 47 62 3e aa 9d da be
       -0.17123553 0.3215109 0.22097401 -0.42698413
000060 3b 37 91 3d ac 38 5b be db 47 5a bd 68 79 35 be
       0.070906125 -0.21408337 -0.053291183 -0.17722094
000070 35 23 86 3d 72 9c a8 3a 70 89 96 be 3c 27 52 3d
       0.06549684 0.0012864007 -0.29401731 0.051306948
000080 69 52 5b 3d 15 02 71 bd f9 0b 5b 3e 5f f2 21 bd
       0.05354539 -0.058839876 0.21391286 -0.039537784
000090 0c 37 17 3e 18 1f 32 bd a1 c2 56 3d d0 db 16 be
       0.14767092 -0.043486685 0.052431706 -0.1473229
0000a0 28 f6 92 be c4 ac 4c 3e 21 eb 80 3e 65 b2 dc bd
       -0.28703427 0.1998778 0.2517939 -0.107762136
0000b0 77 7d b9 3c 47 0c 91 bc 98 38 d9 bd 50 c7 2b bd
       0.022642834 -0.01770605 -0.106064975 -0.041938126
0000c0 77 5d be 3c 74 7b 96 be e0 5f 41 be 01 3d ac bc
       0.023237927 -0.29391062 -0.1888423 -0.021025183
0000d0 60 23 21 be ed 69 82 be 1c b7 ad 3d 0b 5d 29 bc
       -0.1573615 -0.2547144 0.08482191 -0.010337125
0000e0 aa 52 15 bd f3 81 2c 3e ba 7e db 3e 91 cd fa 3d
       -0.036455788 0.16846447 0.42870122 0.1224624
0000f0 2b e1 48 be 53 88 9f be db b5 bb ba 62 2f 90 3d
       -0.19617145 -0.31158695 -0.0014321165 0.070402876
000100 99 f1 22 3d af e8 87 3d 22 16 6e 3d 03 02 91 3e
       0.039781187 0.06636178 0.058126576 0.28321847
000110 d8 cf 6e be 3f 63 29 3e 00 6c 3f 3e 83 bf 5b be
       -0.23321474 0.16541766 0.18693542 -0.21459775
000120 bb 2a a7 3e 3f da 12 3e ad f6 2d be 84 ef 8e 3e
       0.32649788 0.14341067 -0.1698863 0.2791711
000130 43 67 1d 3e 9b 62 46 be 64 cd 12 be 2e 7f f1 3d
       0.15371422 -0.19373553 -0.14336163 0.11791836
000140 62 91 ee bc 95 3f 85 3d 08 02 f7 bc 6d c8 c6 be
       -0.029122058 0.06506268 -0.030152336 -0.38824788
000150 69 54 31 be c6 9d 23 3e fc d5 8e bc c9 d0 b4 3d
       -0.17317356 0.15978155 -0.01743602 0.08828885
000160 96 e7 b0 3b 6c 0b c2 3e 9c 7c 10 bd 8b d7 b7 3c
       0.005398701 0.3789934 -0.035275087 0.022441646
000170 bf 4d 67 3c 21 07 27 3d d9 90 0e be f4 81 6e 3c
       0.014117657 0.040778283 -0.13922442 0.01455735
000180 91 c5 49 3a 1e 17 31 be 79 a6 5b 3e 97 40 c4 bd
       0.0007696981 -0.17293975 0.21450223 -0.09582632
000190 d8 22 3c be 63 1c a3 be bb d4 cb 3d ce 3d 68 3c
       -0.18372667 -0.31857595 0.099526845 0.014174892
0001a0 41 91 83 be eb c5 35 be e4 7a 38 3e f8 9b 94 3e
       -0.25696757 -0.17751281 0.18015629 0.29025245
0001b0 78 a6 0b 3d 72 ff 9c 3e 79 55 b8 bd 7e 81 d9 3a
       0.034094304 0.3066364 -0.090006776 0.0016594378
0001c0 19 95 af bd f8 7f 37 bd 69 b2 93 bd 5e ea 7d be
       -0.0857336 -0.044799775 -0.072117634 -0.24796435
0001d0 a5 1f 40 3e c9 1d cf bd 9c 6e 76 3c 34 3e 39 3b
       0.18762071 -0.10113103 0.01504102 0.0028265836
0001e0 7e 44 0a 3d c5 35 67 3e ae 80 06 3d b3 14 bf 3e
       0.033756725 0.22579105 0.032837562 0.3732048
0001f0 e5 6d 0a 3e 13 55 93 bd b2 a4 32 3d 20 d4 b9 3d
       0.13518484 -0.07193961 0.043614097 0.09073663
000200 4c 98 bf 3d c7 5f 6b be fb bb 85 be 57 13 9c be
       0.0935522 -0.22985755 -0.2611998 -0.30483505
000210 fd a6 bc 3e d4 53 6a 3d ad 39 e2 3d ba de 3c 3e
       0.36846152 0.05720885 0.11046157 0.18444338
000220 9e b4 d0 3d 72 fb 7d be dc 43 cd be 12 4f cd 3d
       0.101907 -0.2480295 -0.40090835 0.10024847
000230 5b 5b a9 bd 62 e0 13 be 73 e0 8a be f8 b2 03 3e
       -0.08269378 -0.14441064 -0.27124366 0.1286124
000240 80 2b 52 3e 36 89 d6 bd 07 92 97 be 35 7f 17 3e
       0.20524406 -0.1047539 -0.29603598 0.1479462
000250 93 3d 26 3d 3a e0 6f 3e f3 5c ae bd 03 03 b4 3d
       0.040586066 0.2342538 -0.085138224 0.08789637
000260 4a bf 12 be b5 c3 6d 3e a7 e0 5b 3d d9 5b b4 bc
       -0.14330783 0.23219188 0.053681042 -0.022016453
000270 d9 c5 46 3e f9 eb bf bd 7b 22 63 be f8 b8 78 bd
       0.1941141 -0.0937118 -0.22181122 -0.060723275
000280 98 89 a5 bd 8f 0c 3d bd fc 44 9b bc 95 e1 44 be
       -0.080828846 -0.046154555 -0.018953793 -0.19226678
000290 37 ed 57 be 85 57 57 be 4b 54 70 be 63 00 50 3d
       -0.21086584 -0.2102948 -0.23469655 0.05078162
0002a0 bb 1a 51 3e a2 b5 12 3d c3 da 94 3d 26 1b 98 be
       0.20420353 0.03581775 0.07268288 -0.29708213
0002b0 de bc b3 3d b0 5d f5 3c c8 b6 00 be 4e 83 43 3d
       0.08776258 0.0299519 -0.12569726 0.047732644
0002c0 03 77 d9 3d 5f 87 b8 3d 91 fc a2 3d e2 bf 3f 3c
       0.10618403 0.09010195 0.079583295 0.011703463
0002d0 3b f4 d8 3c 7a 5a 27 3e 31 e1 d9 3d 8d 49 77 3e
       0.026483646 0.16343108 0.10638655 0.24149151
0002e0 d5 42 94 bd 4c ca a3 bd ca 21 1d 3e e3 2b 8e 3e
       -0.0723931 -0.079975694 0.15344921 0.27767858
0002f0 e9 54 1e 3e 0c 4c a3 3c 8a f3 3b be 16 c0 9a bd
       0.15462078 0.019933723 -0.18354622 -0.07556169
000300 ae aa cf bb c2 9c 8e 3e 26 e4 08 3e 27 20 86 bd
       -0.0063374853 0.27853972 0.13368282 -0.06549101
000310 e4 0c 36 3d c6 b7 04 be 96 70 48 3e 77 ab 32 3c
       0.044445887 -0.12960729 0.19574198 0.010905138
000320 8e 4d b3 3d 47 c2 96 3e d6 79 f3 bd 9e ae 69 be
       0.08755027 0.29445097 -0.11888473 -0.22820517
000330 d0 86 a6 bd 95 2c b2 be b5 7b e8 be 33 41 82 bd
       -0.08131182 -0.34799638 -0.4540688 -0.06360092
000340 40 c6 a8 bd a0 42 19 be c5 7a d5 3d d0 0c 8c bc
       -0.08240938 -0.14966822 0.10423807 -0.017095953
000350 0a f2 a2 3b dc 90 01 be 55 1e 8b 3e 3a 8f 58 3e
       0.004972701 -0.12652916 0.2717158 0.21148387
000360 87 ec e3 3b 77 37 0c be f3 ce 88 3e 38 6e 07 be
       0.0069556865 -0.13693033 0.2672039 -0.13225639
000370 cc 79 87 be 82 7b 2b 3e 6d e1 fc be 4c 16 49 bd
       -0.2646011 0.16746333 -0.49390736 -0.04909353
000380 1f 91 b0 3e 30 cf 76 3e 33 1f 9e 3e 47 1b 96 be
       0.3448572 0.24102473 0.30883178 -0.29317686
000390 94 c8 1e be 7c 87 92 be 1e 56 fb bd 59 4e d7 bd
       -0.15506202 -0.2861899 -0.12272285 -0.105129905
0003a0 5f 8f 82 be 34 d9 81 3d e2 b6 ca 3d 88 de d1 3d
       -0.25500008 0.06340256 0.098981634 0.102475226
0003b0 ae 4d 21 3e 94 ee 50 3d d2 9b 8c 3d 5b 37 87 bd
       0.15752289 0.051008776 0.06865658 -0.06602355
0003c0 f3 ea b0 3e 23 06 d8 bc eb f2 ab be 46 6d 9f 3d
       0.34554252 -0.026370114 -0.3358377 0.07784514
0003d0 a0 2d ab bc 53 1d 50 3e 51 c6 4d bc a7 f6 81 bd
       -0.02089578 0.20323686 -0.012559489 -0.06345873
0003e0 b6 17 c7 bb 18 1f 9f be f4 34 40 be 3d c6 45 3e
       -0.0060758246 -0.3107841 -0.187702 0.19313903
0003f0 07 df 17 3e 90 33 22 be f1 47 0e be 47 19 48 3d
       0.14831172 -0.15839982 -0.13894631 0.04885223

arith.constant10 f4 [512, 20]
000000 74 0b f9 3c 35 a6 2b bd 8f 2b 88 bc 78 10 54 be
       0.03040097 -0.041906554 -0.016622333 -0.20709407
000010 0d cd 81 bc 1e b9 5c 3c b6 8d 95 3d b1 48 3d be
       -0.015844846 0.01347187 0.0730242 -0.18484761
000020 b5 de 70 3e 7c ae 41 be 59 40 a5 be 68 8e 8c be
       0.23522456 -0.18914217 -0.32275656 -0.27452397
000030 fa e0 d3 3c 09 94 22 3e 68 73 19 3d f6 9a ff 3e
       0.025864113 0.15876783 0.037463576 0.49922913
000040 85 e2 dc bd d4 28 30 be 4a b8 08 3e 86 34 7d 3e
       -0.10785393 -0.17203075 0.1335155 0.24727067
000050 f9 5d e2 bd 05 92 0d 3d f0 fa e5 3c 84 50 36 3e
       -0.1105308 0.034563083 0.028073758 0.17804152
000060 d2 8f f8 3b 7d 81 7e bd 17 de 84 be 00 56 43 be
       0.007585504 -0.06213521 -0.2595069 -0.19075775
000070 6f 91 1b 3c 76 cf 0f be 7c c0 cf bc af 5f 6d be
       0.009495123 -0.14043984 -0.025360338 -0.23181032
000080 6e 9e 8c be 5b 09 dc bd 75 9b c9 bd 04 7d 34 bc
       -0.27464622 -0.10743972 -0.09844104 -0.011016134
000090 07 a0 ad bd 10 c0 48 bc 72 6f 44 3d d9 a4 1a be
       -0.084777884 -0.0122528225 0.047957845 -0.15101947
0000a0 ea d9 00 be d1 d3 ac 3b 02 77 30 bb 35 c4 d1 3d
       -0.12583128 0.005274274 -0.0026926403 0.10242502
0000b0 39 4a 09 bd 1a 48 b3 bd c5 13 dd 3d 75 87 06 3e
       -0.03351805 -0.08753987 0.10794786 0.1313761
0000c0 6c 37 67 3d d2 71 09 3e f9 26 ed 3d 88 3b 5c 3e
       0.05644934 0.13422325 0.11579699 0.21507084
0000d0 50 e5 4b 3e 56 98 83 3e 96 43 c5 3d 01 79 fa bb
       0.19911695 0.2570216 0.096320316 -0.0076438193
0000e0 c3 b8 00 be 7f 8d 30 be 33 36 64 3d f3 2a 66 3e
       -0.12570481 -0.17241476 0.05571575 0.22477321
0000f0 ab 66 01 be 01 60 21 bd d2 84 16 bd c3 f3 1e bd
       -0.12636821 -0.039398197 -0.03674776 -0.038806688
000100 d1 50 96 bd 76 16 08 be 6e 21 13 be 13 ca 81 bd
       -0.07339633 -0.13289818 -0.14368221 -0.06337371
000110 d4 24 15 3d b1 e2 b6 3c 99 92 f2 bd bd 40 9a bc
       0.036412075 0.022324892 -0.118443675 -0.018829698
000120 90 db 99 bc 28 1f 01 3e f3 0a 82 bd c9 de 36 bb
       -0.018781453 0.12609541 -0.06349745 -0.0027903786
000130 66 f3 ce 3d cd be 47 bd f2 7f b1 bc 2f 7e ab 3a
       0.10105018 -0.048765946 -0.021667454 0.001308387
000140 6e 2e d5 bd 03 70 99 bd b7 fd 2c bd bb 20 13 be
       -0.104092464 -0.07492068 -0.04223415 -0.14367954
000150 01 c0 66 bc 2e 51 68 bd fd 91 83 bd 3f 8b 17 3d
       -0.014083863 -0.056718044 -0.064243294 0.03699803
000160 09 af 9b 3d 4d c5 1d bd 83 f1 fd bb e3 a7 0b be
       0.07601745 -0.03851824 -0.0077497377 -0.13638262
000170 ca c4 33 3d ef a4 31 bd d0 44 dc bd 3f ee da bd
       0.043888845 -0.043370184 -0.107553124 -0.10689973
000180 83 b8 4c bd 67 bf b0 3d 79 50 c8 bc be cf d0 bd
       -0.04998065 0.08630257 -0.024452435 -0.10195874
000190 74 e9 fa 3c f4 ed 80 bc 38 3e cc bd e8 c6 a6 3d
       0.030628897 -0.015738465 -0.09972805 0.08143407
0001a0 60 fb 22 bd 90 1c 25 be 66 b4 1c be 1f a4 12 bd
       -0.03979051 -0.16124177 -0.15303192 -0.03580105
0001b0 c7 fc c0 3d 5c c3 28 3d 90 79 92 3b aa a7 dd bd
       0.094232135 0.041201934 0.004470058 -0.10822995
0001c0 f8 8d 80 3d 66 ea b5 3c 77 07 57 bd 41 49 9a 3c
       0.062770784 0.022206496 -0.052497353 0.018833758
0001d0 60 7a ee 3c 3f ac 68 3e 82 30 81 3d 1d 91 dd bc
       0.029111087 0.22721957 0.0630808 -0.027046734
0001e0 2c 33 a8 3d 7d 29 3c be 3f 0c 35 be 46 d0 4d bd
       0.08212885 -0.18375202 -0.17680453 -0.050247453
0001f0 cf fa 50 be 42 86 49 bd 96 28 cc bc a5 3b 6c bb
       -0.20408176 -0.049200304 -0.024921697 -0.0036046293
000200 a3 78 95 bc db e6 b5 3d 60 c7 65 3b 33 54 0a 3e
       -0.018246 0.08881923 0.0035061464 0.13508682
000210 75 37 0a be 27 8e 0d be 30 96 92 bd bf bd bd bc
       -0.13497718 -0.13823758 -0.07157552 -0.023161767
000220 8e c1 8f 3d 0e bc a5 3d 98 a6 3e 3d eb c0 be 3e
       0.070193395 0.08092509 0.046545595 0.3725656
000230 4b 86 ef 3c 03 b8 f6 3d 73 0e 54 3e e2 59 c4 3d
       0.02923884 0.12046816 0.20708637 0.09587456
000240 c0 a1 d2 b9 0f 15 4d be be b3 ce bd d9 29 64 3d
       -0.00040174834 -0.20027564 -0.10092877 0.05570397
000250 ef 9d 50 3e 13 9f 35 3e 86 01 7a 3d 07 7e 9d 3c
       0.20372747 0.17736463 0.06103661 0.019225134
000260 cd 90 4e be 91 64 41 be 95 b2 c1 bd 29 bb 71 3d
       -0.20172425 -0.1888602 -0.0945789 0.05901638
000270 79 8a 47 3e 2c 85 3f 3e 91 fd 85 3d 4d d7 8a 3d
       0.19486417 0.18703145 0.065425046 0.067793466
000280 17 12 3a 3c 5f c8 8a bb a4 7b 19 bd 13 ad 56 3d
       0.011356852 -0.004235312 -0.03747143 0.05241115
000290 01 1c a4 3c b8 5e 53 3c 58 f1 46 3e bb e1 39 3e
       0.020032885 0.012901001 0.19428003 0.18152516
0002a0 a3 cb ad 3d 10 9d 5e 3e d3 0a ff 3c 0b e0 e3 3d
       0.08486106 0.21739602 0.031133091 0.11126717
0002b0 ea 62 6e bd e3 18 3b bd 26 64 48 bd 9b e0 e4 3d
       -0.0581998 -0.04567803 -0.048923634 0.111756526
0002c0 0e c2 04 3e fd 89 08 3d c4 78 5b bd e0 cb a2 bd
       0.12964651 0.03333472 -0.053581968 -0.07949042
0002d0 6b d4 22 3d eb 37 ba bd cc 07 87 3d 6e c2 1c 3e
       0.03975336 -0.09092697 0.06593284 0.15308544
0002e0 ba b3 43 be 48 58 76 3c 4b 28 02 3e df f6 85 3d
       -0.19111529 0.015035696 0.12710683 0.065412275
0002f0 06 e5 b5 39 bd 5d 05 3e a9 91 bf bd 62 06 92 3e
       0.00034693646 0.1302404 -0.09353954 0.28520495
000300 b3 3a b7 bc ef 43 99 3d 5c 21 db bb bf a6 c6 3d
       -0.022366857 0.074836604 -0.0066873264 0.09699773
000310 74 c4 11 3e 2d 76 53 3d a5 9c 85 bc 4b a1 08 bd
       0.14235097 0.051626373 -0.016310045 -0.033356946
000320 16 d3 e8 bd 55 b0 17 3d 45 90 b4 3a 18 a2 96 bc
       -0.113683864 0.037033398 0.0013775906 -0.01838784
000330 4c 70 15 bd fc 9c 71 3d 9c 74 00 be 5d b2 8b 3c
       -0.036484048 0.058987603 -0.12544483 0.017052824
000340 8b f5 7e be 0b 96 a8 3d 10 90 b9 3d ce 5a ea 3d
       -0.24898355 0.082317434 0.09060681 0.11443101
000350 9b a9 47 3d 8b bf 4e 3e df 60 e9 3d 73 85 9a 3e
       0.048745733 0.20190255 0.1139543 0.3017994
000360 5d 88 7a 3e 82 c7 17 be f6 39 71 3d 14 b8 aa bc
       0.24466081 -0.148222 0.058893166 -0.020839728
000370 bf 80 33 bd 19 d6 12 3e 09 5b 97 3e 13 04 82 3d
       -0.043823954 0.14339484 0.29561642 0.06348433
000380 5f 49 2d 3e cc 78 27 3d 6a 9c b6 be 7d 03 53 3d
       0.1692252 0.040886685 -0.3566621 0.051517
000390 a4 78 28 3e be f4 d0 3d bb e2 44 3e af ea 8d bd
       0.16452271 0.10202931 0.19227116 -0.06929528
0003a0 77 6a 8e 3c 78 59 73 be fd 36 dc bd 6c db 12 3e
       0.01738475 -0.23764598 -0.10752676 0.14341515
0003b0 70 76 00 3e 88 9b 27 3d 70 bd 6d 3e e4 68 5d 3e
       0.1254518 0.04091981 0.23216796 0.21622044
0003c0 01 d9 13 be 00 84 b6 bd f7 2e 0a bd 53 a0 b8 3b
       -0.14438249 -0.08911896 -0.033736195 0.0056343465
0003d0 a6 f6 03 be 8e 27 73 bd 39 b6 72 bc 2e 96 c3 bd
       -0.12887058 -0.059363894 -0.014813953 -0.09550129
0003e0 a9 93 29 3c 6f 94 4c bc b0 05 06 bd 09 83 fc bc
       0.010350146 -0.012486561 -0.032720268 -0.030824201
0003f0 31 6c 71 bb 67 27 42 bd c3 c9 78 bc 2e 6e da bb
       -0.0036838169 -0.04740086 -0.0151848225 -0.0066659665

arith.constant11 f4 [512, 128]
000000 cf 8d 00 3e 85 87 2e bd a6 bd 51 3e de 71 4a 3e
       0.12554096 -0.04260971 0.20482501 0.1977
000010 1f a0 b1 bd 55 32 aa bd db 03 5a 3d e9 b8 67 3e
       -0.08673119 -0.08310381 0.053226333 0.22629131
000020 63 a8 34 be 83 f6 52 be fb 6f ca be 6e bb b2 3e
       -0.1764236 -0.2060185 -0.3953856 0.34908623
000030 d4 c8 4d be 3c 3e b2 be 22 06 33 3e e2 e0 97 bd
       -0.20096141 -0.34813106 0.17482808 -0.0741594
000040 7c ea ee bc 9a be f3 3c c1 1c ce 3c d1 e6 fe bc
       -0.029164545 0.029753972 0.025160195 -0.031115921
000050 93 a2 9b 3d a6 fd 03 be 49 a5 9d 3e ef 3d 88 bd
       0.07599368 -0.12889728 0.30790165 -0.06652438
000060 c5 6c 3a 3d bc cb 9d 3d e6 11 b8 be 3a b6 bb bc
       0.045513887 0.07704875 -0.35951155 -0.02291404
000070 0f 7b c0 3d 91 3f 1a 3e 11 c4 ef bd ef 1b 71 3d
       0.093984716 0.15063311 -0.117073186 0.05886453
000080 22 00 2e be 4f 5b 6c bd eb df b6 bd 4f 3a 4b 3d
       -0.16992238 -0.057704266 -0.08929428 0.049616154
000090 a9 33 a0 3e e3 7e 51 be d4 d0 a8 3d e6 c1 3c 3d
       0.31289414 -0.2045856 0.08242956 0.046083353
0000a0 cf f5 67 bd a3 ba 26 be 56 0c 62 3e 94 03 69 be
       -0.056630906 -0.16282134 0.22075018 -0.22755271
0000b0 a6 5d 6c be 72 c6 b4 3c 1e 60 8c bd 14 24 28 be
       -0.23082599 0.022067282 -0.068542704 -0.16420013
0000c0 26 64 f8 3e 4b b5 c1 3c 17 08 71 be 41 67 16 be
       0.48513907 0.023646018 -0.23538242 -0.14687826
0000d0 1d 5b 7e bd 15 d1 d1 3d c2 2a 57 be 84 69 a6 be
       -0.06209861 0.10244957 -0.21012405 -0.32502377
0000e0 fa 49 ca be 55 61 22 3e ca ca e9 3d bf 3a e3 3d
       -0.39509565 0.15857442 0.11415632 0.11095189
0000f0 0b d7 a9 3e d0 d6 22 be 90 2d 41 3d e7 a5 a9 bc
       0.33171877 -0.15902257 0.047162592 -0.020708991
000100 d7 88 8c 3c 9c 5f 64 be f7 6a b0 bc b9 15 83 3d
       0.017155094 -0.22302097 -0.02153538 0.06400628
000110 69 4b e6 bc e8 53 c8 3e 03 d2 29 bd e1 09 8e be
       -0.02811213 0.39126515 -0.04146005 -0.27741912
000120 8a eb 3e 3e 11 aa 12 3e 23 f2 70 bd 9e 95 03 3d
       0.18644539 0.14322688 -0.05882467 0.032125108
000130 41 b3 fb 3d 5f 04 5c be fc ca 07 3e bb 66 75 be
       0.12290049 -0.21486042 0.13261026 -0.2396497
000140 f4 9f 16 3d 6a 13 ad bd 9b 58 f8 bd 16 ed 2a 3c
       0.036773637 -0.084509686 -0.12126275 0.010432502
000150 e6 d7 32 be 85 e7 52 3e 38 93 85 3d c8 54 09 be
       -0.17465171 0.2059613 0.065222204 -0.13411248
000160 b8 d1 f7 3e 48 40 81 3e 36 8f cd bc bb 22 37 be
       0.4840219 0.25244355 -0.025092702 -0.17884342
000170 6d 82 b6 3b f8 51 88 3e 27 1f 72 be 19 ca 69 3c
       0.005569747 0.26625037 -0.23644696 0.014269375
000180 61 d3 d0 be 61 be 94 3e 53 8c 0a 3e 49 e8 cf bc
       -0.4078627 0.29051498 0.13530092 -0.025379317
000190 35 1a 29 be c3 15 e0 3d 20 f7 38 3e 72 34 ae 3e
       -0.16513903 0.10941651 0.1806302 0.34024388
0001a0 86 49 f2 3c de 45 29 3d 22 59 bc bd f1 20 8c be
       0.029576074 0.041326396 -0.09196688 -0.27368882
0001b0 15 ed d8 be d1 2a a5 bd 95 f1 a2 bd 57 70 ef 3d
       -0.4236838 -0.08064807 -0.07956234 0.11691349
0001c0 cd f5 c9 be 15 b2 91 be d7 ee 7f 3e 90 c4 07 3e
       -0.39445344 -0.28456178 0.24993454 0.13258576
0001d0 84 37 90 be 15 9d b5 3c 77 00 f0 bb f4 4b 8a bd
       -0.28167355 0.02216963 -0.007324274 -0.06752768
0001e0 b6 db 66 be 6c 30 80 3e c7 01 83 3b da a0 78 be
       -0.2254475 0.25036943 0.0039980146 -0.2428011
0001f0 c9 f8 32 bd 3f af d3 3d c8 86 63 3e ec bd 98 3e
       -0.04369429 0.1033616 0.22219384 0.298324
000200 1d 1f 6f 3e 54 d1 4c 3c ea 43 42 bc 8f c2 fb ba
       0.23351713 0.01250108 -0.011857012 -0.0019207763
000210 63 f0 e6 bd a2 b5 0f 3d 04 21 1e 3d 5c 4e 9e bc
       -0.11276319 0.035085328 0.038605705 -0.019324474
000220 e7 ba d7 3d 97 87 e0 ba 0b 83 25 3e 63 fe 18 be
       0.10533696 -0.0017130253 0.1616327 -0.14940791
000230 fb c3 6b 3d e3 35 2a 3e f6 0d 89 3c ab d9 f3 3c
       0.05755995 0.16622119 0.01673029 0.029766878
000240 01 3e 9c 3c 7d 1d 10 3d c9 40 7a bd c5 35 51 bd
       0.019072535 0.035184372 -0.06109694 -0.05107667
000250 a4 53 47 3e f2 9d 60 3c 08 94 79 be f0 e3 9a bd
       0.194655 0.013709532 -0.24372876 -0.07563007
000260 57 75 7c bb cc fe 78 be 3d dd 97 3d 22 34 b8 3c
       -0.0038522088 -0.24315947 0.07415245 0.022485796
000270 61 2a 7a be 9d 07 4b 3d 2c 79 e8 bc 10 44 44 3e
       -0.24430229 0.049567807 -0.028378092 0.19166589
000280 cb d6 84 3e 63 d4 91 bd 5e e6 25 3e cf 1c ab 3d
       0.25945124 -0.07120588 0.1620116 0.08355104
000290 45 76 2f be cf 79 ca 3d 87 4f ae bd 7d 08 d2 3d
       -0.1713496 0.098865144 -0.085112624 0.10255525
0002a0 85 8d 55 3e e2 0d 02 bd 6c 27 0c be 01 af 00 3a
       0.20854767 -0.03175152 -0.13686913 0.000490889
0002b0 ce c0 0e 3e 2d 91 3d bd 1f 5f 1e 3c 7f bc 1e 3e
       0.13940737 -0.04628103 0.009666233 0.15501593
0002c0 26 e1 8c 3c 2b 4b 25 3b 40 1b 91 3e 24 03 2d bd
       0.017197203 0.0025221806 0.28341103 -0.042239323
0002d0 f0 40 1e be 33 7d 5c be b9 b1 a2 3b 0b ca 5f be
       -0.15454459 -0.21532135 0.004965034 -0.21854417
0002e0 06 49 df 3a 5c d4 01 3d 31 a3 78 3d 32 39 06 bd
       0.0017035312 0.031696662 0.060702506 -0.03276939
0002f0 45 a0 11 bd 44 5b 8d 3d c3 92 1e 3d 1e 7c a1 3d
       -0.035553236 0.06902173 0.03871418 0.078850016
000300 5b c1 41 be d3 de d0 bc d1 6b db 3c 16 2d 1c 3d
       -0.18921416 -0.025496876 0.02678481 0.038128935
000310 93 fa 18 3d 4e 74 b7 3d c1 d1 04 bd c9 56 78 3e
       0.03734834 0.0895773 -0.0324266 0.24251856
000320 85 7f c4 bd ae 43 c6 bc d8 0b 25 3e 8e 17 b6 3d
       -0.09594635 -0.024202194 0.161178 0.088912115
000330 88 11 c9 bd 79 35 2a 3c 64 73 2a 3e 4f a3 1a 3d
       -0.09817797 0.010388725 0.1664558 0.0377534
000340 6a 69 05 3e 91 7b 2a be 22 a1 00 be 10 d4 0d be
       0.13028494 -0.166487 -0.12561467 -0.13850427
000350 c8 54 b6 3d ee 2f 6a 3e cc 0d fc bc 88 1f 68 3e
       0.089028895 0.22869846 -0.030768298 0.22668278
000360 4f d2 2b be 70 90 e6 bc cf b8 2e 39 e8 73 1e 3c
       -0.16779445 -0.028145045 0.0001666278 0.009671189
000370 b3 c4 42 3e 74 9f bf bd 77 2a 29 3e 4f 17 14 bd
       0.19020347 -0.09356585 0.16520105 -0.03615504
000380 21 56 a1 3e 9e 7d 6c bd 3e 46 cc bd 69 e9 c0 bd
       0.31511024 -0.057736985 -0.09974335 -0.094195195
000390 4b b2 e9 3c c9 c9 5a bd 3b ec 6e be 25 c6 45 3e
       0.0285274 -0.053415094 -0.23332302 0.19313867
0003a0 60 5a ad bc bc 4a 9c 3c f9 0b 3f 3e dc 5d d9 3d
       -0.021161258 0.019078605 0.18656911 0.106136054
0003b0 43 eb 2b 3e c4 eb 18 bd e8 b5 24 be 77 47 cf bd
       0.16788964 -0.03733422 -0.16085017 -0.10121053
0003c0 3f 90 02 3e 1b 74 26 3e d6 f5 7e be 90 34 68 bd
       0.12750338 0.16255228 -0.24898466 -0.056690753
0003d0 77 4a d6 bd f1 88 dd bd 37 70 21 be 01 24 85 3d
       -0.10463422 -0.10817135 -0.15765463 0.06501008
0003e0 9d 7a 4b 3d 26 fb 88 3d e8 d5 08 bc e5 6a a9 3c
       0.04967748 0.06688528 -0.0083517805 0.020680854
0003f0 e0 e6 bf 3d c3 a1 2a be 52 ac 0f be a5 44 05 bd
       0.09370208 -0.1666327 -0.14030579 -0.032536168

arith.constant12 f4 [512]
000000 f8 6b ad 3e b7 30 d9 bb 23 7e 07 3d 99 52 b8 3d
       0.33871436 -0.0066281217 0.033079278 0.09000129
000010 b2 21 5b 3c c9 ce ac bd e4 69 96 3e c0 a4 92 bd
       0.013374733 -0.08437879 0.29377663 -0.0716033
000020 f8 a5 52 be 92 64 d6 be 97 b6 d3 bb 3b 23 73 3e
       -0.20571125 -0.41873604 -0.0064609754 0.23743908
000030 16 e1 48 3d da fa b4 3d 23 a9 0c bd 6d cc 81 3d
       0.049042784 0.08836909 -0.03434099 0.06337819
000040 25 7f 89 bc 78 0c 7b bb a6 ce 80 3d 40 67 a1 3d
       -0.01678426 -0.0038306993 0.06289415 0.078810215
000050 d9 7a 33 bd 75 0d 0d 3d d9 1a 14 3a 66 31 85 3c
       -0.04381833 0.03443666 0.00056497526 0.016258907
000060 ee 6e 72 3c 7b cd e1 bd 08 96 c2 3c 35 a4 dd bc
       0.0147969555 -0.110255204 0.023753181 -0.02705584
000070 a0 a1 60 3d fe f9 68 3e 64 0e 60 3c 0b 55 35 3d
       0.054841638 0.22751614 0.013675306 0.044270556
000080 e9 9d fa bb ef 2c 87 3c 96 df 8f 3e 58 9d 12 3e
       -0.007648219 0.016500918 0.2810027 0.14317834
000090 0f 9a 59 3d 85 36 a6 3b db f0 33 be 56 66 91 3d
       0.053125437 0.005072417 -0.17572348 0.07099597
0000a0 6f fd f6 3c 78 12 2d bd 13 a2 44 3d f1 22 b3 3c
       0.030150143 -0.04225394 0.04800613 0.021867247
0000b0 4e 3c 85 3d e6 18 b6 bc 25 f1 c1 bb d8 1e 51 bd
       0.06505643 -0.02222867 -0.0059186392 -0.051054806
0000c0 51 4a 61 3c 53 9e 37 3c 21 ff 36 3d 45 1c 9e 3c
       0.013750629 0.011207181 0.044676904 0.01930059
0000d0 cd 55 86 bc cd d3 52 be 4d 1d a6 3d 71 5f ac 3d
       -0.016398335 -0.20588608 0.081110574 0.084166415
0000e0 b7 74 2a 3c a5 5a 09 bd 31 ea 87 3d 51 dd 4c bd
       0.010403804 -0.03353371 0.06636465 -0.05001575
0000f0 a8 29 b4 3d a1 dc cc 3c 4b ff f5 3b a2 6f 15 bd
       0.08797008 0.025007548 0.00750724 -0.036483414
000100 f7 98 31 3d a9 51 65 3e 79 90 27 bd 83 a9 af 3d
       0.04335877 0.22394432 -0.040909264 0.08577254
000110 a7 bc 60 bc 24 09 76 3d 95 d5 db bc db d1 87 3d
       -0.013716853 0.06006731 -0.026835242 0.06631824
000120 0e 8e ba 3d f4 fd cf 3c 20 d4 18 3d 38 e4 8d 3d
       0.09109126 0.025389649 0.037311673 0.06928295
000130 e0 68 e5 3a 47 9b 3d ba 7d b1 07 3d f1 54 4a 3d
       0.0017502569 -0.0007232916 0.03312825 0.049397413
000140 68 76 02 3d 0f 40 f8 3d 34 43 5d 3d d0 ac 1b 3d
       0.031851202 0.12121593 0.054019168 0.038006604
000150 77 88 21 3c 80 32 1e be b2 93 1f be 63 af b5 3d
       0.009859196 -0.15448952 -0.15583685 0.08871343
000160 e2 38 33 3e 39 33 13 3d a4 fe 1d bc 87 8d be 3c
       0.17502168 0.03593752 -0.009643231 0.023260845
000170 70 81 fc be 46 8d 18 3e fe 27 ad 3d 0f 3c de bc
       -0.49317503 0.14897642 0.084548935 -0.027128248
000180 76 2b 10 3e b4 77 ab 3d 71 82 8a be a4 51 e0 3c
       0.14079079 0.08372441 -0.27052644 0.02738268
000190 c3 8d 3e 3e 18 de 23 bc 71 c0 af 3b 98 1b 14 3c
       0.18608765 -0.010001682 0.005363517 0.009039782
0001a0 b6 44 d8 bc 93 09 ba be ea 22 81 3d 97 23 83 3d
       -0.026399951 -0.3633543 0.063054875 0.064032726
0001b0 cf 18 ba 3d 0f e9 44 3c 8a e8 a6 3d 96 30 60 3d
       0.09086763 0.012018456 0.08149822 0.054733835
0001c0 b6 a3 15 3c 05 50 c4 3e 01 c7 7c 3e 0a 9b 81 3d
       0.00913327 0.383423 0.24685289 0.063283995
0001d0 00 65 e1 bc 64 4d 7b bd 8d 93 9c bc 30 30 3d be
       -0.02751398 -0.061353102 -0.019113326 -0.18475413
0001e0 b0 c6 cb 3c 5e 30 f2 3d a3 19 fe bc 88 6c ed 3c
       0.024875015 0.118256316 -0.031018084 0.028982416
0001f0 64 76 a6 3d 35 6d ee 3c aa 6a e4 3c 33 a9 35 3d
       0.0812805 0.029104808 0.027882893 0.044350814
000200 57 bf 8e 3f b7 06 81 3f f6 29 9c 3f e0 4a 83 3f
       1.1152142 1.0080174 1.2200305 1.0257225
000210 30 23 81 3f 0e fa 6b 3f 74 31 84 3f 53 f6 7e 3f
       1.0088863 0.9217843 1.0327592 0.9959461
000220 83 b2 85 3f d7 90 81 3f a9 de 7c 3f 43 b0 9e 3f
       1.0445102 1.0122327 0.9877725 1.2397541
000230 d6 ba 95 3f 5d 97 84 3f 29 75 7f 3f 3b e9 76 3f
       1.1697643 1.0358692 0.9978815 0.9644963
000240 42 d3 79 3f fa 62 84 3f 5f b9 81 3f 1d 88 7f 3f
       0.9758798 1.0342705 1.0134696 0.9981707
000250 08 7b 81 3f 31 ca 7b 3f e8 e9 85 3f 1f 20 83 3f
       1.0115671 0.98355395 1.0462008 1.0244178
000260 00 eb 80 3f a4 58 67 3f 06 4f 92 3f c5 7a 7f 3f
       1.0071716 0.9036963 1.1430366 0.99796706
000270 87 a3 84 3f 93 1a 95 3f 40 40 77 3f 99 c8 79 3f
       1.0362405 1.1648735 0.9658241 0.9757171
000280 2c ad 84 3f 42 85 83 3f 65 00 8f 3f 2a 38 87 3f
       1.0365348 1.0275042 1.1171995 1.0564015
000290 83 83 72 3f 5b 77 96 3f ce 29 73 3f c5 f8 85 3f
       0.9473192 1.1755174 0.94985664 1.0466543
0002a0 5e 5c 88 3f 87 7a 82 3f bf 8b 87 3f 4d 5a 86 3f
       1.0653188 1.0193642 1.0589522 1.0496308
0002b0 c2 9e 8b 3f 9b 67 77 3f 84 d5 7c 3f 49 28 6e 3f
       1.0907824 0.96642464 0.987633 0.9303022
0002c0 0b 29 88 3f 69 02 72 3f 5b 68 82 3f af c5 80 3f
       1.0637525 0.9453493 1.0188097 1.0060328
0002d0 b1 be 8f 3f 9f 0b 6b 3f d6 81 87 3f 74 42 89 3f
       1.1230069 0.9181461 1.0586498 1.0723405
0002e0 3f 96 84 3f e5 3d 7f 3f 46 f4 8b 3f 0f b6 72 3f
       1.0358351 0.9970382 1.0933921 0.9480905
0002f0 e5 50 81 3f fd 50 84 3f c6 d7 7a 3f c6 21 7a 3f
       1.0102812 1.0337216 0.97985494 0.97707784
000300 04 7a 78 3f 73 79 7f 3f 23 f6 7f 3f a5 ec 82 3f
       0.9706118 0.9979469 0.9998495 1.0228468
000310 fa bd 83 3f ef c8 84 3f a2 e5 7b 3f 2b bf 86 3f
       1.0292351 1.037382 0.98397267 1.052709
000320 bf f9 87 3f 0e a3 84 3f 0f df 76 3f 5d a0 8a 3f
       1.0623091 1.036226 0.9643411 1.0830189
000330 bc 08 75 3f be e1 88 3f c4 e6 7b 3f f5 ab 8b 3f
       0.9571645 1.0693891 0.98398995 1.0911852
000340 66 95 72 3f 43 c9 81 3f 7a 07 8f 3f 5b 49 79 3f
       0.94759214 1.0139545 1.1174157 0.97377557
000350 f7 57 65 3f dc 0a 5d 3f b8 a7 8e 3f 28 b0 8d 3f
       0.8958735 0.86344695 1.1144934 1.1069384
000360 63 74 8c 3f e7 cb 7b 3f 69 22 7e 3f ac 50 84 3f
       1.0973018 0.98358005 0.99271256 1.0337119
000370 fd 81 63 3f 10 87 86 3f f6 33 70 3f d7 6a 77 3f
       0.8887022 1.0509968 0.93829286 0.966474
000380 d4 fc 75 3f da c1 85 3f 4d 99 85 3f 50 96 95 3f
       0.9608891 1.0449784 1.0437409 1.1686497
000390 27 e5 86 3f 55 ca 84 3f 73 01 72 3f c3 5d 8c 3f
       1.0538682 1.0374247 0.9453346 1.0966114
0003a0 e8 f0 7c 3f 71 cb 85 3f 59 42 85 3f a9 35 8c 3f
       0.98805094 1.045271 1.0410873 1.0953876
0003b0 f4 db 71 3f f5 81 80 3f 6e 57 82 3f e2 0c 8a 3f
       0.94476247 1.003966 1.0182931 1.0785182
0003c0 da 29 78 3f 5c cb 89 3f 87 ce 6f 3f a6 fe 83 3f
       0.9693886 1.0765185 0.9367451 1.0312088
0003d0 b3 f3 93 3f a8 bb 80 3f 6d 05 7d 3f 1d ff 88 3f
       1.1558746 1.0057268 0.98836404 1.0702854
0003e0 6c 48 81 3f 08 56 92 3f 8f ee 7f 3f 9c 4e 58 3f
       1.0100226 1.1432505 0.99973387 0.8449495
0003f0 aa a1 80 3f 98 21 88 3f 80 9e 85 3f b0 31 88 3f
       1.0049336 1.0635252 1.0438995 1.0640163
