app/src/main/assets/model.tflite (tflite, 571280 bytes, 16 tensors)

arith.constant6 f4 [10, 128]
0	0xbdfa7aac	-0.12230429
1	0xbdc1d6d0	-0.094648
2	0x3e0b3d8b	0.13597696
3	0xba7a207d	-0.00095415843
4	0xbe60ddbf	-0.2195959
5	0xbe8f11a2	-0.2794314
6	0x3dd362ef	0.103216045
7	0xbe6a14e8	-0.22859538
8	0xbe37eb9a	-0.17960969
9	0x3d847816	0.06468217
10	0xbe73e1bd	-0.23816581
11	0x3e6cc158	0.2312063
12	0xbe348ca8	-0.17631781
13	0x3e23f9c4	0.16013247
14	0xbda18e25	-0.0788844
15	0xbbd85179	-0.006601509
16	0x3daae973	0.08345308
17	0xbe3590d0	-0.17731023
18	0x3cbe044c	0.023195408
19	0xbe10a8bd	-0.14126869
20	0xbe6ad196	-0.22931513
21	0x3d343ee9	0.04400531
22	0xbeb50edf	-0.35362908
23	0xbe7909c0	-0.24320126
24	0x3e109cf2	0.1412237
25	0x3e266995	0.16251214
26	0xbe62aa06	-0.22135171
27	0x3d8c874e	0.06861745
28	0xbe6f4a5c	-0.2336821
29	0x3e3900ef	0.18066762
30	0xbd465db7	-0.048429217
31	0x3e59e04e	0.21276972
32	0xbe0284df	-0.12745999
33	0xbe200937	-0.15628515
34	0x3d1a6fd4	0.037704304
35	0xbcfeab2d	-0.031087482
36	0xbc0b7a69	-0.008513072
37	0xbe3c8a8a	-0.18412223
38	0x3e3a10c1	0.18170454
39	0x3d271c5d	0.040798534
40	0x3e0cd26e	0.13752148
41	0xbe3e0818	-0.18557775
42	0xbc9aae8e	-0.018882062
43	0xbeb239a4	-0.348096
44	0xbe7c4b2e	-0.24638054
45	0xbd72df1d	-0.05929481
46	0x3e3107e2	0.17288163
47	0xbe803035	-0.2503678
48	0xbe037bbe	-0.12840173
49	0x3e8a6c77	0.27035877
50	0x3e312ad4	0.17301494
51	0xbe55be4e	-0.20873377
52	0x3e6156c0	0.22005749
53	0x3e08cdce	0.13359758
54	0xbe453068	-0.19256747
55	0x3e435749	0.19076265
56	0x3e2daa3e	0.16959473
57	0xbd47a66a	-0.04874269
58	0x3d145a98	0.03621921
59	0xbe205891	-0.15658785
60	0xbe8890fa	-0.26673108
61	0xbe0e4845	-0.13894756
62	0xbe5e67a2	-0.2171922
63	0xbdb49f40	-0.08819437
64	0xbdfce385	-0.123480834
65	0xbd2f9c35	-0.04287358
66	0xbde14920	-0.110002756
67	0xbe83babb	-0.25728402
68	0x3d86ef67	0.06588631
69	0xbe0538d7	-0.13009964
70	0xbe5fb20e	-0.21845266
71	0xbd14f146	-0.03636291
72	0xbda8d432	-0.08243598
73	0xbd91a74e	-0.07111989
74	0x3de2c6d3	0.11073079
75	0xbd532ddc	-0.051557407
76	0xbe648317	-0.22315632
77	0x3ab26508	0.0013610432
78	0xbdd5804f	-0.104248635
79	0x3df9ee6b	0.12203678
80	0xbe1be69b	-0.15224688
81	0xbe680f94	-0.22662193
82	0xba9cd721	-0.0011965969
83	0xbe82778e	-0.25481838
84	0xbd698e72	-0.057020612
85	0x3e2b5e49	0.16735186
86	0x3e220f38	0.15826118
87	0x3dfc96d2	0.12333454
88	0xbe987a7e	-0.29780954
89	0x3d7bcd11	0.061474863
90	0xbd844eb2	-0.064603224
91	0xbe4f8502	-0.20265582
92	0xbd629313	-0.055316042
93	0xbe3dd791	-0.18539263
94	0xbe026019	-0.12731971
95	0x3d81654d	0.0631815
96	0x3e3f9ff8	0.18713367
97	0xbbd4bfde	-0.006492599
98	0xbe942207	-0.2893221
99	0xbcf843f5	-0.030305842
100	0x3e25dbed	0.16197176
101	0xbe8ed2ff	-0.27895352
102	0xbdd62468	-0.10456163
103	0xbe21efce	-0.15814134
104	0xbe21589e	-0.15756461
105	0x3de81c11	0.11333478
106	0x3e1da6d9	0.15395679
107	0xbe2b039a	-0.16700593
108	0x3e045508	0.12923062
109	0xbc1f14c3	-0.00970954
110	0x3dcaee33	0.09908714
111	0xbe8ea01f	-0.27856538
112	0x3e52dbaf	0.20591615
113	0xbdf519cf	-0.11967813
114	0x3d9e93c7	0.0774303
115	0xbda96aaf	-0.082723014
116	0xbe4c2e4b	-0.19939534
117	0xbcb44799	-0.022006797
118	0xbdfe7861	-0.12425304
119	0xbe3ab7e6	-0.18234214
120	0x3e36236b	0.17786948
121	0x3cc16646	0.023608338
122	0x3d9ad27b	0.07559677
123	0xbe5343c5	-0.20631321
124	0x3e273636	0.16329274
125	0xbd8f46a4	-0.069958955
126	0x3e305c87	0.17222796
127	0xbdac873e	-0.08424233
128	0x3e2fd5c1	0.17171384
129	0xbd345870	-0.044029653
130	0xbe098ab8	-0.13431823
131	0xbda0a0da	-0.0784318
132	0x3e308f16	0.17242083
133	0x3e0c2ff9	0.13690175
134	0xbd8be7d1	-0.06831325
135	0x3e2668a1	0.1625085
136	0xbe21935b	-0.15778868
137	0xbdbda765	-0.092604436
138	0xbd766603	-0.06015588
139	0xbe604145	-0.21899898
140	0x3d1567c8	0.036475927
141	0xbdd5a38a	-0.10431583
142	0xbe6bafd8	-0.23016298
143	0xbe2ad9a3	-0.16684584
144	0xbecb1cea	-0.39670497
145	0x3e325611	0.17415644
146	0xbdced972	-0.10100068
147	0xbde44d1f	-0.11147522
148	0xbe2cff44	-0.16894251
149	0xbd4e1f36	-0.050322734
150	0x3d9aa3b0	0.07550752
151	0x3dfea136	0.12433092
152	0xbbf80869	-0.007569362
153	0x3e3ba673	0.18325214
154	0xbe7333d3	-0.23750238
155	0xbe54d518	-0.20784414
156	0x3df2f203	0.11862566
157	0xbe2b029d	-0.16700216
158	0x3dbd70e8	0.09250051
159	0xbe5efbf4	-0.217758
160	0xbeb71dff	-0.35765073
161	0xbe0a8f5a	-0.13531247
162	0x3e1423b9	0.14466752
163	0xbcfc4050	-0.030792385
164	0x3e19ea5a	0.15030804
165	0xbddc59b3	-0.10759296
166	0xbe2388e0	-0.15970182
167	0xbda25c1b	-0.07927724
168	0xbe38b22f	-0.18036722
169	0x3e13701b	0.14398234
170	0xbca86e5a	-0.020560432
171	0x3d3cae7d	0.046064842
172	0xbdc9cc6d	-0.09853444
173	0xbe66c826	-0.22537288
174	0xbe0f035b	-0.13966124
175	0x3e7b866a	0.24562994
176	0xbe625fd9	-0.22106875
177	0x3dd5cb34	0.104391485
178	0xbd23b9ed	-0.039972235
179	0x3ddbf91c	0.10740873
180	0xbe53e94b	-0.20694463
181	0xbd4b2e21	-0.04960454
182	0x3dabb526	0.08384161
183	0x3e5f8412	0.21827725
184	0xbe497d29	-0.19676651
185	0x3e5c24a5	0.21498354
186	0xbde30a1d	-0.11085913
187	0x3d6a4eab	0.05720393
188	0x3df33cfe	0.11876868
189	0xbe0b1098	-0.13580549
190	0xbe7c9651	-0.24666716
191	0xbe627639	-0.22115411
192	0x3e011a5c	0.12607712
193	0xbe086276	-0.1331881
194	0x3e694021	0.2277837
195	0xbe6d0f29	-0.23150314
196	0xbe580c2d	-0.21098395
197	0x3ddf192c	0.10893473
198	0xbc1955a2	-0.009358795
199	0x3bec69cc	0.0072147604
200	0xbdb01e21	-0.08599497
201	0x3d8ffc80	0.070305824
202	0x3dc6c7be	0.097060665
203	0x3e07b1dc	0.13251442
204	0x3e2d480c	0.16922015
205	0x3e3d09e5	0.18460806
206	0xbe321013	-0.17388944
207	0xbd8b133d	-0.06790779
208	0x3e48a8d0	0.19595647
209	0x3e1d124b	0.1533901
210	0xbe49112e	-0.1963546
211	0x3e03d2c3	0.12873368
212	0x3e24cbfb	0.16093437
213	0xbdac09d1	-0.0840031
214	0xbe0d53c9	-0.13801493
215	0xbda9e2ba	-0.08295198
216	0x3c4d9566	0.012547826
217	0x3e44bff6	0.19213852
218	0x3d741e65	0.0595993
219	0x3dac555f	0.08414721
220	0x3e084b81	0.13310052
221	0xbde9a4ff	-0.11408424
222	0x3ba8bb5e	0.005149289
223	0x3d9abecc	0.07555923
224	0x3df3a334	0.11896363
225	0x3cbc24ee	0.022966828
226	0xbe5794ce	-0.21052858
227	0xbda4ca37	-0.08046382
228	0x3d5801b2	0.05273599
229	0x3e65bc10	0.22435021
230	0xbd863862	-0.06553723
231	0xbd19f170	-0.03758377
232	0x3e2cafc8	0.1686393
233	0x3e15cce0	0.14628935
234	0xbcf6de2e	-0.03013524
235	0xbe113499	-0.1418022
236	0x3ca88083	0.020569092
237	0x3e5a7026	0.21331844
238	0xbe2c2e50	-0.16814542
239	0xbc3570c8	-0.011074252
240	0xbda19f1a	-0.07891674
241	0x3e2a92e4	0.16657597
242	0xbe9eda64	-0.31025994
243	0x3b9bc5be	0.0047537973
244	0xbde609c3	-0.11232331
245	0xbb5c00fb	-0.003356992
246	0xbe829941	-0.25507548
247	0x3c94b3bf	0.018152116
248	0xbdc0a419	-0.09406299
249	0xbe948a55	-0.2901179
250	0xbe76011a	-0.24023858
251	0xbe6252d1	-0.22101904
252	0x3e2f0b08	0.17094052
253	0xbe4c6b54	-0.19962817
254	0xbe8933c1	-0.26797298
255	0xbce6c478	-0.028169855

arith.constant7 f4 [128, 64]
0	0xbd83f3dc	-0.06442997
1	0xbbb2c778	-0.0054559074
2	0xbe0752c5	-0.13215168
3	0x3d858c2d	0.06520877
4	0xbb177f02	-0.0023116474
5	0x3d21c75c	0.039496765
6	0xbe5029b1	-0.20328404
7	0x3e603b9e	0.21897742
8	0x3e2e5ab8	0.17026794
9	0xbe42cbb4	-0.19023019
10	0xbe223ce0	-0.15843534
11	0x3e13125c	0.14362472
12	0xbe5d2785	-0.21597107
13	0x3dfda5aa	0.123851135
14	0xbd96781f	-0.0734713
15	0x3e531400	0.20613098
16	0xbd634dea	-0.055494227
17	0xbdb7fd93	-0.08983912
18	0x3e1f225f	0.15540455
19	0x3df22b0b	0.11824616
20	0xbc2fbfe6	-0.0107269045
21	0x3e1b6b20	0.15177584
22	0x3e18d232	0.14923933
23	0xbe48cf0b	-0.1961023
24	0x3d8e679f	0.06953358
25	0xbcacd67f	-0.021098373
26	0xbe0ef885	-0.1396199
27	0x3dc5d68d	0.09660063
28	0xbe07fa98	-0.13279188
29	0xbe281be2	-0.16416886
30	0xbe1d79e8	-0.15378535
31	0xbe240705	-0.16018303
32	0xbe808b90	-0.25106478
33	0x3dfb5f45	0.122740306
34	0xbdee20dd	-0.11627362
35	0x3d5af1c7	0.053453233
36	0x3d36f891	0.044670645
37	0xbd27e910	-0.04099375
38	0xbe033f72	-0.12817171
39	0x3d5cc6e0	0.0539006
40	0xbe35aeba	-0.17742434
41	0xbd4e13b3	-0.050311755
42	0x3d7dfa6f	0.06200641
43	0x3c52bb5e	0.012862055
44	0x3e3bd281	0.1834202
45	0x3e277020	0.16351366
46	0x3e0fb0a8	0.14032233
47	0x3e195903	0.14975362
48	0x3e58543f	0.21125887
49	0x3d79f84d	0.061027814
50	0x3c606e3c	0.013698157
51	0x3e5b4e54	0.21416599
52	0xbe2817e9	-0.16415371
53	0xbdf60341	-0.120123394
54	0x3e33628b	0.1751806
55	0x3de3ea34	0.11128655
56	0x3e0115b7	0.1260594
57	0xbdf88fc3	-0.12136795
58	0x3e06f435	0.13179095
59	0xbe43360c	-0.19063586
60	0x3c919b94	0.01777438
61	0xbcb1554d	-0.02164712
62	0x3c44ffaa	0.012023846
63	0xbda1fa01	-0.079090126
64	0xbe1fd1c2	-0.1560736
65	0xbe2480aa	-0.16064706
66	0xbddc9d9e	-0.107722506
67	0x3e4f8878	0.20266902
68	0x3d855896	0.06511037
69	0x3c0c233d	0.008553323
70	0x3cba9206	0.022774708
71	0xbe47a16e	-0.19495174
72	0x3cbacf54	0.02280394
73	0xbd126c9a	-0.0357481
74	0xbc89b63c	-0.016810529
75	0xbe25e532	-0.16200712
76	0x3e1f7a9c	0.15574116
77	0x3e076707	0.13222896
78	0xbc483609	-0.012219914
79	0xbda43272	-0.08017434
80	0xbd957f50	-0.072996736
81	0xbcbb264f	-0.022845415
82	0x3e213cce	0.15745851
83	0xbd858c90	-0.06520951
84	0x3e3b08ca	0.18265072
85	0x3da42eb7	0.08016723
86	0xbd4a9c98	-0.049465746
87	0x3e6e2f5a	0.2326025
88	0x3d170be3	0.03687657
89	0xbe0232fd	-0.12714763
90	0xbdfcdbce	-0.12346612
91	0xbe411728	-0.1885649
92	0x3e571a0b	0.21006028
93	0x3d831887	0.064011626
94	0x3d59099d	0.052987684
95	0x3c81cc98	0.015844628
96	0x3d8dc932	0.069231406
97	0x3d2b8073	0.041870546
98	0x3e6ff3e2	0.23432878
99	0xbe538c30	-0.20658946
100	0x3b25198a	0.0025192224
101	0x3d972030	0.07379186
102	0x3d9ce2e8	0.076604664
103	0x3dc2acbc	0.09505603
104	0x3c90240c	0.017595313
105	0x3e28b9bc	0.16477102
106	0xbe654813	-0.22390775
107	0x3d9a6fcf	0.07540857
108	0x3dc9a5d6	0.09846084
109	0xbccfaa70	-0.025349826
110	0xbcb88653	-0.022524988
111	0xbd4cfde3	-0.050046813
112	0xbdebbb46	-0.11510329
113	0x3d927bb4	0.07152501
114	0xbd86f783	-0.06590178
115	0xbe8b6be0	-0.2723074
116	0xbe2401cf	-0.16016315
117	0xbd343db1	-0.044004146
118	0xbcd581a7	-0.0260628
119	0xbe14ef3d	-0.14544387
120	0xbddb7ae4	-0.10716799
121	0xbde68ca2	-0.11257292
122	0xbc81824a	-0.015809197
123	0x3e245f00	0.16051865
124	0x3df5c65d	0.120007254
125	0xbdeab33d	-0.11459968
126	0x3d854bbf	0.06508588
127	0x3d89d0bb	0.06729265
128	0xbdbbaa62	-0.09163357
129	0xbc10dcd5	-0.008841713
130	0x3d8263f1	0.063667186
131	0xbcf2d2c6	-0.02964152
132	0x3dafadb9	0.08578057
133	0xbd4c1833	-0.049827766
134	0x3e41208f	0.18860076
135	0xbe635041	-0.22198583
136	0x3e11a60c	0.14223498
137	0xbd8994dc	-0.06717846
138	0xbe2859ef	-0.16440557
139	0x3dac9db9	0.08428521
140	0xbe242c57	-0.1603254
141	0xbdff31b7	-0.12460654
142	0x3e17657d	0.14784808
143	0xbdac599a	-0.08415528
144	0xbe2871a2	-0.16449597
145	0x3d54ab32	0.051921077
146	0xbd13804b	-0.03601102
147	0x3d2800cc	0.041016385
148	0x3bba9eeb	0.005695214
149	0x3d8a5de7	0.06756192
150	0x3de78d1a	0.1130621
151	0xbc95a84f	-0.018268732
152	0x3d88bbaa	0.06676419
153	0x3dfff833	0.12498512
154	0x3d1cc858	0.038277
155	0xbdf1c10f	-0.11804401
156	0x3e0ee881	0.1395588
157	0x3d5628de	0.052285068
158	0x3d7238a9	0.059136067
159	0x3dccd902	0.100023285
160	0x3e302b3b	0.17203991
161	0x3bf8f5a1	0.0075976406
162	0xbcdcca7f	-0.026952026
163	0x3dd16207	0.10223775
164	0xbe18d745	-0.14925869
165	0x3df3b37c	0.11899468
166	0xbe2e1c39	-0.17002954
167	0xbd2941c0	-0.04132247
168	0xbdbd32a2	-0.09238173
169	0xbc0e2045	-0.008674686
170	0x3cde61a1	0.027146162
171	0xbd5c05cf	-0.053716477
172	0xbc84eebe	-0.016227122
173	0x3db7a6bc	0.08967349
174	0xbd1300a2	-0.035889275
175	0xbdb7bd43	-0.08971646
176	0xbdedb634	-0.11607018
177	0x3df28644	0.118420154
178	0xbd30eeaf	-0.043196376
179	0xbe4e274c	-0.20132178
180	0x3d34c0a9	0.044129048
181	0xbd23cba5	-0.039989132
182	0xbdaa4395	-0.083136715
183	0x3aa36640	0.0012466386
184	0x3dcb60f8	0.09930605
185	0xbdb4661d	-0.08808539
186	0xbe70bbca	-0.23509136
187	0x3d3bae1d	0.045820344
188	0x3dbf4af4	0.09340468
189	0xbe138cb4	-0.14409143
190	0x3dbe5183	0.09292891
191	0x3d1c5f00	0.038176537
192	0xbe318152	-0.17334488
193	0xbddab035	-0.1067814
194	0xbe1372e6	-0.14399299
195	0x3dc2ac9b	0.09505578
196	0x3d9c4f79	0.07632346
197	0xbdcefc00	-0.10106659
198	0xbd16b604	-0.036794677
199	0xbc9f3963	-0.019436544
200	0xbddc1e79	-0.10748
201	0xbe3f029d	-0.1865334
202	0xbe2eb2c2	-0.17060378
203	0xbd9d58e5	-0.07682971
204	0xbd639ec7	-0.055571344
205	0x3e53eefc	0.20696634
206	0x3d0dfd6e	0.034665518
207	0x3e14fc5e	0.14549395
208	0x3de004b3	0.10938396
209	0x3b96cd21	0.00460209
210	0x3e5a9928	0.21347487
211	0x3e12b5da	0.14327183
212	0x3d2fe46e	0.042942457
213	0x3c3cb0ce	0.011516763
214	0xbd3476f6	-0.044058762
215	0xbdf83885	-0.12120155
216	0x3da9835d	0.08277009
217	0x3cb5a58a	0.022173662
218	0x3dd0e4f4	0.10199919
219	0xbdf02f0e	-0.11727725
220	0x3c1db156	0.0096248
221	0x3d989685	0.07450584
222	0x3e068a76	0.13138756
223	0xbdc2306e	-0.094818935
224	0xbe058822	-0.13040212
225	0x3ae2984f	0.0017287823
226	0x3d06d56c	0.03291838
227	0xbdc08e93	-0.09402194
228	0x3e425560	0.1897788
229	0xbe6778c5	-0.22604664
230	0x3d24c574	0.04022737
231	0x3e488697	0.19582592
232	0xbb127ab4	-0.0022350969
233	0xbe1d4af7	-0.15360628
234	0x3b1dbfc1	0.0024070593
235	0x3e18a61e	0.14907119
236	0x3d0e4739	0.034735892
237	0x3b413053	0.0029478266
238	0x3dd2adbb	0.10287043
239	0x3c94229f	0.018082915
240	0xbdc44ab4	-0.09584561
241	0x3e0740f7	0.13208376
242	0xbe168ab5	-0.1470135
243	0xbdd14630	-0.10218465
244	0x3d14318b	0.03618006
245	0xbd678f60	-0.056533217
246	0x3d33e06b	0.043915194
247	0xbca9d033	-0.02072916
248	0xbe2c7d7d	-0.16844745
249	0xbd8ded4e	-0.06930028
250	0x3db12dee	0.086513385
251	0xbe020b6e	-0.12699673
252	0xbd2f52ae	-0.04280346
253	0xbdde314f	-0.108492486
254	0x3cb710a4	0.022346802
255	0x3bc8b59f	0.0061251665

arith.constant8 f4 [256, 128]
0	0xbdb68f92	-0.089141026
1	0x3dee2160	0.116274595
2	0xbc893baf	-0.016752092
3	0xbda58e0f	-0.08083736
4	0xbd950ba8	-0.07277614
5	0xbd1169e0	-0.03550136
6	0xbd7149d4	-0.0589083
7	0xbdb1ed0f	-0.086877935
8	0xbaa6c9d1	-0.0012724941
9	0x3d97fd3e	0.07421349
10	0xbdfa045f	-0.12207865
11	0xb8596cec	-5.1838273e-05
12	0x3d7c93b4	0.0616643
13	0xbd8bc3fa	-0.06824489
14	0xbdaa4504	-0.08313945
15	0xbbbd3f5c	-0.0057753753
16	0x3dfc71d4	0.123263985
17	0x3dcdd784	0.10050872
18	0x3d36e358	0.044650406
19	0xbcfd4274	-0.030915476
20	0xbc84c57a	-0.016207445
21	0x3dfe2096	0.12408559
22	0x3dad9952	0.08476509
23	0xbdad5743	-0.084639095
24	0xbdc5e88a	-0.09663494
25	0xbdd5ee7c	-0.10445878
26	0xbdb8c624	-0.09022167
27	0xbd95d08e	-0.07315169
28	0x3d55018f	0.05200344
29	0xbd0e5dfb	-0.034757596
30	0x3cac87ac	0.021060787
31	0x3dc36d9a	0.09542389
32	0x3d3647e2	0.044502147
33	0x3dd5cd08	0.10439497
34	0x3dbc5d61	0.09197498
35	0x3d988fda	0.074493125
36	0x3cf4270c	0.029803775
37	0xbd8ff475	-0.07029048
38	0xbbe72527	-0.0070539895
39	0x3dbceb52	0.09224571
40	0xbd64bf8e	-0.055846743
41	0xbd9f6394	-0.07782665
42	0xbdd2c2b9	-0.10291047
43	0x3d545ac1	0.051844362
44	0xbd6d7226	-0.05797019
45	0xbd0cf0ab	-0.034409206
46	0xbc95db66	-0.018293094
47	0xbd11eb6f	-0.035624918
48	0x3d05200c	0.032501265
49	0xbd8b63a2	-0.06806113
50	0x3d6e5b8d	0.05819278
51	0x3dca72fe	0.09885214
52	0xbc95a2b0	-0.018266052
53	0x3dd97eec	0.106199116
54	0x3db600df	0.08886885
55	0x3d936ae0	0.07198119
56	0xbd487da5	-0.04894795
57	0xbcb37208	-0.02190496
58	0x3e113c41	0.14183141
59	0x3c8f6ed2	0.017508898
60	0x3cd4622a	0.025925715
61	0xbc04a282	-0.0080953855
62	0x3c38abcb	0.011271427
63	0x3d791596	0.0608116
64	0xbd1d1949	-0.038354192
65	0x3d53d001	0.05171204
66	0xbd88ec81	-0.066857345
67	0x3dab79b5	0.08372823
68	0xbdd71d08	-0.10503584
69	0xbd5147bd	-0.051093806
70	0x3dbb5bf4	0.09148398
71	0xbcb1418a	-0.021637697
72	0xbc20c959	-0.00981363
73	0x3cb5b57e	0.022181269
74	0xbd05110b	-0.032486957
75	0x3d1652de	0.036700122
76	0x3d7e84fe	0.06213855
77	0x3df5b957	0.119982414
78	0xbb20360b	-0.0024446275
79	0x3d0008fd	0.031258572
80	0xbd7c1370	-0.061541975
81	0x3d0951a7	0.033525135
82	0xbd0579ac	-0.03258674
83	0x3c1a3b99	0.009413623
84	0xbc8c134d	-0.017099047
85	0xbcbaabe1	-0.022787036
86	0xbba8267b	-0.0051315404
87	0x3da89328	0.08231193
88	0xbd8104c9	-0.06299741
89	0x3d860244	0.06543401
90	0xbc9e1d27	-0.01930101
91	0x3cbc20e3	0.0229649
92	0xbca1e36e	-0.019761767
93	0x3c9c8d6f	0.01911041
94	0x3dd89bc4	0.10576585
95	0xbdf0c59e	-0.117564425
96	0xbaa63259	-0.00126798
97	0xbdbad96f	-0.091235034
98	0x3d846e17	0.064663105
99	0x3d87b949	0.06627137
100	0xbd66f1aa	-0.056382813
101	0x3d8043f6	0.062629625
102	0xbd819489	-0.06327159
103	0x3d01bd03	0.031674396
104	0x3db92118	0.09039515
105	0x3c331d51	0.010932283
106	0xbd27a8ca	-0.040932454
107	0x3dbe3284	0.09286979
108	0xbd4ff74e	-0.050772958
109	0xbd4570e5	-0.048203368
110	0x3d6bf03c	0.057602152
111	0x3d34b3bf	0.04411673
112	0xbdc0c7b2	-0.09413089
113	0x3cd7b5bf	0.02633178
114	0x3d976221	0.073917635
115	0x3dbc16fb	0.09184071
116	0x3d66722c	0.056261227
117	0xbda14432	-0.07874335
118	0x3d9418f6	0.072313234
119	0xbcc79a73	-0.02436564
120	0x3df73d7b	0.12072273
121	0x3c3d48d4	0.011553008
122	0xbe03bb47	-0.1286441
123	0xbdda4ee8	-0.106595814
124	0xbc85052b	-0.016237816
125	0xbe032b78	-0.12809551
126	0x3e0358db	0.12826864
127	0x3df15a94	0.117848545
128	0xbd65617e	-0.05600118
129	0xbd1093c2	-0.035297163
130	0xbca1347f	-0.019678352
131	0xbdcc5cc7	-0.099786334
132	0xbd6e54ad	-0.058186222
133	0x3d08ff31	0.033446494
134	0xbbe94952	-0.007119336
135	0x3deec94a	0.116594866
136	0xbd602db0	-0.05473107
137	0xbe098c61	-0.13432457
138	0x3de8fd60	0.113764524
139	0x3d6d9dfb	0.05801199
140	0xbc14af67	-0.009075022
141	0xbd49674b	-0.049170773
142	0x3b5ebb93	0.0033986315
143	0x3d7b92da	0.061419345
144	0x3d47748e	0.04869514
145	0xbde89499	-0.11356468
146	0x3dbc5f5c	0.09197876
147	0xbda04e30	-0.07827413
148	0xbdb23b99	-0.087027736
149	0xbc8e14a8	-0.017343834
150	0xbdbd1a93	-0.09233584
151	0x3c12a928	0.008951463
152	0x3da897da	0.082320884
153	0x3d40e61b	0.047094446
154	0x3dccd285	0.10001091
155	0xbdb79f4e	-0.08965932
156	0x3d7aec11	0.061260287
157	0xbd9e5e5b	-0.077328406
158	0x3d42a3fb	0.047519665
159	0x3c9ae382	0.018907312
160	0x3df5b24f	0.119969
161	0xbd6d4070	-0.05792278
162	0xbd48f416	-0.049060903
163	0x3debc217	0.11511629
164	0xbd70771a	-0.058707334
165	0x3ca25b63	0.019818967
166	0x3d676828	0.056495816
167	0x3df5c254	0.11999956
168	0xbdc65883	-0.09684851
169	0xbd91d3fa	-0.071205094
170	0xbcca7e35	-0.024718383
171	0x3b1ecf0c	0.0024232296
172	0xbc494e5c	-0.012286749
173	0xbddb5621	-0.10709787
174	0x3d13266b	0.03592531
175	0x3d08ff53	0.03344662
176	0x3cee3fac	0.029083095
177	0xbda86591	-0.08222497
178	0xbda4bad6	-0.080434486
179	0xbd3ebe06	-0.04656794
180	0xbe0a1d7e	-0.13487813
181	0x3db6444d	0.08899746
182	0xbc96c3cc	-0.01840391
183	0xbe03d92c	-0.12875813
184	0x3b46a9af	0.0030313542
185	0xbdbc6331	-0.09198607
186	0x3e114f22	0.14190343
187	0xbcebc041	-0.028778197
188	0x3bb15862	0.0054121474
189	0xbca9df32	-0.02073631
190	0x3d4a3699	0.049368475
191	0x3dc53471	0.09629143
192	0x3bfb5a2d	0.007670662
193	0x3df0edf2	0.117641345
194	0x3cbe0480	0.023195505
195	0x3d27a61a	0.04092989
196	0xbd85ec09	-0.06539161
197	0x3db588c8	0.088639796
198	0xbcf02f9d	-0.029319579
199	0x3daf9da1	0.08574987
200	0xbc9eab99	-0.019368934
201	0xbc51a477	-0.012795559
202	0xbd88a415	-0.06671921
203	0xbc04078b	-0.008058439
204	0xbccc1e93	-0.024916923
205	0xbd9a5621	-0.07535959
206	0xbd980b36	-0.07424013
207	0xbd9588b0	-0.07301462
208	0xbd9bc870	-0.0760659
209	0x3dce59c2	0.10075714
210	0x3dc0a154	0.09405771
211	0xba03f013	-0.0005033027
212	0x3db27be7	0.08715039
213	0x3bf2e44f	0.0074124704
214	0xbdd3ec1c	-0.10347769
215	0xbdd97150	-0.10617316
216	0x3dff91c7	0.12478977
217	0x3dd21ad4	0.10259023
218	0xbdb6fe28	-0.08935195
219	0xbd40c234	-0.047060207
220	0xbcbabcf5	-0.02279518
221	0x3d3d1cb3	0.046169948
222	0x3daf3923	0.0855582
223	0x3d8655de	0.065593466
224	0xbde378c0	-0.111070156
225	0xbc9e190a	-0.019299049
226	0x3c3b0741	0.011415304
227	0xbd736074	-0.059418157
228	0x3d93b71a	0.07212658
229	0x3df759f7	0.12077706
230	0xbd2b3e03	-0.041807186
231	0x3da995ab	0.082805
232	0xbcc50c4a	-0.024053711
233	0x3ce6804f	0.028137354
234	0x3dbe4ee7	0.09292393
235	0x3d853b38	0.06505436
236	0x3dee7093	0.116425656
237	0x3db414e6	0.087930486
238	0xbc974863	-0.018467134
239	0x3d90eba4	0.07076195
240	0x3daf98a1	0.085740335
241	0xbd60a979	-0.05484912
242	0xbcb79e02	-0.022414211
243	0xbd320c88	-0.043468982
244	0x3ca8f042	0.020622376
245	0x3bae0800	0.0053110123
246	0xbde0a493	-0.1096889
247	0x3d821b62	0.06352879
248	0xbdd24536	-0.10267107
249	0x3cfdefa9	0.030998068
250	0x3d9a47c7	0.07533222
251	0x3deac9ac	0.11464247
252	0xbdd0ae3d	-0.10189483
253	0xbca6faa9	-0.020383196
254	0x3dc8520d	0.09781275
255	0xbdc9f9dc	-0.0986211

arith.constant9 f4 [256, 64]
0	0x3d1ad56f	0.037801202
1	0xbd146f1c	-0.036238775
2	0xbd6eed98	-0.058332056
3	0x3ae0e271	0.0017157329
4	0x3daf0396	0.08545606
5	0x3de8dee5	0.11370639
6	0xbd12540c	-0.035724685
7	0xbd92c328	-0.07166129
8	0xbcd42fdf	-0.025901733
9	0x3cbbf793	0.022945201
10	0x3c50b4c4	0.01273841
11	0xbddbb1c2	-0.10727264
12	0x3d16e6cf	0.03684121
13	0xbc41d577	-0.011830679
14	0x3d7f180b	0.06227879
15	0xbe154c08	-0.14579785
16	0xbcd5ac20	-0.026083052
17	0xbbb721bf	-0.0055887396
18	0xbd98becb	-0.07458266
19	0x3da7e453	0.08197846
20	0x3da86fd9	0.08224458
21	0x3d1d2940	0.038369417
22	0x3d094c2e	0.033519916
23	0xbd37bbf9	-0.044857
24	0x3bd1bd0a	0.006400709
25	0x3c00ff0b	0.007873307
26	0xbbbf51a8	-0.0058385916
27	0xbc972113	-0.018448388
28	0x3d3a2e6f	0.04545444
29	0x3d668aa5	0.056284565
30	0xbc6dd221	-0.014515431
31	0xbdd9148e	-0.105996236
32	0xbd2fb845	-0.042900342
33	0x3d69d0db	0.057083946
34	0xbd91dc3e	-0.07122086
35	0x3db95b3a	0.09050603
36	0xbca67111	-0.020317586
37	0x3d2c0f17	0.04200658
38	0x3cda4074	0.026642062
39	0xbc9bf121	-0.019035878
40	0x3c7c95dc	0.015416589
41	0x3c932b05	0.01796485
42	0xbe0a71cf	-0.13519977
43	0x3e013a2f	0.12619852
44	0xbc462fa7	-0.012096322
45	0x3d889b77	0.066702776
46	0xbd9500a3	-0.07275512
47	0xbc6a3011	-0.0142936865
48	0x3d2417d9	0.040061805
49	0xbd0247bf	-0.031806704
50	0xbdf48454	-0.11939302
51	0x3de28070	0.11059654
52	0x3d845206	0.06460957
53	0x3dd36af6	0.103231356
54	0x3b608859	0.0034260957
55	0x3d143099	0.03617916
56	0x3cc93c17	0.024564786
57	0xbd6744dd	-0.056462158
58	0x3dab44a6	0.08362703
59	0xbd46f3bb	-0.048572283
60	0x3da82e86	0.08211999
61	0x3dd2bb4e	0.10289632
62	0xbc97d65b	-0.01853483
63	0xbd2f5a06	-0.042810462
64	0x3d4c44d9	0.049870346
65	0x3de3896e	0.11110197
66	0x3d9fc3ee	0.078010425
67	0xbdcb8431	-0.09937323
68	0x3e1649b6	0.14676556
69	0xbc93fce3	-0.018064922
70	0x3d176fc8	0.036971837
71	0x3cc9423c	0.024567716
72	0x3cccec9d	0.02501517
73	0x3c48ebba	0.012263233
74	0x3d96eeb6	0.07369749
75	0xbd644451	-0.055729214
76	0x3d7b7531	0.06139106
77	0xbdbb2b1a	-0.0913908
78	0xbd50652e	-0.050877742
79	0xbdb77f9f	-0.08959889
80	0xbd1c83c8	-0.038211614
81	0x3c879c6a	0.016554076
82	0x3d6061b9	0.054780696
83	0x3da66796	0.08125226
84	0xbd3d0b70	-0.046153486
85	0x3c9f4935	0.019444088
86	0x3d173740	0.036917925
87	0x3c37ee01	0.011226178
88	0x3da59d0c	0.08086595
89	0xbcb70221	-0.022339882
90	0x3dc39c9c	0.09551355
91	0x3dc52ada	0.09627314
92	0xbe465f75	-0.19372351
93	0x3ce13bbf	0.02749431
94	0xbde2d41f	-0.11075615
95	0x3ce77fa7	0.028259112
96	0xbd06b633	-0.032888602
97	0x3d0dcfc0	0.034621954
98	0x3c9af0e8	0.018913701
99	0x3cdc395a	0.026882816
100	0xbd4b2e34	-0.04960461
101	0x3cc86464	0.024461932
102	0x3db05182	0.086092964
103	0xbd1b67cd	-0.03794079
104	0xbd5e048a	-0.054203548
105	0x3ce22ecf	0.02761021
106	0x3cf530b3	0.029930448
107	0x3a71fcb2	0.0009231075
108	0xbddcac1e	-0.10775016
109	0x3c8b711c	0.017021708
110	0x3d72857e	0.05920934
111	0xbd349cd3	-0.04409487
112	0xbccfe706	-0.025378715
113	0x3d8a8d3e	0.06765221
114	0xbddf7daa	-0.109126404
115	0x3bfdfdb2	0.00775119
116	0x3d1bd41e	0.038044088
117	0xbd92be3c	-0.071651906
118	0x3d23eb4a	0.04001931
119	0xbce5812b	-0.028015694
120	0x3c8056b4	0.015666343
121	0xbd2d280f	-0.04227453
122	0xbe479ca0	-0.19493341
123	0x3d96e23d	0.0736737
124	0xbda4c316	-0.08045022
125	0x3cc24f0e	0.023719337
126	0xbc79a187	-0.015236265
127	0xbd9081fe	-0.07056044
128	0xbd4fca89	-0.050730262
129	0x3d612982	0.054971226
130	0xbd2010c2	-0.03907848
131	0xbd083c4c	-0.03326063
132	0xbd45b432	-0.04826755
133	0xbdd60947	-0.10450988
134	0xbda0a1c1	-0.07843352
135	0xbd4f7b23	-0.05065454
136	0xbdfc8e88	-0.12331873
137	0x3dcb239d	0.09918902
138	0xbd2fcc9c	-0.04291974
139	0xbd3bd5a8	-0.045858055
140	0xbda08bdb	-0.07839175
141	0x3c9d005a	0.019165207
142	0xbc1453e4	-0.009053204
143	0xbccca318	-0.024980113
144	0x3c970555	0.01843516
145	0xbb83a8eb	-0.0040179393
146	0xbbdf1821	-0.0068082963
147	0xbc073132	-0.008251475
148	0x3d0c9019	0.03431711
149	0x3d9ac8c2	0.07557823
150	0x3d774001	0.060363773
151	0x3db6b561	0.08921314
152	0xbde3f29a	-0.11130257
153	0xbde7afc2	-0.1131282
154	0x3c9b19da	0.018933225
155	0xbb94dc71	-0.00454288
156	0xbd9e331e	-0.077245936
157	0xbd08a3f6	-0.03335949
158	0xbd4de532	-0.050267406
159	0x3daab5e0	0.08335471
160	0x3d8d4c27	0.068992905
161	0x3dc790f3	0.09744444
162	0xbda10cde	-0.07863782
163	0x3cada5ec	0.021197282
164	0xbd4ee62e	-0.050512485
165	0xbb49fbd5	-0.003082027
166	0xbcca488d	-0.024692798
167	0x3dbc96b8	0.09208435
168	0x3d918b26	0.071066186
169	0xbda431a1	-0.080172785
170	0x3d996ea0	0.07491803
171	0xbd3729bf	-0.044717547
172	0xbc930949	-0.017948763
173	0x3b4203ea	0.0029604384
174	0xbc5cbb47	-0.013472385
175	0x3d6f98c2	0.05849529
176	0x3cb201e3	0.021729415
177	0xbd327ad7	-0.04357418
178	0xbc047dfb	-0.008086677
179	0x3d33640f	0.043796595
180	0x3d818f13	0.06326117
181	0x3d45afb2	0.04826326
182	0xbce90fea	-0.028449971
183	0x3dd0aab9	0.10188813
184	0xbd02d88a	-0.03194479
185	0xbce14957	-0.027500791
186	0x3d2d4296	0.04229983
187	0xbd176034	-0.03695698
188	0x3e05942d	0.13044806
189	0x3cb53fe5	0.022125194
190	0xbd0eb3d1	-0.034839455
191	0x3c29d0ad	0.010364694
192	0xbd934544	-0.07190946
193	0x3bd77959	0.006575745
194	0x3d38b395	0.045093138
195	0x3c7c29d8	0.015390836
196	0x3dc7c63b	0.09754606
197	0x3dc586ef	0.09644877
198	0xbd486121	-0.048920754
199	0x3d942671	0.072338946
200	0xbda70e78	-0.081570566
201	0x393b348f	0.0001785329
202	0x3e159c0e	0.14610311
203	0xbe08c28d	-0.13355465
204	0x3d3a1aaf	0.045435604
205	0xbd67c20b	-0.05658154
206	0x3d2d5ebe	0.04232668
207	0xbd947fa6	-0.072509095
208	0xbd9a55a0	-0.07535863
209	0xbd6eea7f	-0.0583291
210	0xbb9f02e4	-0.0048526395
211	0xbdf0bba5	-0.1175454
212	0xbd81c720	-0.06336808
213	0x3df2eb49	0.11861283
214	0x3d92fc04	0.071769744
215	0x3dbb29a6	0.09138803
216	0x3cc84ae2	0.02444977
217	0xbd61b867	-0.0551075
218	0xbcd2d521	-0.025736393
219	0xbb723480	-0.0036957562
220	0x3dc479a6	0.09593515
221	0xbded86e1	-0.11597992
222	0xbcad9aaf	-0.021191923
223	0xbc801127	-0.015633179
224	0xbc66d522	-0.014088901
225	0xbd7c2114	-0.061554983
226	0xbdb145e7	-0.08655911
227	0x3de3b38d	0.11118231
228	0x3b9e4e97	0.004831146
229	0x3caee322	0.02134854
230	0xbc781b56	-0.015143236
231	0xbd351b7a	-0.044215657
232	0x3d0ec6de	0.034857623
233	0xbcd8150d	-0.026377225
234	0xbdcac873	-0.09901514
235	0xbcb92183	-0.022598987
236	0xbb41bace	-0.0029560807
237	0xbdc27d33	-0.09496536
238	0xbca8aa76	-0.020589095
239	0xbd98baa1	-0.07457472
240	0x3c835cea	0.016035516
241	0xbdc382d8	-0.09546441
242	0x3e044458	0.12916696
243	0xbc4ab071	-0.0123711685
244	0x3d4c0698	0.049810976
245	0xbdcb25ae	-0.09919296
246	0x3d3eb83c	0.04656242
247	0x3d99808d	0.07495222
248	0x3c54735c	0.012966957
249	0x3b6e4bb8	0.003636105
250	0xbe01e8b8	-0.12686431
251	0x3cc8b99a	0.024502564
252	0xbc1a8d4b	-0.009433101
253	0x3e694562	0.22780374
254	0xbd8cf62a	-0.068828896
255	0xbd79555b	-0.060872417

arith.constant10 f4 [512, 20]
0	0xbd512f25	-0.05107035
1	0xbd28777d	-0.041129578
2	0xbb71e2f3	-0.0036908954
3	0x3d6933f7	0.056934323
4	0x3dae4c4d	0.08510647
5	0x3d2580c1	0.040405992
6	0x3da2800e	0.07934581
7	0xbdd73ab6	-0.10509245
8	0xbd4ddae7	-0.05025759
9	0x3d662ac5	0.056193132
10	0x3d0938c9	0.03350142
11	0x3dc8b42d	0.09799991
12	0xbd3daecb	-0.046309274
13	0xbcd0f493	-0.025507247
14	0x3d5be776	0.053687535
15	0x3d8904a4	0.06690338
16	0x3d5bafdd	0.053634513
17	0x3ddf5733	0.10905304
18	0x3dbbdeaa	0.09173329
19	0x3d753ee3	0.059874427
20	0xbda31084	-0.079621345
21	0xbd1ecc1c	-0.038768873
22	0xbd82e5f8	-0.06391519
23	0xbd343639	-0.043997023
24	0x3dad2d19	0.08455867
25	0x3dc75546	0.097330615
26	0x3c462fd3	0.012096363
27	0x3b8e6af1	0.0043462445
28	0x3d5ffe32	0.05468578
29	0xbdd7afa1	-0.105315454
30	0x3d96264c	0.07331523
31	0xbd34574c	-0.044028565
32	0xbdc1a1ef	-0.094547145
33	0x3daa5169	0.08316309
34	0xbd4c12d1	-0.049822632
35	0x3da24a0a	0.07924278
36	0x3aa4600a	0.0012540829
37	0x3d33c0b1	0.043884937
38	0xbd4d0308	-0.05005172
39	0x3b78ae2d	0.0037945614
40	0xbc8b84b4	-0.017031051
41	0xbdd4434b	-0.103643976
42	0x3d02df82	0.031951435
43	0xbd9c440b	-0.07630166
44	0x3dc49ca6	0.09600191
45	0x3da13a9a	0.078725055
46	0xbb92e968	-0.0044833906
47	0x3dd5cbbc	0.1043925
48	0xbd696757	-0.05698332
49	0x3b6ba564	0.0035956735
50	0x3d717fdb	0.058959823
51	0xbd4a167e	-0.049337856
52	0x3d28224f	0.041048344
53	0x3d6aa062	0.05728186
54	0xbcc05a30	-0.023480505
55	0xbd0e4ac6	-0.03473928
56	0xbda4014a	-0.08008058
57	0x3cb497f6	0.022045117
58	0xbda3f4d5	-0.080056824
59	0x3da6cf4c	0.081450075
60	0xbd902fad	-0.070403434
61	0x3cd98d94	0.026556768
62	0xbda37e2d	-0.079830505
63	0xbd93d79d	-0.07218859
64	0x3daa5bc4	0.08318284
65	0xbd209ad0	-0.03921014
66	0xba0500ad	-0.0005073648
67	0x3da1aa9c	0.07893869
68	0xbdeb1df1	-0.1148032
69	0xbde71a44	-0.11284307
70	0xbdb38765	-0.08766059
71	0x3d87b556	0.06626384
72	0xbc0ccc82	-0.00859368
73	0xbd7e48ac	-0.062081024
74	0xbd8ced59	-0.06881208
75	0xbc8c10b2	-0.017097805
76	0x3cd59bb7	0.026075227
77	0x3d5f3a61	0.054499034
78	0xbd30e92e	-0.043191127
79	0xbda43510	-0.08017933
80	0xbd3a52d1	-0.045489136
81	0x3d1e7407	0.03868487
82	0xbd7387d0	-0.059455693
83	0x3c888344	0.016664155
84	0xbd05161f	-0.0324918
85	0x3d49ad3f	0.049237486
86	0xbd489f6b	-0.048980158
87	0x3d6612f8	0.056170434
88	0x3d923dae	0.07140671
89	0x3d62b778	0.05535075
90	0xbdb56d04	-0.08858684
91	0xbd96f61f	-0.073711626
92	0xbcb634a0	-0.02224189
93	0xbcbc0c84	-0.022955187
94	0x3d7ca69d	0.061682332
95	0x3d5c6be0	0.053813815
96	0x3dce2131	0.100649245
97	0xbd99a957	-0.07503002
98	0xbdc166f4	-0.09443465
99	0xbd37e96e	-0.04490035
100	0xbc1d6abf	-0.00960797
101	0xbdabe607	-0.083934836
102	0xbcfe6e6f	-0.031058518
103	0xbdb57050	-0.088593125
104	0xbd2e0c99	-0.042492483
105	0x3dca2d51	0.09871925
106	0x3c86b5fa	0.016444195
107	0x3d466812	0.048439093
108	0x3d734203	0.059389126
109	0x3d3e54d7	0.04646763
110	0xbdcae62e	-0.099071845
111	0x3dccd536	0.10001604
112	0xbd617c85	-0.05505039
113	0x3c59686c	0.013269525
114	0xbd14191c	-0.03615676
115	0x3dcf1b43	0.10112622
116	0x3db24b0a	0.08705719
117	0x3d233663	0.03984679
118	0x3d995b87	0.074881606
119	0xbd0083d6	-0.03137573
120	0xb94fb568	-0.00019808637
121	0xbe3c15bc	-0.18367666
122	0x3daefbee	0.085441455
123	0xbc0c6ea4	-0.008571301
124	0x3d80a406	0.06281285
125	0xbcabfa9c	-0.020993523
126	0x3df74cda	0.12075205
127	0x3dc3a2ed	0.0955256
128	0xbd93d89c	-0.07219049
129	0xbd652f9b	-0.055953603
130	0x3e11b63b	0.14229672
131	0x3d8c6ae7	0.068563275
132	0xbca2d0e3	-0.019874996
133	0xbbfc4cbd	-0.0076995776
134	0xbc104692	-0.008805888
135	0x3d8ca8d9	0.06868143
136	0xbd4b9794	-0.049705103
137	0x3bcdf818	0.0062856786
138	0xbe24af00	-0.16082382
139	0xbe0a849b	-0.13527147
140	0x3daa6ee7	0.08321934
141	0x3da113fd	0.078651406
142	0x3d8e2e6a	0.069424465
143	0x3db97acf	0.09056627
144	0xbdc01def	-0.093807094
145	0x3c70adee	0.014689906
146	0xbd6f4c0f	-0.058422145
147	0x3dafa041	0.08575488
148	0x3d063579	0.03276584
149	0xbc9dd847	-0.019268168
150	0x3d0224eb	0.03177349
151	0x3da2ea6d	0.079548694
152	0x3c679642	0.014134945
153	0xbc465609	-0.012105473
154	0x3dc610cd	0.09671173
155	0x3dc243f9	0.09485621
156	0xbae30efd	-0.0017323192
157	0xbcbd8043	-0.023132449
158	0x3dc90137	0.09814685
159	0xbd4454b5	-0.047932345
160	0x3d062cde	0.032757632
161	0xbdce3369	-0.100683995
162	0xbdb71c06	-0.08940892
163	0x3d0e2a26	0.034708165
164	0xbdc3391b	-0.095323764
165	0xbe1d0653	-0.15334444
166	0x3db3c3b5	0.087775625
167	0x3d5256e4	0.051352397
168	0x3d8c4b66	0.068503186
169	0xbdadf7d0	-0.08494532
170	0xbcafb933	-0.021450615
171	0x3d241ade	0.040064685
172	0xbd581722	-0.052756436
173	0xbd2fe39d	-0.04294168
174	0x3d0e9dbb	0.034818392
175	0xbda2a499	-0.07941551
176	0x3d0663b2	0.03280992
177	0x3c7424b3	0.014901328
178	0xbe138b93	-0.14408712
179	0xbcf39e8d	-0.029738689
180	0xbca1a1b5	-0.019730428
181	0xbdd0e64e	-0.10200177
182	0xbb7653e0	-0.0037586614
183	0xbd9f5672	-0.0778016
184	0xbd89c006	-0.06726079
185	0x3d7eb798	0.062186807
186	0x3d191740	0.03737569
187	0x3bfb7d24	0.00767483
188	0x3cdb4503	0.026766306
189	0x3c28cdfc	0.010303017
190	0xbcc8ab35	-0.0244957
191	0x3ded1273	0.115757845
192	0xbdbc8b5e	-0.0920627
193	0xbce2cd5e	-0.027685817
194	0x3c5cf4af	0.0134860715
195	0x3df2a19c	0.11847231
196	0xbcb9bafc	-0.022672169
197	0x3d8911e6	0.06692867
198	0x3cfbf2b8	0.030755386
199	0x3ba33049	0.0049801213
200	0xbcf61aa6	-0.030042004
201	0x3ce259d5	0.027630726
202	0xbda813bf	-0.08206891
203	0x3cba96be	0.022776958
204	0xbda053fe	-0.0782852
205	0xbd61837d	-0.055057038
206	0x3cbf0da5	0.023321936
207	0x3d4c0559	0.049809787
208	0x3d0a4abf	0.03376269
209	0x3d320a9c	0.04346715
210	0xbd9fc15e	-0.07800554
211	0x3d5d9eb5	0.054106433
212	0xbd72fd39	-0.059323523
213	0xbd0b678e	-0.034034304
214	0x3c48946b	0.012242417
215	0x3d84c9ee	0.064838275
216	0x3dc86240	0.09784365
217	0x3cec839d	0.028871352
218	0x3d81cab0	0.06337488
219	0xbd8ed392	-0.069739476
220	0x3b60196b	0.0034194838
221	0x3dfc33bc	0.12314555
222	0x3da972a1	0.08273817
223	0x3d0be2b4	0.034151748
224	0x3e0e1c37	0.1387795
225	0xbddbcf24	-0.10732868
226	0xbe1f0cc6	-0.15532216
227	0xbde8d4f2	-0.11368741
228	0x3d205c11	0.0391503
229	0xbe1c1321	-0.15241672
230	0x3d95b4ec	0.07309899
231	0xbe425f66	-0.18981704
232	0x3d55034a	0.05200509
233	0x3d8441d5	0.06457869
234	0xbdb78276	-0.0896043
235	0xbdf737df	-0.120712034
236	0x3d8f7fd4	0.07006803
237	0x3cf5ff29	0.030028896
238	0xbd9441de	-0.07239126
239	0x3df383c5	0.118903674
240	0xbdaf82d2	-0.08569874
241	0x3cfa8510	0.030581027
242	0x3db31580	0.08744335
243	0xbc5d9510	-0.013524309
244	0x3db5a654	0.08869615
245	0xbc80549c	-0.015665345
246	0xbcfed4ac	-0.03110727
247	0xbd78095a	-0.060555793
248	0xbd93d923	-0.0721915
249	0xbda810fa	-0.08206363
250	0xbd7f9121	-0.062394265
251	0xbc67bc60	-0.014144033
252	0x3d910a54	0.07082048
253	0x3db95068	0.090485394
254	0x3db7786c	0.089585155
255	0x3dc9571c	0.09831068

arith.constant11 f4 [512, 128]
0	0xbbf8c547	-0.0075918767
1	0x3ceb9ada	0.028760362
2	0xbd99c461	-0.075081594
3	0xbc58bb1c	-0.013228204
4	0xbc6f68e9	-0.014612415
5	0x3d73c3d3	0.059512924
6	0xbda1ac33	-0.078941725
7	0xbbbbb7a1	-0.0057286774
8	0xb9c716de	-0.00037973275
9	0x3cca3b7b	0.024686566
10	0xbae4a5ba	-0.001744441
11	0xbd0a96ac	-0.0338351
12	0x3cc36699	0.023852633
13	0x3cf6f809	0.03014757
14	0x3ca52981	0.020161392
15	0xbc8c986f	-0.01716253
16	0xba58214f	-0.00082447095
17	0xbdad584d	-0.08464108
18	0xbc359b8f	-0.011084451
19	0xbd2b435b	-0.041812282
20	0x3b896a59	0.004193586
21	0x3bf6951d	0.0075251
22	0x3bf0a78d	0.0073441924
23	0x3ae6112d	0.0017552726
24	0xbbd94403	-0.006630422
25	0x3cc4211e	0.023941573
26	0xbd7ce0be	-0.06173777
27	0x3d98e268	0.074650586
28	0xbd055cfe	-0.032559387
29	0xb8831c71	-6.2518644e-05
30	0xbcfb9f35	-0.030715564
31	0x3da224d3	0.0791718
32	0x3d4d71e2	0.050157435
33	0x3d5cdde7	0.05392256
34	0xbbfe730e	-0.0077651804
35	0x3cbc386b	0.022976121
36	0x3c05b0cb	0.0081598265
37	0x3c8f2fef	0.017478911
38	0x3b142df1	0.002261039
39	0xbdb2ff71	-0.08740128
40	0xbb7b6375	-0.0038358842
41	0xbd544e8a	-0.051832713
42	0x3cbaa5b9	0.0227841
43	0x3d3fc54a	0.04681901
44	0x3c9edff6	0.019393902
45	0x3c011cd1	0.0078804055
46	0xbc1b6b29	-0.009485998
47	0x3cdb6bc1	0.02678478
48	0x3cabb8ea	0.020962197
49	0xbce3f67f	-0.0278275
50	0x3d417329	0.047228966
51	0x3c8c1938	0.017101869
52	0xbc38da25	-0.011282478
53	0xbd56bc3c	-0.052425608
54	0x3a8a1e39	0.0010537572
55	0xbd645135	-0.055741508
56	0xbd33e595	-0.04392012
57	0x3d941163	0.07229879
58	0xbd03b5fe	-0.032155983
59	0xbcd4ed41	-0.025992038
60	0xbd9d61d9	-0.076846786
61	0xbcab7b64	-0.02093286
62	0x3ced2180	0.028946638
63	0xbd10d8ce	-0.03536301
64	0x3cc37e7a	0.02386402
65	0x3d1383ec	0.036014482
66	0x3d1f8740	0.038947344
67	0xbc03fd2f	-0.008055969
68	0xbca38a8d	-0.019963527
69	0xbcdf7e47	-0.027281893
70	0x3d85250b	0.06501206
71	0xbbf29791	-0.007403322
72	0x3b137754	0.0022501545
73	0x3bd8ceeb	0.0066164634
74	0x3b0b0c1e	0.002121694
75	0x3c2587a9	0.010103145
76	0x3d33d062	0.0438999
77	0x3cf4647d	0.029833073
78	0x3c55c6d4	0.013047893
79	0xbcb7e5de	-0.022448476
80	0xbd288df8	-0.041151017
81	0xbb97a706	-0.004628065
82	0x3d1ef186	0.038804553
83	0xbd02440e	-0.031803183
84	0x3d6b8bce	0.057506375
85	0x3bcc87d9	0.0062417802
86	0x3ccda8d4	0.025104918
87	0x3d86057b	0.06544014
88	0xbc850877	-0.016239388
89	0xbd25aa3f	-0.040445562
90	0xbce56632	-0.028002832
91	0x3d2b8f4d	0.04188471
92	0x3d2b2140	0.041779757
93	0x3d1ba928	0.038003117
94	0xbd019eec	-0.0316457
95	0xbc1dc589	-0.009629616
96	0xbd874117	-0.06604212
97	0x3de9442b	0.11389955
98	0x3b237081	0.0024938884
99	0x3c658e15	0.014010926
100	0x3d736368	0.059420973
101	0x3d51e4ea	0.0512437
102	0xbd09849c	-0.03357373
103	0x3d673e17	0.056455698
104	0xbcb344fe	-0.021883484
105	0x3c807ca0	0.015684426
106	0xbc6112dd	-0.0137374075
107	0xb80c235f	-3.3411543e-05
108	0x3d829595	0.06376187
109	0xbc8ba374	-0.017045714
110	0x39ef7a81	0.00045676905
111	0xbd82489d	-0.06361506
112	0xbd2ee9a3	-0.042703282
113	0xbd16c75d	-0.03681122
114	0x3c4a3788	0.012342341
115	0x3c01b923	0.007917675
116	0x3cdd397a	0.027004946
117	0x3d1ec2f5	0.038760144
118	0x3c267d3a	0.010161692
119	0xbb89f83d	-0.0042105005
120	0xbd45cc93	-0.0482908
121	0xbd52ad27	-0.051434662
122	0x3d239d6c	0.03994505
123	0x3b309aa4	0.0026947642
124	0xbcdddd14	-0.027082957
125	0xbd0d68e2	-0.034523852
126	0x3c5ff424	0.0136690475
127	0xbd153a52	-0.03643257
128	0xbbd65010	-0.006540306
129	0xbc78a835	-0.015176822
130	0x3d2bb580	0.04192114
131	0x3d92929d	0.071568705
132	0xbc04f496	-0.008114954
133	0x3db061d1	0.08612407
134	0xbca202e2	-0.019776765
135	0xbcc01fdb	-0.02345269
136	0xbd1a420f	-0.037660655
137	0xbd3e0f39	-0.046401236
138	0x3c778e36	0.015109589
139	0x3c4d18fd	0.012518165
140	0xbbdef7f2	-0.0068044597
141	0xbbd9c05d	-0.006645246
142	0xbd19dd5a	-0.037564613
143	0xbc92e2d6	-0.01793043
144	0x3c4b2de4	0.012401078
145	0xbd8946d6	-0.06702964
146	0x3b9c04c2	0.0047613094
147	0xbd2637e6	-0.040580653
148	0x3ca8f60e	0.02062514
149	0x3c8b97fa	0.017040242
150	0x3c02e767	0.007989741
151	0xbd007b13	-0.031367373
152	0x3d382864	0.044960395
153	0x3ccea297	0.025224013
154	0xbd03feac	-0.032225296
155	0xbd482d71	-0.04887146
156	0xbdb24b4a	-0.087057665
157	0x3d7a99b1	0.061181728
158	0xbd3a3ec3	-0.04547001
159	0xbb9e6db4	-0.004834855
160	0xbcdd4fc3	-0.027015572
161	0x3d46da94	0.048548296
162	0x3c415185	0.011799221
163	0x3c7c039d	0.015381721
164	0x3c9f368c	0.01943519
165	0xbcbc71d1	-0.02300349
166	0x3d2f3d4b	0.042783063
167	0x3cb05555	0.021525064
168	0xbc1ea976	-0.009683957
169	0x3cad0026	0.021118235
170	0xbd3f2460	-0.04666555
171	0x3d35b9ea	0.044366755
172	0xbcdd10b0	-0.026985496
173	0xbd5960ad	-0.053070713
174	0x3ce2607e	0.027633902
175	0xbd189aec	-0.03725712
176	0xbb6ed618	-0.0036443528
177	0xbd2f9833	-0.042869758
178	0x3d3312a9	0.043718968
179	0x3d2ac97e	0.041696064
180	0xbd82e10c	-0.063905805
181	0x3ca2ae6e	0.019858565
182	0xbdcf5a43	-0.10124638
183	0x3cce8565	0.025210092
184	0xbb734a22	-0.0037123044
185	0xba8cb603	-0.0010735396
186	0xbd0293e5	-0.031879324
187	0xbc1ca77f	-0.009561419
188	0xbd82dc13	-0.06389632
189	0x3d406875	0.046974618
190	0xbca674b5	-0.020319322
191	0xbb8cf8e9	-0.0043021333
192	0xbd59a314	-0.05313404
193	0xbdd27234	-0.10275689
194	0xbb8c162c	-0.004275104
195	0xbd11cb49	-0.03559426
196	0xbd27b736	-0.040946208
197	0x3cbfd1b3	0.023415422
198	0xbd858466	-0.065193936
199	0xbd277673	-0.040884446
200	0xbb45f0ea	-0.003020341
201	0x3c9fc7d1	0.01950446
202	0xbc647af1	-0.013945327
203	0xbdaae894	-0.08345142
204	0x3c10bff5	0.008834829
205	0x3de70f93	0.112822674
206	0x3c705c68	0.014670469
207	0x3c932028	0.01795967
208	0x3d57fe4e	0.05273276
209	0xba3bdf26	-0.00071667356
210	0x3d1af762	0.03783358
211	0xbcb8035c	-0.02246254
212	0x3c3babee	0.011454565
213	0x3d3783d9	0.044803474
214	0x3d1a90b1	0.037735645
215	0x3c6d4be5	0.014483427
216	0xbdc3f185	-0.095675506
217	0xbd258698	-0.04041156
218	0x3ce0db8b	0.027448436
219	0xbd781106	-0.06056311
220	0x3d568084	0.052368656
221	0x3cb46295	0.022019664
222	0x3cb62d97	0.022238536
223	0xbc63d412	-0.013905542
224	0x3ce3becd	0.027800942
225	0xbd98df58	-0.074644744
226	0x3dd66669	0.10468752
227	0xbd19eff7	-0.037582364
228	0xbc8610e4	-0.016365476
229	0x3d6ec1f4	0.058290437
230	0xbd65a0ab	-0.056061428
231	0x3d11ec80	0.035625935
232	0x3be929e3	0.007115589
233	0x3cb7b53a	0.022425283
234	0x3d4cac20	0.04996884
235	0xbcb649fe	-0.02225208
236	0x3c958ddb	0.018256119
237	0x3d160391	0.036624495
238	0x3d9db4aa	0.077004746
239	0xbd4c05cc	-0.049810216
240	0xbd10b047	-0.03532436
241	0x3c94d6e5	0.018168876
242	0xbd500098	-0.050781816
243	0xbcc5dc07	-0.024152769
244	0x3c37fe03	0.011229995
245	0x3cd7315f	0.02626866
246	0x3cc9166b	0.024546823
247	0xbd101b4d	-0.035182286
248	0x3cf3ba90	0.029752046
249	0x3cfc8cd3	0.030828869
250	0xbd21da47	-0.039514806
251	0x3b1a89b2	0.0023580608
252	0x3a2b8112	0.00065423653
253	0x3d7c2fd3	0.061569046
254	0xbd6c8952	-0.057748146
255	0x3d1233c4	0.0356939

arith.constant12 f4 [512]
0	0x3bfd24d2	0.0077253366
1	0x397c24ad	0.00024046256
2	0x37a6f964	1.9904874e-05
3	0x3bf2bc7d	0.0074077235
4	0xb1ea5dd6	-6.8209642e-09
5	0x38126e96	3.4912104e-05
6	0x3b7c5750	0.003850419
7	0xb7f874fd	-2.961838e-05
8	0x3ca9184e	0.020641472
9	0xbb9e6c6e	-0.004834703
10	0xb88908c7	-6.534304e-05
11	0x3c1131ec	0.008862
12	0xaba7dd01	-1.1927405e-12
13	0x39872113	0.0002577385
14	0x38e46235	0.0001089018
15	0x3c40a65d	0.011758414
16	0xba2afd68	-0.0006522746
17	0x3c383378	0.01124274
18	0x3b0ac52a	0.0021174648
19	0xbc365aba	-0.011130029
20	0xbbda3686	-0.0066593317
21	0xbc39f7c7	-0.011350579
22	0xb967108a	-0.00022036038
23	0x30577472	7.8382023e-10
24	0x371534a0	8.893345e-06
25	0x387393f9	5.8073525e-05
26	0xbaa56c77	-0.0012620826
27	0x3c822abe	0.015889522
28	0x3c217999	0.009855651
29	0x3b75e49a	0.003752029
30	0x3cb3bc84	0.021940477
31	0x381356eb	3.512848e-05
32	0xb83f7c3b	-4.5653647e-05
33	0x34f9d4bd	4.6534652e-07
34	0xbd23c18c	-0.039979503
35	0x39673ef4	0.00022053329
36	0x368cacde	4.1924495e-06
37	0xbcd5ebb5	-0.02611337
38	0xb4f180c7	-4.4983446e-07
39	0x3c6031c7	0.013683743
40	0xba8500e8	-0.0010147365
41	0xbc27ad13	-0.010234135
42	0x3c14d14c	0.009083103
43	0x33db8500	1.0222175e-07
44	0x3c89478f	0.016757755
45	0xbac34de7	-0.0014900536
46	0xb82ef659	-4.1714262e-05
47	0xbc2ab3db	-0.010418857
48	0x3b76a40b	0.0037634398
49	0x37f9852a	2.9745122e-05
50	0xb9668cf6	-0.00021987021
51	0xb50c2efe	-5.2222447e-07
52	0x3b332118	0.0027332958
53	0xb72fa351	-1.0468838e-05
54	0xb7a84518	-2.0059335e-05
55	0x3c8d8287	0.017274154
56	0x3624f561	2.4580734e-06
57	0x367ca9ec	3.7649834e-06
58	0x3cd01bf2	0.02540395
59	0x37eb5e08	2.805797e-05
60	0x3cca199e	0.024670418
61	0x3c574dd3	0.013141113
62	0xbc954c3e	-0.018224832
63	0xbc17e380	-0.009270549
64	0xb70da583	-8.442791e-06
65	0xb9a7f6de	-0.00032036653
66	0x372bbab9	1.0235869e-05
67	0x3cc94907	0.024570955
68	0xbab1b980	-0.0013559312
69	0x3c4f06a4	0.012635861
70	0x3ca41889	0.02003123
71	0x3c7a0c08	0.015261658
72	0xb6de42b2	-6.62388e-06
73	0x3cd4fc61	0.02599925
74	0x3d05d868	0.032677084
75	0x35982cdd	1.133794e-06
76	0xbc0a4903	-0.008440259
77	0x3ba5df59	0.0050620255
78	0xbaa8a428	-0.0012866305
79	0x3ce1a926	0.027546477
80	0x3c9caafa	0.019124497
81	0x2f88ce75	2.4884952e-10
82	0x3c6d55e8	0.014485814
83	0x3d22fbac	0.039790794
84	0x3bc5c355	0.0060352483
85	0x3c6a1abd	0.014288601
86	0xb9b9430a	-0.00035335898
87	0x353c645c	7.01815e-07
88	0xb8127d08	-3.4925557e-05
89	0xbcaa4365	-0.02078409
90	0xbc6cbdbf	-0.014449536
91	0x3a853273	0.001016213
92	0xbb738f63	-0.0037164323
93	0x369a2214	4.593525e-06
94	0x36962b38	4.4753797e-06
95	0x3b8f9be3	0.004382597
96	0x3bd8bec5	0.0066145384
97	0xbcc57ec9	-0.024108307
98	0xbbb60442	-0.005554707
99	0x3bd4fc5a	0.006499809
100	0x3c9c5526	0.01908357
101	0x3bd3df02	0.0064657936
102	0xbbd1b322	-0.006399528
103	0x3ba1cf38	0.0049380325
104	0xbb33e751	-0.0027451108
105	0xbc1bcb1f	-0.009508877
106	0x3a6dc3d8	0.00090700155
107	0x34ea3fab	4.363222e-07
108	0xb591bf07	-1.0858938e-06
109	0xbd24776b	-0.04015295
110	0xb2e8543a	-2.7046656e-08
111	0x3c228551	0.00991948
112	0xbd027dbf	-0.031858202
113	0x2df96acd	2.8355452e-11
114	0xbc2b7edb	-0.010467256
115	0x3bd9c12f	0.0066453437
116	0x3c8b45ba	0.017001022
117	0xb4835f1e	-2.4469858e-07
118	0xb78b2b8d	-1.6590371e-05
119	0x3d2faf0c	0.042891547
120	0xbab8bd6e	-0.001409454
121	0x3b6d1056	0.0036173067
122	0x3a92a456	0.0011187892
123	0xb466b4f3	-2.1486248e-07
124	0x36e58e9d	6.841334e-06
125	0x3aaa37a5	0.0012986554
126	0x3887236c	6.4438995e-05
127	0xbb9b6ea8	-0.004743416
128	0x3f7d8541	0.99031454
129	0x3f7e60e5	0.993666
130	0x3f800000	1.0
131	0x3f84e9c9	1.0383846
132	0x3f800000	1.0
133	0x3f800000	1.0
134	0x3f800029	1.0000049
135	0x3f800018	1.0000029
136	0x3f7e85d1	0.9942294
137	0x3f800212	1.0000632
138	0x3f7fcea4	0.99924684
139	0x3f7ffb3c	0.9999273
140	0x3f800000	1.0
141	0x3f80028d	1.0000778
142	0x3f805cc0	1.0028305
143	0x3f7f4618	0.9971633
144	0x3f7ff529	0.9998346
145	0x3f7f66cc	0.9976623
146	0x3f78aa68	0.9713502
147	0x3f800013	1.0000023
148	0x3f7ffb97	0.9999327
149	0x3f7fceb0	0.99924755
150	0x3f7fffda	0.99999774
151	0x3f800000	1.0
152	0x3f836808	1.0266123
153	0x3f800000	1.0
154	0x3f7bbb88	0.98333025
155	0x3f7fff90	0.9999933
156	0x3f800e7e	1.0004423
157	0x3f7e7b3d	0.99406797
158	0x3f7e2000	0.9926758
159	0x3f8005c6	1.0001762
160	0x3f800000	1.0
161	0x3f800000	1.0
162	0x3f802232	1.0010436
163	0x3f8000d9	1.0000259
164	0x3f7fffbf	0.9999961
165	0x3f80006c	1.0000129
166	0x3f800000	1.0
167	0x3f8252a0	1.0181465
168	0x3f7bd5aa	0.983729
169	0x3f800658	1.0001936
170	0x3f803cd8	1.0018568
171	0x3f800000	1.0
172	0x3f800c0a	1.0003674
173	0x3f7ffffe	0.9999999
174	0x3f80004a	1.0000088
175	0x3f8210c5	1.0161368
176	0x3f75cd1b	0.9601609
177	0x3f819e95	1.012652
178	0x3f800002	1.0000002
179	0x3f7ffe53	0.9999744
180	0x3f800e1f	1.000431
181	0x3f7fe4d3	0.99958533
182	0x3f800000	1.0
183	0x3f7e986d	0.99451333
184	0x3f7fb1b3	0.9988052
185	0x3f8027aa	1.0012105
186	0x3f7fe816	0.9996351
187	0x3f7ed719	0.9954696
188	0x3f82457b	1.0177454
189	0x3f7fa3fe	0.9985961
190	0x3f7fe601	0.99960333
191	0x3f806986	1.0032203
192	0x3f800000	1.0
193	0x3f804d6e	1.002363
194	0x3f800000	1.0
195	0x3f7dbce7	0.9911637
196	0x3f7e361a	0.993013
197	0x3f84c1b9	1.037162
198	0x3f823fd0	1.0175724
199	0x3f80c277	1.0059346
200	0x3f800000	1.0
201	0x3f851852	1.0398047
202	0x3f802b6b	1.001325
203	0x3f7c9ba4	0.9867499
204	0x3f808d2f	1.0043086
205	0x3f80ce8d	1.0063034
206	0x3f7fc86f	0.9991521
207	0x3f806edd	1.0033833
208	0x3f81003b	1.0078195
209	0x3f800000	1.0
210	0x3f835e87	1.0263222
211	0x3f7ea5a6	0.9947151
212	0x3f7ed13f	0.99538034
213	0x3f8020d4	1.0010018
214	0x3f8015f0	1.0006695
215	0x3f800000	1.0
216	0x3f800000	1.0
217	0x3f7e9fa1	0.99462324
218	0x3f7feddc	0.9997232
219	0x3f7d78d6	0.99012506
220	0x3f7f6cdd	0.9977549
221	0x3f800000	1.0
222	0x3f800000	1.0
223	0x3f7ff858	0.9998832
224	0x3f8064ac	1.0030723
225	0x3f7ffb33	0.99992675
226	0x3f7ffde5	0.9999679
227	0x3f800000	1.0
228	0x3f83dfa7	1.0302628
229	0x3f81ed34	1.0150514
230	0x3f7ffff5	0.99999934
231	0x3f7ffec6	0.9999813
232	0x3f800000	1.0
233	0x3f822925	1.0168806
234	0x3f81b15f	1.0132254
235	0x3f800000	1.0
236	0x3f7ffeb2	0.9999801
237	0x3f863fcf	1.0488223
238	0x3f7ef22f	0.9958829
239	0x3f80084f	1.0002536
240	0x3f7b2248	0.98099184
241	0x3f800000	1.0
242	0x3f7ffe52	0.99997437
243	0x3f81b6c6	1.0133903
244	0x3f7ffbc7	0.99993557
245	0x3f7fd7c5	0.99938613
246	0x3f800000	1.0
247	0x3f804e9d	1.0023991
248	0x3f800000	1.0
249	0x3f800a1a	1.0003083
250	0x3f7f5b95	0.9974912
251	0x3f800000	1.0
252	0x3f7efea9	0.9960733
253	0x3f7ffb83	0.9999315
254	0x3f7600c1	0.960949
255	0x3f7f8e86	0.9982685
