app/src/main/assets/model.tflite (tflite, 554364 bytes, 16 tensors)

arith.constant6 f4 [5, 128]
00000000: 4360 8f3d 15f2 4f3e cde1 70be 8a8f 54bd
00000010: fa8b 063e fcd4 023e 4a66 0d3d 649d c1bd
00000020: c9c8 503e 192a 8abd a234 f73d 6a38 ca3d
00000030: 5ab3 98bd edbb 053e cfdc 793d d41f 5a3e
00000040: 8c06 6dbd c46b 14bd 6ea2 5e3e 45eb d3bd
00000050: 6406 613d ff84 83be 106d 7cbe 52ef 20be
00000060: 6847 42bd eff2 fe3c 8b8d 673e 9d19 83bd
00000070: 7ddb 33bd 8b73 70be 3ce0 753e 3b0c c0bd
00000080: b6d9 503e d507 28be b888 12be 32ea 80bc
00000090: 41e0 043e 6038 47bd e3c5 89be 383f ef3d
000000a0: c8d4 24be 4960 dcbd 67cf 60be 99e6 4d3d
000000b0: 5bc0 54be b7bb 63be b578 43bd 0766 1cbd
000000c0: 804c 8fbe 3476 43be c2cb 82bd f87a 4dbd
000000d0: 75d3 8abd bb63 043e bdc1 40be 08e1 243e
000000e0: 6b42 6d3e c818 203e b2fc efbd a071 74bd
000000f0: 3861 40be 6ef1 eb3d a1d6 323e 9ed0 47be
00000100: 6a6c f43d 52b5 62be a147 97be e29d 833e
00000110: 2be2 f23d c517 66bc 43af 59be d4cd 87be
00000120: bd34 da3d 1ba5 f73d 63f1 3d3e 655c f63d
00000130: f0b0 033d d396 25be 5373 22be 64c2 20bd
00000140: 7cd1 a43c 3313 8f3d cdfc 7f3e e926 fb3d
00000150: 9b26 aa3d ae7e 96bd 8ee9 25be 2561 773e
00000160: ca75 b53d 766f 8a3d a3b2 79be b48b 80bc
00000170: d9dc eebd 9901 d9bc 91cf 573e febc eebd
00000180: bb07 6e3e c5a7 323e 53f2 2c3d 6232 00be
00000190: bd5e 3a3e b29f fe3c 8ac2 6a3e 1a22 5c3e
000001a0: cdf6 eebd d021 bbbd 3eac 8cbe 6b8a 95bc
000001b0: 3032 42be 7429 9cbd e9a4 983b ab79 3abd
000001c0: 2b5d 64be 8917 8b3d 94b5 e63d 62ed 7ebd
000001d0: df66 503e 33f7 e63c aa0f 10be 0c08 81be
000001e0: 9c57 8f3c 188b 73be 7efa 8cbe 8b78 64be
000001f0: 7198 563d 98b6 9c3b e5dc d03d 1a27 f6bd
00000200: 3cb0 bdbd 518e f13d a877 173e 316f 6dbe
00000210: 33f8 283e 628c 43be 109f 663d 275b 603e
00000220: 9601 c4bd 3751 a0bc 3d91 07be 3b51 1d3e
00000230: 05e0 b43d 5894 6cbe a132 c13c 121a 1e3e
00000240: ef3c 683e e63f b0bd c1a4 bbbc 8c41 7d3d
00000250: 3f50 5bbe 63ae 00bc 5bcf 003d 7a95 3abe
00000260: 00b4 89bd 0b7d 15be 143e 043d 71e9 1e3e
00000270: 3840 ea3d 1c22 1b3e e7f3 b33c ca7e 293d
00000280: a57b 60be df40 e83d 3e68 eb3d 9797 f33d
00000290: ed23 393e fddf d6bd 35dd f4bd d3f6 69be
000002a0: d6f3 0cbe 6784 a6bd 1184 c6bd bbb2 383d
000002b0: 0158 62be b508 29be 0f1a 2bbe 1508 093e
000002c0: 5ea7 b3bc 7941 14be d093 e9bd 8742 733c
000002d0: 7098 773e af66 f03d 8c23 21be a0e5 373e
000002e0: 7eb9 623d 3043 43be 4b83 fbbd e71e 093d
000002f0: bf6e 5c3e 2197 34be c9e2 e63d e59c 34bd
00000300: f3fe 233d ab45 4ebe 3428 6a3d 8e8a ba3c
00000310: 98f7 583e 8367 6fbd f11c 6f3d 6269 08bd
00000320: 8b75 dbbd 6c22 5e3d 94cd e1bb c620 8abd
00000330: f20d 683e c889 adbd 0608 b33d ec66 ebbd
00000340: 318d c23d 78a7 b6ba d035 33be e217 eabb
00000350: cc3d 12be e669 d2bd 278d 2ebe 59bc 30be
00000360: ea92 14be c984 883e dfb1 30be 77a4 253a
00000370: b726 e1bc 93df 12be 7939 313e c522 843e
00000380: 2ea8 4abe 1c44 083e 700b 6cbe 8659 893d
00000390: e2f1 19be 4936 a03b 0081 b8bd cfbf 37be
000003a0: 81d3 c8bc 491f 37bd d110 cd3d 3eef 47bd
000003b0: cdf1 71bd 5612 2fbe 9be3 c33d f5ad 3cbd
000003c0: 1f99 203e bf7f c9bb ac1c 253d c662 05bd
000003d0: afb5 a43d b934 cdbc 2586 a5bd f4f3 2fbe
000003e0: 3a13 033c a638 20bd 1ab8 e23d beff 673e
000003f0: f79f dbbd 5b3c dd3d 94ee 05be c451 403e
0.07000782 0.2030719 -0.23523636 -0.051894702 0.13139334 0.1277656 0.03452138 -0.09453848
0.20389093 -0.06746311 0.12070586 0.098740414 -0.074560836 0.13059969 0.061001595 0.21301204
-0.05786757 -0.036235586 0.2174165 -0.103476085 0.054937735 -0.25687405 -0.24650979 -0.15716293
-0.04743138 0.0311217 0.22612588 -0.0640137 -0.043910492 -0.23481576 0.2401132 -0.09377333
0.2039555 -0.16409238 -0.14309967 -0.015736673 0.12976171 -0.048637748 -0.26908788 0.1168198
-0.16096795 -0.107605524 -0.21954118 0.050268743 -0.20776503 -0.22239576 -0.047722537 -0.03818324
-0.27988052 -0.1908806 -0.0638652 -0.0501661 -0.067786135 0.12928669 -0.18823905 0.16101468
0.23169868 0.15634453 -0.1171812 -0.059678674 -0.18787086 0.115206584 0.17464687 -0.19513175
0.11934741 -0.2213948 -0.29546836 0.25706393 0.11859544 -0.014043753 -0.21258263 -0.26524222
0.1065459 0.12092038 0.18549113 0.120293416 0.032151163 -0.16170816 -0.15864305 -0.039247885
0.020119421 0.06986084 0.2499878 0.12263281 0.08308145 -0.07348381 -0.16202375 0.24158151
0.08860357 0.06759541 -0.24384551 -0.015691616 -0.11663217 -0.02649002 0.21075274 -0.11657141
0.23245136 0.17446811 0.042223286 -0.1251922 0.18200202 0.031082008 0.22925773 0.21497384
-0.11668167 -0.091373086 -0.2747516 -0.01825448 -0.18964458 -0.07625094 0.0046583307 -0.045526188
-0.22301166 0.06791598 0.11265102 -0.062238105 0.20351742 0.028194046 -0.14068475 -0.25201452
0.01749783 -0.23783529 -0.2753486 -0.22311608 0.052391473 0.004782509 0.10198382 -0.12019177
-0.0926213 0.11794723 0.14791739 -0.23186947 0.1650093 -0.1909652 0.056304038 0.21909772
-0.09570615 -0.019569976 -0.13238998 0.15363018 0.08831791 -0.23103464 0.023583712 0.15439633
0.22679494 -0.08605938 -0.02290571 0.06183009 -0.2141733 -0.007854077 0.03144775 -0.18221083
-0.067237854 -0.14598481 0.032285765 0.15518738 0.1143803 0.1514973 0.021966888 0.04138068
-0.21922167 0.11340498 0.11494492 0.11894148 0.18080111 -0.10491941 -0.119562544 -0.22848062
-0.13764891 -0.081307225 -0.096931584 0.045092326 -0.22103883 -0.16507228 -0.1670916 0.1338199
-0.021930393 -0.14478101 -0.11405146 0.014847404 0.24179244 0.11738335 -0.15736216 0.17958689
0.05535268 -0.19068599 -0.122809015 0.033476736 0.21526621 -0.17635776 0.112737246 -0.04409494
0.04003806 -0.20143764 0.057167247 0.022771146 0.211882 -0.058448326 0.05837721 -0.033303626
-0.10715779 0.054232046 -0.006890962 -0.06744532 0.2266157 -0.08473545 0.08741765 -0.1149424
0.094995864 -0.0013935408 -0.17500997 -0.0071439603 -0.14281386 -0.10274105 -0.17046033 -0.17259349
-0.14509168 0.26663807 -0.17255352 0.00063187577 -0.027484281 -0.143431 0.1730708 0.25807777
-0.19790718 0.13307232 -0.23051238 0.06706528 -0.15033677 0.004889284 -0.0900898 -0.17944263
-0.024514915 -0.04470757 0.10012973 -0.048812144 -0.05906849 -0.17096838 0.09564897 -0.046064336
0.15683411 -0.0061492617 0.040310547 -0.0325649 0.08042466 -0.025049554 -0.08082227 -0.17182904
0.008000189 -0.039116524 0.11070271 0.22656152 -0.1072387 0.108025275 -0.13079292 0.18781191

arith.constant7 f4 [128, 64]
00000000: b724 27bc 062e 29be 6e71 3abd 8dba 203e
00000010: 6b83 c93d 1165 ebbd 94bb 0e3e 3973 583d
00000020: 9863 d7bd 684c 81bd 5cc6 20be 71ef 52bd
00000030: 48fb 183e 051d 4e3d c6c1 5bbd 3ea1 753d
00000040: acc4 e9bd 58c4 0d3e 003f 19be ebf1 cbbd
00000050: 53eb f5bd a68b e23d e5ac 9e3d c268 1ebd
00000060: cb43 cdbd 4a23 fbbd 7068 f33d fdce 113e
00000070: df06 87bd 3b2d 19bd 89a5 3cbd 2109 21bd
00000080: e8af d5bd 3153 343e 7c05 fa3d a268 f83d
00000090: e899 c03c 4c8b d43d 8d74 0cbe 650b 573d
000000a0: 8cae 4abe 2f4e 1d3e b3fd f7bd 7dd4 503d
000000b0: bfdf ee3c 8071 aabd 460c a13d 07b7 4cbe
000000c0: 11b4 b6bc a3c4 063c c8be 1ebe 02f8 593d
000000d0: 615f 763d 1fdf 1d3e 2d41 c1bd 63a5 bb3d
000000e0: aecf c9bd 4f72 9abd 136f 19be 8b97 07be
000000f0: 042e 0b3c 5ccb a2bc 1aeb f4bd 29cf b23d
00000100: fba0 27bd a779 fc3d a21a f53d 9db6 ed3a
00000110: 18f4 75bd 5a2f eabd 92bd 203e c9b1 acbc
00000120: c5bc 27be 0ce6 053e 8957 bcbd 0e5f ab3c
00000130: 892c f2bd 1115 29be 947a 3abe 51d8 a3bd
00000140: 8e4f ce3b 5edb 14be fbd6 d1bd 4f59 783b
00000150: c98b ec3d 53ae 0ebe d6c8 1f3d c6c9 573e
00000160: f484 083d 3c0d 583c d7e0 2b3e 0506 fa3d
00000170: 9bf7 873d 7710 893d 071f 06bd 370a 2abd
00000180: 3524 de3d 9e00 233e fcf3 b03d a660 363e
00000190: 6f46 1cbb da4b a43d a9b7 03bd 6057 c03d
000001a0: 53c7 503c d695 6f3d 70f0 65bd 5934 49bd
000001b0: 76f8 3abd dcef 19be a227 a5bd 413c b0bc
000001c0: ed00 0b3e c303 c8b9 8c4e f93c 83bd f83c
000001d0: 67ae 7d3d 1d87 503e 0518 133e e822 c93c
000001e0: 51c9 883c 532e bd3c 17c0 07be 09f1 0dbe
000001f0: 5038 3b3e 841e 21bd 0512 20bd 301f c7bc
00000200: c041 05be 6f94 963d 6185 623d 9624 c3bd
00000210: 2059 54bd ef17 28bd 55ee c43d 03e5 833d
00000220: e0f8 193d 596f 97bb 439d 25be 0652 c0bd
00000230: 7f64 d8bc 3ec7 113e 9af2 003e ac58 9e3d
00000240: 76fa 63be 00cb 903d 0060 a7bb 883a 043e
00000250: 0032 8a3d 706a b9bd f755 afbd 7f97 fa3c
00000260: 0a2e 803d 3f21 d8bd 78dd 433d 888e 223e
00000270: 7fe3 c33b ddf9 aabd c321 35be 1108 7ebb
00000280: 2b66 403d 4097 3dbd 7c81 023d 8ede 383d
00000290: 49c3 e0bd 966d d2bd 272b c8bd 0934 a03d
000002a0: eb45 b83d 91a8 c3bd d47a 163e 22cd ae3d
000002b0: 1863 d4bd 9bbd 51bd d3da 9bbc 82a7 e0bd
000002c0: 74cb 6dbd f2d0 e43d f01d 58bd b4b1 3fbc
000002d0: 1bcc 63bd 46a2 0cbe bdbd efbd 30ff d83d
000002e0: afdd d23d 9161 573d 6215 ecbc 92cf 2a3e
000002f0: 9c18 a13b d6f6 2bbe 20a6 f03d 4d6a 513e
00000300: d21a 003e 74bd 4dbe e9b6 30be da21 093d
00000310: f451 84bd 6fbe 54be dbc6 dbbb e971 c23d
00000320: 948c cdbb 55e7 f23d 606c 1f3e ef7b 00be
00000330: 2494 ef3c 1acb a5bb acdb 8abd 1c13 6e3d
00000340: 395a 9b3d 5d10 d4bc c72d 7abd 970d 36be
00000350: 28f7 dc3c 49b6 5f3d e965 043e af45 14be
00000360: 4826 233d 79da 22bc 8ad5 8dbc 4815 1abd
00000370: d3d1 293e cb4f bcbc 26ef 1fbc c8b6 343e
00000380: 9790 a9bd a313 fa3d 4593 23be bf0e 27bb
00000390: abd4 36bc b37d 0cbd 612a 0e3d cb89 acbc
000003a0: 3d03 a53d 1da8 5a3c cdda 58bc 5154 113e
000003b0: 00d4 01be 12f2 1ebd a55f cbbd 814e bf3d
000003c0: a3f9 243e 7f83 00be 578f 05be 99ec fc3d
000003d0: f005 873d 006c b23d cf15 39be d949 b6bc
000003e0: 9aa7 88bd d538 37be f7c6 fbbd 1d55 debb
000003f0: 2e47 b1bd ffeb c23d 36f6 123e 2507 2c3e
-0.010201625 -0.16521463 -0.04551833 0.15696163 0.09839519 -0.11493886 0.13938743 0.05284426
-0.10517043 -0.063134015 -0.15700668 -0.05149788 0.14939606 0.050320644 -0.053651594 0.059968226
-0.11414465 0.1384443 -0.14965439 -0.099582516 -0.12007775 0.11061792 0.07747821 -0.038674124
-0.10022696 -0.1226259 0.11885154 0.14239116 -0.065931074 -0.03739665 -0.046056304 -0.039315347
-0.10433942 0.1760986 0.12208077 0.12129332 0.023510888 0.10378131 -0.13716336 0.0525011
-0.19793147 0.15361856 -0.12108936 0.050983895 0.029159425 -0.0832243 0.07863669 -0.19991694
-0.02230266 0.008225593 -0.15502465 0.053215034 0.060149554 0.15417145 -0.094362594 0.091624044
-0.09854065 -0.07541334 -0.14983778 -0.13241403 0.008494858 -0.01987236 -0.119589046 0.08730919
-0.040925007 0.12327891 0.119679704 0.0018136088 -0.06004724 -0.11434813 0.15697315 -0.021080868
-0.16380604 0.13076037 -0.091963835 0.020919349 -0.11824901 -0.16511942 -0.18210822 -0.080002435
0.0062961048 -0.14536807 -0.102460824 0.003789503 0.115500994 -0.13933687 0.03900989 0.21073064
0.03332992 0.013186749 0.16784988 0.122081794 0.06639024 0.066925935 -0.032744434 -0.041513648
0.1084675 0.15918204 0.08640286 0.17810306 -0.0023845693 0.0802228 -0.032157574 0.093916655
0.012742835 0.058492504 -0.056137502 -0.04912219 -0.045647107 -0.15032905 -0.080642 -0.021513106
0.13574572 -0.00038149775 0.030432962 0.030363804 0.0619339 0.20364042 0.14364631 0.024552777
0.016697558 0.023093378 -0.1325687 -0.13861479 0.182832 -0.039335743 -0.039079685 -0.024306864
-0.13013363 0.0735253 0.05530298 -0.095284626 -0.05184281 -0.04103845 0.09615771 0.06440165
0.03759086 -0.004621428 -0.16173272 -0.09390645 -0.026415108 0.14236161 0.12592545 0.077317566
-0.22263512 0.07069969 -0.0051078796 0.12912953 0.06747818 -0.090535045 -0.08561318 0.030589817
0.06258781 -0.10553216 0.04781863 0.15874684 0.0059780474 -0.08348439 -0.1768866 -0.0038762132
0.046972435 -0.04628682 0.031861767 0.04513412 -0.10974748 -0.10274808 -0.09773856 0.07822425
0.08997711 -0.09553636 0.14695293 0.0853522 -0.10370463 -0.051206212 -0.019025242 -0.109694496
-0.058055356 0.11172666 -0.052762926 -0.011700083 -0.055614572 -0.13733777 -0.117061116 0.10595548
0.10296189 0.05258328 -0.02881879 0.16680744 0.0049162637 -0.16793379 0.11750436 0.20450707
0.12510231 -0.20091802 -0.17257275 0.03347955 -0.06460944 -0.2077577 -0.006707055 0.09494383
-0.0062728617 0.11860529 0.15568686 -0.12547277 0.029245444 -0.005059612 -0.0678018 0.058123693
0.07585568 -0.025886709 -0.061078813 -0.17778622 0.026973322 0.0546172 0.129295 -0.14479707
0.03983143 -0.009939783 -0.017313737 -0.03761795 0.16583948 -0.022987267 -0.009761607 0.1764785
-0.082795314 0.12210777 -0.15974148 -0.0025490967 -0.011159102 -0.034299564 0.034708384 -0.021061799
0.08057258 0.013345745 -0.01323576 0.1419232 -0.12678528 -0.038805075 -0.09930352 0.09341145
0.16110854 -0.12550162 -0.13042961 0.12349815 0.06592929 0.087120056 -0.18074726 -0.02225201
-0.066725925 -0.17892773 -0.12293809 -0.0067850486 -0.086561546 0.09517669 0.14351735 0.167996

arith.constant8 f4 [256, 128]
00000000: 4076 3bbd 6c5f 6fbb 706c 493d 70ae b5bd
00000010: 64bf 893d 41ac a6bd 238f 82bd 483b 5a3d
00000020: 1c30 0ebd 5720 013d 4e03 0d3e 58b2 e93c
00000030: 6e6b 7bbd 0546 60bd 9061 90bd 5ecf c4bd
00000040: 9257 8e3d 7ba7 d2bd 30ee 283d 9d5a 00be
00000050: 3b59 ef3d d429 a73c fbc2 0f3e 0030 ab3b
00000060: a58f 40bd 9a5a 103e 2a36 2bbd d058 b6bd
00000070: 3358 b2bd 5574 debd e837 eebd 0f3a 8e3d
00000080: 3768 273c df93 e83d a5e5 bf3b 8f27 8dbd
00000090: debc 84bd 2200 063e 9aab 18bd 6248 623d
000000a0: 4310 703d 79db 8a3d ddee c4bd c276 ea3d
000000b0: b025 e13c cbd9 eb3c e877 d33d 063e fabd
000000c0: ae3c 02bd 387f d4bd 4805 2e3d 3cce b03c
000000d0: a0ce 623d f387 dd3d 1ff5 8bbd 4c6d cabc
000000e0: 7a4e 89bd 7b51 85bc 1b9a 5a3d 745b cd3d
000000f0: 431c d93d 3fb2 e53c 38f8 f33d 64b8 ae3c
00000100: fc75 6fbd 6fec 633d a100 973d 31c4 8f3c
00000110: b14d 1c3d 80b5 2c3c 5824 ddbd cc3a eebd
00000120: 4046 bb3b cd03 6ebd 1ba1 013e fb6a 263c
00000130: e081 8e3d 2043 2dbc 6815 c43d f9d7 c8bd
00000140: fe49 aebd b0d8 8a3d 6a25 8d3d 0dfc ab3b
00000150: 6b0a 023e 40da 123d c90c 833d d916 ed3d
00000160: f996 363c e4b7 9e3d e859 a2bd c3c7 1a3e
00000170: 1dba dcbc 90de 333d c116 cc3d 2f34 b7bd
00000180: e2c7 68bd 7881 ae3a 11af aabd 2404 a33d
00000190: 380e 863d d6f5 b53d 011b e2bd 2b10 8fbd
000001a0: f057 bebd 1d79 95bd 5533 91bd 472b e8bd
000001b0: 132f 03bd de4c a8bd 6174 09bd a656 c9bc
000001c0: 6d1e 173d f215 96bc 01b7 c7bd 7625 a4bd
000001d0: 82c5 c5bd 3625 53bc 21c7 e03c ab47 143d
000001e0: 7a39 6f3c f61f 65bc 8cf6 99bc 59f4 9a3c
000001f0: 64bd 8abd 791d 0d3e fd40 633d d013 9ebb
00000200: 68b0 6fbd 7f40 c7bd 2081 f6bd 58a6 ab3c
00000210: 1d1c 09be f464 543d 1c33 913d 2d63 233d
00000220: bfee 39bd b0ac ad3d 14c5 b5ba 002b df3d
00000230: f997 dc3c 4838 56bd 83a3 6fbd 3100 55bd
00000240: 8fb4 0bbd 2051 b43d 0860 743c 2da7 223d
00000250: 6719 4d3d f138 9f3c 6fa4 053d 8c57 a13d
00000260: 62bc 64bc af61 8bbd c39e cabd 4f6b dabd
00000270: 51b6 d0ba e3c1 9f3c 111d a33c bf0e b2bd
00000280: ecc1 8abd 35ac 7cbd 6e79 a8bd 129e 0d3e
00000290: eb7e 143d 7816 263e 9cc8 a73d 546d dc3d
000002a0: 2c53 643c 21a3 c13d 0670 e7bd 4193 96bc
000002b0: 47ae b2bd 8889 3abc 7693 fcbd 1fac 2a3d
000002c0: 84d1 f53d c2b1 fe3c 74d8 f5bb fb76 1c3e
000002d0: 6b23 173e 6f3b a43d 22ed a73d 5de0 ad3d
000002e0: 1a2a 95bd fcfe 563c ab45 2f3c 28b9 21bd
000002f0: 4bdc 18bd e556 ecbd 1da8 9bbd b3dd 8f3d
00000300: 88f0 f83d ff07 693d 0f87 41bd 9274 183d
00000310: 7bae 04bd 5889 c2bd 38e6 5c3d 9045 bdbd
00000320: 8cd2 8bbd 26e1 b3bd 4b9b 323c aaa6 2cbd
00000330: e258 cd3d 2614 523d 2bdb 03be 2d23 11bc
00000340: 9299 e7bd 5bd5 c4bd 4f9e 8f3d 1444 ca3d
00000350: 7210 01be 601b 3fbd 0e16 333d 61b5 cf3d
00000360: b85d 073c 2e6b 27bd 1b55 bb3c 6128 7fbc
00000370: 610e 2e3d bcc5 903d 8937 68bd cfe6 213d
00000380: d11e 96bd 235f 06bd 7683 98bc a706 c0bd
00000390: a7c2 87bd 05fb 3abc 8424 24bd f5bc 2bbd
000003a0: ae1d 523d f7ff d53c 2f8d a83d ac4e 053d
000003b0: 1b9e a33d f627 d43d 297f 80bd 6152 123e
000003c0: b491 0cbe c147 e5bc 071c fc3d 9d46 e1bd
000003d0: 26f5 f7bd 05e0 10be c7bb 7b3d 219e 303d
000003e0: aad7 5c3d 3134 b6bc ef16 fa3d 1871 da3b
000003f0: ea83 49bd c615 6a3d c6f4 76bc 87ad b73d
-0.04576707 -0.0036525382 0.04917568 -0.08871162 0.06725958 -0.081383236 -0.063749574 0.05327919
-0.03471385 0.031524982 0.13770792 0.028527424 -0.06138175 -0.054754276 -0.070498586 -0.09609865
0.069502965 -0.102858506 0.04124278 -0.12534566 0.11686941 0.020405687 0.14039223 0.005224228
-0.04701199 0.14097062 -0.0417997 -0.089036584 -0.08708229 -0.10862032 -0.11631757 0.069446675
0.010217718 0.11356329 0.005856233 -0.06892311 -0.06481336 0.13085988 -0.037273027 0.05524481
0.05860926 0.06780142 -0.09615872 0.114484325 0.027483791 0.028790375 0.10325605 -0.12218861
-0.03179615 -0.103758276 0.042485505 0.021582715 0.055372834 0.10816946 -0.068338625 -0.02471032
-0.06704421 -0.016274204 0.053369623 0.10027209 0.106010936 0.028039096 0.11912578 0.021328159
-0.058462128 0.055645403 0.07373167 0.017549606 0.03816003 0.01054132 -0.10797948 -0.11632308
0.0057151616 -0.058109093 0.12659113 0.010157342 0.069583654 -0.010575086 0.095743954 -0.098068185
-0.08510207 0.06779611 0.06891902 0.0052485527 0.12699287 0.03585267 0.06398923 0.115766235
0.011144393 0.07749918 -0.079273045 0.15115266 -0.026944214 0.043913424 0.099652775 -0.089455
-0.056831248 0.0013313731 -0.083341725 0.07959774 0.06545681 0.0888478 -0.11040307 -0.06985506
-0.092941165 -0.07298491 -0.07089869 -0.113363795 -0.032027315 -0.08217786 -0.033558253 -0.02457745
0.03689425 -0.018321011 -0.09751702 -0.080149576 -0.09656812 -0.01288729 0.027438702 0.03620116
0.014601106 -0.013984671 -0.01879432 0.018915342 -0.06774405 0.13780774 0.0554819 -0.004824139
-0.058517843 -0.097290985 -0.120363474 0.020953342 -0.1338963 0.05185409 0.070898265 0.039889503
-0.0453937 0.08480203 -0.0013867938 0.108968735 0.026927935 -0.052299768 -0.058505546 -0.052002136
-0.03410774 0.08804536 0.014915474 0.039710212 0.050073054 0.019436331 0.03262752 0.07878026
-0.01396093 -0.06805741 -0.09893563 -0.10664999 -0.0015923475 0.019501632 0.01991132 -0.08694219
-0.06775269 -0.061687667 -0.08226286 0.1382983 0.03625385 0.16219509 0.0819256 0.1076304
0.013935845 0.094549425 -0.11300664 -0.018380763 -0.08724647 -0.011385329 -0.123328134 0.041668054
0.120028526 0.03109062 -0.00750261 0.15279762 0.14759605 0.080191486 0.08199526 0.084900595
-0.07283421 0.013122316 0.0106977625 -0.03948322 -0.037319463 -0.11540011 -0.076004244 0.07024708
0.12155253 0.05689239 -0.047247943 0.037220545 -0.03239296 -0.094988525 0.05393049 -0.092417836
-0.06827268 -0.08783178 0.010901283 -0.04215113 0.10026719 0.051288746 -0.12876575 -0.008858484
-0.11308588 -0.09611007 0.07012617 0.09876266 -0.1260393 -0.046656966 0.043722205 0.10142017
0.00826209 -0.0408737 0.02286773 -0.015573592 0.04249418 0.07068965 -0.056693587 0.039526757
-0.073300965 -0.032805573 -0.018617373 -0.09376269 -0.06628924 -0.011412387 -0.040073887 -0.04192825
0.051297836 0.02612303 0.08230054 0.03254573 0.079891406 0.103591844 -0.06274254 0.14289238
-0.13727456 -0.027988316 0.12310033 -0.109997965 -0.12107305 -0.14147957 0.061458375 0.043119553
0.05391661 -0.022241684 0.122114055 0.006666314 -0.04919807 0.05714967 -0.015073007 0.089686446

arith.constant9 f4 [256, 64]
00000000: 4ef7 143d 247a 4cbd 9466 a53c a8e5 723b
00000010: 6371 d0bc 7cd4 f93d 615d e7bc 03b5 adbd
00000020: 10cd e23c 9c1e c73d 5c3b 733c 93e2 6c3c
00000030: f872 25bd 668f 1c3c 0e14 093c c601 21bd
00000040: 07ea 023d 2294 af3c 7c37 2bbd 526d 3abd
00000050: f89f a63d 30b8 0b3e 05c7 ab3c 5d87 6ebd
00000060: 93f7 eebd 57fc 043e 5ed8 bc3d 981e 86bc
00000070: 5a4d dcbc f627 8bbd 5917 0abe e4db bbbc
00000080: 846c 133e 51d2 e33c f8d8 073d 6dd0 60bd
00000090: 4b21 823b a775 ccbd dc32 67bd 6930 ecbc
000000a0: d4b3 bbbc db5f 043d b644 57bd 0ce8 3e3b
000000b0: f2eb af3b f0bf 4dbd d2a7 0f3c f773 803d
000000c0: 7304 f43d 5c33 99bc 8492 1a3d b852 693d
000000d0: 9d85 95bc 61a0 54bb fd87 2d3c 2dda 82bd
000000e0: 686b a1bd e1d6 19bc d072 3dbd 8253 44bd
000000f0: 40b6 603d 1fee aabd 2964 e03d 26bb 893d
00000100: 69c4 843d 498b cdbb f73a 96bd 9597 c1bc
00000110: fb5b b93c c9dd a4bd b721 473b 8b72 323d
00000120: c347 6a3d ab53 a7bc 9abe f63d a542 a4bd
00000130: 3b02 ab3d 1814 8b3d 4ca0 4dbd eeb7 1dbd
00000140: 83fb 27bc fbf4 dfbc e7eb 08be e10e bd3d
00000150: 85dd de3d ae4b 603c 1187 9dbd e90a aebd
00000160: 0c8b b43d 39ac 3fbd f4a8 e0bc f7b1 c83d
00000170: a5f5 c0bc 7da1 bcbd 4833 c53d 0dfe c33d
00000180: e1ba 7ebd a92e a8bc c90b 12bd 7f51 80bd
00000190: 6f15 ea3b af94 fc3c c81a 8e3d f8de 5fbc
000001a0: 0b27 023e 1390 c6bc cead 4c3d 5bd0 c8bc
000001b0: 646f 0ebe d2c8 b6bb 7b24 633d 5743 a63d
000001c0: 544d 463c 400f c7bc 37da 87bd a465 90bd
000001d0: c830 56bd 273a ad3d e41e 0e3d 4fb5 2b3d
000001e0: 6b20 3d3d 8bbe 00be 9f0c 283d d8b5 003e
000001f0: e445 52bd 421b 94bd 5156 1dbd a72b 41bb
00000200: 30b3 693d 3a82 a5bd 2f5e 863d 0406 aabd
00000210: bba0 ebbc eec1 7abc 4b0a 083e 6440 093e
00000220: 1b09 023e 5347 813d a6b7 b9bd b698 8cbd
00000230: 849a 0abd 7814 583d d50a a53d 8c94 ce3b
00000240: 1d80 743c bf0a ca3d fa1c 39bc 41cb 493d
00000250: c3e8 c83c ff40 e33d 7842 203d a6af c03d
00000260: aef6 7ebd 4f49 c63d 0882 673b f6fa 903d
00000270: f35d 8abc 2e82 8e3d 7748 0e3c 3bea 913d
00000280: de8e ac3d 1b3e 843d 807a bb3d 3217 04bd
00000290: fdea c93d 24e1 933d 37fa 79bd 49d3 e3bc
000002a0: 160c 54bd 02c8 1cbe 6a2a 47bd b704 573d
000002b0: 7017 853d 0cee 2e3d 5238 903d 49dc 5d3d
000002c0: 9803 743d 7252 923d 00ba 663d d3d1 883d
000002d0: 8153 393e e1c9 5d3d 25fd ab3b d8a1 923c
000002e0: 7873 1d3e 1dbc bbbd 8c16 01bd ca8a 70ba
000002f0: 19ac a73d 0528 673c 2851 053d feb5 14bd
00000300: c3cd ab3d 26da a73d 08d1 04bd 39e3 3ebd
00000310: 3bf5 debb 90f7 11bd b317 9abb 7ac8 793d
00000320: 2c8b 9bbc 985e c43d 0a2c afbd ad16 333d
00000330: 3b56 c63d b49d ba3d 2c37 77bd 0a7b 36bd
00000340: 3863 21bd 8126 0f3b 22e3 293c 5250 773d
00000350: 1642 913c d763 9fbc 89dd 87bd 78c8 183d
00000360: 6565 8ebd 1e9a 42bd 3615 3ebe 8055 0c3d
00000370: 4a9c fe3c fbac 1bbd 277b 6a3b 0e88 1f3e
00000380: 83d0 503d 9b2f 66bd fd72 843c 35c6 c4bd
00000390: d8de cb3b 925f 843d 3a45 9cbd 300d b63d
000003a0: 39e9 30bd 2b5a 4c3d 096c 9a3d 4402 72bb
000003b0: c7c2 79bc 8291 6fbc 180d be3a 1b3f 8ebd
000003c0: a321 51bb ac90 c43c 1ddc 73bd fea7 d43d
000003d0: f0c5 963c 4527 183e 01c9 abbc 90e6 a33d
000003e0: b8f2 6fbd 6539 0d3c cd5d 9fbc a719 1abd
000003f0: eddf 76bb 43ba a93d 550e 91bd 677e 9e3c
0.03636866 -0.04992117 0.020190515 0.0037063155 -0.025444692 0.12198731 -0.028242769 -0.08481791
0.027685672 0.09722635 0.014845695 0.014458316 -0.040392846 0.009555673 0.008366598 -0.039308332
0.031961467 0.02143294 -0.04180096 -0.045514412 0.0813598 0.1364448 0.020968923 -0.05823456
-0.11668315 0.12986885 0.09220956 -0.01637201 -0.026892353 -0.06794731 -0.13485469 -0.022932
0.14396864 0.027810248 0.033165902 -0.05488627 0.003971254 -0.09983378 -0.056444988 -0.028831678
-0.022912897 0.032317977 -0.052555762 0.002913001 0.005368703 -0.050231874 0.008768039 0.062721185
0.11914911 -0.018701248 0.037737384 0.056963652 -0.018252188 -0.0032444226 0.010591504 -0.0638927
-0.07881814 -0.00938961 -0.04625207 -0.0479312 0.054861307 -0.08346199 0.10956604 0.06725149
0.06482775 -0.0062727076 -0.073354654 -0.02363185 0.022626868 -0.08050115 0.0030385086 0.043566268
0.057197344 -0.020425638 0.12048073 -0.08020524 0.08350035 0.06790942 -0.0502017 -0.038505487
-0.010252836 -0.027338495 -0.1337124 0.092313536 0.10882095 0.013689918 -0.076917775 -0.08498175
0.088155836 -0.046795104 -0.027424313 0.09799569 -0.023554632 -0.09210489 0.09628922 0.09569941
-0.06218994 -0.020530062 -0.03565577 -0.06265544 0.0071436684 0.030832617 0.06938702 -0.013664
0.12710206 -0.024238622 0.04997044 -0.024513414 -0.1390968 -0.005578139 0.055454712 0.08118313
0.012103397 -0.024299264 -0.06633418 -0.070506364 -0.052292615 0.08458357 0.03469743 0.041920956
0.046173494 -0.12572686 0.04102766 0.12569368 -0.051336184 -0.072317615 -0.038412396 -0.0029475482
0.057055652 -0.08081479 0.06560933 -0.08301929 -0.028763166 -0.0153050255 0.13285176 0.1340347
0.12698786 0.06312432 -0.09068231 -0.06865065 -0.033838764 0.052753896 0.08058707 0.0063043293
0.014923123 0.09865331 -0.011298412 0.049266104 0.024525052 0.110963814 0.03912589 0.09408502
-0.06224697 0.09681951 0.0035325307 0.07079117 -0.016890502 0.069584236 0.008684269 0.07124754
0.08425687 0.06457158 0.091542244 -0.032248683 0.098592736 0.072206765 -0.06102964 -0.02781071
-0.05176934 -0.15310672 -0.048624434 0.05249473 0.06498611 0.042707488 0.07041992 0.05416516
0.05957374 0.071446314 0.056329727 0.06680646 0.1809826 0.054147605 0.005248683 0.017899439
0.15376079 -0.09166739 -0.031515643 -0.00091759546 0.08187122 0.0141086625 0.0325481 -0.036306374
0.08388855 0.081959054 -0.03242591 -0.046603415 -0.006804136 -0.035636485 -0.004702532 0.060982205
-0.01898726 0.09588355 -0.08553322 0.043722797 0.09684416 0.09112111 -0.06035535 -0.044550933
-0.039401263 0.0021843018 0.010369094 0.060379334 0.017731708 -0.019456787 -0.06634051 0.037300557
-0.06952933 -0.04751026 -0.18562779 0.034261227 0.031080384 -0.038006764 0.003577897 0.15579244
0.050980102 -0.056197744 0.016168112 -0.096081175 0.0062216334 0.06463541 -0.076303914 0.08889234
-0.04319117 0.04989068 0.07540137 -0.003692762 -0.015244192 -0.014622094 0.0014499752 -0.0694563
-0.0031910918 0.023994766 -0.05953609 0.103836045 0.01840493 0.1485873 -0.02096987 0.08002961
-0.058581084 0.008619641 -0.019453907 -0.03762212 -0.0037670091 0.0828748 -0.07082812 0.019347383

arith.constant10 f4 [512, 13]
00000000: e2b5 b53d 8a2b 203d d4fa 7dbd a738 be3d
00000010: b3b4 c8bd 75e0 04bd f0eb 6ebd cbb4 64bc
00000020: 5bf5 0fbd cc18 b03d f605 84bd 10e1 cfbd
00000030: 9311 71bd fec2 c53c a4d6 50bd 3274 8d3b
00000040: 80dc c93d 8bf7 a4bc c6dc d7bc 8b2c af3c
00000050: 04e4 67bc dfe1 39bd 51ed 0b3d 02c2 dcbd
00000060: d4d7 9f3c 91f5 2abd 3aef 813d 410c c0ba
00000070: eef5 03bd 18f6 d53d 4821 6c3d 34a6 8cbd
00000080: f8a3 85bd 8f50 7fbd 6680 27bd afc0 c5bd
00000090: eab8 8b3d d737 34bd 5f0c de3c 8a48 20bd
000000a0: 44a2 423b 63a5 1cbd 980f b4bd ca2b bb3d
000000b0: f678 c83d 967e 033d 3b29 1ebd 3def 0abd
000000c0: 295f cc3d 9cdb dd3c 9b83 c1bb e735 793c
000000d0: 30ed 123c 9ca8 0e3d b797 b63c 7eb8 963d
000000e0: 2a50 b7bd bd5d d4bd 2df8 ac3c 70ba 863c
000000f0: 85df d53d 69cb d13d 3837 cfbd 8c79 f53c
00000100: 4339 b63c 455a 7fbd 3b49 9a3c 24fb 98bd
00000110: 1e77 423d 6801 bfbd e17c 83bd a1d5 52bc
00000120: 41b3 593c 91f5 213c 2b16 83bc 011a 0e3d
00000130: f982 98bd 2289 223d bd0b cdbd d80a 44bc
00000140: cee8 b1bd aded b3bd b29d 643d 0007 313b
00000150: ef51 833d b366 813d 8be1 60bd be1a d1bd
00000160: 5064 6a3c 662a 61bd d93b c33d b0da 2cbd
00000170: 3386 90bd b37f d13d 1c58 903d 9d87 26bd
00000180: a31d 08bb b595 b83d 5964 25bc 8601 c6bd
00000190: 6d11 d13d 7e2c 873d 1173 733d 9f6b 61bb
000001a0: a6c8 893d 8803 6ebd 39a6 2e3d b3b8 d5bd
000001b0: 01eb abbd 8ce9 71bd 938d d4bd 459c cc3d
000001c0: 29a0 99bd 5023 313d 16ad a03d a9f0 c7bd
000001d0: 1717 9638 31e9 a0bd 1b97 d3bd 29b3 933d
000001e0: 7725 9f3d 0341 3ebd 4b4c 82bc f893 1abd
000001f0: 6bb2 acbd 48ce 3bbd 41ba 9b3c ed32 773c
00000200: bb78 373d 4bb0 c13d 6fa1 2b3d 7338 6cbd
00000210: c0e6 f2bd ecf9 eb3c c166 333d 49d6 3a3d
00000220: 6395 7bbd e57c 9dbd 6ad5 43bc 3fb9 b33d
00000230: 15ee 13bc 9878 523d 9a79 70bc 5098 23bd
00000240: b1d5 d53d fcd9 e63c f4e7 8ebc 60a0 3f3b
00000250: 5751 903d 2bd2 da3d ad82 cfbd 521a 703d
00000260: 22f8 9fbd fa2f 9abd f026 8e3c 00c8 ae3b
00000270: 7a6e 9dbd 04fd 233d 39c2 58bd ef95 ab3b
00000280: c66a a53d 8930 b0bd 1b57 9b3d c795 31bd
00000290: 8911 613c 8f42 d83d 1802 ba3d 3b5c c93d
000002a0: cbe9 b7bc 7ce0 a8bd aa04 0d3a 0dab 173b
000002b0: 387c 153c 32e0 0bbd b048 0bbd 7fc3 543d
000002c0: 4745 8cbc b090 43bd 7cd0 573d aa94 2cbd
000002d0: d65c 8fbd c06f da3d 065a 8fbd ff51 433d
000002e0: 8618 77bd 2fe2 6fbd 31cc 6bbd b0f1 d0bb
000002f0: c49c 913d eb05 c3bd e913 d23c d115 d43d
00000300: 931c 283d 316c 27bc 83f3 86bc 4cdb b33d
00000310: b70b 973d ec23 ad3d 2fc5 babd 14eb a8bd
00000320: 5b94 c63d 8cd7 983c 6ffb 953d 443c aebb
00000330: 8a5c c6bd 5bbb d63d 373a a2bd dc86 94bd
00000340: 56f1 733d a9f8 0ebd 8601 5abd c7b4 37bd
00000350: ccbe 58bd 5025 97bd 8bfb 6dbd ff8d 26bc
00000360: a686 5a3d 942c a5bd 25e4 fcbc 592d e63d
00000370: df0e 70bd a808 b03d 7567 81bc 742c a3bc
00000380: 5bdb 723d 6e3f 2dbd 8acc 2b3d 079e dc3d
00000390: 1cc2 bebd b9e2 a43d fafd 9d3d 54f7 13bd
000003a0: 7e21 d2bd 6f0d 89bd bc8e 3b3d 0f79 d23d
000003b0: 70f1 f63c 128c 74bd fa0e a33d eda3 853b
000003c0: 8979 d83d 8ab3 a53d baaa 4d3c 8b18 06bd
000003d0: 9e1e cbbc abf5 b6bd d400 8abd eb38 a73c
000003e0: 7ead e1bc 9672 ebbd 1e67 10bc 9579 7f3d
000003f0: 0508 a23d 2be5 2a3d 8553 7f3c d245 debd
0.08872582 0.039104022 -0.062006786 0.09288149 -0.09800091 -0.03244062 -0.058330476 -0.01395912
-0.0351461 0.0859848 -0.064464495 -0.10150349 -0.05885465 0.024140831 -0.050985947 0.00431683
0.0985651 -0.020137569 -0.02635039 0.021383544 -0.014153484 -0.045381423 0.03416187 -0.107791916
0.019512095 -0.041738097 0.06344457 -0.001465209 -0.03221696 0.10447329 0.057648927 -0.06867638
-0.06525415 -0.062332686 -0.040893935 -0.09655892 0.06822379 -0.043998566 0.027105508 -0.03913168
0.0029698769 -0.038243663 -0.08792037 0.091392115 0.097886965 0.032103144 -0.03861354 -0.03391956
0.09979088 0.027082257 -0.005905581 0.015210605 0.008967683 0.034828767 0.02228914 0.07359408
-0.08950837 -0.10369442 0.021114433 0.016446322 0.104430236 0.102438755 -0.10117954 0.029965185
0.022244101 -0.062341947 0.018833747 -0.07469776 0.04747688 -0.0932644 -0.06420303 -0.012868316
0.013287366 0.009885208 -0.016001781 0.034692768 -0.07446856 0.03968156 -0.100120045 -0.011965476
-0.08686982 -0.087855674 0.055814452 0.002701223 0.06412112 0.063184164 -0.054902595 -0.10210179
0.014306143 -0.054972075 0.095328994 -0.042200744 -0.070568465 0.10229435 0.070480555 -0.040656675
-0.0020769618 0.09012929 -0.0100947255 -0.09668259 0.10208402 0.06600283 0.059435908 -0.0034396423
0.06727724 -0.058108836 0.04263899 -0.10435619 -0.08394433 -0.05906062 -0.10378566 0.099907435
-0.07501251 0.043246567 0.078455135 -0.09762699 7.156858e-05 -0.07856978 -0.103315555 0.072119065
0.07770818 -0.04644872 -0.01590552 -0.03773877 -0.08432468 -0.045851022 0.019009711 0.015087825
0.044792872 0.09457453 0.041902002 -0.05767102 -0.11860418 0.028805695 0.043799166 0.045614514
-0.061421763 -0.07689837 -0.011952737 0.08775567 -0.009028931 0.05138454 -0.01467743 -0.03994018
0.10441149 0.028180115 -0.017444588 0.0029239878 0.07046764 0.106846176 -0.10132346 0.05861885
-0.078109995 -0.07528682 0.017352551 0.0053339005 -0.07687087 0.040036216 -0.0529196 0.0052363793
0.08077006 -0.08603007 0.075849734 -0.04335573 0.013737091 0.1055957 0.090824306 0.09832045
-0.022450348 -0.08245942 0.0005379418 0.0023142726 0.009123854 -0.034149356 -0.034004867 0.051944252
-0.017122878 -0.047745407 0.05268906 -0.042133965 -0.07000129 0.10665846 -0.069995925 0.04768562
-0.06032612 -0.058565315 -0.05756778 -0.0063764676 0.07109979 -0.09522613 0.02564426 0.10355724
0.041042875 -0.010218666 -0.016473537 0.08782062 0.07375281 0.08454117 -0.09119641 -0.082479626
0.09696265 0.018657468 0.07323348 -0.005317243 -0.09685619 0.10484954 -0.0792126 -0.07252285
0.059556328 -0.03490511 -0.05322411 -0.044850137 -0.052916333 -0.07380164 -0.05810122 -0.01016569
0.053351067 -0.08065143 -0.030870507 0.11239118 -0.058607932 0.08595401 -0.015796402 -0.019918658
0.059291225 -0.04229682 0.04194311 0.10772329 -0.09314367 0.080510564 0.07714458 -0.036124542
-0.102602944 -0.066920154 0.04579042 0.10276996 0.030144423 -0.059703894 0.07961841 0.0040783794
0.10570056 0.08090885 0.012552911 -0.03273825 -0.024794873 -0.08933576 -0.06738439 0.020412883
-0.027548548 -0.11496465 -0.008813648 0.06237181 0.07911686 0.041722458 0.015583877 -0.10853161

arith.constant11 f4 [512, 128]
00000000: 6ce2 e33c 6ed2 5ebc 48cd 583d d319 8d3d
00000010: 6e64 45bc 4653 97bb 9318 cbbc 5881 b03c
00000020: 535e 39bc fc94 44bd c46f d73c d466 32bc
00000030: e919 223c c0bd 9d3d 50df 1c3d bcd9 d23c
00000040: e55b f73b 935f 143d 0884 b03c 5ab0 a93c
00000050: 03bb 013d 60a3 aebb f89a 01bd 106b b13d
00000060: 061c 973c 6941 ecbc 9515 a1bb 94b2 803d
00000070: 6ee3 8a3d e16c 26bd 388c 773c ea97 523d
00000080: d280 b53b feb3 dabb 16db 57bd d0c7 f9bb
00000090: a145 5cbc b150 eebb f018 f03d 13a8 2ebd
000000a0: a400 b93d 6062 c2bc 2f19 763d 9313 2dbd
000000b0: 3ae3 babc 8ce9 a43c 3131 9a3d d285 003d
000000c0: 82f9 e2bd 8763 703d 0bec 113e 291b 81bd
000000d0: 138a 8a3c c995 dabc 5bf9 6dbd eccd 563c
000000e0: 1f64 45bc 7793 8abc 4fd5 02bd 2f2b 21bd
000000f0: ad12 a0bc bccc b03d bff9 993c 81f0 e93c
00000100: f63b 053d 801b 123d 5f39 d53b 3b72 54bd
00000110: 46dc afbd 46b7 b7bc 1f2a d83c 7c8e 473d
00000120: 0c37 9cbd 1896 2dbd 9302 9dbd 7269 643d
00000130: 4e24 16bd 00e6 da3c eaab f2bb c845 8a3d
00000140: 6f7b 933d b3aa 9c3d 9666 89bb 8e7f 3b3c
00000150: f3cf 533d b939 cd3c 27a1 c4bc 2646 b8bd
00000160: c344 75bd 506b e9bc e5b8 183d c31f 7a39
00000170: 5967 fd3c 0c69 173d 73be 833c d52c 28bd
00000180: 387b d63b 37ad 7d3c 9103 ef3b 6eb5 45bb
00000190: 4893 5fbd e2a0 d83c a9a1 a53d a25a 553d
000001a0: 99f6 153d a806 8c3d 3a82 35bd 1ebf 243d
000001b0: 0603 d2bc 51f3 1f3d 656b 86bd a5ff 973d
000001c0: e7f8 81bc 90fb 1dbd 445c b23d 545f 8d3b
000001d0: 20f0 b6ba 1aea 503b 9ff0 f2bb 86a2 4dbd
000001e0: 3a51 2c3b 5b1f 01bd 24c0 58bd d03e 493d
000001f0: 38e7 3dbc bc26 5b3d e9fc 893d 91ca 3dbb
00000200: 02f3 153e fe72 abbc 9fc1 37bc 9f33 94bd
00000210: ee83 b23d 499e 95bd c3a4 173b d6b4 afbd
00000220: 23b4 01bd ab61 9a3d b250 043e 652b 833c
00000230: b28e fd3c 09e4 3abd d868 fe3c f8fd 643b
00000240: 995d 323d 9f49 523c c1d9 ddbc a43d 15bc
00000250: de5f bd3d e14b 643d 6831 3d3d 85f2 e23b
00000260: c7af 9cbd 6e35 12bc 803b ccbc f7fa 35bd
00000270: 5ebb 2abd f63e c63b 3ced c83a 3d9a d23b
00000280: f8ff 9e3c afa2 98bd b096 243a 261f 74bd
00000290: a2bf 4dbb 3cd8 ed3c d75c 0dbb f98b aa3d
000002a0: 8a89 973d bdf3 53bd f6d3 fb3c 47ed 31bd
000002b0: 9c1d 7a3d 6db8 8d3c 406b 793d 0438 adbc
000002c0: b4e6 9b3b fa7c c3ba 14f6 273c 2111 8b3c
000002d0: 5b2d 24bd 08b6 543c fe05 babd 3784 45bd
000002e0: bc45 70bd cc54 cbbc c516 a8bd 8158 773d
000002f0: e298 003c 974c 0d3d 6d11 ba3d de48 01bd
00000300: 16cb 3a3c 1b2f 093d f6af 133b 6888 1abd
00000310: 2fe3 183d 4f34 02bd d23a fc3b 82cd 4b3c
00000320: 9d3a 603c bca2 2dbd 0869 6f3d fdb3 933c
00000330: dc36 93bc 2b97 c0bd 16ea 66bb 4e43 45bd
00000340: 423b bcbd 130b debc d00f bbbd 42fd 89bc
00000350: 5f96 483d f6b4 d0bc f59d 8c3d d09b cebc
00000360: b31e 90bc f66f 17bb 3fd0 de3a 84db 0c3d
00000370: f536 533d b13a 4ebd 66d1 33bd b76b b2bd
00000380: 8b63 6ebd be9c 783c 02ca 233d 6a20 1f3b
00000390: 387f 013e 9b8f 063d 7e92 c5bc ffc4 733d
000003a0: 7e66 603b 8a95 2e3d f115 df3d dd4c 52bd
000003b0: a30e 69bd 40e3 12bd 2cfd 593c c826 79bd
000003c0: 889f a63d d8d9 6abd ca56 b9bb 8359 bc3c
000003d0: 49da d33c 5a29 073d d5de 14bc f300 83bd
000003e0: b382 0c3d f209 e93c 81ee 2c3c 1a05 af3d
000003f0: d511 4dbc b4c6 a8bd 81e2 2a3d 1e1b 3c3d
0.027817927 -0.013599975 0.052930146 0.06889691 -0.01204787 -0.0046180813 -0.024791991 0.02154605
-0.011313993 -0.047993645 0.026298411 -0.010888774 0.009893873 0.077022076 0.038298905 0.02573859
0.0075487965 0.03622396 0.021547332 0.020713974 0.03167249 -0.0053295344 -0.03164193 0.08662999
0.01844598 -0.028839784 -0.004915903 0.06284061 0.0678166 -0.04063118 0.015109114 0.051414408
0.005539038 -0.006674289 -0.05269917 -0.0076226965 -0.013444335 -0.0072728028 0.117235065 -0.042640757
0.09033325 -0.02372855 0.06008261 -0.042254996 -0.022813428 0.020130895 0.07528914 0.03137762
-0.11082746 0.058688667 0.142502 -0.063040085 0.016911542 -0.026682751 -0.058099132 0.013110619
-0.0120477965 -0.01691602 -0.03194171 -0.039347824 -0.019540155 0.086328 0.018795846 0.028557064
0.032527886 0.035670757 0.0065070833 -0.05186675 -0.08586936 -0.022426259 0.026387272 0.048719868
-0.07627687 -0.04237947 -0.076665066 0.055764623 -0.036655717 0.026721 -0.0074057477 0.06751591
0.072012775 0.07649746 -0.0041931374 0.011443986 0.051711988 0.025051938 -0.024002625 -0.08997755
-0.05988003 -0.028493553 0.037285704 0.0002385369 0.030933069 0.036965415 0.016082024 -0.04105838
0.0065454505 0.015483192 0.0072941263 -0.0030167955 -0.054583818 0.026443902 0.08087475 0.052088387
0.036612127 0.06837207 -0.044313647 0.040221326 -0.025636207 0.039050404 -0.06563453 0.07421807
-0.015865756 -0.038569987 0.087090045 0.0043143425 -0.0013957061 0.0031877817 -0.007413938 -0.050203823
0.0026293532 -0.031524044 -0.052917615 0.04913217 -0.011590771 0.053503737 0.06737692 -0.002895985
0.14643481 -0.020928856 -0.011215596 -0.072364084 0.0871657 -0.07305581 0.0023138977 -0.085794136
-0.031665932 0.0753816 0.12921408 0.016011903 0.030951831 -0.045627628 0.031055853 0.0034941416
0.043546293 0.012834935 -0.027081372 -0.009108935 0.09246801 0.055736426 0.046189696 0.0069258832
-0.07650714 -0.008923871 -0.024930716 -0.04442879 -0.041682594 0.006049986 0.001532949 0.006427078
0.019409165 -0.074529044 0.00062785577 -0.059600018 -0.003139474 0.029033773 -0.002157023 0.08327479
0.0739928 -0.05174612 0.03074072 -0.043439176 0.061063394 0.017299855 0.060893297 -0.021144874
0.0047577266 -0.0014914565 0.010251541 0.016975941 -0.040082317 0.012982853 -0.09083174 -0.048221793
-0.058660254 -0.024820708 -0.08207468 0.06038714 0.00784895 0.03449687 0.09085355 -0.031563632
0.0114009585 0.03349219 0.00225353 -0.037727743 0.037326034 -0.031788167 0.0076974416 0.012439134
0.0136858495 -0.042391524 0.058449775 0.018030161 -0.017970495 -0.09403833 -0.003523474 -0.04815989
-0.0919099 -0.02710489 -0.09133875 -0.016844396 0.04897153 -0.025476914 0.068660654 -0.025220782
-0.017592764 -0.0023107505 0.0016999318 0.034389034 0.051566083 -0.05034894 -0.04390087 -0.08711951
-0.0582004 0.015174089 0.03998757 0.0024280795 0.12646186 0.032851797 -0.024117704 0.059514042
0.0034240778 0.04262308 0.10892857 -0.051342834 -0.056898724 -0.035861254 0.01330499 -0.060828
0.08135897 -0.05733666 -0.005656098 0.022991901 0.025860922 0.03299842 -0.00908633 -0.063966654
0.034304332 0.028447125 0.010554911 0.08545895 -0.0125164585 -0.082410246 0.041719917 0.0459243

arith.constant12 f4 [512]
00000000: 7a02 99bb 0175 a3bc 6055 0fb4 bfad f3b4
00000010: 101a a4bc d627 0a37 0000 0000 f2ca a3bb
00000020: 4621 36b9 7f14 b9b6 0234 423c 6481 f9ae
00000030: d972 5b39 bf7f 66b1 6e6b 0735 d4bd 3738
00000040: 2b0e 85bc 689e 57b9 20d1 3436 f640 873c
00000050: 67b5 b2b4 e3be 59bb a9d7 123c f5df e432
00000060: 1dd7 0ebc cb3b 353c 2370 9cbb b04d 583c
00000070: 2b30 4e39 987f b03b 3115 89b8 88d2 f739
00000080: a7b7 153b e0aa 9237 bb4b 57bc b28d 4438
00000090: 2c3d debc 19e5 4fbc 4eda 2236 fc79 26bc
000000a0: 9a44 90b7 66d1 613b 23a0 6abc 97ef 18b9
000000b0: b071 ccbb e68b 043c 7cfa 583c 0225 c3b9
000000c0: 1acc 992b 833f 47b8 0ea1 0fba 6f2b 29b6
000000d0: f057 4536 4dea 22b6 fb59 e33b 3bda df3b
000000e0: c597 8ebc 83d2 54b6 9678 133c 5772 f83b
000000f0: 1463 01b8 bae7 88bc 0c00 14b6 a7d7 b63c
00000100: 4d54 e4bc d77b e32e 387d abb3 dc91 823b
00000110: 31ec 7fa7 8024 15b2 d94c ebb3 b0cb e93a
00000120: 3476 ce3b 299b 7bbb a042 c83c b843 9d35
00000130: 1efd 6429 b58c 433c 2d20 713b 87e1 023c
00000140: 552e 0b3b cd3b 8039 811a 843b f373 8bb7
00000150: 8189 ad3c 584d b533 d92a 88b9 af3c 46bc
00000160: dad3 6cbc 91d4 113a 927d e93b 73a1 15bc
00000170: d0fe 48ba 30b1 59b2 f054 f1b8 8a09 87b9
00000180: 1d29 96bc ea4c a83c 75d1 f3bb 34c4 843c
00000190: 2650 babb dd70 41b9 5e03 ee31 998c 09b4
000001a0: abb3 3fbb 72eb 60b8 e4de bfb7 ffd0 68ba
000001b0: ec6d 8f3c d639 f4bb d0c0 83bc fa21 d539
000001c0: 120c c636 3db1 c5ba 7ba3 9bb9 4b99 27bc
000001d0: 762f 2737 3d41 1239 f36e c8bc 6376 febb
000001e0: edbe fbbb 2d1a 873a 1278 dbb7 8e5d e8ba
000001f0: 0767 1fb2 fc8e b13c 8c28 a2b3 2eee 72b7
00000200: 9a1e 7f3f 90e7 803f 0000 803f f3fa 7f3f
00000210: 2a0b 803f de1f 7d3f 6200 803f 8fbd 7f3f
00000220: 0000 803f 8352 7e3f 91ef 7f3f 0000 803f
00000230: 9964 7d3f e615 803f 1df7 7f3f 1001 803f
00000240: 1409 803f 5fef 7f3f 0000 803f 87ef 7f3f
00000250: 6700 803f a473 7f3f 2579 783f 0000 803f
00000260: 5d56 823f 0a00 803f d3f0 7e3f 7863 7d3f
00000270: a502 803f 5868 7c3f 1400 803f 0000 803f
00000280: 7692 7d3f b663 823f 6784 7e3f 0000 803f
00000290: 4afc 7f3f 0000 803f 0000 803f e64b 7c3f
000002a0: 91ff 7f3f 2200 803f 9aa4 7c3f 5253 7e3f
000002b0: d985 803f 98fe 7f3f 0984 803f 79f8 7f3f
000002c0: 0000 803f b276 7e3f 32f7 7f3f b903 803f
000002d0: 1b65 803f 0000 803f 67d7 7e3f f6a0 7c3f
000002e0: dbc2 803f f044 803f f30b 803f 3ceb 7b3f
000002f0: 0000 803f ca0a 7a3f 0000 803f c600 803f
00000300: c4ff 7f3f 0000 803f 7ad7 813f f2bc 7e3f
00000310: 0000 803f 0000 803f 0000 803f d741 803f
00000320: 0300 803f f3ff 7f3f 8500 803f 9935 813f
00000330: 0000 803f 1d00 803f 279c 7c3f 2c00 803f
00000340: 07d0 7f3f d2d3 7e3f 3c02 803f dea2 7f3f
00000350: eaff 7f3f 0000 803f aaff 7f3f b82e 7f3f
00000360: 44f7 7f3f 0400 803f fdfc 7f3f 3835 803f
00000370: b70b 803f 0000 803f d2fd 7f3f 05f6 7f3f
00000380: 0604 803f 810b 843f e7ff 7f3f 6b90 7d3f
00000390: deac 7d3f 0800 803f 0000 803f 1602 803f
000003a0: 0000 803f e91d 7b3f 2901 803f 0000 803f
000003b0: b18d 7f3f 693b 7a3f 2c74 7e3f 3b00 803f
000003c0: 0000 803f 74b3 7f3f 0000 803f fcff 7f3f
000003d0: faff 7f3f 2f0f 7f3f 2385 7f3f c118 803f
000003e0: 92ae 813f 0000 803f faff 7f3f a13f 803f
000003f0: 100e 803f e01c 823f 5301 803f 0000 803f
-0.0046694847 -0.019953253 -1.3348972e-07 -4.5388694e-07 -0.020031959 8.234716e-06 0.0 -0.004998558
-0.00017369268 -5.5158157e-06 0.01185322 -1.13461934e-10 0.00020928252 -3.354202e-09 5.044775e-07 4.380739e-05
-0.016242107 -0.00020563009 2.6943817e-06 0.016510468 -3.328707e-07 -0.003322535 0.00896255 2.6644537e-08
-0.008718279 0.011061619 -0.00477411 0.013202116 0.00019663635 0.005386304 -6.536616e-05 0.0004726837
0.002284506 1.7484126e-05 -0.013140614 4.6862006e-05 -0.027128778 -0.0126888985 2.4266951e-06 -0.010160919
-1.7198083e-05 0.0034457087 -0.014320406 -0.00014585104 -0.0062391385 0.008089995 0.013243314 -0.0003722087
1.0927953e-12 -4.7504447e-05 -0.0005479016 -2.5208244e-06 2.9406474e-06 -2.4276262e-06 0.0069382167 0.006831435
-0.017406354 -3.1712996e-06 0.009000918 0.0075819897 -3.084827e-05 -0.016712058 -2.2053746e-06 0.022319628
-0.027872229 1.0344763e-10 -7.985585e-08 0.003984673 -3.5516399e-15 -8.681241e-09 -1.0957019e-07 0.0017837193
0.006300712 -0.0038392043 0.024445832 1.171712e-06 5.0845714e-14 0.011935403 0.003679286 0.00798834
0.0021237333 0.00024458618 0.00403148 -1.6624084e-05 0.021183731 8.442538e-08 -0.00025971865 -0.012099429
-0.014454806 0.0005562986 0.007125565 -0.009132731 -0.00076673646 -1.267135e-08 -0.00011507596 -0.00025756314
-0.018330151 0.020544488 -0.0074407407 0.016206838 -0.005685824 -0.00018447959 6.9270945e-09 -1.2810268e-07
-0.0029251378 -5.3625037e-05 -2.2872766e-05 -0.00088812405 0.01750847 -0.0074531836 -0.016083151 0.0004065184
5.902265e-06 -0.0015082728 -0.00029685706 -0.010229419 9.965026e-06 0.00013947948 -0.024466967 -0.0077655776
-0.0076826722 0.0010307484 -2.6162747e-05 -0.0017728077 -9.278444e-09 0.021674626 -7.551088e-08 -1.447978e-05
0.9965607 1.0070667 1.0 0.99992293 1.0003407 0.9887675 1.0000117 0.9989862
1.0 0.9934465 0.99974924 1.0 0.98981625 1.0006683 0.9998644 1.0000324
1.000277 0.99974626 1.0 0.99974865 1.0000123 0.9978583 0.9705985 1.0
1.0182606 1.0000012 0.9958622 0.989799 1.0000807 0.98596716 1.0000024 1.0
0.99051607 1.0186679 0.9942078 1.0 0.9999434 1.0 1.0 0.9855331
0.9999934 1.000004 0.9868866 0.99345887 1.0040847 0.99997854 1.0040294 0.99988514
1.0 0.99399865 0.99986565 1.0001136 1.0030855 1.0 0.9954743 0.98683107
1.0059465 1.0021038 1.0003647 0.98405814 1.0 0.9767271 1.0 1.0000236
0.9999964 1.0 1.0143883 0.9950706 1.0 1.0 1.0 1.0020093
1.0000004 0.9999992 1.0000159 1.0094482 1.0 1.0000035 0.9867577 1.0000052
0.999268 0.9954196 1.0000682 0.9985789 0.9999987 1.0 0.9999949 0.9968066
0.9998667 1.0000005 0.99995404 1.0016241 1.0003575 1.0 0.99996674 0.9998477
1.0001228 1.0316011 0.9999985 0.9904849 0.990919 1.000001 1.0 1.0000637
1.0 0.98092514 1.0000354 1.0 0.9982558 0.977469 0.99396014 1.000007
1.0 0.998832 1.0 0.99999976 0.99999964 0.99632543 0.99812526 1.0007554
1.01314 1.0 0.99999964 1.0019418 1.0004292 1.0165062 1.0000404 1.0

arith.constant13 f4 [256]
00000000: 95bf 2b3c cafe 143d 95ed 64ba c705 d73c
00000010: 89ca 53bc e4b3 f53b 37c0 a83b f739 df3b
00000020: 7139 ef3c a75e 363c ef7d d93b c4a3 5e3c
00000030: cf2e b4bb 10c2 b0bb b50d 323c e099 9d3c
00000040: 2158 133c 00bf 3f3c e4f5 ddbb 42db 0f3d
00000050: efd7 77bb 32f0 823b 46d6 993b 4499 713c
00000060: ccd3 8bbb a5ab 033d 84c3 9ebc 86ad 1d3c
00000070: db5b 4b3b a65a 8ebb 5ecd 853c aa73 ecbc
00000080: bc62 b83c 304d 493c 44b8 1a3b b989 8abc
00000090: f69b b53c b1f3 f5bb 9263 0dbd e276 163c
000000a0: d5d8 38bc 8728 ae3b 2b7d 3f3b 963c 973c
000000b0: 87b3 413c a95c bcba c344 5a3b b7b1 2abc
000000c0: 5a03 853c 6229 47bc b1f4 de3b 4a9a 52bc
000000d0: ef3f b23c a4c3 a43b 4517 7abb 02ca 74bb
000000e0: 23e6 523c b472 8e3c ca4e 7dbc 3909 f53b
000000f0: 5e54 5a3c 098f 653c 5268 003c 0eb7 d13c
00000100: 4880 813f aaea 833f 680d 803f 8b6c 833f
00000110: 0a8a 813f 2e04 823f 88d5 803f 9f78 803f
00000120: 04f1 843f d5a0 833f 1c5f 803f 1758 823f
00000130: 6d38 803f 739e 7f3f f8b4 823f 07bf 823f
00000140: f9b7 803f 9fed 803f 38a1 7e3f 03df 813f
00000150: b438 803f dfac 833f 7a0b 813f 1cba 823f
00000160: 6180 813f 923e 853f 79cf 7b3f cd65 813f
00000170: 6b82 803f f501 813f 377d 843f 0857 793f
00000180: e9b4 833f 9964 823f c4dc 7f3f 7c75 7b3f
00000190: fc44 823f a292 803f 6273 783f 9f9d 803f
000001a0: 1316 7f3f 3d47 803f db04 813f 3de4 823f
000001b0: 32f2 823f 5611 803f 294b 813f 84d7 803f
000001c0: a61d 823f b2f7 7d3f aee5 7f3f af11 7d3f
000001d0: ef29 843f 66d6 803f 67bf 803f 31ef 803f
000001e0: 10f8 813f bba6 803f 2a5d 7e3f 6521 813f
000001f0: 1021 833f 822a 833f f9f7 813f 7b5e 823f
00000200: 188c ba3b 8b5a 753b de96 c6bc 6d69 0f3c
00000210: 7819 84bb a3c5 7c3b a2fc 243c 1268 053c
00000220: cb82 e63b 2e63 01bc 67a5 99bc b699 30bb
00000230: 4e4b 2e3b e96a c4ba 1ab5 3e3b 1cae 073c
00000240: e1ab 72bc 1ce5 8d3a 9b5b 913c b1d7 023c
00000250: 4054 eabb 1752 f33a cac5 1fbc 68ca 38bb
00000260: 82a1 02bc af74 87bc ed32 ae3c 3297 bbbb
00000270: 52fc 5dbc cae6 c6bc 06f5 e53b f7ef 153a
00000280: 5fbb 7b3b d41f 6e3c 5616 733c 59b4 8f3c
00000290: 9718 5c3b 0814 f7bb 23d9 fd3b 7b46 9bbc
000002a0: 214d cebc 9a41 3f3c b408 033b 89b2 43bc
000002b0: d8b5 86bb 0364 1d3b ef02 6eba 9a7e 8eba
000002c0: 0a17 55bc 5d05 093c 50e0 36bb f45a 123c
000002d0: 3044 91bb 1d9f b9bc 1eb4 3f3b 12c5 073c
000002e0: 2a25 abbc 8a53 88ba adb1 88ba 0802 03bc
000002f0: 43da b73a 7791 b83b 7035 0a3b 764b fb3b
00000300: 4c46 0c3c 89d6 353d fe1e 8ebb 7ce7 013d
00000310: 8a91 283d a232 5d3d a74c 263c 34e3 6d3c
00000320: 6735 323d b6ab 3c3d 3c8b 133b 4c84 cb3c
00000330: b4e3 433b 66cb 86bb 1a48 223d 2c91 083d
00000340: 11f4 1e3d 496c 843c 7f5d 0cbc 0ebf 913d
00000350: e548 853b ddac bc3b 5d1a c839 2736 a63b
00000360: 39bd c13c 8979 e83c 8f9e 83bb bc69 573c
00000370: 8d59 343c 9d73 9abc 3f13 ec3c 4e24 bcbc
00000380: 41d4 a93c 5bb6 333d 1132 e6bb 1511 fcbb
00000390: 6960 1e3c ab2a 9f3b abbe cfbc c8d7 de3a
000003a0: a84f 0b3c fa42 9b3c ff53 0f3b 90e5 f43c
000003b0: 920d 783d a6e7 00bc 9992 713b a244 ae3b
000003c0: b3ee dc3c fb8e 9c3c 6a04 1b3b 483d 3cbc
000003d0: 6b69 f43c 4b78 d93c f040 02bc 78fa 303c
000003e0: a6b3 9e3c 0d02 3a3d e0b8 1f3b a07e 513c
000003f0: ac01 ed3b a2c8 d23c cba4 3c3d 27ec 113d
0.010482688 0.0363758 -0.0008732912 0.026247872 -0.012926706 0.0074982513 0.005149867 0.00681233
0.029202195 0.011130965 0.006637327 0.013588849 -0.005498744 -0.005394228 0.010867526 0.019238412
0.00899318 0.011703253 -0.006773697 0.03512121 -0.0037817915 0.0039959187 0.004694733 0.014746014
-0.0042671915 0.032146115 -0.019380338 0.009623891 0.0031030092 -0.004344302 0.016333278 -0.028863747
0.022508018 0.012286469 0.0023608366 -0.016911374 0.022169095 -0.007505857 -0.034518786 0.009183617
-0.011282166 0.00531489 0.0029218893 0.018461507 0.011822588 -0.0014370877 0.0033305145 -0.010418347
0.01623695 -0.0121558625 0.006804072 -0.012854168 0.021759002 0.005028205 -0.0038160842 -0.0037351851
0.012872252 0.01738868 -0.015460679 0.007477906 0.013325779 0.014011153 0.007837372 0.025599983
1.0117273 1.0305989 1.0004091 1.02675 1.0120251 1.0157526 1.0065165 1.0036811
1.0386052 1.0283457 1.0029025 1.0183133 1.001722 0.9985115 1.0211477 1.0214547
1.0056144 1.0072516 0.9946475 1.0146183 1.0017304 1.0287131 1.0081627 1.0213046
1.0117303 1.040972 0.98363453 1.0109192 1.00398 1.0078722 1.0350713 0.97398424
1.0289584 1.018695 0.99946237 0.9822614 1.0177302 1.0044749 0.9705106 1.0048102
0.9964306 1.002174 1.0079607 1.0225903 1.0230162 1.000529 1.0101062 1.006577
1.0165298 0.9920608 0.9995984 0.9885511 1.0325297 1.0065429 1.0058411 1.0072995
1.0153828 1.0050882 0.9936091 1.0088316 1.0244465 1.0247347 1.01538 1.0185083
0.00569297 0.0037438 -0.024241861 0.008753163 -0.0040313564 0.003856995 0.010069998 0.008142488
0.0070346347 -0.007897181 -0.018755628 -0.0026947088 0.0026595178 -0.0014985475 0.0029099644 0.008281257
-0.014811487 0.0010825726 0.017743876 0.007985995 -0.0071511567 0.0018563893 -0.009751746 -0.0028196815
-0.007973077 -0.016535131 0.021264518 -0.005724811 -0.013548927 -0.02427997 0.0070177345 0.00057196565
0.0038411242 0.014533956 0.014836868 0.017542051 0.0033583993 -0.0075402297 0.007746832 -0.018954506
-0.025183262 0.0116733555 0.00199942 -0.011944422 -0.004111033 0.002401591 -0.00090794166 -0.001087147
-0.013005981 0.008363095 -0.0027904697 0.008932818 -0.0044331774 -0.022658879 0.0029251645 0.008286731
-0.020891745 -0.0010400873 -0.0010428928 -0.00799609 0.0014026839 0.005632575 0.002108898 0.0076689078
0.008561682 0.04439405 -0.0043371907 0.0317149 0.041154422 0.054003365 0.010150111 0.0145195015
0.04350796 0.046062194 0.002251341 0.024843358 0.002989036 -0.0041136025 0.039619543 0.03334157
0.03880698 0.016164916 -0.008567213 0.07116519 0.0040675276 0.0057579116 0.00038166615 0.0050723734
0.023649799 0.028378265 -0.0040167044 0.013147768 0.011007679 -0.018853957 0.028817771 -0.02296653
0.020731093 0.04387508 -0.0070250113 -0.007692466 0.009666541 0.0048573813 -0.025359472 0.0017001564
0.008502878 0.018952835 0.0021870134 0.02989462 0.060559817 -0.007867729 0.003686106 0.0053182403
0.02696929 0.019111147 0.0023653754 -0.01148922 0.029835423 0.026546618 -0.007950053 0.010801904
0.019372772 0.045412112 0.0024371669 0.012786537 0.0072328653 0.025730435 0.046055596 0.035625603
