app/src/main/assets/model.tflite (tflite, 553924 bytes, 16 tensors)

arith.constant6 f4 [3, 128]
0.105508424 0.055241875 -0.12689018 -0.063312106 0.17243992 -0.05145762 -0.2180104 -0.11754669
0.06330782 -0.06785414 -0.006366244 0.0024518652 0.08456353 -0.12525274 0.010273489 0.0428576
0.12646271 -0.022779923 0.075626954 0.20832227 0.21482156 -0.062190633 -0.0016555963 -0.053554974
-0.20544392 -0.0697916 -0.22726479 0.1422273 0.15737744 0.033921145 -0.12154293 0.10338557
-0.16261867 -0.07554445 -0.229431 0.2288909 0.086051844 0.16994782 0.124129534 -0.10512098
-0.07804821 -0.21923283 -0.023859639 0.18985495 0.07694867 0.019773161 0.1382362 -0.041096326
-0.11117664 0.21773276 -0.05526919 -0.0584598 0.15959698 0.12187941 0.092994064 -0.15078169
0.19952911 -0.08536186 0.015134671 0.028758474 0.15143195 -0.016585538 0.16109031 0.052568216
-0.09738099 0.014146533 0.015368946 0.079537936 -0.03415169 -0.16466531 -0.094783485 0.029574765
-0.16025062 0.15423493 -0.1277084 -0.050218754 -0.017363682 0.08000803 -0.1921269 -0.11361862
-0.10241412 0.20228954 -0.07290106 0.22457263 -0.014792334 0.1736447 -0.17589746 -0.020779967
-0.090114586 -0.12242555 0.09512097 0.100483745 -0.15006995 -0.055398144 -0.2067509 0.04897282
0.20269476 -0.20107165 0.17481671 0.16510016 -0.0020553377 -0.04218187 0.14842512 0.029989671
-0.19036286 0.037178867 -0.07868785 0.16768202 -0.18221426 -0.119882956 0.09635494 0.005929198
0.10901544 -0.08912413 -0.10943139 -0.17466316 0.057233106 0.042142574 -0.11844464 0.13972694
-0.11575527 -0.047232423 0.19756758 0.1937997 0.0235411 -0.021473685 0.21965568 0.12487637
-0.009053124 -0.1926578 -0.16366221 -0.14897826 0.08057092 0.056717575 -0.15382668 -0.11363478
0.07999516 -0.19139299 -0.03573094 0.06139243 -0.20159727 -0.13676473 -0.18466166 -0.07864142
-0.20854014 0.07226142 -0.047902875 0.19531414 -0.072779186 -0.12503298 0.056153435 0.15979765
0.02059009 0.19008052 -0.113035135 0.08160152 0.1748357 0.16704987 -0.013467447 0.12200678
-0.018357052 -0.20781314 -0.019619945 0.12779073 0.08951149 0.17997083 0.11374225 -0.009021761
0.12180229 0.0064362716 0.088336244 0.124459445 0.08163302 -0.19316287 -0.1394983 -0.08167926
-0.23013148 0.00057226303 0.07825581 0.17833248 0.11340269 0.15711626 0.029051248 0.14151499
0.09964818 -0.009118201 0.09294129 -0.0066084457 -0.14237496 0.08515324 0.17069004 -0.1811202
-0.11398736 0.16593763 -0.20438306 -0.15809631 -0.07765277 0.06301744 0.21875045 0.07403758
-0.20089708 -0.10065866 -0.14524783 -0.06934344 0.037416693 -0.10883615 0.20652953 0.061992522
0.082406595 0.15880316 0.06969215 -0.13519461 0.1362336 -0.1991139 -0.051924936 -0.0091759
0.23344256 -0.17335388 -0.03581277 -0.10212797 -0.19556858 0.0011236167 -0.10985392 0.1909302
-0.1093383 0.21298651 0.01196283 -0.09597481 0.12352419 -0.018009203 0.014039213 -0.02176716
-0.016250536 0.126333 0.022100616 0.17459473 -0.14294818 -0.19282372 -0.0076179164 0.15469079
0.17832066 0.03384218 0.030067699 -0.18197758 -0.19390863 -0.19591191 -0.15650918 0.10624056
-0.18976465 0.1344177 0.024540408 0.035868276 -0.2069354 -0.17505923 -0.15839851 -0.030144386
00000000: cd14 d83d 4e45 623d 80ef 01be c7a9 81bd
00000010: 1794 303e 3ac5 52bd 1e3e 5fbe 52bc f0bd
00000020: 88a7 813d 1df7 8abd ed9b d0bb 79af 203b
00000030: a52f ad3d 4142 00be 2352 283c 738b 2f3d
00000040: 717f 013e f69c babc 4ee2 9a3d 6f52 553e
00000050: 2ffa 5b3e 9bbb 7ebd 9800 d9ba 765c 5bbd
00000060: e45f 52be e6ee 8ebd 1ab8 68be 09a4 113e
00000070: 8d27 213e e6f0 0a3d 80eb f8bd d0bb d33d
00000080: 8285 26be 0cb7 9abd f6ef 6abe 6062 6a3e
00000090: f33b b03d cd06 2e3e a037 fe3d ab49 d7bd
000000a0: bdd7 9fbd 927e 60be 4a75 c3bc 5669 423e
000000b0: 4497 9d3d 53fb a13c ca8d 0d3e 9f54 28bd
000000c0: 94b0 e3bd 56f5 5e3e f261 62bd 8b73 6fbd
000000d0: 646d 233e ea9b f93d ac73 be3d 8466 1abe
000000e0: 5c51 4c3e 33d2 aebd 69f7 773c e496 eb3c
000000f0: fa10 1b3e 65de 87bc dcf4 243e c551 573d
00000100: af6f c7bd dcc6 673c 08ce 7b3c c9e4 a23d
00000110: a4e2 0bbd 069e 28be d81d c2bd c746 f23c
00000120: bd18 24be c3ef 1d3e fec5 02be 2eb2 4dbd
00000130: 483e 8ebc 40db a33d eabc 44be e1b0 e8bd
00000140: 7fbe d1bd fd24 4f3e 274d 95bd 5ef6 653e
00000150: 8c5b 72bc ebcf 313e 771e 34be c03a aabc
00000160: ff8d b8bd 3fba fabd c8ce c23d 6cca cd3d
00000170: f0ab 19be 2ae9 62bd 82b6 53be b997 483d
00000180: 378f 4f3e bae5 4dbe 2703 333e 0410 293e
00000190: d8b2 06bb e6c6 2cbd c1fc 173e e6ac f53c
000001a0: 7bee 42be de48 183d 1827 a1bd d6b4 2b3e
000001b0: 6096 3abe 3285 f5bd bd55 c53d b849 c23b
000001c0: 7d43 df3d b686 b6bd 911d e0bd e6da 32be
000001d0: 436d 6a3d b19d 2c3d 1a93 f2bd 9414 0f3e
000001e0: 1911 edbd c976 41bd 284f 4a3e 6e73 463e
000001f0: 44d9 c03c 95e9 afbc 6bed 603e 2fbf ff3d
00000200: 8e53 14bc 1648 45be 1197 27be c28d 18be
00000210: 5e02 a53d b050 683d be84 1dbe 5ab9 e8bd
00000220: 81d4 a33d 86fc 43be 9b5a 12bd a176 7b3d
00000230: 846f 4ebe 0e0c 0cbe f217 3dbe c10e a1bd
00000240: 8c8b 55be ccfd 933d ce35 44bd 6e00 483e
00000250: 410d 95bd a508 00be 2501 663d ffa1 233e
00000260: 8cac a83c 78a4 423e f77e e7bd b31e a73d
00000270: 2108 333e 1f0f 2b3e 91a6 5cbc b1de f93d
00000280: 8761 96bc f8cc 54be 02ba a0bc 93db 023e
00000290: cd51 b73d 464a 383e b2f1 e83d 02d0 13bc
000002a0: 7b73 f93d 5ce7 d23b a2e9 b43d 98e4 fe3d
000002b0: 362f a73d 7dcc 45be a4d8 0ebe 7547 a7bd
000002c0: 96a7 6bbe ec03 163a 9544 a03d ca9c 363e
000002d0: ab3f e83d 16e3 203e e2fc ed3c 4ee9 103e
000002e0: 5814 cc3d 8264 15bc 0158 be3d a98b d8bb
000002f0: beca 11be d264 ae3d 5fc9 2e3e 9377 39be
00000300: 3472 e9bd 8eeb 293e cb49 51be 00e4 21be
00000310: 6a08 9fbd 4a0f 813d 1e00 603e 04a1 973d
00000320: f7b7 4dbe 2126 cebd d9bb 14be ef03 8ebd
00000330: 3f42 193d 7de5 debd 7a7c 533e dfeb 7d3d
00000340: cac4 a83d 4c9d 223e c2ba 8e3d 7570 0abe
00000350: d280 0b3e 84e4 4bbe 3eaf 54bd 8456 16bc
00000360: 910b 6f3e ae83 31be 69b0 12bd 7828 d1bd
00000370: 2143 48be 5246 933a 18fb e0bd 3583 433e
00000380: c2ec dfbd 2319 5a3e bfff 433c 718e c4bd
00000390: 40fa fc3d 0988 93bc ba04 663c 0b51 b2bc
000003a0: d81f 85bc 705d 013e 5a0c b53c f6c8 323e
000003b0: 0261 12be 9573 45be b79f f9bb 4367 1e3e
000003c0: b199 363e 199e 0a3d 8950 f63c 5558 3abe
000003d0: fc8f 46be 229d 48be f143 20be a794 d93d
000003e0: aa51 42be cba4 093e f708 c93c 9dea 123d
000003f0: e0e6 53be ba42 33be 3833 22be 5cf1 f6bc

arith.constant7 f4 [128, 64]
0.13185208 0.1424106 -0.12245696 -0.082590096 -0.12923984 -0.15782066 0.0037032454 -0.056260742
0.10842268 -0.17813087 -0.14325504 -0.041583646 -0.15141214 0.0042988146 0.14864023 -0.05994667
0.040984545 0.15528353 -0.08436658 0.10944733 0.097105816 0.10452837 -0.12002215 0.08020576
-0.20453767 -0.009756446 -0.003433638 0.034743935 0.121859 0.06259455 -0.07865286 -0.11774203
0.16877912 -0.053150956 0.021766908 -0.12261465 0.1869654 -0.13863927 -0.06286603 -0.002754332
-0.1086077 -0.1357137 -0.20160629 -0.06286667 0.13512512 0.0017822576 0.00056882785 -0.06114334
-0.18479665 0.102926955 -0.120456964 0.15404725 -0.12834996 -0.16004 -0.011981014 -0.17736578
-0.16344133 0.08223822 0.18155506 -0.08797049 0.004562165 -0.12804708 -0.020309845 0.055161923
-0.13242482 0.17231204 -0.10589903 -0.14181113 0.10103237 0.16458073 0.020168189 0.08672728
-0.043705273 0.1454916 0.040390577 -0.17679098 0.006711829 0.014848403 0.17632942 -0.0029143528
0.048784785 -0.16743892 0.07928461 0.10595657 -0.11913477 -0.048128918 -0.1130268 -0.19438535
0.023370463 -0.044281464 -0.13783415 0.10318159 0.1270975 0.09725435 0.16405606 -0.1230801
0.08739366 0.16583134 0.0667442 0.002770824 -0.0783738 0.04757038 -0.025878418 -0.08072556
0.020319985 0.07967314 -0.05950069 -0.017679792 -0.059584774 0.0016864843 0.076303415 0.041905746
-0.030077431 -0.13790406 -0.05645917 -0.13709934 0.1604998 0.09766073 -0.18162444 0.14861414
0.028565047 -0.011876641 0.034318347 -0.1319735 -0.07524838 0.026954759 -0.07038282 -0.01946914
-0.11859718 -0.13976555 0.17428535 0.10549497 0.090699054 0.004854622 -0.06341348 -0.06810496
0.10034949 0.12690966 0.0053745448 0.13239715 -0.08363356 0.07520498 0.07110518 -0.058005787
0.008392887 0.10931142 0.087846085 0.028552735 0.013492742 -0.03875165 0.0610679 -0.034765024
0.16416128 0.037100546 0.13202216 -0.01649424 0.1477309 0.046652168 0.12628385 -0.03991859
-0.13772827 -0.004168394 0.021909611 0.08616204 -0.042275634 -0.011598802 0.0100031905 0.094528735
0.18007018 -0.08153574 0.13959198 -0.109988734 0.06741188 -0.05906695 -0.048431043 -0.1716676
-0.10906039 -0.1635283 -0.10570618 0.16758917 -0.03933257 -0.023105249 -0.113926195 0.14071795
0.031053264 -0.16866297 -0.07495955 0.054307308 -0.011035622 0.077283174 -0.107575506 0.08820021
-0.04816237 0.01175315 -0.17715082 0.13152742 -0.11530147 -0.093930334 -0.06751568 0.12842949
0.12062022 0.11341614 -0.15108581 -0.121766075 0.08253837 -0.030425621 -0.052067574 -0.10851302
-0.106661715 -0.048477463 -0.1254108 0.16941704 -0.03155258 -0.057914145 0.13573693 -0.06637914
-0.03299802 -0.012601709 -0.12427387 -0.12195171 0.048862588 -0.02684368 0.07658715 0.008528315
0.06328651 -0.0449067 0.10451946 0.047073983 -0.07032984 0.024412822 -0.08723156 0.026123293
0.037959184 0.04797327 0.03099889 -0.06964521 0.116591774 0.04167871 0.031247353 -0.021693774
-0.052752823 -0.037409153 -0.01908873 0.05163129 0.0051842188 -0.0032183316 -0.13666078 -0.17175014
-0.08827088 0.1601114 0.0020438556 -0.023247961 0.0510383 0.06984036 0.033790432 -0.096795395
00000000: 3b04 073e 16d4 113e b7ca fabd ff24 a9bd
00000010: 7357 04be bd9b 21be 26b2 723b aa71 66bd
00000020: b60c de3d f067 36be 73b1 12be 9d53 2abd
00000030: c90b 1bbe 12dd 8c3b 2535 183e a48a 75bd
00000040: 69df 273d a502 1f3e 63c8 acbd ec25 e03d
00000050: 6adf c63d f812 d63d 2cce f5bd eb42 a43d
00000060: 5372 51be 80d9 1fbc e306 61bb a84f 0e3d
00000070: 3691 f93d 9231 803d c014 a1bd bc22 f1bd
00000080: 6fd4 2c3e d1b4 59bd 8450 b23c 641d fbbd
00000090: dc73 3f3e 74f7 0dbe e8bf 80bd 0682 34bb
000000a0: b76d debd 88f8 0abe e171 4ebe 3ec0 80bd
000000b0: 3d5e 0a3e a49a e93a 641d 153a 7071 7abd
000000c0: 553b 3dbe 5ecb d23d 24b2 f6bd 90be 1d3e
000000d0: 2c6e 03be 87e1 23be 044c 44bc 609f 35be
000000e0: 2a5d 27be 836c a83d 92e9 393e df29 b4bd
000000f0: 377e 953b c61e 03be d560 a6bc 78f1 613d
00000100: 5f9a 07be 9172 303e 97e1 d8bd f036 11be
00000110: 0fea ce3d da87 283e c237 a53c 129e b13d
00000120: 4d04 33bd c0fb 143e 9770 253d b208 35be
00000130: e7ee db3b b746 733c b38f 343e bafe 3ebb
00000140: 8ed2 473d 1c75 2bbe f85f a23d c2ff d83d
00000150: eefc f3bd d422 45bd 987a e7bd f40c 47be
00000160: 6a73 bf3c 7b60 35bd 6524 0dbe df50 d33d
00000170: d925 023e 4a2d c73d 50fe 273e 6b11 fcbd
00000180: 72fb b23d b1cf 293e 2fb1 883d b696 353b
00000190: 7182 a0bd 29d9 423d fafe d3bc 7153 a5bd
000001a0: 1976 a63c ac2b a33d ffb6 73bd 36d5 90bc
000001b0: 2a0f 74bd 060d dd3a f744 9c3d 5ca5 2b3d
000001c0: f264 f6bc b936 0dbe bb41 67bd c563 0cbe
000001d0: 0f5a 243e 5902 c83d c2fb 39be 4e2e 183e
000001e0: 3f01 ea3c 3e96 42bc 6591 0c3d 1024 07be
000001f0: d31b 9abd 3ad0 dc3c de24 90bd bf7d 9fbc
00000200: 14e3 f2bd b31e 0fbe dc77 323e bf0d d83d
00000210: 6dc0 b93d 8513 9f3b edde 81bd 9d7a 8bbd
00000220: 0984 cd3d 9bf4 013e f31c b03b 1e93 073e
00000230: 1248 abbd 1205 9a3d 989f 913d 7a97 6dbd
00000240: 5282 093c aade df3d a6e8 b33d 6de7 e93c
00000250: a910 5d3c 0dba 1ebd 5622 7a3d c565 0ebd
00000260: e519 283e bef6 173d d130 073e ee1e 87bc
00000270: c546 173e 5816 3f3d 8e50 013e ad81 23bd
00000280: a408 0dbe 0697 88bb c97b b33c b975 b03d
00000290: 3729 2dbd e708 3ebc 6ce4 233c 4898 c13d
000002a0: 5164 383e 36fc a6bd 33f1 0e3e c641 e1bd
000002b0: 3d0f 8a3d 30f0 71bd a15f 46bd a2c9 2fbe
000002c0: 0e5b dfbd f673 27be 7b7c d8bd 7f9c 2b3e
000002d0: 301b 21bd 3847 bdbc 2352 e9bd 5e18 103e
000002e0: 6a63 fe3c fcb5 2cbe 6484 99bd 5771 5e3d
000002f0: c1ce 34bc a446 9e3d 8c50 dcbd 50a2 b43d
00000300: e845 45bd 4990 403c 0667 35be 20af 063e
00000310: 2d23 ecbd 8c5e c0bd a945 8abd 0583 033e
00000320: bc07 f73d b946 e83d 3db6 1abe 7e60 f9bd
00000330: e009 a93d 273f f9bc cf44 55bd 133c debd
00000340: 7571 dabd 4e90 46bd b06b 00be a97b 2d3e
00000350: 473d 01bd 6237 6dbd 9ffe 0a3e c9f1 87bd
00000360: ef28 07bd 6677 4ebc 4c83 febd d1c1 f9bd
00000370: 2324 483d 47e7 dbbc b9d9 9c3d 59ba 0b3c
00000380: 5c9c 813d 16f0 37bd 4c0e d63d a6d0 403d
00000390: 1709 90bd 66fd c73c 76a6 b2bd 8400 d63c
000003a0: 177b 1b3d 9f7f 443d 62f1 fd3c 26a2 8ebd
000003b0: abc7 ee3d 4cb7 2a3d 73fa ff3c 24b7 b1bc
000003c0: 5813 58bd 573a 19bd f85f 9cbc 557b 533d
000003d0: 61e0 a93b a5ea 52bb cef0 0bbe 45df 2fbe
000003e0: 5dc7 b4bd 3ef4 233e 35f2 053b 8272 bebc
000003f0: 890d 513d 7608 8f3d d667 0a3d aa3c c6bd

arith.constant8 f4 [256, 128]
-0.10532599 0.040999923 0.040474944 0.029502718 -0.10311252 -0.10535489 -0.09616923 0.060233653
0.07210692 0.08102745 -0.06733811 -0.0728936 -0.0177564 0.074475184 0.017146116 -0.04354769
-0.09728494 0.09950599 0.08182932 -0.11840344 9.8019686e-05 0.024469407 0.06956797 -0.11454558
-0.01167351 0.103464775 -0.10794992 0.112777516 -0.021415915 -0.0068822503 -0.05683208 0.10616195
0.0452704 0.015776137 -0.10850326 0.107305326 -0.017942555 -0.001193535 0.07510028 0.050128654
0.107721 -0.056502372 -0.016112918 -0.09182373 0.07695667 0.032826807 0.05546069 -0.12986398
-0.10899317 0.02478445 0.07590002 -0.109232746 -0.07374077 -0.08496106 0.10131263 -0.042948455
0.075125724 -0.051134527 0.095726125 -0.120331 0.09422927 -0.06277643 0.025291415 -0.07111088
-0.07655665 -0.10849923 -0.003610901 -0.11523724 0.021057755 0.015793204 0.10832006 -0.09658283
0.10020315 0.104090005 -0.097557805 -0.021527518 -0.06037388 0.06881319 0.062301196 0.022873715
0.022469034 0.040583942 -0.12118728 0.04354863 -0.026785119 -0.06835689 0.069207124 0.019413441
0.07911399 0.047947347 0.13914678 -0.011416383 -0.13586603 0.088760644 0.06473595 0.07084719
-0.054387722 -0.10300984 -0.006104942 -0.11135052 -0.07669589 0.08459567 -0.11258662 0.087238304
-0.09246843 0.040021006 -0.056315448 -0.11800454 0.0022699677 -0.13448955 0.08985656 0.006231926
-0.06798053 0.08994723 -0.0027703736 -0.049155682 -0.010985289 0.05048442 0.10314675 -0.024355588
0.0032188478 -0.06761968 -0.030698312 -0.092018634 0.051878415 0.09174071 -0.0142342625 -0.07207876
0.04807909 -0.0016733009 0.108766295 0.042241693 -0.031140149 0.12102211 -0.05023685 -0.011141032
-0.059801023 0.034398947 -0.07066515 -0.00042266317 0.06816575 -0.018351303 0.030427372 -0.026553303
-0.09293624 0.07733008 -0.050801326 0.01109341 0.114287406 -0.051347617 -0.05537263 -0.048615754
-0.009255558 0.042406376 -0.043852076 -0.10285918 0.037891723 -0.09358129 -0.09990051 -0.002571014
0.0932327 0.027723541 0.0038902515 -0.02780736 0.055616207 0.0929189 -0.046574045 -0.0023624278
0.11765459 -0.10792361 0.01186569 -0.116210505 0.060046405 0.053380776 0.0051173996 0.100703865
0.101360895 -0.08630912 0.1095344 -0.08069137 0.07889089 0.0427732 0.071251884 -0.12267175
0.0008913144 0.036156774 0.022480806 0.018992834 0.12493251 -0.04413295 -0.0041337325 -0.018397084
-0.009049568 0.008532216 0.08785266 -0.06975445 0.020449758 0.0747875 0.02502029 0.026987225
0.123968944 0.06807765 -0.07075088 0.067440845 0.030954625 0.010057253 -0.02437596 0.036748275
0.055871252 -0.10547214 -0.0016816605 0.010190905 -0.03531834 0.0830467 -0.11042529 -0.025446653
-0.031690404 0.05841744 -0.008495776 0.07021099 -0.042137604 -0.08409336 -0.075204074 0.079289205
-0.049150787 0.025300635 0.083355606 -0.10578644 0.092252284 0.08995523 -0.10094228 0.12061251
-0.114026375 0.056282047 -0.09567129 0.122130275 0.08509633 0.07912355 0.094535485 -0.07837356
0.06914091 -0.07350864 0.08806077 0.068081856 0.036651984 -0.06983909 0.10429068 0.025638605
0.024742315 -0.112768136 -0.04046821 -0.08156258 0.09916267 -0.028432582 0.007331582 0.08677247
00000000: 27b5 d7bd 89ef 273d 0ec9 253d afaf f13c
00000010: a82c d3bd 4ec4 d7bd 60f4 c4bd 90b7 763d
00000020: cbac 933d b8f1 a53d 90e8 89bd 3d49 95bd
00000030: df75 91bc 7286 983d 0376 8c3c 105f 32bd
00000040: 543d c7bd ccc9 cb3d 2196 a73d 817d f2bd
00000050: eb8f cd38 1174 c83c a779 8e3d e096 eabd
00000060: 4042 3fbc 57e5 d33d d914 ddbd e6f7 e63d
00000070: 6e70 afbc 8084 e1bb c1c8 68bd 706b d93d
00000080: 746d 393d f53c 813c f536 debd e5c2 db3d
00000090: 44fc 92bc 6470 9cba 2dce 993d b453 4d3d
000000a0: d49c dc3d 086f 67bd 3dff 83bc 140e bcbd
000000b0: 759b 9d3d 6775 063d c02a 633d 10fb 04be
000000c0: d037 dfbd c208 cb3c 7871 9b3d 6bb5 dfbd
000000d0: 6705 97bd 1000 aebd ff7c cf3d b8ea 2fbd
000000e0: 84db 993d 7072 51bd 0f0c c43d 1970 f6bd
000000f0: 47fb c03d ee90 80bd f12f cf3c 95a2 91bd
00000100: bcc9 9cbd d834 debd dea4 6cbb 8101 ecbd
00000110: 5081 ac3c c060 813c e8d6 dd3d 38cd c5bd
00000120: 4f37 cd3d 242d d53d 63cc c7bd 7a5a b0bc
00000130: 9a4a 77bd eeed 8c3d 8a2f 7f3d a861 bb3c
00000140: fb10 b83c 593b 263d 0931 f8bd 0c60 323d
00000150: 776c dbbc b2fe 8bbd 77bc 8d3d f008 9f3c
00000160: 8406 a23d 7064 443d 7e7c 0e3e c80b 3bbc
00000170: 7720 0bbe 24c8 b53d 4894 843d 5518 913d
00000180: a9c5 5ebd d3f6 d2bd f70b c8bb be0b e4bd
00000190: bc12 9dbd 7f40 ad3d d093 e6bd ffa9 b23d
000001a0: 1760 bdbd 11ed 233d 07ab 66bd 5dac f1bd
000001b0: bdc3 143b a1b7 09be b706 b83d 2f35 cc3b
000001c0: 6039 8bbd 4136 b83d 288f 35bb 7857 49bd
000001d0: a4fb 33bc c0c8 4e3d 9a3e d33d 5f85 c7bc
000001e0: 4ef3 523b 307c 8abd 077b fbbc 4474 bcbd
000001f0: 767e 543d 8ee2 bb3d d336 69bc 079e 93bd
00000200: 94ee 443d a952 dbba ddc0 de3d a005 2d3d
00000210: a019 ffbc 71da f73d 28c5 4dbd e088 36bc
00000220: ebf1 74bd e9e5 0c3d e4b8 90bd e498 ddb9
00000230: 7c9a 8b3d 7955 96bc d342 f93c 5086 d9bc
00000240: 5b55 bebd 3c5f 9e3d 0d15 50bd 22c1 353c
00000250: 840f ea3d e151 52bd 69ce 62bd 5021 47bd
00000260: a0a4 17bc 4fb2 2d3d 3c9e 33bd d5a7 d2bd
00000270: 5a34 1b3d 8ca7 bfbd a398 ccbd 757e 28bb
00000280: c9f0 be3d 7b1c e33c 97f3 7e3b 43cc e3bc
00000290: d2cd 633d 444c be3d 6dc4 3ebd f6d2 1abb
000002a0: e4f4 f03d 0e07 ddbd 5068 423c c6ff edbd
000002b0: 38f3 753d cda5 5a3d dcaf a73b d43d ce3d
000002c0: 4d96 cf3d d6c2 b0bd 9253 e03d 8441 a5bd
000002d0: 8c91 a13d f332 2f3d 82ec 913d 543b fbbd
000002e0: 19a7 693a 2019 143d ab29 b83c dc96 9b3c
000002f0: 9edc ff3d c1c4 34bd 4374 87bb 7bb5 96bc
00000300: a444 14bc b5ca 0b3c 18ec b33d 6cdb 8ebd
00000310: 4086 a73c 302a 993d 5af7 cc3c 5014 dd3c
00000320: 6ee3 fd3d 4c6c 8b3d d6e5 90bd 6d1e 8a3d
00000330: 8e94 fd3c 2dc7 243c 18b0 c7bc 5c85 163d
00000340: 41d9 643d c701 d8bd 2a6b dcba c1f7 263c
00000350: f7a9 10bd 6314 aa3d a826 e2bd 8075 d0bc
00000360: cccd 01bd 2047 6f3d de31 0bbc c8ca 8f3d
00000370: 7b98 2cbd 2439 acbd 9804 9abd 6162 a23d
00000380: 5652 49bd 4743 cf3c 58b6 aa3d 90a6 d8bd
00000390: c4ee bc3d 733a b83d d3ba cebd b103 f73d
000003a0: a986 e9bd 0188 663d 4fef c3bd 701f fa3d
000003b0: fc46 ae3d 870b a23d d29b c13d 5182 a0bd
000003c0: c099 8d3d b38b 96bd 3459 b43d 806e 8b3d
000003d0: 6420 163d cc07 8fbd 5a96 d53d 0d08 d23c
000003e0: 65b0 ca3c fbf2 e6bd fec1 25bd 480a a7bd
000003f0: cc15 cb3d 72eb e8bc c43d f03b c4b5 b13d

arith.constant9 f4 [256, 64]
0.054537285 0.05375236 -0.076904126 -0.0062840353 -0.013701925 0.006895949 0.048714608 -0.16185227
-0.002125492 0.058802687 0.038720526 0.018507572 0.040573183 0.033656247 0.0014275118 0.06734763
0.05646857 0.10016687 0.029398 -0.0519769 -0.034090187 0.04431415 -0.00060259044 -0.09542716
0.11537691 -0.032523148 0.028086305 0.06070102 -0.03354704 -0.005985668 0.00797972 0.017052017
0.18313795 0.16588031 -0.022703316 0.07630662 -0.017754948 0.057807785 -0.071840495 -0.1006713
0.038501922 0.10747062 -0.028349813 -0.05058466 -0.035425756 -0.002240045 0.048497636 0.09998433
-0.15409267 -0.07551604 0.0102133155 0.0019090621 -0.027170176 -0.034359805 0.00757901 -0.011585681
0.029506225 0.08708747 -0.020198636 -0.03604176 -0.0037161426 0.06514345 0.099378094 -0.081617706
0.08181939 0.04859269 -0.09935013 -0.0075113997 -0.10470117 -0.0948303 -0.10061176 -0.017490895
0.013716916 0.0050003175 -0.0010542985 0.11416005 -0.04195579 0.012036805 -0.07088721 0.018539617
-0.07086685 -0.027080012 -0.011457132 -0.05095269 -0.010971264 0.07573055 0.113596484 -0.05990134
-0.034123227 0.00038595966 0.024703328 0.061149724 -0.0703436 0.052034628 -0.031575937 0.06722961
0.057566047 -0.0692798 0.012171981 -0.061536983 0.07298864 -0.05727656 0.10086157 -0.078267
0.028979061 -0.0030755047 -0.022757774 -0.050291292 0.0063229683 -0.045568537 -0.03300491 -0.021574559
-0.056628637 -0.073019296 0.016500968 -0.059759874 0.0056449403 0.022361675 0.108404465 -0.050338663
-0.0036860798 -0.0077977157 0.11677344 -0.08006127 -0.04136535 -0.07011933 0.069474 0.016909912
-0.09875595 0.035700686 -0.08037853 -0.07665555 0.063857935 0.09679557 0.050361983 0.020935932
-0.013469512 0.14788972 0.010132858 -0.0717439 0.033015333 0.03208041 0.002571685 0.0060694423
0.17728774 -0.017876156 -0.009816834 0.18671082 -0.053817373 0.056167826 0.046774827 -0.029082566
0.023450833 -0.019243501 0.009677224 0.093648925 -0.062453695 0.05129016 -0.0987539 0.021735892
0.10745171 0.06534949 0.01073127 -0.04283318 -0.14094795 -0.06670393 -0.057588097 -0.004924215
0.020332392 -0.039681185 0.07267554 0.086722635 0.045926683 0.043256234 0.022033643 0.02604068
-0.0537614 0.020692686 0.06805135 -0.0016914597 -0.01622737 -0.11259949 -0.09926601 0.00074694306
0.14089592 -0.011443777 -0.045221403 -0.10144842 0.06211886 0.008606302 0.04462423 -0.03575432
0.1161696 0.09508725 -0.022039294 0.114105515 0.078593366 -0.0028313934 0.04536528 0.06567062
-0.078464195 0.04496448 -0.09892775 0.023793964 0.10415579 -0.10298908 -0.0006030592 -0.0067573064
0.05348383 -0.019204091 -0.059814982 0.059039187 0.08168469 -0.06079255 0.088962324 -0.067796424
0.01300118 -0.047452673 -0.06133005 -0.09746561 -0.005749107 0.0631229 -0.037787136 0.045319274
-0.022809628 0.023947982 -0.09446206 0.07426581 -0.06467378 0.010543993 -0.047751527 0.08382281
-0.1472966 -0.030532198 -0.05591041 -0.11139367 0.053688448 0.058224432 -0.15025538 0.12361447
0.076932184 0.086352855 -0.08742703 -0.037558287 -0.062863074 0.01965081 0.05509267 0.03845352
-0.042484947 -0.0784928 0.06509546 0.020586796 0.10216084 -0.08251613 -0.02491102 0.06948301
00000000: 7d62 5f3d 6f2b 5c3d e97f 9dbd 4fea cdbb
00000010: 0a7e 60bc 6af7 e13b f888 473d 9abc 25be
00000020: d74b 0bbb 16db 703d 6a99 1e3d 319d 973c
00000030: 1130 263d 22db 093d 591b bb3a 8eed 893d
00000040: 964b 673d 4a24 cd3d 13d4 f03c bbe5 54bd
00000050: 27a2 0bbd c182 353d 29f7 1dba 516f c3bd
00000060: bb4a ec3d fe36 05bd 4015 e63c a2a1 783d
00000070: 9f68 09bd 6c23 c4bb 5fbd 023c acb0 8b3c
00000080: 8488 3b3e 87dc 293e 4efc b9bc a546 9c3d
00000090: d372 91bc dbc7 6c3d 1c21 93bd c12c cebd
000000a0: 31b4 1d3d 8e19 dc3d de3d e8bc dc31 4fbd
000000b0: 991a 11bd b8cd 12bb 75a5 463d 96c4 cc3d
000000c0: 78ca 1dbe 27a8 9abd c055 273c 7f39 fa3a
000000d0: fd93 debc debc 0cbd 5859 f83b ded1 3dbc
000000e0: 0ab7 f13c ea5a b23d 9c77 a5bc 86a0 13bd
000000f0: 878a 73bb ee69 853d be86 cb3d 2f27 a7bd
00000100: ed90 a73d 2109 473d 1578 cbbd 3022 f6bb
00000110: 916d d6bd 6336 c2bd 8a0d cebd 1149 8fbc
00000120: eabc 603c b4d9 a33b 6330 8aba bfcc e93d
00000130: d6d9 2bbd 0536 453c 502d 91bd 65e0 973c
00000140: a422 91bd e7d6 ddbc b2b6 3bbc c5b3 50bd
00000150: d1c0 33bc 9e18 9b3d 46a5 e83d 1c5b 75bd
00000160: ccc4 0bbd a15a ca39 a25e ca3c 2278 7a3d
00000170: 4e10 90bd 4322 553d c555 01bd aeaf 893d
00000180: 60ca 6b3d 91e2 8dbd fd6c 473c 340e 7cbd
00000190: 117b 953d d49a 6abd 8390 ce3d 734a a0bd
000001a0: 7f65 ed3c 688e 49bb 836e babc 3efe 4dbd
000001b0: e730 cf3b 13a6 3abd 2830 07bd 21bd b0bc
000001c0: 6ef3 67bd 248b 95bd 0a2d 873c c5c6 74bd
000001d0: 31f9 b83b d52f b73c 2903 de3d ea2f 4ebd
000001e0: 2892 71bb fb83 ffbb ea26 ef3d 2af7 a3bd
000001f0: b76e 29bd b99a 8fbd 6248 8e3d a886 8a3c
00000200: 8f40 cabd e23a 123d 809d a4bd 96fd 9cbd
00000210: f3c7 823d c13c c63d 5e48 4e3d d581 ab3c
00000220: 3aaf 5cbc 6770 173e 4904 263c 77ee 92bd
00000230: 163b 073d bf66 033d b789 283b 2ce2 c63b
00000240: eb8a 353e 0471 92bc c9d6 20bc 1f31 3f3e
00000250: 9b6f 5cbd 3c10 663d f696 3f3d 903e eebc
00000260: f61b c03c 8ca4 9dbc 388d 1e3c 02cb bf3d
00000270: 72cf 7fbd a115 523d 7c3f cabd 780f b23c
00000280: a40f dc3d f4d5 853d 35d2 2f3c d871 2fbd
00000290: a954 10be 129c 88bd 7fe1 6bbd 4f5b a1bb
000002a0: 1e90 a63c bd88 22bd ead6 943d a39b b13d
000002b0: 9e1d 3c3d 732d 313d e67f b43c 4453 d53c
000002c0: ea34 5cbd b583 a93c 825e 8b3d f8b3 ddba
000002d0: 43ef 84bc 909a e6bd fa4b cbbd 80ce 433a
000002e0: 0547 103e ae7e 3bbc 143a 39bd 30c4 cfbd
000002f0: 5970 7e3d 7201 0d3c e6c7 363d 1f73 12bd
00000300: 54ea ed3d 1bbd c23d c08b b4bc 27b0 e93d
00000310: 8ff5 a03d e68e 39bb f2d0 393d 517e 863d
00000320: d6b1 a0bd ad2c 383d a29a cabd 8feb c23c
00000330: a14f d53d f0eb d2bd 9e16 1eba 656c ddbb
00000340: dc11 5b3d e651 9dbc 8e00 75bd 13d3 713d
00000350: 4e4a a73d 9c01 79bd e131 b63d dad8 8abd
00000360: e702 553c bc5d 42bd 3835 7bbd 0d9c c7bd
00000370: 0163 bcbb 9446 813d afc6 1abd b4a0 393d
00000380: 42db babc 8f2e c43c 5375 c1bd ac18 983d
00000390: b073 84bd b6c0 2c3c 1b97 43bd 4bab ab3d
000003a0: ebd4 16be a91e fabc 5002 65bd 5d22 e4bd
000003b0: 6be8 5b3d be7c 6e3d 8cdc 19be 9529 fd3d
000003c0: 9f8e 9d3d c4d9 b03d f10c b3bd b8d6 19bd
000003d0: 5bbe 80bd bcfa a03c daa8 613d 7081 1d3d
000003e0: b204 2ebd d5c0 a0bd c550 853d a4a5 a83c
000003f0: b439 d13d 37fe a8bd 3212 ccbc 1c4d 8e3d

arith.constant10 f4 [512, 13]
0.036750454 0.0774424 0.072560996 0.08043007 -0.07562903 -0.054256435 -0.021247309 -0.03539267
-0.06584329 0.08178372 0.05154651 0.07935917 -0.07527256 0.013051936 0.05384033 -0.09084704
0.038961325 0.0077537536 -0.06269162 -0.0038652185 0.01620816 0.101178244 -0.08812605 0.0843691
0.08250458 -0.07456151 -0.097426645 0.097791106 -0.070311286 0.071634464 0.09053548 0.07696041
0.05035938 -0.028463596 0.09344764 0.0003124408 0.067959994 0.09968973 0.057539828 0.010059854
-0.047293123 -0.010595468 -0.027706131 0.019061672 -0.05190123 0.10123648 -0.0077440254 -0.0075470973
0.073321275 0.058786884 0.054655015 -0.02985371 0.0963326 0.006032683 0.022106148 -0.04616637
0.00061783195 -0.0921254 0.008662611 -0.047766306 -0.08746558 0.024752714 -0.07136337 -0.06533548
-0.07597025 -0.09473652 0.10252333 -0.09568401 -0.022861028 0.09008164 0.08367663 -0.0067807278
-0.08450865 -0.05274007 0.008468824 -0.03505117 0.038752224 0.09238141 0.09089148 -0.04035629
-0.0013051598 0.038135372 0.06320246 0.10313041 0.0043554716 0.06927011 -0.024733722 -0.0072255507
-0.093623534 0.07409095 -0.086274035 0.040763758 -0.021684699 0.091271855 0.10682074 0.097336195
0.09538167 0.047751926 0.022678606 0.06636343 -0.098566145 0.05826 -0.08105147 -0.10596269
-0.04029659 -0.06699147 -0.02299625 -0.005889118 0.06788878 0.0012875474 -0.035952497 -0.07604181
0.09105437 -0.041264284 0.0861258 -0.084687226 0.0031462216 -0.030344343 -0.07352927 0.067617245
-0.017577307 0.05193307 0.10013409 -0.032786563 0.075485766 -0.044765227 0.053822614 -0.06096766
0.0029090235 -0.09206728 0.083236076 -0.055364843 0.09917826 -0.029018544 0.07829211 -0.07639516
-0.029409148 0.040558644 0.102433644 -0.08140644 -0.012813464 -0.036221303 0.05909223 -0.0346979
-0.07951764 0.019887947 0.020218698 -0.10111848 -0.059364516 -0.054004703 0.012322016 0.04021295
0.038799357 -0.036730602 0.09064749 0.052954048 0.02766138 -0.030703079 -0.06749076 -0.0024543093
-0.014079027 -0.054317668 -0.10489685 -0.06151205 -0.00336608 -0.056910504 0.0048915385 0.02962461
0.07040755 -0.097187445 -0.09497366 -0.0594218 0.036438085 -0.07442797 -0.04323288 0.08631227
-0.027915627 0.091136314 0.0014589578 -0.079002075 -0.07235876 -0.08744654 0.05998061 0.0835311
-0.09872713 -0.03659486 -0.05615657 -0.028203484 0.048820168 0.055029597 0.050227743 0.010189836
-0.04438879 0.07299798 -0.030384246 -0.02660656 -0.08356112 0.012709014 0.077993415 0.063577004
-0.055686682 0.08570785 0.03896863 -0.08398381 -0.056960266 0.031789087 -0.04651571 0.04622013
0.08415823 -0.0005517855 -0.06937855 0.03680138 0.061878048 0.041440926 0.012823915 0.067590676
-0.09274276 -0.0655672 0.07804382 -0.02629052 0.06105727 0.09251469 0.032036763 -0.0687994
-0.0066247517 0.027692162 0.10457825 0.05337831 -0.019860476 -0.049384356 0.040087722 -0.08117994
-0.083056495 0.022878103 -0.09148945 0.01113811 0.021634765 -0.010197327 -0.05201098 0.044353433
-0.082691394 0.012181006 -0.060747813 0.048740335 0.050849743 -0.040054373 -0.05274399 0.045782812
0.029287742 0.02628464 0.09406422 0.12007613 -0.077976644 0.08783446 0.049243245 -0.028120646
00000000: a587 163d 1f9a 9e3d dc9a 943d 85b8 a43d
00000010: 65e3 9abd ff3b 5ebd d60e aebc e8f7 10bd
00000020: d9d8 86bd 397e a73d 6f22 533d 0f87 a23d
00000030: 8028 9abd cad7 553c ae87 5c3d 030e babd
00000040: e995 1f3d 3313 fe3b 7764 80bd 9b4f 7dbb
00000050: fac6 843c 8a36 cf3d 6e7b b4bd b5c9 ac3d
00000060: 29f8 a83d b4b3 98bd 9f87 c7bd b446 c83d
00000070: 5dff 8fbd 17b5 923d aa6a b93d 6b9d 9d3d
00000080: a345 4e3d 7d2c e9bc 7a61 bf3d 18cf a339
00000090: 9c2e 8b3d 212a cc3d e2ae 6b3d 16d2 243c
000000a0: 6fb6 41bd 9d98 2dbc f8f7 e2bc 3927 9c3c
000000b0: 6296 54bd 1255 cf3d 98c1 fdbb a44d f7bb
000000c0: 7729 963d 84ca 703d f0dd 5f3d c58f f4bc
000000d0: 074a c53d d0ad c53b f417 b53c f318 3dbd
000000e0: 00f6 213a 3eac bcbd a0ed 0d3c 9aa6 43bd
000000f0: 2721 b3bd 34c6 ca3c f526 92bd 9cce 85bd
00000100: 4a96 9bbd 3805 c2bd c0f7 d13d faf5 c3bd
00000110: 0d47 bbbc b97c b83d a75e ab3d de30 debb
00000120: df12 adbd f905 58bd d3c0 0a3c d191 0fbd
00000130: a7ba 1e3d 7732 bd3d 5025 ba3d a34c 25bd
00000140: e511 abba d633 1c3d 4b70 813d 0936 d33d
00000150: 58b8 8e3b 7ddd 8d3d 609e cabc 50c4 ecbb
00000160: b2bd bfbd ffbc 973d 71b0 b0bd e6f7 263d
00000170: 1ca4 b1bc bdec ba3d d5c4 da3d 3358 c73d
00000180: 7757 c33d 8697 433d 7cc8 b93c 8de9 873d
00000190: 0cdd c9bd 0aa2 6e3d 50fe a5bd f802 d9bd
000001a0: 0a0e 25bd d332 89bd a262 bcbc 81f9 c0bb
000001b0: 4609 8b3d ecc2 a83a ed42 13bd cfbb 9bbd
000001c0: b77a ba3d bd04 29bd b962 b03d 7f70 adbd
000001d0: d730 4e3b b394 f8bc 8496 96bd e97a 8a3d
000001e0: 49fe 8fbc c5b7 543d 1a13 cd3d 344b 06bd
000001f0: 4898 9a3d be5b 37bd 1a75 5c3d 3ab9 79bd
00000200: 51a5 3e3b c58d bcbd ad77 aa3d 3fc6 62bd
00000210: f91d cb3d 4cb8 edbc 9d57 a03d 1175 9cbd
00000220: 74eb f0bc d220 263d bbc8 d13d 6bb8 a6bd
00000230: 90ef 51bc ca5c 14bd b20a 723d 631f 0ebd
00000240: 25da a2bd 0cec a23c afa1 a53c 3517 cfbd
00000250: 3528 73bd 0934 5dbd 48e2 493c 56b6 243d
00000260: 13ec 1e3d d472 16bd 64a5 b93d 58e6 583d
00000270: 1e9a e23c 0685 fbbc 9838 8abd 7ad8 20bb
00000280: b8ab 66bc 347c 5ebd 29d4 d6bd 0ff4 7bbd
00000290: 7499 5cbb fd1a 69bd 3349 a03b 4faf f23c
000002a0: d531 903d 360a c7bd 8d81 c2bd 4664 73bd
000002b0: 1a40 153d b16d 98bd f614 31bd 7dc4 b03d
000002c0: 50af e4bc ada5 ba3d 803a bf3a d7cb a1bd
000002d0: d430 94bd 2c17 b3bd 3aae 753d 5a12 ab3d
000002e0: 7331 cabd 7ee4 15bd 6e04 66bd fe0a e7bc
000002f0: a8f7 473d b766 613d 9bbb 4d3d 45f3 263c
00000300: 05d1 35bd f77f 953d 62e8 f8bc 00f6 d9bc
00000310: 1822 abbd 7839 503c 03bb 9f3d a934 823d
00000320: b817 64bd 9987 af3d 929d 1f3d b4ff abbd
00000330: 2b4f 69bd 4635 023d 4287 3ebd 5251 3d3d
00000340: 265b ac3d b3a5 10ba 5716 8ebd 0bbd 163d
00000350: d673 7d3d f6bd 293d 661b 523c fb6c 8a3d
00000360: ebef bdbd 1948 86bd 70d5 9f3d 375f d7bc
00000370: 3017 7a3d 5778 bd3d fb38 033d b3e6 8cbd
00000380: 7214 d9bb acda e23c 1f2d d63d 37a3 5a3d
00000390: 70b2 a2bc 4047 4abd 0633 243d ab41 a6bd
000003a0: 8619 aabd dc6a bb3c d25e bbbd 9f7c 363c
000003b0: 643b b13c b012 27bc 7709 55bd f2ab 353d
000003c0: 1b5a a9bd d892 473c b3d2 78bd f2a3 473d
000003d0: d247 503d 0e10 24bd 150a 58bd c286 3b3d
000003e0: d9ec ef3c e352 d73c bea4 c03d 79ea f53d
000003f0: 38b2 9fbd 8ee2 b33d 49b3 493d 455d e6bc

arith.constant11 f4 [512, 128]
0.0060963463 -0.061592195 0.046420176 -0.015744448 -0.025243564 0.0016800936 0.014162507 0.053624313
-0.019653387 -0.053586986 0.0025495626 0.04132218 -0.007504767 0.083791114 -0.06596723 0.0075883586
-0.049536996 -0.01379193 0.11918587 0.007272767 -0.0153028825 0.039623693 0.026413651 -0.008520758
0.026609253 0.06325832 -0.018665368 0.056730393 0.025329193 0.056428403 0.032716434 0.018314928
0.03673286 -0.002734616 -0.006527197 -0.03360356 0.0004055275 0.0033320205 -0.07940525 0.011144694
-0.0008317371 0.032744277 -0.077435635 0.017428754 0.040972322 -0.015121571 -0.0038858466 0.011120028
-0.044653255 0.025657695 -0.035035223 0.025443992 0.061279036 -0.07050422 -0.006283579 0.042950764
0.018191278 0.04798345 0.00041087452 -0.009775209 -0.01176063 -0.044057652 -0.08975503 -0.029806437
0.07482312 0.066603936 -0.013533809 0.013485666 0.05436352 0.009079973 -0.047371335 0.036248047
0.0033517014 -0.024249516 0.03666792 -0.0521555 -0.0045579914 0.044882026 0.009407319 -0.050201017
-0.0018363574 0.012245299 -0.06389332 -0.023772618 -0.046578664 0.030254249 0.056872662 0.016307907
-0.05658811 0.053616293 0.034505147 0.04300019 0.021979937 -0.00044170467 -0.013448983 0.027165383
-0.042904343 -0.028384654 0.057603654 0.014413167 -0.025862044 0.0055813985 -0.039379135 -0.07630006
0.013357267 0.070579745 0.017565494 0.05166462 -0.02721424 0.019908173 0.016555944 0.010169905
0.038132623 0.03925218 -0.03192869 -0.03903931 0.011129051 0.11034829 0.0808531 -0.038106285
0.0010722108 0.01725338 -0.014939636 0.12499769 -0.034973353 0.0361849 0.045678318 0.06969762
0.05934161 0.034002163 0.07911372 0.052757595 -0.069648966 -0.10638371 -0.04166606 0.07208243
0.042253334 -0.039796714 -0.025443956 -0.08102082 -0.067696795 -0.04161174 -0.117827736 -0.08086513
0.023926262 0.005042653 0.05293432 -0.020071056 0.050945617 -0.06170771 -0.017855301 0.03002948
-0.04033621 -0.012804911 0.03275873 -0.059586864 0.098085284 -0.038858384 -0.08934822 0.033259623
0.024033412 0.042946827 -0.07779692 -0.048438106 -0.013150793 -0.0591542 0.09022847 0.072321296
-0.058840856 0.020566775 -0.061724763 0.004005368 -0.0027344045 0.02085432 0.030316846 0.012115732
-0.042854674 -0.009800457 0.030054595 -0.07700476 -0.040040527 0.070412844 -0.0021828827 0.099301
0.008986278 -0.03443766 0.0067083174 0.049083304 -0.05611638 -0.0464376 0.0031897456 -0.00019251877
0.02013835 0.059988387 0.0068343026 0.049122423 -0.028464973 -0.029461564 0.06296462 -0.07679988
-0.063070156 0.10403726 0.041312765 0.04902872 0.030551165 -0.013850982 -0.044857487 -0.042448845
-0.0797031 -0.05327296 0.0429051 0.017261619 -0.00173426 -0.013947549 -0.049884725 -0.058845382
0.057218373 -0.02094367 -0.029392147 0.021738917 -0.020439494 0.088706315 -0.0028802191 -0.012711614
-0.014530537 -0.031234082 -0.016631704 0.049333908 -0.043330133 -0.014239999 -0.0716197 -0.07813669
0.014538679 0.14292634 0.006306037 -0.035048813 -0.047858536 0.04305141 -0.0048789205 0.011339176
0.014772057 0.015821734 0.031122787 0.04054682 -0.005298392 -0.017608492 -0.006386643 -0.038398366
-0.08155096 0.009939549 -0.036383636 -0.028813254 -0.051585674 -0.017079549 -0.011080824 -0.013305176
00000000: dcc3 c73b 1948 7cbd 1523 3e3d 80fa 80bc
00000010: 97cb cebc 9636 dc3a dc09 683c 2ba5 5b3d
00000020: 2400 a1bc 077e 5bbd 9016 273b 7241 293d
00000030: 8cea f5bb ad9a ab3d d419 87bd c4a7 f83b
00000040: 4ee7 4abd 8cf7 61bc b917 f43d 6450 ee3b
00000050: f1b8 7abc 744c 223d 7161 d83c a69a 0bbc
00000060: a6fb d93c 948d 813d 1de8 98bc 215e 683d
00000070: 2b7f cf3c 7821 673d ab01 063d 3009 963c
00000080: 3275 163d 3e37 33bb 19e2 d5bb e3a3 09bd
00000090: fb9c d439 075e 5a3b 389f a2bd 3c98 363c
000000a0: ef08 5aba dd1e 063d 9396 9ebd bfc6 8e3c
000000b0: 98d2 273d 77c0 77bc b0a9 7ebb c730 363c
000000c0: 55e6 36bd 1630 d23c 1881 0fbd eb6f d03c
000000d0: baff 7a3d 8464 90bd 7be6 cdbb 24ed 2f3d
000000e0: e005 953c 4b8a 443d a56a d739 3328 20bc
000000f0: a8af 40bc cc75 34bd 7cd1 b7bd a12c f4bc
00000100: dd3c 993d a567 883d e9bc 5dbc fcf2 5c3c
00000110: 48ac 5e3d 2bc4 143c 7208 42bd d578 143d
00000120: 38a8 5b3b eca6 c6bc 1a31 163d 01a1 55bd
00000130: 345b 95bb 37d6 373d 2821 1a3c 959f 4dbd
00000140: eeb1 f0ba 82a0 483c 80da 82bd cbbe c2bc
00000150: 45c9 3ebd c2d7 f73c 4ff3 683d 2998 853c
00000160: efc8 67bd c29c 5b3d 4555 0d3d f820 303d
00000170: 450f b43c 9994 e7b9 2059 5cbc f089 de3c
00000180: 77bc 2fbd ef86 e8bc cff1 6b3d 3425 6c3c
00000190: a3dc d3bc 2ae4 b63b 044c 21bd 3543 9cbd
000001a0: 70d8 5a3c 1d8c 903d 83e5 8f3c 489e 533d
000001b0: 66f0 debc 7716 a33c 55a0 873c ac9f 263c
000001c0: f430 1c3d e5c6 203d a8c7 02bd afe7 1fbd
000001d0: a056 363c 49fe e13d 4f96 a53d 5615 1cbd
000001e0: 6d89 8c3a f656 8d3c 60c5 74bc cafe ff3d
000001f0: 3840 0fbd 9e36 143d 3019 3b3d a0bd 8e3d
00000200: 3010 733d da45 0b3d 6006 a23d 5918 583d
00000210: 1ea4 8ebd b4df d9bd 08aa 2abd f49f 933d
00000220: d511 2d3d e101 23bd d86f d0bc 3eee a5bd
00000230: 9ea4 8abd 1271 2abd ab4f f1bd 9e9c a5bd
00000240: 0201 c43c d73c a53b a8d1 583d 0e6c a4bc
00000250: 5aac 503d 39c1 7cbd 4845 92bc 6200 f63c
00000260: 9537 25bd b0cb 51bc 052e 063d 5b11 74bd
00000270: f0e0 c83d f829 1fbd 33fc b6bd 3e3b 083d
00000280: b8e1 c43c 03e9 2f3d fe53 9fbd 0967 46bd
00000290: 6c76 57bc ad4b 72bd b4c9 b83d 301d 943d
000002a0: 1c03 71bd a77b a83c 1bd3 7cbd 763f 833b
000002b0: b233 33bb aed6 aa3c 095b f83c 1081 463c
000002c0: 6288 2fbd 1992 20bc 0e35 f63c acb4 9dbd
000002d0: 8901 24bd 9c34 903d b20e 0fbb 535e cb3d
000002e0: 2f3b 133c 810e 0dbd 72d1 db3b 930b 493d
000002f0: 4ada 65bd 5a35 3ebd 0d0b 513b ddde 49b9
00000300: 2ef9 a43c 62b6 753d 49f2 df3b 9834 493d
00000310: 602f e9bc 6159 f1bc 98f3 803d 4149 9dbd
00000320: ed2a 81bd 7d11 d53d 9337 293d 57d2 483d
00000330: 7046 fa3c 3bef 62bc 7cbc 37bd d7de 2dbd
00000340: 613b a3bd bf34 5abd 42bd 2f3d 3d68 8d3c
00000350: 1c50 e3ba 4384 64bc ed53 4cbd db07 71bd
00000360: d05d 6a3d 0f92 abbc cdc7 f0bc d015 b23c
00000370: ba70 a7bc a8ab b53d 0fc2 3cbb 6044 50bc
00000380: 7d11 6ebc 9ede ffbc 363f 88bc 5a12 4a3d
00000390: f07a 31bd e34e 69bc 59ad 92bd 2106 a0bd
000003a0: a433 6e3c 485b 123e dfa2 ce3b 588f 0fbd
000003b0: 5007 44bd ad56 303d 5adf 9fbb f4c7 393c
000003c0: 7f06 723c 959c 813c 37f5 fe3c 6c14 263d
000003d0: 229e adbb af3f 90bc 0b47 d1bb 9b47 1dbd
000003e0: 3104 a7bd 7dd9 223c 0207 15bd c609 ecbc
000003f0: 804b 53bd 69ea 8bbc 588c 35bc f4fd 59bc

arith.constant12 f4 [256]
-0.01373611 0.00037631762 -0.023501175 -0.0060380446 0.020312734 0.019601112 0.008187571 0.024683917
0.031555306 -0.0034974604 -0.009145205 0.026338456 0.010561886 -0.013882599 -0.007648882 0.018681947
0.027621692 -0.010259677 0.011451535 -1.8476348e-05 -0.0030406134 0.0107144285 0.0070754583 0.006517853
0.020872265 0.0038998108 -0.010795912 0.010107952 -0.013923115 0.003947969 0.004371602 0.0021809053
0.021903139 -0.006912398 0.009833511 0.008771974 -0.002535005 0.004367574 0.0089541115 -0.001263854
0.017897956 0.02366684 0.023837984 0.0102852415 0.008837734 -0.020249687 0.0033888104 0.0015628219
0.0077671823 0.011221638 -0.015204227 0.0070248046 0.0022446397 -0.0045980564 0.011932196 0.006057666
0.020863023 0.013267882 0.0035238808 0.0112882685 0.0022843562 0.02700356 -0.001273419 -0.011491807
0.99147666 1.0015665 0.97868454 0.9943347 1.0189419 1.023336 1.0089835 1.0290735
1.0257916 1.0009574 1.0003346 1.0256165 1.0112267 0.9866314 0.99576193 1.0198685
1.0278378 0.9923119 1.0163461 0.99918026 0.99688804 1.0105057 1.00747 1.0141047
1.0229713 1.0034183 0.98939174 1.0103787 0.99216294 0.99977577 1.0086135 0.999281
1.0128106 0.9964813 1.0125674 1.0126405 0.9961064 1.0079219 1.0132135 0.9979731
1.0256611 1.0231056 1.022218 1.0096844 1.0004499 0.9859028 1.0042547 0.998653
1.0067137 1.0125408 0.9861307 1.0038927 1.0045034 0.99485326 1.0114301 1.0044864
1.0197668 1.0167551 1.0008641 1.0116925 1.0023084 1.0333071 1.0002178 0.9890601
-0.0106213605 0.005602783 0.0026366364 0.00055917667 0.011190968 0.0010198917 -0.022055184 0.010623103
-0.010054158 -0.011808606 -0.0018743703 -0.0061141686 0.012532336 -0.0033647567 -0.007394509 -6.154363e-05
-0.0061329296 0.0072707143 0.014158048 0.007836244 -0.0024030441 -0.015058874 -0.015925376 0.009428794
-0.005744998 -0.0044172606 0.009338914 0.01127209 0.0045144195 -0.0062617604 0.004683504 0.0052944086
-0.007405132 0.0068490584 0.001075842 -0.010355987 0.0017765578 -0.008379526 -0.009947183 0.013688112
-0.014761762 0.0061921086 -0.0045160227 -0.009742472 0.0016931057 0.0034799003 -0.014374688 0.00038771777
0.008335438 0.0099282265 -0.019497743 0.00807161 3.3824035e-05 -0.005890882 0.0061428864 0.0023512829
0.0028977357 -0.004499705 0.0046190997 0.013452785 0.003022138 0.0045260456 -0.004640875 0.00074824155
-0.009655237 0.00013873106 -0.022976534 -0.006704717 0.027492564 0.032841038 0.01503427 0.030199053
0.028264906 -0.0086089885 0.007086539 0.03856596 -0.006028393 -0.013401856 0.0010310317 0.034436524
0.033176526 -0.011553598 0.029234286 -0.008684968 -0.004178995 0.021496778 0.00860767 0.019854179
0.027045049 0.007732462 -0.0045041 0.018154124 -0.01393443 -0.0002035413 0.007061489 0.005052075
0.03482598 -0.0056955055 0.027280457 0.020905243 -0.0020374206 0.0032430806 0.035599727 0.0012847468
0.015463052 0.03331938 0.024792748 0.01372168 0.015505064 -0.01972971 0.0044978163 0.005709654
0.014789451 0.02081822 -0.012330876 0.007017585 0.019757675 -0.0072486466 0.01678897 0.0076431525
0.029265078 0.0063238926 -0.0006075612 0.01261703 0.0034793958 0.033266798 -0.007417264 -0.008261441
00000000: 6c0d 61bc 7f4c c539 8985 c0bc cada c5bb
00000010: e466 a63c 8392 a03c 2925 063c ed35 ca3c
00000020: 2340 013d a635 65bb c5d5 15bc bfc3 d73c
00000030: c30b 2d3c d773 63bc 79a3 fabb e20a 993c
00000040: e346 e23c 3418 28bc 389f 3b3c a8fd 9ab7
00000050: 0745 47bb 928b 2f3c 3fd9 e73b b793 d53b
00000060: 50fc aa3c f893 7f3b 56e1 30bc d39b 253c
00000070: c71d 64bc f75d 813b a83f 8f3b 85ed 0e3b
00000080: 366e b33c 6681 e2bb bc1c 213c 53b8 0f3c
00000090: 5422 26bb de1d 8f3b 44b4 123c e7a7 a5ba
000000a0: bc9e 923c f6e0 c13c e047 c33c 6e83 283c
000000b0: 25cc 103c ace2 a5bc ce16 5e3b 9ad7 cc3a
000000c0: d983 fe3b f6da 373c 261b 79bc 5530 e63b
000000d0: ce1a 133b 4bab 96bb 427f 433c 637f c63b
000000e0: eee8 aa3c 8861 593c e9f0 663b 6ef2 383c
000000f0: 23b5 153b 9236 dd3c dae8 a6ba 2248 3cbc
00000100: 6ad1 7d3f 5533 803f 128b 7a3f b88c 7e3f
00000110: b06c 823f adfc 823f 5f26 813f aeb8 833f
00000120: 244d 833f 5f1f 803f f70a 803f 6747 833f
00000130: e06f 813f e093 7c3f 41ea 7e3f 0d8b 823f
00000140: 3090 833f 2708 7e3f a117 823f 47ca 7f3f
00000150: 0e34 7f3f 4058 813f c7f4 803f 2fce 813f
00000160: b9f0 823f 0370 803f c748 7d3f 1754 813f
00000170: 64fe 7d3f 4ef1 7f3f 3f1a 813f e1d0 7f3f
00000180: c7a3 813f 6619 7f3f cf9b 813f 349e 813f
00000190: d400 7f3f 9603 813f fbb0 813f 2a7b 7f3f
000001a0: dd48 833f 20f5 823f 0ad8 823f 573d 813f
000001b0: be0e 803f 2064 7c3f 6b8b 803f b9a7 7f3f
000001c0: ffdb 803f f09a 813f 1073 7c3f 8e7f 803f
000001d0: 9193 803f b4ae 7e3f 8b76 813f 0393 803f
000001e0: b887 823f 0825 823f 511c 803f 247f 813f
000001f0: a44b 803f 6843 843f 2307 803f 0b33 7d3f
00000200: 3705 2ebc 8d97 b73b 6bcb 2c3b b695 123a
00000210: 525a 373c e3ad 853a 13ad b4bc 860c 2e3c
00000220: 32ba 24bc e278 41bc 6ead f5ba 5d59 c8bb
00000230: 6d54 4d3c 4083 5cbb a34d f2bb fc10 81b8
00000240: bef6 c8bb 2c3f ee3b 28f7 673c 9763 003c
00000250: 647c 1dbb 7fb9 76bc ef75 82bc 3a7b 1a3c
00000260: 8940 bcbb abbe 90bb 3f02 193c 92ae 383c
00000270: b2ed 933b 742f cdbb 1478 993b b87c ad3b
00000280: c0a6 f2bb 116e e03b 4403 8d3a 28ac 29bc
00000290: 63db e83a 484a 09bc 82f9 22bc 1a44 603c
000002a0: 51db 71bc 2ce7 ca3b 25fb 93bb e49e 1fbc
000002b0: 33eb dd3a 0a0f 643b d083 6bbc 9946 cb39
000002c0: 5c91 083c 00aa 223c bbb9 9fbc c93e 043c
000002d0: 48de 0d38 4d08 c1bb 444a c93b fb17 1a3b
000002e0: f0e7 3d3b 4372 93bb d15b 973b 1269 5c3c
000002f0: 100f 463b 394f 943b 7b12 98bb a425 443a
00000300: 0031 1ebc 5678 1139 4939 bcbc 3eb3 dbbb
00000310: 1638 e13c 5384 063d 4c52 763c 0164 f73c
00000320: ce8b e73c b70c 0dbc 3336 e83b 57f7 1d3d
00000330: d389 c5bb 7593 5bbc af23 873a 500d 0d3d
00000340: 1ce4 073d 4d4b 3dbc be7c ef3c 654b 0ebc
00000350: f3ef 88bb 031a b03c 2f07 0d3c 3ba5 a23c
00000360: 948d dd3c 9860 fd3b 2197 93bb f5b7 943c
00000370: 3c4d 64bc b46d 55b9 1064 e73b e08b a53b
00000380: b0a5 0e3d 5da1 babb 447b df3c 7941 ab3c
00000390: 3f86 05bb dd89 543b 05d1 113d f364 a83a
000003a0: be58 7d3c e779 083d 291a cb3c e6d0 603c
000003b0: f408 7e3c 33a0 a1bc 6b62 933b 0d18 bb3b
000003c0: 744f 723c f98a aa3c 7107 4abc c5f3 e53b
000003d0: d9da a13c 0e86 edbb 0689 893c 6973 fa3b
000003e0: 51bd ef3c a838 cf3b be44 1fba a9b7 4e3c
000003f0: 9306 643b c442 083d 850c f3bb ff5a 07bc

arith.constant13 f4 [512]
-0.00028478683 -0.008152898 -2.2604544e-08 -4.632419e-05 1.4747205e-13 5.1991287e-09 2.6555693e-09 -8.509391e-12
-0.0008301069 1.7061862e-05 5.972001e-13 0.0015637864 0.0010942749 0.0 -4.3324317e-06 -1.7705032e-11
-0.011648228 1.3568749e-08 2.856514e-10 0.0006545818 3.6726382e-17 -2.2633497e-08 0.002548128 5.3354136e-17
-7.046214e-09 -0.016169878 0.0 5.004595e-10 -2.3667684e-14 -1.5662339e-17 2.572278e-05 2.6173023e-08
0.0009365586 -4.0403094e-05 0.0 4.397803e-07 0.00091452 0.013063288 0.030941159 1.8198665e-06
4.1253165e-09 0.00053227827 -1.355376e-07 -0.0015865042 -0.004452453 0.006521358 2.6681477e-07 -0.015764544
-3.5879522e-09 -2.914601e-06 1.9884991e-08 0.016196582 0.00030920922 4.5366676e-08 -0.0079622455 1.9827729e-07
6.0198443e-05 9.12566e-12 -0.0002026873 -0.0039567617 3.7056033e-10 7.8335e-05 0.0012223744 -1.5995441e-11
0.007218154 2.1654276e-05 5.57626e-07 0.00067488995 1.3320514e-09 2.1661561e-09 -0.0022219375 7.1947786e-12
-0.0057963054 -3.3653445e-11 -0.0083819525 3.68595e-05 -6.3208936e-05 -0.021610351 0.012514884 0.0026375728
-0.017296389 0.010321353 -1.8538604e-15 0.0021329308 0.0036262202 9.98238e-10 0.0047722408 2.3336683e-10
-0.0038151853 -3.7191023e-12 0.0 -6.85711e-12 0.0014889494 0.016138714 -1.9754142e-17 4.6008998e-05
-9.4116964e-05 9.605801e-07 -4.0605823e-06 0.00022409209 2.060649e-08 -1.9964158e-05 0.00045746393 0.0075377007
0.012378946 8.4039925e-10 -6.904886e-06 2.1068539e-07 -5.864579e-07 -0.00214599 -0.00045086961 5.136978e-06
-1.4951347e-09 1.0668842e-08 -2.1586098e-08 0.0 -3.383184e-06 -7.186756e-10 -0.003736285 6.652044e-08
-5.991782e-07 -2.7983333e-07 5.309823e-16 -6.324268e-08 -2.7146077e-06 -0.002622199 0.0056114 3.762254e-13
1.0 0.99996865 1.0017606 1.0 1.0 0.9921947 1.0 1.0
0.9910154 0.9995928 1.0 1.0 1.0000023 0.9998712 0.99999845 1.0
0.9899726 1.0 1.0000114 0.99964935 1.0 1.0 1.0 1.0
1.0 0.9996179 1.0012623 1.0 1.0 1.0 1.0 1.0
0.999859 1.0 1.0091355 1.0 0.9999988 1.003949 0.99529773 1.0
1.0 0.99999917 0.99996954 1.0 0.98871744 1.00762 1.0 0.99999964
1.0000014 1.0 1.0010726 0.99999386 1.0 1.0 1.000032 1.0
0.9899557 1.0 1.0042163 1.0070376 0.99999845 1.0 1.0063337 1.0
1.0146245 1.0 1.0 1.0 1.0 1.0 0.99881256 1.0
0.9999726 1.0 1.0183443 1.0 1.0 0.9996576 1.0095122 1.0
1.0117005 0.99992955 1.0 0.99496293 1.0 0.99995667 1.0000143 1.0
1.0120888 1.0 0.99997526 1.0 0.9901618 0.9964319 1.0 0.9784379
1.0 1.0 0.99999934 0.9998273 1.0 0.9875861 1.0 1.0206559
1.0013245 1.0 1.0 1.0 1.0 1.0 0.99833566 1.0001779
1.0 1.0 1.0106516 1.0 1.0 1.0 0.9999996 0.99997634
1.0000155 0.99905926 0.9998117 1.0 1.0 1.0 1.0 1.0
00000000: 714f 95b9 bc93 05bc eb2b c2b2 384c 42b8
00000010: ed09 262a 05a4 b231 457d 3631 e4b2 15ad
00000020: 889b 59ba 1220 8f37 cd18 282b f7f7 cc3a
00000030: c66d 8f3a 0000 0000 4e5f 91b6 30bc 9bad
00000040: 36d8 3ebc fd1b 6932 dc09 9d2f 3e98 2b3a
00000050: dc5e 2924 966b c2b2 7efe 263b 720d 7624
00000060: 271b f2b1 b176 84bc 0000 0000 b590 0930
00000070: f72d d5a8 a775 90a3 40c7 d737 16d3 e032
00000080: 6283 753a 7e76 29b8 0000 0000 f21a ec34
00000090: 66bc 6f3a 6707 563c 5078 fd3c 2342 f435
000000a0: abbe 8d31 9788 0b3a 4b88 11b4 3ff2 cfba
000000b0: e2e5 91bb 1eb1 d53b be3e 8f34 a524 81bc
000000c0: ec8f 76b1 7798 43b6 8fcf aa32 b2ae 843c
000000d0: 5c1d a239 30d9 4233 1474 02bc 0ce6 5434
000000e0: 967d 7c38 528a 202d 7588 54b9 b9a7 81bb
000000f0: bbb7 cb2f c847 a438 1438 a03a 88b2 8cad
00000100: 4486 ec3b 34a6 b537 c4af 1535 19eb 303a
00000110: 6413 b730 6cdb 1431 ed9d 11bb ce24 fd2c
00000120: efee bdbb 6902 14ae 7554 09bc 9699 1a38
00000130: 0a8f 84b8 3108 b1bc 3a0b 4d3c 21db 2c3b
00000140: 28b1 8dbc e41a 293c b095 05a7 a4c8 0b3b
00000150: e1a5 6d3b 6132 8930 7560 9c3b 764b 802f
00000160: 3008 7abb b2da 82ac 0000 0000 5b43 f1ac
00000170: da28 c33a 5635 843c 2633 b6a3 c9f9 4038
00000180: a960 c5b8 48ed 8035 2340 88b6 43fa 6a39
00000190: 2702 b132 b478 a7b7 c5d7 ef39 d1fe f63b
000001a0: 10d1 4a3c d701 6730 85b0 e7b6 c238 6234
000001b0: 146d 1db5 bda3 0cbb b262 ecb9 4e5e ac36
000001c0: 607d cdb0 104a 3732 556c b9b2 0000 0000
000001d0: a90a 63b6 4d8c 45b0 76dc 74bb 00da 8e33
000001e0: 36d7 20b5 003c 96b4 940b 1926 08d0 87b3
000001f0: 9b2c 36b6 33d9 2bbb d6df b73b cbcb d32a
00000200: 0000 803f f2fd 7f3f b139 803f 0000 803f
00000210: 0000 803f 7900 7e3f 0000 803f 0000 803f
00000220: 2fb3 7d3f 50e5 7f3f 0000 803f 0000 803f
00000230: 1300 803f 8ff7 7f3f e6ff 7f3f 0000 803f
00000240: d86e 7d3f 0000 803f 6000 803f 05e9 7f3f
00000250: 0000 803f 0000 803f 0000 803f 0000 803f
00000260: 0000 803f f5e6 7f3f 5d29 803f 0000 803f
00000270: 0000 803f 0000 803f 0000 803f 0000 803f
00000280: c2f6 7f3f 0000 803f 5a2b 813f 0000 803f
00000290: ecff 7f3f 6781 803f d5cb 7e3f 0000 803f
000002a0: 0000 803f f2ff 7f3f 01fe 7f3f 0000 803f
000002b0: 961c 7d3f b1f9 803f 0000 803f faff 7f3f
000002c0: 0c00 803f 0000 803f 2623 803f 99ff 7f3f
000002d0: 0000 803f 0000 803f 0c01 803f 0000 803f
000002e0: bd6d 7d3f 0000 803f 298a 803f 9ce6 803f
000002f0: e6ff 7f3f 0000 803f 8bcf 803f 0000 803f
00000300: 37df 813f 0000 803f 0000 803f 0000 803f
00000310: 0000 803f 0000 803f 2eb2 7f3f 0000 803f
00000320: 34fe 7f3f 0000 803f 1b59 823f 0000 803f
00000330: 0000 803f 8fe9 7f3f b237 813f 0000 803f
00000340: 677f 813f 62fb 7f3f 0000 803f e4b5 7e3f
00000350: 0000 803f 29fd 7f3f 7800 803f 0000 803f
00000360: 208c 813f 0000 803f 61fe 7f3f 0000 803f
00000370: 3e7b 7d3f 2916 7f3f 0000 803f e87a 7a3f
00000380: 0000 803f 0000 803f f5ff 7f3f aff4 7f3f
00000390: 0000 803f 71d2 7c3f 0000 803f daa4 823f
000003a0: 672b 803f 0000 803f 0000 803f 0000 803f
000003b0: 0000 803f 0000 803f ed92 7f3f d405 803f
000003c0: 0000 803f 0000 803f 085d 813f 0000 803f
000003d0: 0000 803f 0000 803f f9ff 7f3f 73fe 7f3f
000003e0: 8200 803f 59c2 7f3f a9f3 7f3f 0000 803f
000003f0: 0000 803f 0000 803f 0000 803f 0000 803f

arith.constant14 f4 [3]
-0.013253406 0.010254977 0.0016500902
00000000: d024 59bc 7e04 283c d747 d83a
