app/src/main/assets/model.tflite (tflite, 622880 bytes, 16 tensors)

arith.constant6 f4 [110, 128]
0	0xbdd9639a	-0.106147006
1	0xbebd7c32	-0.37008816
2	0x3e172a59	0.14762248
3	0xbe36fd9e	-0.17870185
4	0xbf0194fb	-0.5061795
5	0xbded6dab	-0.11593183
6	0xbe91c105	-0.28467575
7	0xbdc331d5	-0.09530989
8	0x3cca8c08	0.024724975
9	0xbef82165	-0.48462978
10	0x3e2794f4	0.16365415
11	0xbdbc88e5	-0.09205798
12	0x3e08a113	0.13342695
13	0xbece005a	-0.40234643
14	0xbe57fc14	-0.21092254
15	0xbe59cc9e	-0.21269462
16	0x3e18010a	0.14844146
17	0xbec7be28	-0.39012265
18	0xbf097bf1	-0.53704745
19	0xbe27a17a	-0.16370192
20	0x3dbe0f00	0.09280205
21	0xbc594766	-0.013261652
22	0xbe85db31	-0.26143792
23	0xbe224f9f	-0.15850686
24	0xbea2ebd9	-0.31820562
25	0xbe69d72f	-0.22835992
26	0xbe50badb	-0.2038378
27	0x3e17a096	0.14807352
28	0xbe8ceecd	-0.2752594
29	0x3e3bfe9b	0.18358843
30	0xbe200448	-0.15626633
31	0xbebcc622	-0.36869913
32	0xbe33688b	-0.17520349
33	0xbee2987d	-0.44256964
34	0xbd9e1b3e	-0.0772004
35	0x3e1a73d9	0.15083255
36	0xbed795a2	-0.42106348
37	0xbe594860	-0.21219015
38	0x3dc1740b	0.094459616
39	0xbf01e13d	-0.5073431
40	0xbd8ec66d	-0.069714405
41	0x3d5c3864	0.053764716
42	0x3e404345	0.18775661
43	0x3cd5292a	0.026020605
44	0xbe21d538	-0.15803993
45	0x3e276efd	0.16350932
46	0x3e389a38	0.1802758
47	0xbe7d2f0e	-0.24724981
48	0xbef7d8ff	-0.48407742
49	0x3e5c5f24	0.21520668
50	0x3e13980b	0.14413469
51	0xbe02501b	-0.1272587
52	0x3df0cf31	0.117582686
53	0xbe4f3cd2	-0.20238045
54	0x3e6158f1	0.22006585
55	0xbe9476be	-0.28996843
56	0xbdb3e8ad	-0.08784614
57	0xbe88f665	-0.26750484
58	0xbe0acdc0	-0.1355505
59	0xbe24a903	-0.16080098
60	0x3c67b5ce	0.014142467
61	0xbd26945b	-0.040668827
62	0xbb570669	-0.0032810217
63	0x3d029c4c	0.031887338
64	0x3d964e41	0.073391445
65	0xbd905eeb	-0.07049354
66	0xbcf053cc	-0.029336832
67	0x3de1b17e	0.11020182
68	0xbe65b2e1	-0.22431518
69	0xbe065701	-0.13119127
70	0xbe7f4043	-0.24926858
71	0x3c8d0eda	0.017218996
72	0xbdd71081	-0.10501195
73	0xbf0361ee	-0.51321304
74	0xba39905a	-0.00070787
75	0xbef5ea60	-0.48030376
76	0xbe467371	-0.19379975
77	0x3d0c806c	0.03430216
78	0xbe3c6c4c	-0.18400687
79	0xbe701896	-0.23446879
80	0x3e2f3119	0.17108573
81	0xbeeded55	-0.46470132
82	0xbe0f8c67	-0.14018403
83	0xbcead438	-0.028665647
84	0xbe838ba8	-0.25692487
85	0x3d620d42	0.055188425
86	0xbe881ae6	-0.26583022
87	0xbcf9be02	-0.03048611
88	0x3e128852	0.14309815
89	0xbe23746b	-0.15962379
90	0xbe09d0de	-0.13458583
91	0x3db10e15	0.08645264
92	0x3e38ae44	0.18035227
93	0x3ca7f883	0.020504242
94	0xbe659aa8	-0.22422278
95	0xbe8fb559	-0.28068045
96	0x3e39c9f0	0.1814344
97	0xbe4a2d9e	-0.19743964
98	0x3e52ea13	0.20597105
99	0xbe93a66c	-0.28837907
100	0xbe9e358a	-0.30900222
101	0x3d39a496	0.045322977
102	0xbdd24b0b	-0.102682196
103	0xbea3046a	-0.31839305
104	0x3df2d009	0.11856086
105	0xbe2632f0	-0.16230369
106	0xbe2f477a	-0.1711711
107	0xbec1abe6	-0.3782646
108	0x3e6cd47d	0.23127933
109	0x3e0b5206	0.13605508
110	0x3d9e877d	0.07740686
111	0xbdc3ecb9	-0.09566636
112	0x3def0644	0.11671117
113	0x3e763a0c	0.2404558
114	0x3e1aefe4	0.15130574
115	0xbecb43b2	-0.39700085
116	0xbd9c348a	-0.076272085
117	0x3e01ce72	0.12676409
118	0xbe170dec	-0.14751405
119	0x3dfd39db	0.12364551
120	0xbef1d6d0	-0.472342
121	0x3d18fc0e	0.037349753
122	0x3cc6c171	0.024262162
123	0xbea48aa6	-0.3213703
124	0x3e0dfc81	0.13865854
125	0xbd54f80e	-0.051994376
126	0xbebea544	-0.37235463
127	0x3e219beb	0.15782134
128	0xbe834746	-0.25640315
129	0x3d71646f	0.05893367
130	0xbe56800f	-0.20947288
131	0xbe857758	-0.26067615
132	0x3e186e06	0.1488572
133	0xbdbb11b3	-0.09134235
134	0x3dd39d9f	0.10332798
135	0x3cb9f473	0.02269957
136	0xbe7cad40	-0.24675465
137	0x3e053ada	0.13010731
138	0xbe26d1b9	-0.1629094
139	0xbd6be228	-0.057588726
140	0xbe5324b9	-0.20619477
141	0xbce8d39b	-0.028421214
142	0xbeecab32	-0.46224362
143	0x3dcf5641	0.101238735
144	0x3d8d6fbc	0.06906077
145	0xbdc2a9d0	-0.095050454
146	0xbe699349	-0.22810091
147	0xbebd328c	-0.36952627
148	0xbdabd6aa	-0.08390553
149	0xbe41554a	-0.18880191
150	0x3e063028	0.13104308
151	0xbef75b0d	-0.48311654
152	0x3d67789c	0.056511506
153	0x3e2a8abe	0.16654488
154	0x3d13a08b	0.036041778
155	0xbd94145a	-0.07230444
156	0x3e06ec0b	0.13175981
157	0xbeb9e9c5	-0.36311164
158	0x3e2636e5	0.16231878
159	0x3d891574	0.06693545
160	0xbddc0aad	-0.10744224
161	0xbe214369	-0.15748371
162	0xbe7b93a4	-0.24568039
163	0xbee664d9	-0.44998816
164	0xbcb93121	-0.022606434
165	0x3dcaa09d	0.09893916
166	0x3caa8880	0.020817041
167	0xbd1e9f22	-0.03872598
168	0xbe0eb270	-0.13935256
169	0xbe1e5bb4	-0.1546467
170	0x3e1dc71f	0.1540799
171	0x3dd9c811	0.10633863
172	0x3cb5eb27	0.022206856
173	0x3cd061da	0.025437284
174	0x3da729c2	0.081622615
175	0xbe400021	-0.18750049
176	0x3bf5e91e	0.0075045964
177	0xbec6e106	-0.38843554
178	0x3dc95937	0.098314695
179	0xbda797fe	-0.08183287
180	0xbd470a88	-0.048594028
181	0xbe485aa6	-0.1956583
182	0xbcdd713a	-0.02703153
183	0x3dc18d1e	0.09450744
184	0x3d77a7ad	0.060462642
185	0x3d08214f	0.03323489
186	0xbe0adc23	-0.13560538
187	0xbe60450f	-0.21901344
188	0xbe677dee	-0.22606632
189	0x3d5b23ec	0.053501055
190	0xbdcdc4de	-0.10047315
191	0xbf02e5b9	-0.5113178
192	0x3dead901	0.114671715
193	0xbd22b6c6	-0.039725088
194	0x3e17bab2	0.14817312
195	0xbf1a92da	-0.6038033
196	0xbea74045	-0.3266622
197	0xbd546b1a	-0.051859953
198	0x3e17789b	0.14792101
199	0x3d8db82e	0.06919895
200	0x3ce5ace7	0.028036548
201	0x3e10ca49	0.14139666
202	0x3dbba51d	0.09162352
203	0x3d94458e	0.07239829
204	0x3d8e4038	0.069458425
205	0x3d6fee6f	0.058576997
206	0xbe4739ea	-0.19455686
207	0xbe0186a5	-0.12649019
208	0xbd0ec6a8	-0.034857422
209	0x3e007dd1	0.12547995
210	0xbe7fda44	-0.24985605
211	0xbc270390	-0.01019372
212	0x3d938b2b	0.072042786
213	0x3e0ff4cb	0.14058225
214	0xbe23d1d2	-0.15998009
215	0xbe1c7679	-0.15279569
216	0x3e309b73	0.17246799
217	0xbea070fc	-0.313362
218	0xbe8590e3	-0.26087102
219	0xbeb4fe0c	-0.35350072
220	0xbedc871e	-0.43071836
221	0xbe9c9724	-0.3058406
222	0xbdb93143	-0.09042599
223	0x3d2d24c6	0.042271398
224	0xbee4e123	-0.44703016
225	0x3d0d6c46	0.034527086
226	0xbd08a096	-0.03335627
227	0x3de8417b	0.113406144
228	0xbee42627	-0.44560358
229	0xbd973247	-0.073826365
230	0xbe533bbb	-0.20628254
231	0x3daa2cb0	0.08309305
232	0xbd2ecd30	-0.04267615
233	0xbe90e845	-0.28302208
234	0xbf034264	-0.5127318
235	0x3dfd3345	0.123632945
236	0x3e090712	0.13381603
237	0xbf1cac40	-0.6120033
238	0xbe8397ab	-0.2570165
239	0xbe0c9fa5	-0.13732775
240	0xbe7dd2cd	-0.24787445
241	0xbe845f8b	-0.25854144
242	0x3e3330a8	0.1749903
243	0x3df78e85	0.1208773
244	0xbe962e1c	-0.29332054
245	0xbecc3d87	-0.39890692
246	0x3de4a6a3	0.11164596
247	0xbe9105b0	-0.28324652
248	0x3c8dcd45	0.017309794
249	0xbe16e679	-0.14736356
250	0xbe5a462a	-0.21315828
251	0xbe232035	-0.15930255
252	0x3e11ce54	0.14238864
253	0xbe2e788d	-0.17038174
254	0x3c7557ad	0.014974517
255	0xbe24c8e1	-0.16092254

arith.constant7 f4 [128, 64]
0	0xbeaa18d9	-0.33222082
1	0x3e2c6ad8	0.16837633
2	0xbe35c369	-0.17750324
3	0x3f2e2a91	0.680337
4	0xbd63d883	-0.055626404
5	0x3cfb8837	0.0307046
6	0x3e0f7989	0.14011206
7	0x3e8f88c7	0.2803404
8	0xbd841ed1	-0.0645119
9	0xbe7f9733	-0.24960022
10	0xbf1ca441	-0.6118813
11	0x3e062577	0.13100229
12	0x3d2ca0d8	0.04214558
13	0x3dc1ed90	0.094691396
14	0xbe7d24fe	-0.24721143
15	0xbe5ad324	-0.21369606
16	0xbe8c98a4	-0.27460206
17	0xbeb035a2	-0.3441592
18	0x3e53d02a	0.20684877
19	0x3e1aab23	0.15104346
20	0x3d19f58b	0.037587684
21	0x3e0678ba	0.13131991
22	0x3e5e25c6	0.21694097
23	0x3eca28e5	0.39484325
24	0x3e044989	0.12918676
25	0x3e00b7dd	0.12570138
26	0x3d82b7e3	0.0638273
27	0x3d89fb07	0.06737333
28	0x3e1a0190	0.15039659
29	0x3d17d565	0.037068743
30	0x3e264c4a	0.1624004
31	0x3d0382ab	0.032107037
32	0xbda8e227	-0.0824626
33	0x3db1c8c4	0.08680871
34	0xbc5be4e0	-0.013421267
35	0x3c20d19d	0.009815601
36	0xbe2ebe56	-0.17064795
37	0xbe8dca6d	-0.276935
38	0xbc2f9462	-0.01071653
39	0x3c3ae971	0.011408196
40	0xbd22b3a8	-0.039722115
41	0x3deeb637	0.116558485
42	0xbe41a202	-0.18909457
43	0x3e94ddb6	0.29075402
44	0xbedf0ef2	-0.4356609
45	0xbeef8fa9	-0.46789292
46	0xbef417d6	-0.47674435
47	0xbe1c2029	-0.15246643
48	0x3dcff2f2	0.1015376
49	0x3d84950e	0.064737424
50	0x3d92eb45	0.0717378
51	0xbd2659fb	-0.040613156
52	0xbe064438	-0.13111961
53	0xbdaf96af	-0.085736625
54	0xbe05b828	-0.13058531
55	0x3b53fd44	0.0032347003
56	0xbe0b1dd3	-0.13585596
57	0xbdaaf3ae	-0.083472595
58	0xbe81a8d4	-0.25324118
59	0xbb2fb6ff	-0.0026811955
60	0xbc89df3c	-0.01683008
61	0x3e3d45ad	0.1848361
62	0xbe186d01	-0.14885332
63	0x3cb16bdf	0.021657882
64	0x3ce8543d	0.02836048
65	0xbe558a18	-0.2085346
66	0x3e3426de	0.17592952
67	0x3dd2ce06	0.10293202
68	0x3e1ef6dd	0.15523858
69	0x3e7a9f77	0.24474894
70	0xbd80c59c	-0.06287691
71	0x3ea71aa5	0.32637516
72	0x3d99ebdc	0.0751569
73	0xbc3b3841	-0.011426986
74	0x3e999217	0.2999427
75	0xbe92f1b1	-0.2870002
76	0xbe0c0e94	-0.13677436
77	0xbdb3f0e5	-0.08786181
78	0x3cee0091	0.029053004
79	0x3ee7e81e	0.4529428
80	0x3e3d5ab0	0.18491626
81	0x3c58127c	0.013188001
82	0xbe1e9a88	-0.15488636
83	0xbe17f1ef	-0.14838384
84	0x3d75c31c	0.060000524
85	0x3e065fb1	0.13122441
86	0xbea5f169	-0.32410744
87	0xbd57f4d9	-0.05272374
88	0x3e162eeb	0.14666335
89	0xbd0a02b4	-0.033693984
90	0x3eff65fa	0.4988249
91	0xbe83f4c7	-0.25772688
92	0xbe6ab224	-0.22919518
93	0x3e82e8e1	0.25568298
94	0x3d5cf033	0.05394001
95	0x3c9e0536	0.019289594
96	0xbc82a142	-0.015946034
97	0x3de25f8e	0.11053382
98	0xbe237c53	-0.15965395
99	0xbd85af57	-0.06527584
100	0x3e4bf566	0.19917831
101	0x3f08d8e9	0.5345598
102	0xbc1891a7	-0.00931207
103	0xbe36e9b8	-0.17862594
104	0xbd9eb17d	-0.07748697
105	0xbd1b4533	-0.03790779
106	0x3ece854c	0.40336072
107	0xbe3c3cf2	-0.18382624
108	0x3e4f74ca	0.20259395
109	0xbea60b1e	-0.32430357
110	0x3d8dc298	0.069218814
111	0x3dcdda66	0.10051422
112	0x3d9d133e	0.07669686
113	0xbe0c19b3	-0.13681678
114	0x3d76d8ef	0.060265478
115	0x3e2c212f	0.16809534
116	0xbdc9d5ab	-0.09855207
117	0x3cdc2cf1	0.026876898
118	0xbdfceb75	-0.12349597
119	0xbde91c8a	-0.113823965
120	0x3dbac951	0.09120429
121	0xbd8450b2	-0.06460704
122	0x3e1b9d6a	0.15196767
123	0xbc2ddd98	-0.010611914
124	0xbd624845	-0.055244703
125	0xbe03260c	-0.12807482
126	0xbdf0c492	-0.11756243
127	0x3b1208de	0.0022283117
128	0xbed5843e	-0.41702455
129	0xbcda31cd	-0.026635075
130	0xbe28f4d9	-0.16499652
131	0xbddb4242	-0.10705997
132	0xbec18d45	-0.37803093
133	0xbf3198d9	-0.6937385
134	0x3e54a9cf	0.20767902
135	0xbbc159c8	-0.0059005953
136	0x3e4e4080	0.20141792
137	0xbe4aeb57	-0.19816338
138	0xbdcbbd84	-0.099482566
139	0xbe6e8a33	-0.23294906
140	0x3d9f65ef	0.07783114
141	0xbea41608	-0.32048059
142	0x3c6d1d2f	0.01447229
143	0xbdfd440f	-0.12366497
144	0xbead19d7	-0.33808777
145	0xbda01a78	-0.078175485
146	0x3d59153e	0.052998774
147	0x3e1f5407	0.15559398
148	0xbe7df5a8	-0.24800742
149	0x3ddd725b	0.10812827
150	0x3e78789d	0.2426476
151	0x3e4bef06	0.19915399
152	0xbebad85a	-0.36493188
153	0xbd1acecd	-0.037794877
154	0xbea9f58f	-0.3319516
155	0xbdf83eb8	-0.12121338
156	0xbc53738b	-0.012905966
157	0xbe794ac5	-0.24344929
158	0xbdbf2427	-0.093330674
159	0xbdd319c6	-0.1030765
160	0x3d78e66a	0.060766615
161	0x3e0ccf29	0.137509
162	0x3f038deb	0.51388425
163	0x3e8db72a	0.27678806
164	0xbea2124d	-0.31654587
165	0xbe92a9c1	-0.28645137
166	0x3c89a56e	0.016802516
167	0x3e9ddd90	0.308331
168	0x3d57d4a8	0.05269304
169	0xbc59ea95	-0.013300558
170	0xbe6f07a4	-0.23342758
171	0xbb7467ff	-0.0037293432
172	0x3dad9c49	0.08477075
173	0xbe4a8779	-0.19778241
174	0xbd37b8dd	-0.044854034
175	0xbd9b3278	-0.075779855
176	0x3d580ded	0.052747656
177	0xbcb32001	-0.021865847
178	0xbd84c2fc	-0.06482503
179	0x3e667326	0.22504863
180	0x3edc0d92	0.42979103
181	0x3e52d248	0.20588028
182	0xbc93c8e4	-0.018040128
183	0x3eb4790f	0.3524861
184	0x3e9486cf	0.290091
185	0xbf2cf546	-0.6756176
186	0xbd99c1dc	-0.07507679
187	0x3d82c243	0.06384709
188	0x3e4354f4	0.19075376
189	0x3e6e1ba3	0.2325273
190	0x3e011dd3	0.12609033
191	0x3eab5054	0.33459723
192	0x3d835f49	0.064146586
193	0x3e8c3180	0.27381516
194	0x3db8e3f5	0.09027854
195	0x3eb9c36c	0.36281908
196	0x3e4e6628	0.20156157
197	0x3e54c829	0.2077948
198	0x3c77b1d7	0.015118084
199	0x3d05379a	0.03252373
200	0xbd8c551c	-0.06852171
201	0x3e19f6f4	0.15035611
202	0xbe7af58d	-0.24507733
203	0xbd05c8b1	-0.032662097
204	0xbeb6a7b5	-0.35674825
205	0xbe2ac1f7	-0.16675554
206	0x3e34be07	0.17650615
207	0xbe088e15	-0.1333545
208	0x3e5666b7	0.2093762
209	0xbcd6b4a0	-0.026209176
210	0x3cedb1a7	0.029015375
211	0xbca9fba8	-0.020749882
212	0x3d8816f5	0.06645004
213	0x3e7a4c4e	0.2444317
214	0xbe8a75a9	-0.27042893
215	0x3e8f681c	0.28009117
216	0x3d8c140b	0.068397604
217	0xbdb4329f	-0.08798718
218	0xbe1fb1a9	-0.15595116
219	0x3ddf8970	0.10914886
220	0x3e6261b2	0.2210758
221	0x3ce688a5	0.028141329
222	0x3ea769b7	0.32697842
223	0x3e85bcf3	0.2612072
224	0xbedafa66	-0.42769164
225	0x3e8995f4	0.26872218
226	0xbe0a7121	-0.13519718
227	0x3e5fad3d	0.21843429
228	0xbe412b11	-0.18864085
229	0xbd0d8891	-0.034554068
230	0x3dabc2d5	0.08386771
231	0x3e49d40f	0.197098
232	0x3e92d3fc	0.28677356
233	0xbceb2873	-0.028705811
234	0xbe0db476	-0.13838372
235	0xbed19592	-0.40934426
236	0xbeb922c6	-0.36159343
237	0xbe22e224	-0.15906578
238	0xbd9eb965	-0.07750205
239	0xbe302c0e	-0.17204306
240	0xbe3e90a7	-0.18609868
241	0xbd389fa6	-0.045074128
242	0xbde84dcd	-0.11342964
243	0x3e004158	0.12524927
244	0x3e105850	0.14096189
245	0x3cf9068d	0.030398631
246	0xbe633ff9	-0.22192372
247	0xbd31e3dd	-0.043430198
248	0xbe83ec6c	-0.25766313
249	0xbdc83c58	-0.09777135
250	0x3db85066	0.0899971
251	0xbbb77a72	-0.0055993134
252	0x3d24daa1	0.040247563
253	0x3ead3e3d	0.33836547
254	0xbe001578	-0.1250819
255	0x3c8da1f8	0.017289147

arith.constant8 f4 [256, 128]
0	0xbe22349e	-0.15840384
1	0xbe7c5259	-0.24640788
2	0x3d975836	0.07389872
3	0x3da0449e	0.07825588
4	0xbe207fd2	-0.1567376
5	0x3e853411	0.26016286
6	0x3d353c89	0.044247184
7	0x3da457b5	0.08024541
8	0xbd1c48b4	-0.038155273
9	0xbe4ff07f	-0.20306586
10	0x3e365ac4	0.17808062
11	0xbcd8433d	-0.02639925
12	0x3d68dbfb	0.056850415
13	0x3e56d365	0.20979078
14	0xbb9b1246	-0.004732403
15	0xbd36aaac	-0.04459636
16	0x3d3366f7	0.043799367
17	0xbd709384	-0.058734432
18	0x3d8d44ec	0.068979114
19	0x3d7e6cec	0.062115595
20	0xbe81ac63	-0.25326833
21	0xbdde68c3	-0.108598255
22	0xbd25c90c	-0.040474936
23	0xbe923a53	-0.28560123
24	0xbd812f12	-0.06307806
25	0x3d638753	0.055548977
26	0x3e2495a3	0.16072707
27	0x3dbf3383	0.09335997
28	0x3d45298f	0.048135336
29	0xbdc2e0c5	-0.09515528
30	0x3dcb2341	0.099188335
31	0x3dd76823	0.105179094
32	0xbdbe479e	-0.09291004
33	0x3dc1aa87	0.09456354
34	0xbcf21c70	-0.029554576
35	0x3db1b1d4	0.08676496
36	0xbe60b7b3	-0.21945076
37	0x3dc5262e	0.09626423
38	0xbd3555dd	-0.04427134
39	0xbd4790c5	-0.048722047
40	0xbc1eb2ac	-0.009686153
41	0xbe087c64	-0.13328701
42	0xbdc36e42	-0.095425144
43	0xbe2a4904	-0.16629416
44	0xbe0f779e	-0.14010474
45	0x3cd41e4c	0.025893353
46	0xbd8ae046	-0.06781058
47	0xbd49d76b	-0.049277704
48	0xbd9cb6dc	-0.07652065
49	0x3cb50d45	0.022101054
50	0xbd08b06e	-0.03337138
51	0x3ea18bd5	0.31551996
52	0x3e805ccd	0.250708
53	0xbe021dff	-0.12706755
54	0x3d34f5a9	0.044179592
55	0xbe547870	-0.20749068
56	0x3d9af9a7	0.07567149
57	0x3d0483a5	0.03235211
58	0xbd1a5c46	-0.037685655
59	0x3dee98d9	0.11650247
60	0x3d6a7312	0.057238646
61	0xbe8e5c31	-0.2780471
62	0xbd26aa0f	-0.040689524
63	0xbd253585	-0.040334243
64	0x3e018098	0.12646711
65	0x3df9a617	0.12189882
66	0xbcf03960	-0.029324234
67	0x3d2f1141	0.042741064
68	0xbe88b662	-0.26701647
69	0x3d53101f	0.051529046
70	0xbd9835b1	-0.07432116
71	0x3d1644e0	0.036686778
72	0x3c9bf222	0.019036356
73	0x3d1bac61	0.03800619
74	0x3de9501f	0.11392235
75	0x3cb568ff	0.022144793
76	0xbe635116	-0.221989
77	0x3d84a340	0.0647645
78	0xbb345aaf	-0.0027519872
79	0x3d86cd45	0.06582121
80	0x3cd0d398	0.02549152
81	0x3dcb72fd	0.09934042
82	0xbe6dd43b	-0.23225491
83	0x3dbdc42b	0.09265932
84	0xbd0ac785	-0.033881683
85	0xbe959f92	-0.29223305
86	0xbd2e2dae	-0.042524032
87	0xbd3e00ca	-0.04638747
88	0xbd96ec56	-0.07369296
89	0xbe200cbe	-0.15629861
90	0x3e0a2df3	0.1349409
91	0xbe44d463	-0.19221644
92	0xbbd6875d	-0.0065468983
93	0x3dd2a9d9	0.10286302
94	0x3da0b42e	0.078468665
95	0x3df690db	0.12039348
96	0xbe03f417	-0.12886082
97	0x3c4a315b	0.012340869
98	0xbe339d3d	-0.1754045
99	0xbe862d84	-0.262066
100	0x3de27450	0.11057341
101	0xbdd407f4	-0.103530794
102	0xbd87c6ee	-0.0662974
103	0x3e9d6c7b	0.30746827
104	0x3daacb75	0.083395876
105	0xbc5e8709	-0.013582
106	0x3dde0a12	0.108417645
107	0x3b80590c	0.003916865
108	0xbdcab150	-0.09897101
109	0x3e0fbfe0	0.14038038
110	0x3e81642b	0.25271735
111	0xbcd56462	-0.026048843
112	0x3c33a075	0.010963549
113	0xbdadcdc2	-0.08486511
114	0xbcbf623f	-0.023362277
115	0xbd8ff8b5	-0.07029859
116	0x3e2bd89a	0.16781846
117	0xbde77b06	-0.11302762
118	0xbdd0ca97	-0.10194891
119	0xbe294373	-0.16529636
120	0x3cebf814	0.028804816
121	0x3dc3af84	0.09554961
122	0xbe1c5742	-0.15267661
123	0x3e27227d	0.1632175
124	0xbda228c3	-0.07917931
125	0x3e374292	0.17896488
126	0xbda34100	-0.07971382
127	0xbdaf3495	-0.08554951
128	0x3c3bfc3d	0.0114737125
129	0x3d1408ab	0.03614108
130	0xbb362042	-0.0027790223
131	0xbdd43551	-0.10361732
132	0xbe2eed24	-0.1708265
133	0xbdc080d5	-0.09399573
134	0xbcbf431d	-0.023347432
135	0x3ded3554	0.11582437
136	0x3c75246f	0.0149623
137	0x3d0e3293	0.0347162
138	0xbe00f96d	-0.12595148
139	0xbca436ed	-0.020045722
140	0xbd81ccc2	-0.063378826
141	0x3de39aa1	0.111134775
142	0xbe51de74	-0.20495015
143	0xbe039ea0	-0.1285348
144	0x3d25ba89	0.040461097
145	0xbd31afb3	-0.04338045
146	0x3d79993b	0.060937148
147	0x3dc655c8	0.0968433
148	0xbe025201	-0.12726595
149	0xbd3681d0	-0.044557393
150	0x3d9f0de9	0.07766325
151	0xbe80baf8	-0.25142646
152	0xbd8c437d	-0.0684881
153	0x3e2803d4	0.1640771
154	0x3dced067	0.10098343
155	0x3dc823f3	0.09772482
156	0x3dc4c603	0.0960808
157	0xbd3c0487	-0.045902755
158	0xbdd9c287	-0.10632806
159	0xbc862f52	-0.016379986
160	0xbd8ddbf8	-0.06926721
161	0x3db6eceb	0.08931907
162	0x3d2e1e24	0.042509213
163	0xbd5ccdf6	-0.053907357
164	0x3cfa0578	0.030520186
165	0x3d8a23c2	0.067451015
166	0xbdec941c	-0.11551687
167	0xbd189d67	-0.037259486
168	0xbd9b381a	-0.0757906
169	0xbe3e1739	-0.18563546
170	0xbdcc4239	-0.099735685
171	0xbdc4fe2a	-0.096187904
172	0xbb98ca2a	-0.0046627717
173	0xbb60af89	-0.0034284315
174	0xbe14b4d1	-0.14522101
175	0x3c0749b0	0.008257315
176	0xbe359cd2	-0.17735603
177	0x3c89dcc3	0.0168289
178	0xbe4943c4	-0.19654757
179	0x3d8b785c	0.06810066
180	0x3e256a7c	0.16153902
181	0xbce35b4e	-0.027753498
182	0xba952fa3	-0.0011381995
183	0x3d931ee6	0.07183628
184	0xbdd239eb	-0.10264953
185	0x3d1c4f38	0.038161486
186	0x3d4586cb	0.04822425
187	0x3e8ae372	0.27126652
188	0x3d401bfe	0.046901695
189	0xbdef4a1d	-0.11684058
190	0xbd793abc	-0.06084703
191	0x3d47191e	0.048607938
192	0x3d1b2c8f	0.03788429
193	0xbd9217b9	-0.07133431
194	0x3cf12f00	0.029441357
195	0xbe28ea87	-0.16495715
196	0xbe56a5db	-0.20961706
197	0xbd1c04a3	-0.03809036
198	0xbd9ba3ef	-0.07599627
199	0xbde0a542	-0.109690204
200	0x3e21f51b	0.15816157
201	0x3dc55378	0.09635061
202	0x3a990843	0.0011675436
203	0x3cd9600c	0.026535057
204	0xbc7a719c	-0.015285876
205	0x3e4ed0bd	0.20196815
206	0x3e306945	0.17227657
207	0x3e08714b	0.13324468
208	0xbcf58bee	-0.02997395
209	0xbc2b6195	-0.010460277
210	0x3cd1d15d	0.025612528
211	0x3e1cfd62	0.15331033
212	0x3de35116	0.1109945
213	0xbc55f494	-0.0130588
214	0xbc10c806	-0.008836752
215	0xbcb7f307	-0.022454752
216	0x3e2eb779	0.17062177
217	0xbdb660ee	-0.089052066
218	0x3e336bd5	0.17521603
219	0x3e038968	0.12845385
220	0xbd0a4d8d	-0.033765364
221	0xbd942189	-0.07232959
222	0x3ded50dd	0.11587689
223	0x3e203eb6	0.15648922
224	0xbcafc405	-0.021455774
225	0x3a6d6c23	0.0009056946
226	0x3c470117	0.012146256
227	0xbda980d1	-0.08276523
228	0x3d201af5	0.03908821
229	0x3d0bcb89	0.034129653
230	0x3dea731c	0.114477366
231	0x3d4135d2	0.047170468
232	0xbd6b7866	-0.057487868
233	0x3e58ab84	0.21159178
234	0xbddace2c	-0.106838554
235	0xbcd2d5e4	-0.025736757
236	0xbe9c3a40	-0.3051319
237	0x3daf9648	0.08573586
238	0x3e35d2f7	0.17756258
239	0x3cb5b10c	0.02217915
240	0xbddea834	-0.10871926
241	0xba4255ae	-0.000741328
242	0xbd66448d	-0.05621772
243	0x3c329659	0.0109001035
244	0xbdfdc2b2	-0.12390651
245	0x3dab3825	0.08360318
246	0xbdbe9868	-0.09306413
247	0x3e5b35db	0.21407263
248	0x3c379090	0.0112039
249	0xbe1ca9b5	-0.15299113
250	0x3e6d211b	0.2315716
251	0x3d85aeeb	0.065275036
252	0x3cabcb1c	0.020970874
253	0xbe3dae42	-0.18523505
254	0x3c297f54	0.010345299
255	0xbea31bee	-0.31857246

arith.constant9 f4 [256, 64]
0	0xbe21fc67	-0.1581894
1	0x3d93d19c	0.07217714
2	0xbd55b492	-0.05217416
3	0x3ea4b299	0.3216751
4	0xbe42ced4	-0.19024211
5	0x3bbd7109	0.005781297
6	0xbde96136	-0.11395495
7	0xbdb06d31	-0.086145766
8	0x3d6a731c	0.057238683
9	0xbe1fa984	-0.15592009
10	0xbe0591db	-0.1304392
11	0xbd93ceb6	-0.07217161
12	0x3db93a00	0.09044266
13	0xbe2b4369	-0.16724934
14	0x3d416380	0.04721403
15	0xbd983dc8	-0.07433659
16	0xbe68d1f0	-0.22736335
17	0x3dc8394b	0.09776553
18	0x3e660e7e	0.22466466
19	0x3e52197c	0.20517534
20	0xbe37f90e	-0.179661
21	0xbec420c6	-0.38306254
22	0x3d32fc86	0.043697856
23	0xbddc074f	-0.107435815
24	0xbe8dc166	-0.27686614
25	0xbcd46db0	-0.02593121
26	0x3e5d4f81	0.2161236
27	0x3e01cf09	0.12676634
28	0xbdbc4916	-0.091936275
29	0xbdf788a5	-0.1208661
30	0x3e3008b8	0.17190826
31	0x3d2e3af3	0.042536687
32	0xbdfccfe7	-0.12344342
33	0xbde34441	-0.11097003
34	0xbe766134	-0.24060518
35	0xbe551d0f	-0.20811866
36	0xbde51cfb	-0.11187168
37	0xbc023ff0	-0.007949814
38	0xbe1cacab	-0.15300243
39	0xbda2106d	-0.07913289
40	0x3dc16948	0.09443909
41	0x3e6d718b	0.23187844
42	0xbd8ca65f	-0.0686767
43	0x3def40e7	0.11682301
44	0xbe90efa8	-0.28307843
45	0x3d72b6a0	0.059256196
46	0x3c11d5f2	0.008901106
47	0x3dc51d4e	0.0962473
48	0xbe111bfa	-0.14170828
49	0xbe8376ac	-0.25676477
50	0x3e1b37dd	0.15158029
51	0xbe34fa66	-0.17673644
52	0xbd1a97b8	-0.037742347
53	0x3e1911ad	0.14948149
54	0xbd61026b	-0.054933947
55	0x3e8318fb	0.25604996
56	0x3e117cd9	0.14207782
57	0xbe8dfeb8	-0.27733397
58	0x3d665990	0.056237757
59	0x3e78d01f	0.24298142
60	0xbe46381a	-0.19357339
61	0x3df6d30a	0.12051971
62	0x3e84febc	0.25975597
63	0x3e194c67	0.14970551
64	0x3d4e38ad	0.05034702
65	0x3d3f3085	0.04667713
66	0xbe1d8a1f	-0.1538472
67	0x3e6bd640	0.23030949
68	0xbb896f3d	-0.004194169
69	0x3caa0216	0.020752948
70	0xbd88ba9c	-0.06676218
71	0x3d692d20	0.0569278
72	0x3d880a84	0.06642631
73	0x3b4eabd3	0.003153552
74	0x3e00aa00	0.1256485
75	0x3d43d0cb	0.047806542
76	0x3da744b1	0.08167399
77	0x3e624f26	0.22100505
78	0xbc021338	-0.007939152
79	0xbe2ef2b6	-0.17084774
80	0xbd931961	-0.07182575
81	0x3c3223c4	0.010872785
82	0x3de69972	0.11259736
83	0x3d4c9a6f	0.049951967
84	0xbdd7a6b0	-0.1052984
85	0xbe4ab3f7	-0.19795214
86	0xbe620d0e	-0.22075292
87	0x3de118e1	0.109910734
88	0xbe311578	-0.17293346
89	0xbc3a51f5	-0.011372079
90	0xbe2088ca	-0.15677181
91	0x3dbda204	0.09259418
92	0x3c48b684	0.012250546
93	0xbe6aad94	-0.22917777
94	0xbd0e4695	-0.03473528
95	0x3d861623	0.06547191
96	0x3848baaa	4.785756e-05
97	0x3d10ed9c	0.035382852
98	0xbe1ca24f	-0.15296291
99	0xbdf6dbc5	-0.120536365
100	0xbe4b14ab	-0.19832103
101	0x3b70c655	0.003673931
102	0x3e27f9d8	0.16403902
103	0x3d6eb585	0.05827858
104	0xbe4a05c7	-0.19728766
105	0xbce789d8	-0.028263971
106	0x3df3470a	0.11878784
107	0x3bcd6a9c	0.0062688123
108	0xbea818f5	-0.3283154
109	0xbdf1d9b2	-0.118091
110	0x3d2f452a	0.04279057
111	0x3d21ba5a	0.03948436
112	0xbdf7327f	-0.12070178
113	0xbe3dbc12	-0.18528774
114	0xbda03560	-0.078226805
115	0xbdcede99	-0.10101051
116	0xbd4f2e40	-0.050581217
117	0x3d8b6822	0.06806971
118	0xbd163b52	-0.036677666
119	0xbdb9df3d	-0.090757824
120	0x3d19c048	0.03753689
121	0xbd16cfaa	-0.036819138
122	0x3e140b2c	0.14457387
123	0xbd66ac81	-0.056316856
124	0x3d9d25dd	0.076732375
125	0xbd9aea55	-0.075642265
126	0x3e31293f	0.1730089
127	0xbe5f6e41	-0.21819402
128	0x3d9147d8	0.07093781
129	0xbb2dcdfb	-0.002652048
130	0xbd8bf9b0	-0.068347335
131	0x3e602d84	0.21892363
132	0xbe39fb22	-0.18162206
133	0xbdebd0f1	-0.11514462
134	0xbe4f4ed5	-0.20244916
135	0xbe5bac13	-0.2145236
136	0xbe7e9255	-0.24860509
137	0xbcdad292	-0.026711736
138	0xbde7338e	-0.1128913
139	0xbd7426a3	-0.05960716
140	0x3d4cc918	0.049996465
141	0x3d91741e	0.07102226
142	0xbe65cd0b	-0.22441499
143	0xbdd793fb	-0.10526272
144	0xbe7adfb2	-0.24499395
145	0x3e60504d	0.21905632
146	0x3aff4f8c	0.0019478663
147	0xbd8e8bee	-0.06960283
148	0xbd2dce0d	-0.042432833
149	0xbd614275	-0.05499502
150	0xbe145239	-0.1448449
151	0x3ea691c2	0.3253308
152	0xbdab6ddc	-0.083705634
153	0x3c892ba4	0.016744442
154	0xbd0ec831	-0.034858886
155	0xbd0f047d	-0.03491639
156	0xbd3a38b6	-0.04546424
157	0xbd914717	-0.070936374
158	0x3d738234	0.059450343
159	0xbde0e930	-0.10981977
160	0xbd83683b	-0.06416365
161	0xbd7f15db	-0.062276702
162	0xbe169ac8	-0.14707482
163	0x3dd3f400	0.10349274
164	0xbdb68bea	-0.08913405
165	0xbe1131f3	-0.1417921
166	0xbb7da402	-0.0038702493
167	0xbd0ba1bc	-0.03408979
168	0xbe6d9f76	-0.23205361
169	0x3d11a241	0.035555128
170	0xbdb5ceae	-0.08877312
171	0xbda61e04	-0.08111194
172	0x3bfd6c27	0.00773384
173	0xbcc639f0	-0.024197549
174	0xbd54171e	-0.05177986
175	0xbd515d9d	-0.051114667
176	0xbda053e1	-0.07828499
177	0x3ddb6f21	0.107145555
178	0xbd0db135	-0.034592826
179	0xbc72813e	-0.014801322
180	0x3deec67b	0.11658951
181	0xbda92b70	-0.08260238
182	0x3e026eb6	0.12737545
183	0x36a0b840	4.789821e-06
184	0x3d86d2ad	0.06583152
185	0xbdacc27c	-0.084355325
186	0x3d7c8f1e	0.061659925
187	0xbe933c8e	-0.28757137
188	0x3cf6c610	0.03012374
189	0xbd867d00	-0.065668106
190	0x3e46fe2d	0.19432898
191	0x3e279263	0.16364436
192	0xbe467b9e	-0.19383094
193	0x3e12ba2f	0.14328836
194	0x3c4d2696	0.012521407
195	0xbb186d14	-0.0023258375
196	0x3c8a457a	0.016878832
197	0xbdd22ac8	-0.10262066
198	0xbe8a4153	-0.27002963
199	0xbd6ce57a	-0.057836033
200	0x3dff93c8	0.12479359
201	0xbd02777e	-0.031852238
202	0xbc9b5176	-0.018959742
203	0x3d8a4fb6	0.06753485
204	0xbd32d3ac	-0.043658897
205	0xbcf7afa1	-0.030235114
206	0x3c9273e9	0.017877536
207	0x3c51f036	0.012813618
208	0xbeaf1d73	-0.34202155
209	0xbd2b62f9	-0.041842435
210	0x3db510c5	0.08841089
211	0xbe7fbeda	-0.24975148
212	0x3c72689c	0.014795449
213	0xbe269590	-0.16267991
214	0x3e287fa7	0.16454946
215	0x3de5fd4c	0.11229953
216	0xbde45da7	-0.11150675
217	0x3d639ae1	0.055567626
218	0x3daabdd0	0.08336985
219	0x3d6fb360	0.058520675
220	0x3cb7684f	0.022388605
221	0x3e7142ab	0.23560588
222	0xbdc32de9	-0.09530241
223	0xbd14f1ae	-0.036363296
224	0xbdc45460	-0.09586406
225	0xbe7937e9	-0.24337734
226	0xbe11ba93	-0.14231329
227	0x3e433783	0.19064145
228	0xbea3612f	-0.31910083
229	0x3db8bcd7	0.09020393
230	0x3c5ad05c	0.013355341
231	0xbe79c614	-0.24391967
232	0xbe3699cc	-0.17832106
233	0xbe4b5147	-0.19855224
234	0x3e9ed703	0.31023416
235	0x3d0d541f	0.034504052
236	0xbe14a385	-0.14515503
237	0xbd0513f2	-0.032489724
238	0xbd83d418	-0.06436938
239	0x3dddfdbe	0.10839413
240	0xbea807f7	-0.32818577
241	0xbe109358	-0.14118707
242	0x3e1787e6	0.14797935
243	0x3d820994	0.06349483
244	0xbd12015d	-0.03564583
245	0xbe095834	-0.13412553
246	0x3de9ce88	0.11416346
247	0x3e4ddc0f	0.20103477
248	0x3d38779b	0.04503594
249	0x3cfa62ee	0.030564751
250	0xbdd91dfa	-0.10601421
251	0xbd9b83eb	-0.07593521
252	0xbdc44124	-0.09582737
253	0x3d94f634	0.07273522
254	0x3d9c943c	0.07645461
255	0x3d5fc314	0.0546294

arith.constant10 f4 [512, 20]
0	0xbe0c00af	-0.13672136
1	0xbcc1c1af	-0.023651926
2	0x3c877887	0.016536964
3	0xbd740295	-0.059572775
4	0x3d0cf8e5	0.03441705
5	0x3defe5f2	0.117137805
6	0x3dc2d394	0.095130116
7	0xbdb804b8	-0.08985275
8	0xbd8badd6	-0.06820266
9	0xbd8b86cf	-0.06812822
10	0xbc131ae5	-0.00897858
11	0xbd632157	-0.055451717
12	0x3dde94e1	0.1086824
13	0x3c90f8bb	0.017696729
14	0x3d03a5a3	0.032140385
15	0xbdd61e99	-0.10455055
16	0xbd9cdd48	-0.076593935
17	0xbd88f55a	-0.06687422
18	0xbe0422c6	-0.1290389
19	0xbe5fc949	-0.21854128
20	0x3de5b0e1	0.112153776
21	0xbcc3eb98	-0.02391605
22	0x3dad63d3	0.084663056
23	0x3d327958	0.043572754
24	0x3d3af51f	0.045643922
25	0xbd25bafb	-0.04046152
26	0xbd878cab	-0.06618627
27	0xbcd52b01	-0.026021482
28	0x3d120c5d	0.03565632
29	0xbdae9af5	-0.085256495
30	0xbd8c995d	-0.06865189
31	0xbcd4314a	-0.02590241
32	0x3de49ec6	0.11163096
33	0x3d396a27	0.04526725
34	0xbce60934	-0.02808056
35	0xbddc53f2	-0.10758199
36	0xbd8ac1b1	-0.06775225
37	0x3d824c28	0.06362182
38	0xbd99f406	-0.07517247
39	0x3d2c07a9	0.041999493
40	0xbd499994	-0.04921873
41	0x3a937d55	0.0011252562
42	0xbc0f6936	-0.008753112
43	0xbc26d310	-0.010182157
44	0xbcf225e2	-0.02955908
45	0xbdca3360	-0.0987308
46	0xbe17ad3a	-0.14812174
47	0xbd404516	-0.046940885
48	0xbc239189	-0.009983429
49	0xbc372d66	-0.011180257
50	0xbe04c441	-0.1296549
51	0xbe237c3f	-0.15965365
52	0xbc3cefc2	-0.011531772
53	0x3de5a725	0.11213521
54	0xbdc574e4	-0.09641436
55	0x3b0f86c3	0.0021900393
56	0x3cec5dcd	0.028853321
57	0x3c8091c6	0.01569451
58	0xbdb329ca	-0.08748205
59	0xbaad35ee	-0.0013214925
60	0x3e046204	0.12928015
61	0x3debe170	0.11517608
62	0xbbe2256f	-0.006901435
63	0xbc68e308	-0.014214285
64	0x3df55c37	0.11980479
65	0xbce0b4d1	-0.02742997
66	0xbd102407	-0.03519061
67	0x3d9b63ca	0.07587393
68	0xbdafb685	-0.08579735
69	0xbd92a852	-0.07161011
70	0x3dccf3c7	0.10007434
71	0x3ca2a2d0	0.019853026
72	0x3cf1de61	0.029524984
73	0x3d4760be	0.048676245
74	0xbd814acd	-0.06313095
75	0xbd859dac	-0.06524214
76	0x3d8d7ce9	0.0690859
77	0x3becb1a2	0.007223324
78	0xbd92434f	-0.07141744
79	0x3d726b3a	0.05918429
80	0xbe190375	-0.14942725
81	0xbdf5cd18	-0.12002009
82	0xbd7a4f35	-0.061110694
83	0x3d2171b3	0.039415073
84	0x3ccab5ba	0.024744857
85	0xbdad0f08	-0.084501326
86	0xbcac9251	-0.021065863
87	0x3c9585ac	0.018252216
88	0x3d294691	0.041327063
89	0xbd65e4cb	-0.056126397
90	0xbd1a3593	-0.03764875
91	0x3da3cbc2	0.07997848
92	0xbd5a086f	-0.0532307
93	0xbdc89a3c	-0.09795043
94	0x3dd83a89	0.1055804
95	0xbd5075f2	-0.05089373
96	0xbd99e742	-0.07514812
97	0x3ce370fd	0.027763838
98	0xbdcb4e0a	-0.09926994
99	0xbd06d787	-0.032920387
100	0xbd0860a9	-0.033295307
101	0xbdcf660d	-0.101268865
102	0xbd5c43d4	-0.053775623
103	0x3d44ae68	0.04801789
104	0xbe2ba853	-0.1676343
105	0xbd69b40b	-0.057056468
106	0xbd0dc013	-0.034607004
107	0xbd1a3d27	-0.037655976
108	0xbc921ce6	-0.017836045
109	0xbdaec982	-0.08534528
110	0xbd6d2b15	-0.057902414
111	0x3b3fd5dc	0.0029271757
112	0x3cdb8906	0.026798736
113	0x3d43e948	0.047829896
114	0x3e0f7415	0.14009126
115	0xbd9c196b	-0.076220356
116	0xbde6a120	-0.11261201
117	0xbdc031bd	-0.09384487
118	0xbbac0dd0	-0.00525067
119	0xbd688ae2	-0.056773074
120	0xbc55470c	-0.013017427
121	0xbddb7540	-0.10715723
122	0xbe185eb8	-0.14879882
123	0xbd2119cd	-0.039331246
124	0xbe5fba57	-0.21848427
125	0xbe0b939d	-0.13630529
126	0x3d865b85	0.06560425
127	0x3e4b55cd	0.19856949
128	0xbe030248	-0.12793839
129	0x3e469db4	0.19396096
130	0x3e384c18	0.17997777
131	0x3ecd74a2	0.40128046
132	0x3e980a60	0.29695415
133	0x3da66bbf	0.0812602
134	0xbcdae200	-0.026719093
135	0x3dba8392	0.09107126
136	0x3de9c8ab	0.114152275
137	0x3e10083e	0.14065644
138	0x3e8d961a	0.2765358
139	0xbbd1a23f	-0.006397515
140	0x3ce8c1b4	0.028412677
141	0xbce6e9ba	-0.028187621
142	0xbcd3cb22	-0.025853697
143	0xbd80f817	-0.062973194
144	0x3c85797b	0.016293278
145	0xbe15ed85	-0.14641388
146	0x3d7f4338	0.062319964
147	0x3cc42080	0.023941278
148	0xbd51df04	-0.051238075
149	0x3d61cd18	0.055127233
150	0x3e0c82dc	0.13721794
151	0x3e28f7ee	0.16500828
152	0x3c8768d4	0.016529478
153	0x3b3311bf	0.002732381
154	0x3d10a517	0.035313692
155	0x3e20c181	0.15698816
156	0xbc956255	-0.018235365
157	0x3dd3e858	0.103470504
158	0x3d82374e	0.06358205
159	0x3e0dd4a5	0.13850649
160	0xbc04f7bf	-0.008115708
161	0xbc6b2a24	-0.014353309
162	0xbe1d18e2	-0.15341523
163	0xbb720805	-0.003693105
164	0xbdffe8ab	-0.1249555
165	0xbd3d0b71	-0.04615349
166	0xbdeb3046	-0.11483817
167	0xbddc2aed	-0.10750375
168	0xbdfeeaf3	-0.12447157
169	0xbe365457	-0.1780561
170	0xbd60e88c	-0.054909274
171	0x3d230895	0.039803106
172	0x3dd0751c	0.10178587
173	0xbc1f6fdd	-0.00973126
174	0xbc7633bd	-0.015026984
175	0x3d06e258	0.032930702
176	0x3d783c53	0.060604405
177	0xbcb812bd	-0.022469873
178	0xbbbabeec	-0.005699029
179	0xbdf059db	-0.117358886
180	0x3cd5a0cf	0.026077656
181	0xbb284a11	-0.0025678913
182	0xbd901765	-0.07035712
183	0x3e17cb34	0.1482361
184	0x3e441e42	0.19152167
185	0x3daadb9e	0.0834267
186	0xbe900b28	-0.28133512
187	0xbe4fb1c7	-0.2028266
188	0x3d34cb6e	0.04413932
189	0x3e820c69	0.25400093
190	0x3e349fb7	0.17639051
191	0x3d09a37d	0.03360318
192	0xbd7fbb61	-0.062434558
193	0x3d214edd	0.03938185
194	0x3e1d45fb	0.15358727
195	0x3e232964	0.15933758
196	0x3e07f4b0	0.13276935
197	0xbe8f505c	-0.27990997
198	0xbd7113fc	-0.05885695
199	0x3db2efb5	0.08737127
200	0x3dbe9dc8	0.09307438
201	0xbcdccd73	-0.026953435
202	0x3e2a0c23	0.16606192
203	0x3d27ed36	0.040997706
204	0x3dd8176d	0.10551343
205	0xbc92b64b	-0.01790919
206	0x3e256d2a	0.16154924
207	0xbc5eb7dc	-0.01359364
208	0x3dd49570	0.103800654
209	0x3de1becf	0.11022722
210	0xbc463957	-0.012098632
211	0x3d773545	0.060353536
212	0x3d857dbd	0.06518123
213	0x3de08aae	0.10963951
214	0xbd2888db	-0.04114614
215	0xbe15e7ab	-0.14639156
216	0xbd9341c4	-0.07190278
217	0x3e321252	0.17389801
218	0x3e63bc8a	0.2223989
219	0x3e07fd5f	0.13280247
220	0x3da4adfd	0.08040998
221	0x3dc183f0	0.09448993
222	0x3db8add0	0.09017527
223	0xbcb08d2d	-0.021551693
224	0xbdb39534	-0.087686926
225	0xbbb598f6	-0.005541916
226	0x3dd0fb78	0.10204214
227	0xbd30e71c	-0.043189153
228	0x3d8af088	0.06784159
229	0xbc805059	-0.015663313
230	0xbd491aa0	-0.049097657
231	0x3d1d29f8	0.038370103
232	0xbd515a87	-0.051111724
233	0xbdce8947	-0.10084777
234	0xbc7f4afa	-0.015581841
235	0xba36b019	-0.00069689896
236	0x3e1cc19c	0.15308231
237	0xbbc0bb1e	-0.005881681
238	0x3d787776	0.0606608
239	0x3e40b6d7	0.18819748
240	0x3df82448	0.12116295
241	0x3db7831b	0.08960553
242	0xbc2234b9	-0.009900265
243	0x3ddebcbd	0.10875843
244	0xbda5b455	-0.08091036
245	0x3dffbe74	0.12487498
246	0xbc722d09	-0.014781245
247	0x3c22dd7e	0.009940503
248	0xbd133d0b	-0.035946887
249	0xbbcb9019	-0.006212246
250	0xbdda0b86	-0.10646729
251	0x3e07a700	0.13247299
252	0x3d9df0b3	0.07711925
253	0x3d368b80	0.04456663
254	0xbdd2ab08	-0.10286528
255	0xbdb0bb2a	-0.08629449

arith.constant11 f4 [512, 128]
0	0x3d9b28c5	0.075761355
1	0xbd9f1167	-0.07766991
2	0x3d143fd5	0.036193687
3	0xbcd2a250	-0.025712162
4	0x3c65caaf	0.014025374
5	0x3d04bb0a	0.032404937
6	0xbcb9cdf9	-0.022681223
7	0xbcb597e8	-0.022167161
8	0x3c0ecdf2	0.008716093
9	0x3c8fbbd5	0.01754562
10	0x3c8af3aa	0.016961891
11	0xbcd9f1b8	-0.026604518
12	0x3cbf68e3	0.023365444
13	0x397850be	0.00023681202
14	0x3cae99ad	0.021313513
15	0x3ca435ad	0.020045126
16	0x3c868dbf	0.016425012
17	0xbda946e6	-0.08265476
18	0x3de06bdf	0.10958075
19	0x3d4bf95c	0.049798355
20	0xbd644d44	-0.05573775
21	0x3d64028a	0.055666484
22	0xbcd36b6a	-0.025808055
23	0xbdcafd60	-0.09911609
24	0xbd997039	-0.07492108
25	0x3d004e1e	0.0313245
26	0xbd786a8c	-0.060648486
27	0x3da7d388	0.08194643
28	0xbba22476	-0.004948194
29	0x3c60afa3	0.01371375
30	0xbce12d59	-0.027487444
31	0x3d546280	0.05185175
32	0xbc675b85	-0.014120941
33	0xbc57f93b	-0.01318198
34	0xbca7064d	-0.020388747
35	0xbcb42861	-0.02199191
36	0xbc16edfb	-0.009212012
37	0xbda29dc5	-0.079402484
38	0xbd03415c	-0.032044753
39	0x3d0bc7d3	0.034126114
40	0x3c0c5434	0.008564997
41	0xbd5ec168	-0.054383665
42	0xbb28b624	-0.002574333
43	0xbe188336	-0.14893803
44	0x3d9077e3	0.070541166
45	0x3c9aac17	0.018880887
46	0x3cc56118	0.02409415
47	0x3d155225	0.036455292
48	0xbd1b852b	-0.037968796
49	0x3c5bcb93	0.013415235
50	0xbc7a22e7	-0.01526711
51	0xbc754f7d	-0.014972565
52	0x3cbc1323	0.022958344
53	0x3b33c788	0.0027432162
54	0xbe03097e	-0.1279659
55	0x3dc1bf0b	0.09460267
56	0x3d97dc5c	0.07415077
57	0xbbe0f7f4	-0.006865496
58	0xbe63ec12	-0.22258022
59	0x3b68f838	0.003554834
60	0xbcf23638	-0.02956687
61	0xbc701776	-0.014654031
62	0x3d0e7ae3	0.034785163
63	0x3db745c7	0.08948856
64	0x3d794aef	0.060862478
65	0xbd1bcbcb	-0.03803615
66	0xbca519b6	-0.020153861
67	0x3d77e870	0.060524404
68	0xbd5456a6	-0.051840447
69	0xbd8a332f	-0.06748044
70	0xbadc1cf8	-0.0016793301
71	0xbd69a6f2	-0.057043977
72	0x3ce92859	0.028461622
73	0xbe2ddf89	-0.16979803
74	0x39363720	0.00017377408
75	0xba8c4266	-0.0010700941
76	0xbe0e9cb1	-0.1392696
77	0x3c08a425	0.008339916
78	0xbd266c86	-0.04063084
79	0xbd5eaad9	-0.05436215
80	0x3e2abc44	0.1667338
81	0xbd1400f2	-0.036133714
82	0xbdceedb6	-0.101039335
83	0x3d232f34	0.03983994
84	0x3d9b943c	0.07596633
85	0x3cc578da	0.024105478
86	0xbbc23ea3	-0.005927877
87	0x3be4ccd6	0.006982426
88	0x3bf6da07	0.007533315
89	0xbd4aa3b5	-0.04947253
90	0x3dc58c05	0.09645847
91	0x3dbbc289	0.09167964
92	0xbc520557	-0.012818656
93	0xbdef9c4a	-0.11699732
94	0xbac85091	-0.00152828
95	0xbe074bfb	-0.13212578
96	0x3e04eecd	0.1298172
97	0x3d493ff5	0.04913326
98	0xbdf13ea2	-0.117795244
99	0xbd949926	-0.07255773
100	0xbc9b9cc7	-0.018995656
101	0x3af37bb6	0.0018576297
102	0x3c1cc2da	0.009567941
103	0xbcb945a2	-0.022616211
104	0xbb59497f	-0.003315538
105	0xbdaa62ec	-0.08319649
106	0x3ced697f	0.028980969
107	0xbceca94f	-0.028889326
108	0x3e312bcc	0.17301863
109	0xbb07fa47	-0.0020748542
110	0x3d74098b	0.059579413
111	0x3cb850df	0.0224995
112	0xbcdafef9	-0.026732909
113	0x3ca03766	0.019557666
114	0x3e2d5833	0.16928177
115	0xbc2bcc19	-0.010485672
116	0x3dcbbd52	0.09948219
117	0xbe3479a8	-0.17624533
118	0xbc2dc7d6	-0.010606727
119	0x3db3bf21	0.08776689
120	0x3c526436	0.012841275
121	0xbcfc4f50	-0.030799538
122	0xbcb4c67e	-0.022067305
123	0xbd5218ed	-0.051293302
124	0xbc8a687b	-0.016895523
125	0x3d8cafab	0.068694435
126	0x3c87aa66	0.016560744
127	0x3c99a942	0.018757466
128	0xbd238217	-0.039918985
129	0xbdc5a09c	-0.096497744
130	0x3d108c3e	0.035289995
131	0xbd47fdc3	-0.04882599
132	0xbdd55740	-0.10417032
133	0x3db8ba1f	0.09019875
134	0xbd1506e4	-0.036383525
135	0x3d84e17f	0.064883225
136	0xbcb4fbaf	-0.022092668
137	0x3ae8470c	0.0017721369
138	0x3d2c3002	0.04203797
139	0xbbdc4760	-0.0067223758
140	0x3d51c657	0.051214542
141	0x3d744ccb	0.059643548
142	0x3d14e2eb	0.03634922
143	0xbc9b83ec	-0.018983804
144	0xbd27076f	-0.040778574
145	0xbd4f6434	-0.05063267
146	0x3cdb41aa	0.02676471
147	0x3d2d1af1	0.04226202
148	0xbc93738f	-0.017999439
149	0xbe00acca	-0.12565914
150	0xbd8a9cd8	-0.06768197
151	0xbe0736a9	-0.13204445
152	0x3cdda7f5	0.027057627
153	0x3db63b55	0.088980354
154	0xbdd7794c	-0.105211824
155	0xbc029772	-0.007970678
156	0x3e3f22a7	0.18665563
157	0xbce71bed	-0.028211558
158	0xbd7012aa	-0.05861155
159	0xbbd4a36b	-0.0064892075
160	0xbdcbe0fd	-0.099550225
161	0xbbc206d7	-0.0059212255
162	0xbd788490	-0.060673296
163	0xbd36f0ea	-0.044663347
164	0x3ca36daa	0.019949753
165	0xbd0c8303	-0.03430463
166	0x3c3d5f87	0.01155842
167	0x3d98995b	0.07451125
168	0xbc4c39f4	-0.012464989
169	0x3d7a9379	0.061175797
170	0xbd7b6c26	-0.061382435
171	0xbd5a59c1	-0.053308252
172	0x3d86ee7b	0.06588455
173	0x3d8ea77e	0.0696554
174	0xbd19494a	-0.03742341
175	0x3d053671	0.032522622
176	0x3c625e9d	0.013816503
177	0x3c93db50	0.018048912
178	0xbd144e9b	-0.036207777
179	0x3d8cded3	0.06878438
180	0x3cbb0136	0.022827726
181	0x3c8c9496	0.017160695
182	0xbc149efe	-0.00907111
183	0x3c4e426c	0.012589078
184	0xbca5defc	-0.020247929
185	0x3c4d2525	0.012521063
186	0xbcd3c18d	-0.025849128
187	0xbc5dd4ec	-0.013539534
188	0x3d7424fe	0.05960559
189	0xbd30fbf4	-0.04320903
190	0xbae0b21e	-0.0017142927
191	0x3de2335a	0.11044951
192	0x3e07c036	0.13256916
193	0xbdbf2f57	-0.09335201
194	0x3ce5ae30	0.02803716
195	0xbdb61f74	-0.08892718
196	0xbd8b4f30	-0.06802213
197	0xbbdd71bc	-0.006757943
198	0xbcfdb49c	-0.03096991
199	0xbd613d50	-0.054990113
200	0x3d122cb9	0.035687182
201	0x3d985bfc	0.074394196
202	0xbc0364d2	-0.008019643
203	0xbd921c9d	-0.07134364
204	0xbce1d7da	-0.027568746
205	0x3d9ac93e	0.07557915
206	0xbb10ab74	-0.002207485
207	0x3c08fddb	0.008361305
208	0x3d76e1ff	0.06027412
209	0x3dafb3a5	0.08579186
210	0xbd200dcc	-0.039075658
211	0x3d6ef8fe	0.058342926
212	0xbd0608d8	-0.032723278
213	0x3df20217	0.11816805
214	0xbdba07f2	-0.09083547
215	0x3d3f16c7	0.04665258
216	0xbd4b9739	-0.049704764
217	0xbd7cc7d0	-0.061713994
218	0x3d0089be	0.03138136
219	0xbd3f351f	-0.04668152
220	0xbc0ebba2	-0.008711727
221	0x3d8d4492	0.068978444
222	0x3d3867e0	0.045020938
223	0x3d9428d3	0.07234349
224	0x3c878caa	0.016546566
225	0x3d631c11	0.055446688
226	0xbd11ffae	-0.035644226
227	0x3df07a6f	0.11742102
228	0xbb9d5ac4	-0.00480208
229	0x3d781aa6	0.06057229
230	0xbdaf521e	-0.085605845
231	0xbd4c92b6	-0.049944602
232	0xbdd8798b	-0.105700575
233	0x3dc041b2	0.093875304
234	0x3c8fbb21	0.017545285
235	0x3c457415	0.012051602
236	0x3c31c8f4	0.010851134
237	0x3c54ceaa	0.012988726
238	0x3da93a35	0.08263055
239	0xbce2b6ff	-0.02767515
240	0xbbdb86fd	-0.0066994415
241	0xbca15c86	-0.019697439
242	0x3d81dddf	0.06341147
243	0xbd9dfd0f	-0.07714283
244	0xbd0b47fb	-0.034004193
245	0xbb1e8e26	-0.0024193614
246	0x3cf5b6a0	0.029994309
247	0x3dea694a	0.114458635
248	0xbcdf42d5	-0.027253548
249	0xbe28d51d	-0.16487546
250	0xbb3d1cde	-0.0028856318
251	0xbb782510	-0.0037863888
252	0x39246e66	0.00015681385
253	0xbcdb75fd	-0.02678966
254	0x39e91ad8	0.00044461223
255	0xbda1672f	-0.07881009

arith.constant12 f4 [512]
0	0x3c9bf824	0.019039221
1	0xbc471026	-0.012149846
2	0x3c536f1e	0.01290491
3	0xbb721f07	-0.0036944763
4	0x3b5ebde4	0.0033987695
5	0x3cb90493	0.022585189
6	0x3de21b55	0.110403694
7	0xbba7531b	-0.0051063425
8	0x3d158dcf	0.036512192
9	0xbdae2ee9	-0.08505041
10	0xbc5ca86e	-0.013467891
11	0xbc7021c4	-0.014656488
12	0xbc6ef22a	-0.014584104
13	0x3d4b66b4	0.049658492
14	0x3cce31d8	0.025170252
15	0x3a2eb38a	0.00066643266
16	0xbc2431ba	-0.010021621
17	0xbc7e1025	-0.015506779
18	0x3da84834	0.08216897
19	0xbc14b7a1	-0.009076984
20	0x3e23e71a	0.16006127
21	0x3d2aa04a	0.04165677
22	0xbbb8fb76	-0.005645211
23	0xbca12bd2	-0.019674215
24	0xbd8ea5de	-0.069652304
25	0x3d7d5f3c	0.0618584
26	0x3d5612ae	0.052263908
27	0x3d6a7005	0.057235736
28	0xbd097ea6	-0.033568047
29	0x398f6659	0.0002735134
30	0xbab52044	-0.001381882
31	0x3e078a76	0.13236412
32	0x3c01ec51	0.007929877
33	0x3d1a05f8	0.03760335
34	0x3d48fa28	0.049066693
35	0xbbad154f	-0.005282081
36	0xbd1efdc1	-0.038816217
37	0x3bb98f0d	0.005662805
38	0xbcab8606	-0.02093793
39	0x3e719ce6	0.23595008
40	0xbdbc2f39	-0.091886945
41	0x3d36e4d4	0.04465182
42	0x3ab0b8c0	0.0013482794
43	0x3d22b233	0.039720725
44	0x3b29fa7a	0.002593665
45	0xbd26e527	-0.04074588
46	0x3d1b085a	0.03784976
47	0xba9b2b0d	-0.0011838392
48	0x3d21be73	0.039488267
49	0x3d39d2bc	0.045366988
50	0x3d1aeb16	0.03782185
51	0x3d2743c2	0.040836103
52	0x3d12e66d	0.035864282
53	0x3c982985	0.018574486
54	0xbe876b9f	-0.26449296
55	0x3d712a6a	0.05887834
56	0xbdc50f96	-0.096221134
57	0x3d4ab49c	0.04948865
58	0x3d2637c0	0.04058051
59	0x3d020cb8	0.03175041
60	0x3c1cb23a	0.009563977
61	0xbc9d97cd	-0.019237423
62	0xbcdd8e3c	-0.027045362
63	0x3e093710	0.13399911
64	0x3ccf327b	0.025292626
65	0xbbe94f2f	-0.007120035
66	0xbd821c49	-0.06353051
67	0xbdb15750	-0.08659232
68	0x3dd43ef4	0.1036357
69	0xbbd790a1	-0.0065785204
70	0xbd008565	-0.031377215
71	0xbda3a0f3	-0.07989683
72	0x3c902f85	0.017600784
73	0x3c0c1607	0.008550174
74	0xba8cf13c	-0.0010753046
75	0xbc920c4b	-0.017828127
76	0x3b57acb1	0.0032909329
77	0x3c0d669d	0.008630422
78	0xbce9e792	-0.028552804
79	0x3c597657	0.013272843
80	0x3bee4c19	0.007272255
81	0x3c4e7ea9	0.01260344
82	0x3cf0d7bf	0.02939975
83	0x3c365cdb	0.011130537
84	0xbcb01f9d	-0.02149945
85	0x3c2a060e	0.01037742
86	0x3c78c0ba	0.015182668
87	0x3e5d6539	0.21620645
88	0x3d07298b	0.032998603
89	0x3d1b75e1	0.037954215
90	0x3d8ea509	0.06965072
91	0xbe4706ea	-0.19436231
92	0xbd83bf56	-0.06432979
93	0xbbef2bec	-0.007298937
94	0x3c42d193	0.011890787
95	0xbd65b94d	-0.05608492
96	0x3c1d9070	0.009616956
97	0x3cf4b3e6	0.029870939
98	0x3d614f7c	0.055007443
99	0xbe49d8bd	-0.19711585
100	0xbda6cf77	-0.081450395
101	0x3ce36bb6	0.027761322
102	0xbcc71882	-0.024303678
103	0x3d23572a	0.039878048
104	0xbc5dc7dc	-0.01353642
105	0x3dbe69ff	0.09297561
106	0xba1c7b33	-0.0005969286
107	0x3cf3c77d	0.02975821
108	0xbd66e10f	-0.056366976
109	0x3d1d96bd	0.038473833
110	0x3d0c4140	0.034241915
111	0x3d3d421f	0.046205636
112	0xbc619138	-0.013767533
113	0x3c718bbc	0.014742788
114	0x3bac1ce5	0.005252468
115	0xbdcfe0d8	-0.101503074
116	0x3d004917	0.031319704
117	0x3d653a38	0.055963725
118	0xbc374a9e	-0.011187224
119	0x3bed841f	0.007248416
120	0x3bf3ccca	0.0074401842
121	0x3bfc6af7	0.007703181
122	0xbd729b9a	-0.059230424
123	0xbddbdf9a	-0.10736008
124	0x3cdd6711	0.027026685
125	0xbd3b9eab	-0.045805614
126	0xbc180173	-0.009277689
127	0xbd896382	-0.06708433
128	0x3f8c04f3	1.093901
129	0x3f82469e	1.0177801
130	0x3f7ffe0f	0.9999704
131	0x3f7fd462	0.99933445
132	0x3f85ef70	1.0463696
133	0x3f8b5f3d	1.088844
134	0x3f797b0c	0.9745338
135	0x3f7ee901	0.99574286
136	0x3f80a331	1.0049802
137	0x3f5be533	0.85896605
138	0x3f851e4b	1.039987
139	0x3f7cb08a	0.9870688
140	0x3f81fd6b	1.0155462
141	0x3f840844	1.0315022
142	0x3f7f2bf9	0.9967647
143	0x3f8132dc	1.0093646
144	0x3f81bb9f	1.0135382
145	0x3f79e948	0.97621584
146	0x3f7f905a	0.9982964
147	0x3f7fb47f	0.9988479
148	0x3f8ab68c	1.0836959
149	0x3f711810	0.9417734
150	0x3f7ffbf3	0.9999382
151	0x3f8349f5	1.0256945
152	0x3f869096	1.0512874
153	0x3f8172b7	1.0113133
154	0x3f7cb646	0.9871563
155	0x3f87ab45	1.0599142
156	0x3f759dd2	0.9594394
157	0x3f7eff3c	0.99608207
158	0x3f7ffff3	0.9999992
159	0x3f8998e6	1.0749786
160	0x3f888c9c	1.066791
161	0x3f87c2c7	1.0606316
162	0x3f85f4cd	1.0465332
163	0x3f7f67f6	0.99768007
164	0x3f6b25ba	0.9185444
165	0x3f811428	1.0084276
166	0x3f7ce15e	0.98781383
167	0x3f8de6df	1.1086081
168	0x3f742788	0.9537282
169	0x3f802a20	1.0012856
170	0x3f7fe9c2	0.9996606
171	0x3f84b537	1.0367802
172	0x3f88233d	1.0635754
173	0x3f79600d	0.97412187
174	0x3f768bee	0.96307266
175	0x3f800504	1.0001531
176	0x3f80bbff	1.0057372
177	0x3f76fbb3	0.9647781
178	0x3f762be5	0.9616073
179	0x3f889008	1.0668955
180	0x3f822bbc	1.0169597
181	0x3f72d8a4	0.9486182
182	0x3f6fe941	0.9371529
183	0x3f8884b8	1.0665503
184	0x3f897aa5	1.0740553
185	0x3f8464be	1.0343244
186	0x3f757875	0.9588693
187	0x3f800f27	1.0004624
188	0x3f75fa81	0.96085364
189	0x3f80745b	1.0035509
190	0x3f79c4c1	0.9756585
191	0x3f7dbf47	0.9911999
192	0x3f84fccf	1.0389651
193	0x3f7fffed	0.99999887
194	0x3f849ec9	1.0360957
195	0x3f84789f	1.0349311
196	0x3f867e79	1.0507346
197	0x3f81ee6b	1.0150884
198	0x3f7d10ec	0.98853946
199	0x3f891403	1.0709232
200	0x3f7e62b2	0.9936935
201	0x3f6954a1	0.9114476
202	0x3f7ff992	0.9999019
203	0x3f716141	0.9428902
204	0x3f7bcad8	0.9835639
205	0x3f6f0866	0.9337219
206	0x3f5aeb81	0.855156
207	0x3f7d4fac	0.98949695
208	0x3f6d15cb	0.9261138
209	0x3f76341e	0.96173275
210	0x3f870bf0	1.0550518
211	0x3f7e8cfe	0.99433887
212	0x3f7fdb2d	0.9994381
213	0x3f80f6e8	1.007535
214	0x3f80503a	1.0024483
215	0x3f8547e5	1.0412565
216	0x3f7fae59	0.9987541
217	0x3f7f92bc	0.99833274
218	0x3f86c0e6	1.0527618
219	0x3f845089	1.0337077
220	0x3f827a45	1.0193564
221	0x3f7efa9f	0.9960117
222	0x3f7aafc8	0.9792447
223	0x3f7711ca	0.9651152
224	0x3f830661	1.0236322
225	0x3f82d035	1.021979
226	0x3f7a7906	0.9784092
227	0x3f6dff71	0.929679
228	0x3f7f3bdc	0.99700713
229	0x3f80ad2c	1.0052848
230	0x3f859e57	1.0438946
231	0x3f85201c	1.0400424
232	0x3f7fe738	0.99962187
233	0x3f886dc6	1.06585
234	0x3f7ff626	0.9998497
235	0x3f714003	0.942383
236	0x3f76ab53	0.9635517
237	0x3f89d057	1.0766705
238	0x3f8230f0	1.0171185
239	0x3f81f032	1.0151427
240	0x3f80e074	1.0068498
241	0x3f858cbb	1.0433573
242	0x3f74efd9	0.9567848
243	0x3f76eef4	0.96458364
244	0x3f8034af	1.0016078
245	0x3f83ddb1	1.030203
246	0x3f7f6fed	0.9978016
247	0x3f7b8dd5	0.98263294
248	0x3f70de1d	0.9408892
249	0x3f800bb7	1.0003575
250	0x3f81ee4c	1.0150847
251	0x3f80c420	1.0059853
252	0x3f781845	0.9691203
253	0x3f80fd9c	1.0077395
254	0x3f87b769	1.0602847
255	0x3f68797b	0.90810364
