app/src/main/assets/model.tflite (tflite, 612552 bytes, 16 tensors)

arith.constant6 f4 [90, 128]
000000 7f 2b 17 be 94 43 78 be fc ee 4c be 54 7d 49 be
       -0.14762686 -0.24244529 -0.2001304 -0.19676715
000010 9d 1e 17 be f0 d6 44 3e 96 e9 7e be 76 9a d9 bd
       -0.14757772 0.19222617 -0.24893793 -0.10625164
000020 7c a9 fc 3d 0b 3d 75 be 62 77 d2 3d 4c 49 4e be
       0.12337014 -0.23949067 0.10276677 -0.20145148
000030 b1 71 9a 3d fd 9b d0 3d a1 e3 da 3d 77 fd 80 be
       0.07541216 0.101860024 0.10687948 -0.25193378
000040 c9 bd 3f 3e c4 42 09 be 57 27 e8 3d 52 d3 93 be
       0.18724741 -0.13404375 0.113356285 -0.28872162
000050 69 0c 81 be 4b 20 8c 3d 36 ae c0 3d dc f3 de 3d
       -0.2520478 0.06842097 0.09408228 0.10886356
000060 c6 9e da be 65 d7 17 3e cb d9 96 3d 34 2b c0 bd
       -0.4269926 0.1482826 0.073657595 -0.0938324
000070 73 c4 00 3e 37 c7 e2 be b6 c4 c2 3d a4 3b 08 3e
       0.1257494 -0.44292614 0.09510176 0.13304001
000080 f4 8b 69 3d 0a 37 42 bd f6 e7 91 be d9 88 fa bd
       0.057018235 -0.04741577 -0.28497285 -0.12233133
000090 49 fe a6 bd 3e 84 8a be 93 49 16 3e e6 ec 31 3e
       -0.0815397 -0.27054018 0.14676504 0.17375526
0000a0 0d 42 7f 3d a3 b9 13 bd e6 5d 9e be 4e 1e a6 be
       0.06231885 -0.03606571 -0.30931014 -0.32444996
0000b0 e6 ec d5 ba ae 79 1a be 82 d4 49 be 3a d8 85 be
       -0.0016321212 -0.1508548 -0.19709972 -0.2614153
0000c0 39 63 35 3e d0 e0 af bb 8f cf 11 bd d3 f2 f0 bc
       0.17713632 -0.005367376 -0.035598334 -0.029412663
0000d0 20 ab 2e 3e b5 ac 82 3d 06 47 a4 be 4a 09 ab ba
       0.17057467 0.063805975 -0.32085437 -0.0013049033
0000e0 34 d0 ba be fa 58 13 bd 5d f6 3c be 55 1c a9 be
       -0.3648697 -0.035973527 -0.18453355 -0.33029428
0000f0 f7 82 a0 be 0f 2e 19 be 7d 0c 75 be c0 c9 72 be
       -0.31349918 -0.14958976 -0.23930545 -0.23709774
000100 24 31 86 3d e9 c4 0a 3d cb 36 2a be df 7f d0 be
       0.065523416 0.033879194 -0.16622464 -0.40722558
000110 c9 37 37 be e2 3b ab 3d c0 c4 c6 3d 70 55 0e 3c
       -0.17892374 0.08361031 0.09705496 0.008687362
000120 26 bd d6 3d f4 4b b6 3d a6 62 e8 be 21 8a c1 be
       0.10485296 0.08901206 -0.45387763 -0.37800696
000130 31 e4 16 be 13 e4 14 3e e4 64 b1 be 8d f3 bd be
       -0.14735486 0.14540128 -0.34647286 -0.37099877
000140 03 ef 38 3d c4 85 73 be 2c 55 b8 3c ed f6 72 3e
       0.045149814 -0.23781496 0.02250155 0.23727007
000150 a6 0a 25 bf 66 d0 89 bd a5 35 a0 bd f4 79 1b bf
       -0.64469373 -0.06729202 -0.07822732 -0.6073296
000160 7d c2 fd 3d 62 3c ec 3d f1 ab bf be ee 22 a4 bd
       0.12390611 0.115349546 -0.37435868 -0.08014475
000170 ac 56 4c bd b3 2b bf 3d 81 e5 5d be 34 05 16 3e
       -0.049887344 0.09334507 -0.2166958 0.14650422
000180 1c cf 05 3e ff 93 55 be 3f f3 0b be 5a 77 10 3e
       0.13067287 -0.20857237 -0.1366701 0.14108029
000190 ac a3 ee bd 69 b4 5d 3e 81 60 c0 3d b0 3c e0 be
       -0.11652312 0.21650852 0.09393407 -0.437963
0001a0 99 0a 67 be f2 cf 31 be 14 9d aa be ff 29 fb bc
       -0.22562636 -0.17364481 -0.33322966 -0.030659674
0001b0 ef 21 95 3e 81 19 ef bd 15 5e 29 be 5c e3 42 be
       0.29127452 -0.11674786 -0.16539796 -0.19032043
0001c0 b7 ee 44 3d ce d8 11 be 4e ac a0 bd d4 4b b7 be
       0.04807922 -0.1424286 -0.078453645 -0.3580004
0001d0 22 98 4e 3d 6a ee 2d be 0e 9c 39 3d 25 0c 28 bc
       0.050438054 -0.16985479 0.04531484 -0.010256802
0001e0 6f c3 a7 bd b6 34 16 3e 07 15 cc 3d f0 f8 00 3e
       -0.08191573 0.14668545 0.09964948 0.12594962
0001f0 c1 a1 88 be 44 60 24 3e 58 55 dc 3d 3d 9a 9e bd
       -0.26685908 0.16052347 0.107584655 -0.07744262
000200 55 50 43 bc 85 e9 5d be 28 a0 8c 3d ab e8 d1 3d
       -0.011921008 -0.21671112 0.06866485 0.10249456
000210 98 e6 02 3e bd 00 8f be fe 91 a4 be bb 85 85 be
       0.12783277 -0.2793025 -0.32142633 -0.2607859
000220 7b 9f 83 3c 05 82 9c be 87 0a c3 ba 8c 16 e8 3d
       0.016067257 -0.30567947 -0.0014880457 0.113324255
000230 7d b7 08 3e a0 0b 65 bd bf 10 0b be 67 1f 8d be
       0.13351245 -0.05591929 -0.13580607 -0.2756302
000240 53 33 fd be 89 40 06 bf 47 c2 4d be 50 51 32 bd
       -0.4945322 -0.5244222 -0.20093642 -0.043534577
000250 e9 c0 40 3e f8 df 0d 3d 94 05 ae 3d 32 3e c6 be
       0.1882359 0.03463742 0.08497158 -0.38719326
000260 ab 55 85 be f4 85 19 bf e6 5f a9 3c 71 1c 49 3c
       -0.26041922 -0.5997002 0.02067561 0.012274847
000270 45 88 12 be e4 a1 d6 bd b2 20 0c bf 7e a6 96 3d
       -0.14309795 -0.10480097 -0.5473739 0.073559746
000280 02 2a 08 3e 9c d6 d1 3c 3d ff 6d bd 32 df 11 bf
       0.13297275 0.025615029 -0.058104742 -0.56981194
000290 ee 92 03 3d 6c 81 15 be 79 5f af bd f4 86 bf be
       0.032122545 -0.14600152 -0.08563132 -0.3740765
0002a0 93 c3 37 bd ec a7 9e be bb a3 5d 3d 25 08 02 3e
       -0.04486425 -0.3098749 0.054111224 0.1269842
0002b0 1d 35 43 3e 92 eb 82 3e 42 51 94 3d 5c fc 10 3d
       0.1906323 0.2557035 0.07242061 0.03539692
0002c0 e5 e7 55 be 14 8b c1 bd b6 d4 42 be c2 c4 92 be
       -0.20889242 -0.09450355 -0.19026455 -0.2866574
0002d0 01 ef 50 be b7 60 de be 3b 8f e4 3c fe 38 82 bd
       -0.20403673 -0.43433163 0.027900329 -0.06358527
0002e0 29 90 00 3e 44 12 b0 3d 2e 80 cf bd ea ae c0 bc
       0.12554993 0.08597234 -0.1013187 -0.023520906
0002f0 98 81 e6 3d 5f d3 f4 be f1 df 03 bd 56 b1 9a 3d
       0.11255187 -0.47817513 -0.03219599 0.075533554
000300 9c 55 14 3e 82 01 19 3e fe 7a 22 be d2 44 0b 3e
       0.14485782 0.14941981 -0.1586723 0.13600472
000310 15 8a db 3d 3c 77 e3 3d ec 67 21 bf aa c4 e8 be
       0.107196964 0.111067265 -0.630492 -0.45462543
000320 64 74 77 3d bd 24 f4 bc ea 95 2c bc c6 66 2a 3e
       0.060413733 -0.029802674 -0.010533789 0.16640767
000330 b2 42 b4 be 0d f2 95 3c a0 66 a5 bd 7f ea 5b 3d
       -0.35207134 0.018303895 -0.08076215 0.05369043
000340 c9 58 e1 bd 11 24 cb bd dd 3f a6 3d af d3 95 3d
       -0.110032625 -0.099189885 0.0811765 0.07315766
000350 2f 1e 90 3d 9a bb 39 bd c0 d8 54 3e c9 71 fd 3d
       0.07037007 -0.045344926 0.20785809 0.123752184
000360 ef 8d 69 be be 79 0a be 75 0e 4e 3d 99 a5 86 bd
       -0.2280805 -0.13523003 0.050306756 -0.06574554
000370 2f f6 87 be 63 ab 29 be 3e 13 e8 3d de 0c 84 be
       -0.2655501 -0.16569285 0.11331795 -0.25791067
000380 dd 44 3e 3c a6 cd bd bc 85 84 18 3e 1d 15 17 3e
       0.011613098 -0.02316935 0.14894302 0.14754148
000390 c2 6a 07 be ed fc 9d be e8 5a f4 be bf 0c 99 3d
       -0.13224319 -0.3085703 -0.47725606 0.07473134
0003a0 e9 1f e9 bd d3 38 a2 bc 94 73 11 3e 58 e9 91 bd
       -0.113830395 -0.019802487 0.14204246 -0.07124585
0003b0 19 82 05 be a8 8c 4e bb 9e 83 32 be fe 59 39 be
       -0.1303791 -0.0031516943 -0.1743302 -0.18100736
0003c0 33 6e 06 bf bf f4 c6 bd 4e 7d f5 be a2 dd 91 bc
       -0.525119 -0.0971465 -0.47947162 -0.017805878
0003d0 8c d6 a9 3d 87 56 1d be d7 60 1b be a8 3f 04 3e
       0.08292875 -0.15365039 -0.1517366 0.12914908
0003e0 32 c1 31 bd 9b 99 b3 bd f1 69 05 be 8f 8b 5d be
       -0.043397136 -0.08769532 -0.13028695 -0.21635269
0003f0 e6 f0 47 3d 98 fd c4 bd 01 37 4c be 85 50 ec 3c
       0.048813723 -0.09618682 -0.19942857 0.028846988

arith.constant7 f4 [128, 64]
000000 8e d8 c7 3d 05 14 72 bd ed cc 90 3d 11 2d 75 3e
       0.097581014 -0.059101123 0.070703365 0.23942973
000010 8b 5d ba 3d 57 09 61 3d 6e de 5d 3e c6 a6 5c 3e
       0.09099873 0.054940548 0.21666881 0.21547994
000020 51 3a ed be 04 47 b9 3c 1e 2c 2f 3d b7 17 e0 3d
       -0.46333554 0.02261687 0.042766683 0.10942023
000030 11 1b 02 be 9b 90 9a bd 92 73 5f bd 88 2a cb 3c
       -0.12705638 -0.075471126 -0.054553576 0.024800554
000040 b5 9a 9f 3d 97 3a 11 bd 33 d7 5a bd 5d 10 f5 bd
       0.0779318 -0.035456266 -0.053427886 -0.11966012
000050 21 59 1a be 3b 92 53 be 3b c8 fa 3d 7f 32 52 3d
       -0.15073062 -0.20661251 0.12245222 0.051317688
000060 03 17 8b be 87 9c 42 3e e7 ea 10 be 21 d4 59 3d
       -0.27165994 0.19005023 -0.14152108 0.053180818
000070 a5 01 af 3e 8e 26 25 be 37 c5 03 3e 38 ff 76 bd
       0.34180942 -0.16127989 0.128682 -0.06030199
000080 75 bf 02 3d 1c 7e 5a bd fd 0b 6a be 61 b4 bb be
       0.03192087 -0.053342924 -0.22856136 -0.36661056
000090 6d e3 6c be b5 ed 2b bd d8 f1 6c 3e c0 a3 a0 3c
       -0.23133631 -0.041974742 0.23139131 0.019609332
0000a0 1e 81 18 be 98 67 22 be a4 a4 27 be 26 a1 08 3e
       -0.14893004 -0.1585983 -0.16371399 0.13342723
0000b0 c3 ac 7d 3e 10 f9 11 bd 80 e9 46 be 5f 67 85 3e
       0.24772935 -0.035637915 -0.1942501 0.26055428
0000c0 ee e6 b3 3e 3a c0 28 be 38 6c 40 be 7e a6 e6 3d
       0.35137123 -0.16479579 -0.18791282 0.112622246
0000d0 36 24 b7 be 21 92 38 be 2a 6a 83 3e 96 80 a6 bd
       -0.35769814 -0.18024494 0.25666934 -0.081299946
0000e0 30 3c c3 3c c2 4c 1f be 53 b5 43 be 60 2f 45 3e
       0.02383241 -0.15556625 -0.19112138 0.19256353
0000f0 ea f4 34 3e a9 c1 fd 3d 80 3e 01 bd c1 21 03 3e
       0.17671552 0.12390453 -0.031553745 0.12805845
000100 f4 fe 7c 3e 9c de ac 3d c8 73 f2 3d a4 93 1e 3e
       0.24706632 0.08440897 0.1183849 0.15486008
000110 ce 40 e8 bd 82 45 6c 3e 58 1c 55 3e 6e ab d1 be
       -0.113404855 0.2307339 0.20811594 -0.40951103
000120 de ee 99 bd b2 a5 2f 3e b9 af a7 3d 2f ec 1f 3e
       -0.075162634 0.17153051 0.08187813 0.1561744
000130 a7 62 84 bd 25 c1 84 be 8e 21 a0 be 43 f0 12 bf
       -0.06464129 -0.25928608 -0.312756 -0.5739786
000140 7c 0c c1 be 55 28 0a 3e 4f 0d 5f be 29 82 4d 3e
       -0.37704837 0.13491948 -0.2178242 0.20069183
000150 fc 53 6f 3e 19 98 72 3c 90 6f 9d 3d 37 f5 79 3d
       0.23371881 0.014806771 0.076872945 0.06102487
000160 04 c3 85 be e9 a0 25 3c 14 55 9b be 39 a8 a1 bd
       -0.26125348 0.010109165 -0.30338347 -0.07893414
000170 c0 1e ad bd 4e a1 47 be 57 65 70 3e 24 11 a6 bd
       -0.08453131 -0.19495127 0.23476158 -0.08108738
000180 79 8e b3 bc d6 69 48 3e fa 14 37 3e 16 af 0c be
       -0.021918522 0.19571623 0.17879096 -0.13738665
000190 56 d2 8b be 42 18 10 be 26 87 26 3e 40 ef 07 3e
       -0.2730891 -0.14071754 0.16262493 0.1327486
0001a0 0b 8f 54 be c5 84 1c 3e 7a d4 d2 bd d3 b8 95 bd
       -0.20757692 0.15285023 -0.10294433 -0.07310643
0001b0 16 a7 76 3e a9 5b 78 3c a4 b8 a2 3d d4 a3 a0 3e
       0.24087176 0.015158572 0.07945374 0.3137499
0001c0 b4 dc c7 be 8e e6 b1 3d 96 03 ac 3d e9 b9 4f be
       -0.3903557 0.08686553 0.083991215 -0.20285763
0001d0 af 26 90 be cd 1f 5b bd 02 1e 2b 3e 56 95 b3 bd
       -0.28154513 -0.053497124 0.16710666 -0.08768718
0001e0 96 f7 e3 3d a7 32 66 3d 3b 6a a6 bc 30 bf 40 be
       0.11131208 0.05620065 -0.020314327 -0.18822932
0001f0 4a 77 19 bc 8f bd 8d 3e 79 f6 82 be ce 17 89 3e
       -0.00936682 0.27683684 -0.2557867 0.26775974
000200 a2 e1 86 be 7a 40 98 bd 7d fb 36 3e 62 8b 82 be
       -0.2634402 -0.07434173 0.17869373 -0.25496966
000210 a0 d2 ce 3c 44 7c db bb 18 e9 ce bd 31 60 86 be
       0.025246918 -0.006698163 -0.10103053 -0.26245263
000220 68 96 03 3f a9 47 cd bd bb 3c a7 bd 09 12 85 be
       0.51401377 -0.10023434 -0.0816588 -0.25990322
000230 66 50 0d bd 24 03 fb 3e df 12 39 3e 5b 1a 44 bc
       -0.034500502 0.49025834 0.18073605 -0.011969174
000240 98 c8 2e be 72 12 d6 bc 8a 97 10 be 80 0a a1 bb
       -0.17068708 -0.026131842 -0.14120308 -0.004914582
000250 95 ad 19 3e 12 f9 49 be 51 85 8b 3d 16 6b fb bb
       0.15007623 -0.19723919 0.068125375 -0.0076726777
000260 5c bf 03 3e 79 aa 93 3c b7 01 38 be 89 29 48 be
       0.12865967 0.018025624 -0.17969404 -0.19547094
000270 98 b6 03 be 5e e0 10 bd 7a 55 66 be 80 8b a1 3d
       -0.12862623 -0.035370223 -0.22493544 0.07887936
000280 7c 5b 5b be 78 80 d5 bd 23 7d 31 3e ae 34 24 3d
       -0.21421617 -0.10424894 0.17332892 0.0400893
000290 f5 04 e5 3d 8c 36 b1 bd 19 df af 3d a0 58 aa 3a
       0.11182586 -0.08652982 0.085874744 0.0012996383
0002a0 d8 01 4f be ea c4 10 3e 4a 0e e1 bd dc 6c 87 bd
       -0.20215547 0.14137617 -0.109890535 -0.0661256
0002b0 49 24 9f be b1 ec 3f 3c f6 48 ed 3d 92 ea 93 be
       -0.3108237 0.0117141465 0.11586182 -0.288899
0002c0 24 34 5f 3d ad 05 08 bd 3f b1 02 be fc 9c 84 be
       0.054493085 -0.033208538 -0.12762927 -0.2590102
0002d0 34 ad 6b 3e ad 48 e0 3e 43 7f a8 3e ce d8 00 3e
       0.2301529 0.43805447 0.32909593 0.12582704
0002e0 43 a2 07 be 33 4d 3d 3e 50 d8 07 3d 87 09 47 be
       -0.13245492 0.1848648 0.033165276 -0.19437228
0002f0 69 85 28 3d 5c 8f 3e be 68 30 67 be 0a e7 d4 bd
       0.041142855 -0.18609375 -0.2257706 -0.1039563
000300 21 04 98 3d ac 1b 11 3d 90 50 4a be 3e 36 16 be
       0.074226625 0.03542678 -0.19757295 -0.14669129
000310 27 e8 17 3e f9 5b 05 3e 6d f1 58 3e e2 c0 ce 3d
       0.14834653 0.13023366 0.21185847 0.10095383
000320 08 4f 7f be b1 9c 2f be bb f7 fa bd c2 6e 7d be
       -0.24932492 -0.17149617 -0.12254282 -0.24749282
000330 7f 94 db bd a1 ec e2 3a d3 72 1c be e0 96 86 bd
       -0.10721683 0.0017312953 -0.15278177 -0.06571746
000340 34 b8 02 3d f7 c5 2d 3d de 8a a5 bc df 10 28 3d
       0.03191395 0.042425122 -0.020207819 0.041031715
000350 50 17 7d bd 3e 57 ad be 9c 37 4a 3d 5b 80 00 3f
       -0.06178981 -0.33855623 0.04936944 0.50195855
000360 1e 50 1a be 8f 99 8d 3e ff d5 58 3e 20 77 cf be
       -0.15069625 0.27656218 0.21175383 -0.40520573
000370 7d 29 03 bd 3a 67 f6 bc ed d5 2c 3e ba c3 b4 be
       -0.03202199 -0.03007852 0.16878481 -0.35305578
000380 a7 cf 96 be ce f0 20 3f 62 7f c3 bd fa 19 7a be
       -0.294553 0.6286744 -0.09545781 -0.24423972
000390 2f 4e 6b bd 74 7a 89 bd 41 9f 01 3e 0b 80 a6 bc
       -0.05744761 -0.06712809 0.12658407 -0.020324728
0003a0 5f 6e d5 3e 80 67 11 3e e8 37 c6 3d 5e 59 16 be
       0.4168577 0.14199638 0.09678632 -0.14682528
0003b0 4b 4a 9c 3d 5a 8a b0 bd b5 76 43 bc 67 f3 2b 3d
       0.07631358 -0.086201385 -0.011930157 0.041980173
0003c0 17 61 dc bd c0 74 93 bd 31 3c ba bd a9 ed 9c 3e
       -0.10760706 -0.07200003 -0.09093512 0.3065007
0003d0 fc 41 22 3c a3 18 50 bd cc 23 81 bd 63 5f 50 be
       0.009903427 -0.050804745 -0.06305656 -0.20348887
0003e0 91 a7 1b bc dc d5 cb 3d 8b 5b 95 bd 85 46 7c 3d
       -0.0095004 0.099529 -0.07292851 0.06159069
0003f0 da b1 8b 3e d1 e1 bd bd 8e ba 1b be 07 94 0e 3f
       0.27284127 -0.09271587 -0.15207884 0.5569462

arith.constant8 f4 [256, 128]
000000 9c 0f 1c 3c b6 3c 37 3e 15 d8 bb bd bc bc 24 3e
       0.009525206 0.17894253 -0.09172074 0.16087621
000010 9e ac ab 3e 72 e5 1d 3e ba 25 30 3e cc 69 e6 bd
       0.33530134 0.15419558 0.17201892 -0.11250648
000020 ce ec 22 be d0 f1 0c 3e 7e b9 5c bd b8 70 b2 bd
       -0.15910646 0.13764119 -0.053887837 -0.08712906
000030 4f d1 73 bd f5 5d 82 be 0a bb 12 be 05 ad 9f be
       -0.059525784 -0.2546231 -0.14329162 -0.3118669
000040 57 33 3e 3e 49 2c 2c 3d 20 8c 10 3e bb dc 36 3c
       0.18574272 0.04203442 0.14115953 0.011161025
000050 67 be da 3c f4 ee 34 3d 65 63 0a 3e d5 87 70 be
       0.026702119 0.044173196 0.13514479 -0.23489316
000060 13 2a bd bd 42 ff e0 3d 69 48 1d bd ef 74 a6 3d
       -0.09236541 0.109861866 -0.038399134 0.08127772
000070 e3 73 d6 bd 93 86 b2 bc b9 86 7d 3c 06 b5 8f 3d
       -0.104713224 -0.021792686 0.015474015 0.07016949
000080 a4 c2 4f 3e e8 35 11 bd 8a 3d 66 be f6 d8 b7 3c
       0.20289093 -0.0354518 -0.22484413 0.022442322
000090 0f 37 25 be 6f b8 e8 bd 49 60 b3 bc e0 d2 c3 bd
       -0.16134284 -0.11363303 -0.021896498 -0.095617056
0000a0 57 80 5b 3d d9 e8 4c 3e 94 36 32 3d fb 5c af 3d
       0.05358919 0.200107 0.04350908 0.085626565
0000b0 e7 e6 c3 bd 4d 77 b8 be ea 45 32 bd 36 92 72 bd
       -0.095655255 -0.3602852 -0.043523706 -0.05922147
0000c0 5a 04 33 be b9 2f 01 bd a7 d6 92 bb b9 b2 e5 3c
       -0.17482129 -0.031539652 -0.004481155 0.028039323
0000d0 24 ff 87 3d b4 af b5 3d ae 0c 47 3e b0 01 a3 be
       0.06640461 0.08871403 0.1943843 -0.31837225
0000e0 b5 7e 13 3e 46 8c a7 bd 51 5e ab 3a 4a e1 fd 3b
       0.14403804 -0.08181052 0.0013074373 0.007747804
0000f0 ca b9 4f 3e 43 45 d6 bc 7e 38 62 bd ed f2 23 be
       0.20285717 -0.026156073 -0.055229656 -0.16010638
000100 b0 80 0d 3d cb 46 21 be 62 cc 8b 3d 00 6d e0 3d
       0.034546554 -0.15749662 0.06826092 0.1095829
000110 3c fe 90 3e b7 94 37 bd 5a 2c b2 bd f2 48 36 be
       0.28318965 -0.04481956 -0.08699866 -0.17801264
000120 f7 c6 86 3e 76 01 0d 3e a2 ae be 3c ea 13 6c 3c
       0.26323673 0.13770089 0.02327663 0.014409045
000130 62 3b 02 3d c4 03 cb bd 9a 13 9b bc ee 58 0e bd
       0.031794913 -0.099128276 -0.018930245 -0.03475278
000140 7e 72 3c 3d 39 aa 3e 3e eb c7 11 be c8 b2 c7 3d
       0.046007626 0.18619622 -0.14236419 0.09750897
000150 d5 df c2 3c 82 67 5e 3e 42 2e b2 3d d7 54 d2 bc
       0.023788372 0.21719173 0.08700229 -0.02567522
000160 e9 8e 48 3e b8 20 91 3d 12 8d fb bd 91 05 33 be
       0.19585766 0.07086319 -0.122827664 -0.17482592
000170 43 2d 86 3d 81 85 88 3d e7 cb b5 bc f9 25 0f bd
       0.06551602 0.06666089 -0.022191955 -0.034948323
000180 91 b3 07 be 12 cc 81 3d 3e f2 cc 3d 6a f2 02 be
       -0.13252093 0.063377514 0.100071415 -0.12787786
000190 78 9c e9 bc 7e fc 2e bd 0f 13 b0 3d 19 fd 24 bd
       -0.028516993 -0.042721264 0.08597385 -0.040280435
0001a0 1c 0d 8d bd 32 5a dd 3d 87 a3 3c bd 03 a0 49 3c
       -0.06887266 0.10808219 -0.04605439 0.012306216
0001b0 1e 59 a5 3d 8c 18 26 bd 1b 28 96 bd 2e 33 bb 3d
       0.080736384 -0.040550753 -0.07331868 0.09140621
0001c0 01 d7 c6 3d 30 ac 22 3c 49 84 e2 3c ff 8c 7b bd
       0.097089775 0.009928748 0.02765097 -0.06141376
0001d0 99 98 2c bd 28 9d 26 be d7 4e 47 bd 8b 1b c4 bd
       -0.042137716 -0.16270888 -0.048659172 -0.09575566
0001e0 e1 52 99 3e 15 fc 5c 3e c8 cd e3 3d 2f 51 04 be
       0.29946044 0.21580537 0.11123234 -0.12921594
0001f0 25 96 6d bc 29 2a e4 bc fa 25 f7 bd ca 78 43 3d
       -0.014501129 -0.027852135 -0.1206779 0.047722615
000200 85 aa ef bd 92 c3 a0 3d d5 01 92 bd e3 f7 59 bc
       -0.11702446 0.07849802 -0.07129256 -0.01330373
000210 67 db 83 bd 32 2a f4 be 62 c9 dd bd 8b 1b db bc
       -0.06438332 -0.47688442 -0.10829426 -0.026746532
000220 19 a4 95 bd cc ac 55 be 5c 0b 04 bd 00 2e d0 bd
       -0.0730669 -0.20866698 -0.032237396 -0.10165024
000230 5c 69 98 bd 90 07 c9 3d cb 8e 4f bd 99 63 c2 3c
       -0.07441971 0.098158956 -0.050673287 0.023729132
000240 cb 04 a2 3b ec 71 50 3e c3 a6 1d bd 86 d3 90 bd
       0.004944419 0.20355958 -0.038489114 -0.07071595
000250 ff ea 90 3d ad cb ef 3d 53 a0 e0 3d a4 5e 58 be
       0.07076072 0.1170877 0.109680794 -0.21129853
000260 0e 84 c7 bd 2b 21 21 3d 4e 6b d9 3b 74 b2 b7 be
       -0.09741984 0.039338272 0.006635106 -0.35878336
000270 7f 90 b7 bd e9 50 00 3e 3c 43 78 bd 48 1b 9a bc
       -0.08963107 0.12530865 -0.060610995 -0.018811837
000280 20 f3 27 3d cc e6 87 3e 9b 9d bc 3d 49 05 64 bd
       0.041003346 0.26543272 0.09209748 -0.055669103
000290 d4 f0 5b bd cf 69 01 3e e1 31 b1 3e ee 1b 15 3e
       -0.05369647 0.12638019 0.34608367 0.14561436
0002a0 f4 4c 89 3e a6 ab 18 3d 94 07 4d 3e c3 4d 1c 3d
       0.26816523 0.03727307 0.20022422 0.038160097
0002b0 31 32 44 bc e8 5f e4 3d 0c 99 e4 3d 57 d8 9c be
       -0.011974857 0.11151105 0.11162004 -0.30633804
0002c0 79 4b ce 3c cc 1f eb 3d 8b c1 bd 3d 93 50 e4 bc
       0.025182473 0.11480674 0.09265431 -0.027870452
0002d0 02 fb 12 bd 07 bd 39 be 0f 0e ef ba be 45 ba 3c
       -0.03588391 -0.18138514 -0.0018238443 0.022738334
0002e0 27 c8 52 bc 27 e8 4a bd 6c 33 1a 3e 8b d0 dd 3c
       -0.012865103 -0.049537804 0.15058678 0.02707698
0002f0 c4 da b7 bc 9a 0a 1a be 87 5a d4 3d f6 c6 e5 3b
       -0.022443183 -0.15043107 0.10368829 0.0070122434
000300 8b 2f d9 3d 99 f3 3b be e7 be 8f bd 85 cb 86 bc
       0.10604771 -0.18354644 -0.070188336 -0.016454468
000310 9e b1 c9 3d c9 3e 5b 3c 0e 1a ab bd e7 b3 0e 3d
       0.09848331 0.013381668 -0.08354579 0.034839537
000320 db 8e 21 3e 9e 60 78 be 87 98 11 3e 7d de 10 3e
       0.15777151 -0.24255607 0.14218341 0.14147373
000330 36 ba 16 bc 0b 30 d1 bb e0 70 d8 bc 41 3f 94 bd
       -0.00919967 -0.006383901 -0.02642101 -0.07238627
000340 f0 b2 ad 3c 49 b2 9f bd da 52 cb 3d 14 9e 25 bd
       0.021203488 -0.07797677 0.09927912 -0.04043396
000350 32 78 8c 3d 71 4e 23 3e 10 37 9a bd e1 4d f9 bd
       0.06858863 0.15947892 -0.075300336 -0.12173057
000360 1b 3c 02 bc 7d d5 81 bd b6 c9 d7 bd 3f e9 ec 3b
       -0.007948901 -0.06339548 -0.1053652 0.0072299535
000370 90 39 37 3e 8d d9 56 3c 59 55 52 3e 35 fb 16 bd
       0.17893052 0.013113392 0.2054037 -0.036860663
000380 a2 dd 6f 3e 2d fc 0f 3e 94 98 bf 3c 34 67 0c 3d
       0.2342439 0.14061041 0.023388185 0.03427811
000390 b9 a8 1f 3b 3c c6 95 bd 1c c7 cf 3c b9 00 d3 bd
       0.002436204 -0.07313201 0.025363497 -0.10302872
0003a0 76 57 24 be 76 e0 d3 3d 13 d2 54 3c 2c de 6e 3d
       -0.16048989 0.10345547 0.012989539 0.05831735
0003b0 e4 40 47 3d 3e 3f 52 3e e2 14 df bd d9 cb 97 3d
       0.04864587 0.20531937 -0.10892655 0.07411928
0003c0 55 e3 7e 3e 40 b4 c1 bd 7c c7 5d 3e 01 58 0b 3e
       0.24891408 -0.09458208 0.21658128 0.1360779
0003d0 2e eb c2 3d 67 92 25 3e 16 7d 13 be 26 b2 5e bc
       0.09517513 0.1616913 -0.14403185 -0.013592279
0003e0 7b 60 4d 3e fd b9 b3 bd 63 79 1b 3e 3b 68 33 3d
       0.20056336 -0.08775709 0.15183024 0.043800574
0003f0 72 49 5a 3d 55 f0 7d 3e 5e ee 26 be 34 a6 8b 3d
       0.0532927 0.2479871 -0.16301867 0.0681881

arith.constant9 f4 [256, 64]
000000 d5 0e 84 be a9 4f dd bc c7 8f d8 bd 99 ab c8 3d
       -0.25792566 -0.027015524 -0.10574298 0.09798355
000010 60 20 ee bc eb 48 58 3e e0 50 82 be 8f 4e 5d be
       -0.029068172 0.21121566 -0.25452328 -0.21611999
000020 31 13 3d 3e e7 27 bd 3d c5 5f bd 3d fb 5c b3 3d
       0.18464352 0.092361264 0.09246782 0.08757969
000030 b0 90 69 3e 52 d6 3b 3c 8e 68 0b be b1 cf 64 3d
       0.228091 0.011464672 -0.13614103 0.055862132
000040 ec 78 68 be e2 ac ca 3c f0 83 f9 3d e2 d2 cd 3e
       -0.22702378 0.02474064 0.12183368 0.40199953
000050 43 0f d8 3d 53 15 fb bd 00 7e 3f 3e 36 70 85 bd
       0.10549786 -0.12259927 0.18700409 -0.06515543
000060 e5 29 27 bd 6e 82 cc 3d a0 22 9f bd fa 92 23 bd
       -0.040811438 0.09985815 -0.07770276 -0.03993509
000070 f9 ce 01 ba b7 87 30 be db e9 88 bd da 7c a5 3e
       -0.0004951801 -0.17239271 -0.066852294 0.32321817
000080 83 de 4f 3e 79 ee 0f 3e 02 a1 99 3c 7a 4b 3a 3d
       0.20299725 0.14055814 0.018753532 0.045482136
000090 cd ab 9f 3d eb e1 f4 3d 75 26 cc bd 78 4b 2d 3e
       0.0779644 0.11957153 -0.099682726 0.1692332
0000a0 2f 51 00 be 2d 1c 80 3d b8 79 0c be 08 c1 bd bc
       -0.12530969 0.06255374 -0.13718307 -0.023163334
0000b0 82 75 c6 bd 0b 93 2d 3e a8 2b 24 bd 2b aa 2e 3e
       -0.096903816 0.16950624 -0.040080696 0.17057101
0000c0 b0 1f f7 bd ef 5a 8e bc 47 5e 6e 3e f7 73 49 bd
       -0.12066591 -0.017377345 0.23278151 -0.04918286
0000d0 7b e2 26 3e b4 3e 44 3e db f8 20 bd 08 66 f3 3d
       0.16297333 0.19164544 -0.039299827 0.11884695
0000e0 2c 99 e8 3d b8 c9 a8 3c 9c 5c c5 3d 44 84 12 3d
       0.1135734 0.020604 0.096368045 0.03577067
0000f0 6b e9 26 bd 49 92 f8 bd 5e d1 a5 3e 86 a5 eb bd
       -0.04074995 -0.12137277 0.32386297 -0.115061805
000100 e8 b8 ab 3d 82 c5 88 be 4b f7 ae bd 12 97 70 3e
       0.083848774 -0.26713187 -0.08543261 0.23495129
000110 33 d8 d5 3d b3 15 d4 bc 86 6c c2 bd 19 07 22 3e
       0.10441627 -0.025889253 -0.094933555 0.1582302
000120 ea d0 a1 3d 99 d4 90 bc 41 90 f0 bb bd 72 1d 3d
       0.07901175 -0.0176795 -0.007341415 0.0384395
000130 1a 8c 09 3e 46 a4 14 3e 34 79 98 3d 19 48 34 3e
       0.13432351 0.1451579 0.07444993 0.17605628
000140 45 15 53 be b7 f1 98 3d f9 5b 58 bc 94 2a 86 3d
       -0.20613582 0.074679784 -0.013205522 0.0655109
000150 99 7a 5d bc 0d f8 25 be 3a 95 4e be 4e d4 8c 3e
       -0.013517999 -0.16207905 -0.20174113 0.27505726
000160 90 98 1d 3d b3 1f 26 be d5 a9 fb 3c 3b 0f c2 3d
       0.038475573 -0.1622303 0.03072063 0.09475561
000170 e6 15 2c bb 6d 4d 88 bd 1a ec 0e be 4a 1f 9d 3e
       -0.002625817 -0.06655393 -0.13957253 0.30687934
000180 4a fc 8d bc 00 95 30 3d 73 0f d9 3d 88 6f bd 3c
       -0.017332215 0.043110847 0.1059865 0.023124471
000190 67 65 af bd d6 69 c0 3c 20 bd 5d 3e 81 ef af 3c
       -0.08564263 0.023487967 0.21654177 0.021476509
0001a0 b9 dc 58 bd 67 be f5 3d cd 22 80 3c 34 74 c1 3a
       -0.052944873 0.11999207 0.015641594 0.0014759363
0001b0 65 9a 43 3c 2b bc 6f bd 3e 38 17 bd 50 9a b4 be
       0.011938666 -0.05852906 -0.03691887 -0.3527398
0001c0 80 e7 c6 bd 81 09 06 3c 73 7b 1b bc 83 7b 47 be
       -0.09712124 0.008180977 -0.009489882 -0.1948071
0001d0 6c 2e 09 be a3 3d 4e bd a3 6e 55 be ed 07 d1 3d
       -0.13396615 -0.05035175 -0.20842986 0.1020659
0001e0 c1 f8 4c bc 2a 7d 9f bd f4 12 38 3c 20 45 b7 3d
       -0.012510479 -0.07787545 0.0112349875 0.089487314
0001f0 93 63 69 be 24 35 e1 bd 16 a8 0f 3e d7 b5 12 bc
       -0.22791891 -0.10996464 0.14028963 -0.008954487
000200 c1 e9 37 be f8 92 80 b9 dc 4b 25 bd ae 56 78 3e
       -0.17960264 -0.00024523563 -0.04035555 0.24251816
000210 3e 06 47 3e e8 1d 1e 3e b4 06 95 bb 5b 6b f7 bc
       0.19435975 0.15441096 -0.004547918 -0.030202558
000220 fb 25 0d 3e f4 4a c0 bd 1b 8f 27 bd f4 7d 46 3c
       0.1378402 -0.09389296 -0.04090796 0.0121149905
000230 bb fa 1a be ef b6 94 3b c3 84 07 3e bf eb d0 bd
       -0.15134709 0.004538409 0.13234238 -0.10201215
000240 42 41 38 be 21 fd 97 3d 8c 91 b0 bd dd c8 a4 3d
       -0.17993644 0.074213274 -0.08621511 0.08046124
000250 ec bc 2b be 9b d1 8d bc 24 36 cb 3d 52 65 a9 3d
       -0.16771287 -0.017311862 0.09922436 0.082712784
000260 e4 5d ce 3b fa 45 bc 3c 6b 7d 2a be 76 95 ce 3d
       0.0062978137 0.022982586 -0.16649406 0.10087101
000270 cb cd 26 bd e0 85 f3 bd 86 10 a1 bc 8a d3 9a 3c
       -0.040723603 -0.11890769 -0.0196612 0.018899698
000280 93 a4 71 3c c4 67 a9 bd 25 1f 04 3c c5 c7 a5 bd
       0.01474871 -0.08271745 0.008064066 -0.08094744
000290 1c f5 d5 3d c4 18 af bd 22 b7 75 3d 08 f5 36 3d
       0.104471415 -0.085496455 0.059989102 0.044667274
0002a0 0f 48 0c bd 49 34 27 be 1f de 4d be ed aa 93 bd
       -0.034248408 -0.16328539 -0.20104264 -0.07210336
0002b0 c0 8f 5f bc a7 c9 51 3e a8 b1 d2 bd d7 81 1e be
       -0.0136451125 0.2048708 -0.102877915 -0.15479217
0002c0 63 65 51 3e 11 5e 99 bd e1 8e 03 3e 08 77 c9 bc
       0.20448832 -0.07488645 0.12847473 -0.024592891
0002d0 e9 0e 2e 3e a4 49 63 bd 22 7f ff 3d 2e 11 01 3d
       0.16997875 -0.05549015 0.124754205 0.031510524
0002e0 f6 9d 15 bd bc 22 97 3d 5c e3 0d 3e 18 e2 26 be
       -0.036527596 0.07379672 0.13856262 -0.16297185
0002f0 89 ea 90 3d 00 92 1b be 4f c3 df bd 3a 45 d4 bb
       0.07075984 -0.15192413 -0.10925924 -0.006477979
000300 4f fd 30 be 64 36 e9 bd 85 53 f5 bc fd 85 fe 3d
       -0.1728413 -0.11387327 -0.029947052 0.124279
000310 e3 33 2d 3c 74 1c bf bd 5d b5 ee bd 5b e2 18 3d
       0.010571453 -0.09331599 -0.11655686 0.037325244
000320 80 8b 49 bd 72 e0 6c be 33 bf d2 bd 28 72 45 be
       -0.049205303 -0.23132494 -0.102903746 -0.19281828
000330 4a ca d8 3d da 55 26 bd 51 04 a2 3d b2 e0 24 3e
       0.105854586 -0.04060922 0.079109795 0.1610134
000340 b5 a7 aa 3e 9a be 05 3d ae 72 25 3e 35 00 04 3e
       0.33331075 0.032652475 0.16157028 0.12890704
000350 87 17 13 be 49 5a af 3d 17 19 44 3e 38 fd b2 3d
       -0.14364444 0.085621424 0.19150196 0.08739704
000360 b5 97 30 3d 8e 4f f3 3c a7 dd 57 3d d8 43 4c 3d
       0.04311343 0.02970102 0.05270162 0.04986939
000370 d1 84 8c bd eb 23 0d 3e 96 a8 38 be 0c af 0a 3e
       -0.0686127 0.13783233 -0.1803306 0.13543338
000380 62 20 02 be 68 0f 1d bd 4f 56 08 bc 7d 6e c3 3d
       -0.12707666 -0.03834477 -0.008321359 0.09542558
000390 90 95 05 ba 84 f1 0d bb 55 a3 95 be 64 d9 54 bd
       -0.0005095834 -0.0021658847 -0.29226175 -0.051965132
0003a0 d3 42 43 bd 77 88 15 be 1d c4 1a 3d fb 30 10 3e
       -0.04767115 -0.14602838 0.037784684 0.14081185
0003b0 27 d8 fe bd 85 d1 15 3e 6f 3a 8f 3c 49 50 98 3d
       -0.124435715 0.14630707 0.017483918 0.07437188
0003c0 3b d3 17 be 67 9e d5 3c 7d 69 f6 3c cc a1 eb 3d
       -0.14826672 0.026076509 0.030079598 0.1150547
0003d0 d1 29 86 bd 0e cf 13 3d d3 75 68 bd fd 00 9d bd
       -0.065509446 0.036086135 -0.05675299 -0.07666204
0003e0 f0 4f 3e bc cd b4 fe 3d c8 6b 92 be d0 53 59 3e
       -0.011615738 0.12436829 -0.28597856 0.21223378
0003f0 f3 c2 b9 bd 27 df 21 3e e0 ae 17 3e 4c 47 84 be
       -0.09070387 0.15807782 0.14812803 -0.25835645

arith.constant10 f4 [512, 20]
000000 d4 60 93 3d 54 4e 96 3d 43 5a ac bb db 9d 65 3d
       0.07196203 0.07339159 -0.0052597835 0.056058746
000010 51 cf 7e bd 91 8f 23 bd c0 b2 c3 3d ab 18 48 3c
       -0.06220943 -0.039931837 0.09555578 0.012212913
000020 c6 22 1e 3e 3f 31 16 bd b4 81 85 bd 5f 7d 30 bb
       0.15442953 -0.03666806 -0.065188795 -0.0026930196
000030 82 36 14 3d e3 44 46 3b 91 19 a3 bd 56 47 1f 3e
       0.036184795 0.0030253462 -0.07963861 0.15554556
000040 22 63 89 3d a7 1d ff 3d 5d fd 28 3e 7d 80 93 bb
       0.06708361 0.124568276 0.165029 -0.004501401
000050 8e 53 88 bd 95 40 b3 bd ae d0 b2 bd d9 fa 78 3d
       -0.06656562 -0.087525524 -0.08731209 0.060786102
000060 24 ac b2 3d 75 6e b5 ba d3 01 6e bd 4f 3e 9c bd
       0.087242395 -0.0013842123 -0.05810721 -0.07629072
000070 21 1e 46 bd fa 22 2e 3d 98 f1 76 3b 7b 0d ba 3d
       -0.048368577 0.042513825 0.0037680622 0.090846024
000080 9a 31 90 bd fd 03 13 3d f3 41 f4 3b 53 62 94 3d
       -0.07040711 0.035892475 0.007454151 0.07245316
000090 af 86 a6 3c f5 98 54 bb 9b bc 83 bc 2e 62 05 3d
       0.020327894 -0.0032439802 -0.016081145 0.032564335
0000a0 06 23 35 bd e8 3c e7 bc 9c 73 9e bd 6f 0f 16 3e
       -0.044222854 -0.028227285 -0.077368945 0.14654325
0000b0 cc 4e 52 bd 81 d1 6d bd cc d4 85 bd 0c 14 b7 3c
       -0.051344678 -0.058061127 -0.065347284 0.022348426
0000c0 7c 92 72 bd e3 97 6a be 00 18 f3 bd 6e 84 3b bc
       -0.05922173 -0.22909503 -0.11869812 -0.011445148
0000d0 94 cf c0 bd 71 f1 de 3d 94 22 bf 3a c0 61 23 3e
       -0.094145924 0.10885895 0.0014582449 0.15955257
0000e0 37 96 d5 bd ba 75 de 3d 6a 13 88 3d 1a be 86 bc
       -0.10429042 0.10862298 0.06644328 -0.01644807
0000f0 44 dc 90 bb a2 c1 31 3b 19 d3 8c 3d ba 6e 1d 3e
       -0.004420789 0.002712347 0.06876201 0.1537427
000100 2a 58 5d 3c 3f ba f8 3d 77 3e ff bd 8a 8f 79 be
       0.0135097895 0.121448986 -0.12463086 -0.24371162
000110 1f d5 db be 28 d6 60 be d0 82 92 bd a0 18 78 3e
       -0.42936036 -0.21956694 -0.07153857 0.24228144
000120 93 91 ae 3e e0 64 67 3e b8 f0 37 3e 14 a1 aa bd
       0.3409544 0.22597075 0.1796292 -0.083315045
000130 67 d0 45 bd 1f 22 01 3e a4 1b 75 3e 46 ca c0 bd
       -0.04829445 0.12610672 0.23936325 -0.094135806
000140 df d1 e5 3d 54 3a 2e 3d 61 47 a4 ba 45 e4 d7 3c
       0.1122167 0.042536095 -0.001253348 0.026353965
000150 31 01 ec 3b d3 5b b2 bb 09 5f 0d be 8b 65 c6 bd
       0.0072022905 -0.005443075 -0.13805784 -0.096873365
000160 5f d3 21 3e 1f 72 48 3e 75 17 26 3b a2 e8 a2 bd
       0.15803288 0.19574784 0.0025343571 -0.079545274
000170 fb 8f 28 bd 44 2c aa bc 3e 11 27 be 91 34 46 bc
       -0.041152935 -0.02077306 -0.16315171 -0.012097494
000180 0d 47 33 be a0 28 82 3c a8 d3 0b 3e 81 50 5c 3d
       -0.17507572 0.015888512 0.13654959 0.053787712
000190 a2 ff 19 be 16 7a fc bd 1d 3c 84 3d 4d 6a 32 3d
       -0.15038922 -0.123279735 0.06456778 0.043558408
0001a0 d8 16 49 bc 0e 2a a3 bd 07 a1 35 bd b3 5f 71 bd
       -0.012273513 -0.07967006 -0.04434302 -0.058929157
0001b0 43 27 91 bd 9b 22 77 3d 66 a0 c0 bd b7 54 8d bd
       -0.07087567 0.060335737 -0.094055936 -0.06900924
0001c0 aa 04 bf 3d 2e 29 d5 3a d2 e8 bf bc 52 2e cd 3d
       0.093270615 0.0016262883 -0.023426447 0.100186005
0001d0 48 51 b7 3c a9 b2 61 3d ce a2 93 bd cb e4 58 3d
       0.022377625 0.055102024 -0.07208787 0.05295257
0001e0 c4 0d 55 3d 00 28 dc bd 23 7b 4a be dc 9b d2 3c
       0.05201508 -0.10749817 -0.19773535 0.025709085
0001f0 2a d9 13 3e 08 6e 94 3c 98 5a 29 bc ef 28 ce bd
       0.1443831 0.018118873 -0.010336541 -0.10066401
000200 b1 a1 9d 3c e1 83 eb 3d e4 da db bc d2 48 d4 b9
       0.01924214 0.11499763 -0.026837774 -0.00040490046
000210 7d 50 4e 3e c9 19 22 3e 79 a0 80 3d 98 c2 88 bd
       0.20147891 0.15830149 0.06280608 -0.06677741
000220 c3 87 2f 3e 51 9f 11 bd 09 40 66 bd c9 96 5e 3c
       0.17141633 -0.035552327 -0.056213412 0.013585755
000230 a5 3b b9 3c 18 04 ad 3c d8 9e 8c bd e6 48 0d be
       0.022611449 0.021120116 -0.068662345 -0.1379734
000240 43 c9 a8 bd d3 38 72 bc e7 7d 84 bc 15 6f 9d 3c
       -0.082415126 -0.014784056 -0.016173316 0.019218007
000250 d5 f7 c3 3d eb 7f d9 3d 3a 58 11 3e 09 eb 8e 3d
       0.095687546 0.106201015 0.14193812 0.06978423
000260 ec 94 07 bc bb 03 20 3d d0 ba 1f be 43 62 63 bd
       -0.008275252 0.039066058 -0.15598607 -0.05551363
000270 51 07 c8 bd f0 ea a5 3c 47 17 f9 3d 49 12 7f 3e
       -0.097670205 0.020253628 0.12162643 0.24909319
000280 8d 10 5d bd 67 51 7a bd 14 6f 26 bd e1 1a 31 bd
       -0.053970862 -0.061112788 -0.040633276 -0.043238524
000290 31 44 90 3d 43 62 83 bd 9c 52 86 3d 18 55 cb bc
       0.070442565 -0.06415226 0.06558725 -0.02482085
0002a0 4f d6 ed bc 2a 51 c8 3d 3e 89 5c bd aa fe f6 bd
       -0.029032854 0.09781106 -0.05384182 -0.12060292
0002b0 0c d7 d1 bd e7 17 be 3c ef d1 0c be 98 cb d0 bc
       -0.10246095 0.023204757 -0.13751958 -0.025487706
0002c0 c5 37 98 3d c9 89 69 3d cd 47 b8 bd 76 5c bc 3b
       0.07432512 0.057016168 -0.0899807 0.005748327
0002d0 45 a7 06 3d d1 f8 78 bd 87 27 d7 3e a6 02 08 be
       0.032874364 -0.060784165 0.42022344 -0.1328226
0002e0 2e 25 c5 bd 27 ee 0b 3d 37 b4 c1 3d 9b 0e 81 bd
       -0.09626232 0.034162667 0.094582014 -0.06301614
0002f0 8a a6 cc bd cc 9a 23 be 9b ab cb bd ca a6 24 3d
       -0.09992702 -0.15977019 -0.099448405 0.040198125
000300 40 b2 59 be d9 41 33 3e e6 f2 52 bd 86 d7 8b bc
       -0.21259403 0.17505588 -0.051501177 -0.017070543
000310 16 81 5c 3d c5 52 01 3e ea dc 1d 3d 2b 55 ab 3d
       0.053834043 0.1262923 0.03854076 0.08365854
000320 b6 f4 d4 bd 5d 3c 25 3e ca d6 66 bc 19 6b 14 3e
       -0.103982374 0.16136308 -0.014089296 0.1449398
000330 2b b0 5b bd 36 6f b0 3d 75 9c 98 3d f7 f7 8b 3d
       -0.053634804 0.08614962 0.07451717 0.06834405
000340 f7 bb 88 3d 87 30 88 bd 40 04 81 bc c2 f2 1d 3e
       0.066764764 -0.06649881 -0.015749097 0.15424636
000350 35 ad 2a 3e 9a e3 8b 3e 33 6d 80 3d 67 02 d5 3d
       0.16667636 0.27322084 0.06270828 0.10400849
000360 cb ea 31 bb 7e ff 18 ba d0 e9 08 be 53 a4 ba bd
       -0.0027148004 -0.0005836411 -0.13370442 -0.091133736
000370 7c 46 b0 3d 35 43 79 3d eb ed bd 3d c4 a9 4b bd
       0.08607194 0.06085511 0.09273895 -0.049722448
000380 93 03 59 3d a4 ae e7 3b 8e ab 80 3d f5 cb 8c 3d
       0.052981924 0.0070703793 0.062827215 0.06874839
000390 69 81 95 bd 68 4a cd 3c 0e d8 a4 bd 2a 23 ca 3c
       -0.07300074 0.025059894 -0.08049022 0.02467497
0003a0 5d 0e bf 3d b3 df 88 bd 57 8d a6 3d 8e e6 66 3d
       0.093289115 -0.06683292 0.08132427 0.056372218
0003b0 12 0a cf bd e9 58 30 bd 34 e8 3c bc 9f c5 8d bd
       -0.10109343 -0.04305354 -0.011529971 -0.06922459
0003c0 35 c7 d4 3d f6 02 9e bc 63 8f e4 3c 6f 92 25 bd
       0.10389558 -0.019288521 0.027900403 -0.040422853
0003d0 6d 5b 96 bd 2f 08 e3 3d 30 7f 61 3d 87 b0 66 bd
       -0.07341657 0.11085545 0.055052936 -0.056320693
0003e0 93 6f cd bc 82 4d 4e bd 09 17 a5 3b 42 4e d8 3a
       -0.025077617 -0.050366886 0.0050381464 0.0016502815
0003f0 b9 36 e9 bd 91 db fb 3c 34 45 61 3d 43 cd c3 bd
       -0.11387391 0.030744346 0.054997638 -0.09560635

arith.constant11 f4 [512, 128]
000000 68 6e 81 bd f5 df 37 bd 4e 6e 6b bc e3 fc 68 3c
       -0.063198864 -0.044891316 -0.01436956 0.014220449
000010 7f f4 49 3d 12 29 7b bc 6b 27 ee 3d 10 3d 0f 3b
       0.049305435 -0.015329616 0.11628612 0.0021856464
000020 5c 21 fc bb c9 f7 12 3e 34 e0 d1 bd 6b 3e 13 bd
       -0.0076944064 0.14352335 -0.102478415 -0.0359482
000030 e9 84 75 3d 91 8e db 3c ad e1 cc 3d 0c 54 0b bd
       0.059941206 0.02680138 0.10003982 -0.0340157
000040 c2 57 cf bc 77 77 b0 bd 89 c4 c9 ba 4a 06 79 bd
       -0.0253104 -0.08616536 -0.0015393655 -0.060797013
000050 31 06 f4 bb 44 6e 55 3d 9a 83 13 bd fc bc b7 b9
       -0.007447027 0.05210711 -0.036014177 -0.00035045284
000060 47 f8 2c 3c bc eb 9f 3d 4c bb 50 bc 08 f3 02 3e
       0.010557241 0.07808635 -0.012739968 0.12788022
000070 bd 47 3d 3d 15 7d 83 bd 8c e7 1f bd 18 e9 2c 3d
       0.046210993 -0.06420342 -0.03903918 0.042214483
000080 6e 00 04 3d 18 84 21 3d b3 21 9b bd b0 3e f7 bc
       0.032226972 0.039432615 -0.07574787 -0.030181259
000090 03 fe 60 bd 92 1a 66 3e aa ba d6 bb d1 95 a8 3c
       -0.054929744 0.22471073 -0.006553014 0.02057925
0000a0 db 18 c1 3c ef 79 c7 3c 19 62 95 bd df 3c 2a 3d
       0.023571422 0.024350135 -0.07294101 0.041561957
0000b0 6c 01 7f 3d 02 70 eb bc ef 89 05 3d 71 cd 23 bd
       0.062257215 -0.028739933 0.032602247 -0.039990846
0000c0 ec 93 4b 3d a4 5d 04 bd b9 bf b8 3b bb 5a 02 3d
       0.049701616 -0.032315865 0.0056380895 0.03182481
0000d0 4f 33 b3 bd ae 23 66 3d d2 e2 4d 3d ba ff 45 bd
       -0.08750021 0.05618637 0.05026514 -0.048339583
0000e0 ac 03 f3 bc 88 d5 27 bc 82 00 f7 bd ab df fa 3d
       -0.029664837 -0.010243781 -0.12060644 0.122496925
0000f0 46 c8 97 bb cc 3e b2 bd 1c d0 05 3c e8 d3 12 3e
       -0.0046320288 -0.08703384 0.008167293 0.14338648
000100 17 cc f5 3b 34 30 ac 3d 1f e9 58 3d 91 7a 02 bd
       0.007501136 0.084076315 0.052956697 -0.03185517
000110 f6 85 a3 3c f8 0f ad 3d ab 56 dc 3d 73 5c 70 3d
       0.019961338 0.084503114 0.10758718 0.058681916
000120 73 64 bb bc 55 14 00 be dd 74 01 be 55 29 04 3c
       -0.022875046 -0.12507756 -0.12642236 0.008066495
000130 21 7e 06 be 5f 4f c3 3d c6 66 bf ba 18 1c 2e be
       -0.13134052 0.09536623 -0.0014602772 -0.17002904
000140 c8 ab 12 3c 8f a1 c9 bd 2e 7d 3b 3d 6d da 4d 3d
       0.008952089 -0.09845268 0.045773678 0.050257135
000150 f4 56 9d bc a7 bf 01 bd c5 63 9e 39 42 46 f2 3b
       -0.019206502 -0.031676915 0.00030210442 0.0073936293
000160 7c 40 82 3d 6b a4 a5 bd 55 fa ba 3b 92 f3 2b bd
       0.06359956 -0.08088001 0.0057061114 -0.041980334
000170 1c 41 a7 bd 97 22 9e bc 4c e2 36 be ca 0d 0c be
       -0.081667155 -0.019303603 -0.17859763 -0.13677135
000180 a2 95 17 3e ab 81 96 3d 73 65 73 bc dc 86 0a 3d
       0.14803174 0.07348951 -0.01485573 0.03382002
000190 a8 53 69 bd 96 f1 d5 3c 9e 3e 25 bd 52 8c 3a 3c
       -0.056964546 0.026116174 -0.04034292 0.011385994
0001a0 3f 9a 03 bc 06 62 7d 3c 27 8e fd 3d 96 49 0f bd
       -0.008032381 0.015465265 0.12380629 -0.034982286
0001b0 04 f6 67 bd 13 62 78 bd 8b 29 47 3d f4 b9 2c bd
       -0.056631103 -0.060640406 0.048623603 -0.042169526
0001c0 f8 23 b0 bd fc 89 b7 3b 49 39 d0 bd 10 eb 0c 3d
       -0.086006105 0.005601166 -0.10167176 0.03440386
0001d0 52 26 01 3e 6c 39 91 bc 81 2c 88 3d 7d dd 8a bd
       0.12612274 -0.017727576 0.066491134 -0.06780527
0001e0 9e db a8 bd 15 db 80 3d 1c 49 53 bd ac 5a 6f 3d
       -0.08245014 0.062917866 -0.051583394 0.05843608
0001f0 89 ed 63 3d df 1c 97 bb 8e 10 95 bd 56 db 13 3d
       0.055646453 -0.004611596 -0.07278548 0.036097847
000200 d9 fc 28 3d d1 1b 86 bd a0 44 19 bd f1 77 56 bc
       0.04125676 -0.06548274 -0.03741896 -0.01309012
000210 d2 69 27 3c 72 0f a2 3b f8 38 46 3d 39 ca 56 bd
       0.010218101 0.004945689 0.048394173 -0.05243895
000220 3c bf 0c bd 93 ec f0 bc 80 fc 18 3d a1 65 d8 3c
       -0.034362063 -0.029409682 0.037350178 0.026415648
000230 f8 5f e2 bd e3 06 18 3c d3 40 f2 b9 3d 19 33 3b
       -0.11053461 0.009278986 -0.00046206135 0.0027328276
000240 64 47 d7 bc 7b 53 a0 3d 47 72 1f bc 81 9f 98 bc
       -0.026279159 0.07828423 -0.009731836 -0.018630745
000250 fa 9a 3f bd 14 08 19 3d c3 ee d2 bc 2d e4 0d bd
       -0.046778657 0.03736122 -0.025748616 -0.034641434
000260 6f ca d3 3c 4b 96 c3 bd 84 b3 42 bc 74 de 95 bc
       0.025853364 -0.095501505 -0.01188362 -0.01829455
000270 df 7b 8a bc 97 15 b4 3c 90 63 fc bb 81 cd 29 bd
       -0.01690477 0.021982951 -0.0077022985 -0.04145575
000280 a0 be 69 bc 78 ee 1f 3d 7b 03 52 3d f6 a0 9b 38
       -0.01426664 0.03904578 0.05127285 7.420957e-05
000290 b8 93 f2 3c 4a 1c 04 3b d5 42 32 bc 81 6f f0 3b
       0.029611453 0.0020158463 -0.010880192 0.007337511
0002a0 73 02 de bc 17 fd 81 bd 5c 04 86 3c 37 60 b1 3b
       -0.027100777 -0.06347101 0.0163595 0.005413081
0002b0 8f 9e 9a 3c 83 d0 80 bd 81 42 86 3a ac 7c 95 3d
       0.018874435 -0.062897705 0.0010243208 0.0729917
0002c0 a1 f1 d0 bc 06 3b 80 bd b8 14 7f 3c bf 63 c0 3d
       -0.025505843 -0.06261258 0.015568905 0.09394025
0002d0 c8 82 5c 3c 3c 25 e8 3b 83 97 ae 3d fa f4 93 ba
       0.013458915 0.007084517 0.08524992 -0.0011288219
0002e0 33 65 37 3d 97 41 8c 3c 3d 82 28 3d ed 34 1d 3c
       0.044774245 0.01712112 0.04113983 0.009595138
0002f0 97 6f 90 bd c0 62 22 bd f3 1e 7b bd db 9e ec 3b
       -0.07052534 -0.039644957 -0.061308812 0.0072210855
000300 24 96 1c 3c 28 74 97 3d fd db b3 bb 36 15 69 bd
       0.009557281 0.07395202 -0.005488871 -0.056904994
000310 4c cc 00 3d 46 b3 98 bc 6d 08 88 3d cb ed 6a 3d
       0.031444833 -0.018640172 0.06642232 0.057355683
000320 3c 49 97 bc 7a 81 b7 bc 4f d2 3c 3d cd 9b 5f bd
       -0.018467538 -0.022400606 0.046099003 -0.054591943
000330 c8 54 c8 bd 54 5a e6 3c 1b 13 86 bc d0 28 e9 bd
       -0.09781796 0.028119244 -0.016366532 -0.113847375
000340 85 da cf bc 0b 86 16 bc bc 89 5f bd 70 c6 b6 bd
       -0.025372753 -0.009187232 -0.054574713 -0.08924568
000350 4d 95 92 bc 0f 54 20 bc 11 09 04 3b d8 a3 09 bb
       -0.017893458 -0.009785666 0.0020147006 -0.00210022
000360 c3 f6 e6 bc 51 41 43 bd 50 eb ec 3c 9d c9 c9 ba
       -0.028193837 -0.047669712 0.0289208 -0.0015395168
000370 f7 01 94 3d 11 e7 e2 bd 47 71 03 bd 13 69 47 3d
       0.07226937 -0.11079229 -0.03209045 0.04868419
000380 b4 c7 88 3d 4c c2 01 bd 4f 7a c6 3c a2 cb af 3d
       0.06678715 -0.031679437 0.024228243 0.08583762
000390 63 0b 4f bd e9 12 88 bd e3 fb 4a bd de 85 75 bd
       -0.05054797 -0.06644232 -0.049556624 -0.05994212
0003a0 38 f6 f6 bb d2 fa 29 3d 05 b7 c0 bc 1f c2 0a bd
       -0.007536676 0.041498967 -0.02352477 -0.033876535
0003b0 ed 0e 43 bc fc 86 35 bd 5b a3 e7 3b e8 49 2c 3d
       -0.011905414 -0.044318184 0.007069034 0.04206267
0003c0 77 79 48 bd 1b f9 6d 3c 9f 31 7e ba a3 6d 49 3c
       -0.048943963 0.014524723 -0.0009696725 0.012294206
0003d0 a3 55 b7 3c 6c 0c ba 3d 82 c4 b0 bb 1c 1e 23 bd
       0.022379702 0.090844005 -0.0053945193 -0.039823636
0003e0 ae b1 e5 bc dc c0 fc 3c 41 9a 9c 3d cf a2 31 bd
       -0.028038826 0.030853681 0.07646609 -0.043368157
0003f0 dd ae 49 3d f9 22 84 bd 5f d5 92 3d 2b 29 93 bc
       0.04923903 -0.06451983 0.071696036 -0.017963966

arith.constant12 f4 [512]
000000 8e 31 e7 bc 75 32 01 3d 43 03 cd 3c 56 58 bc bd
       -0.028221872 0.03154226 0.02502597 -0.09196536
000010 00 bf d1 3c e1 c3 36 3b c9 1c 3b bd 05 84 a3 3d
       0.025603771 0.002788775 -0.04568175 0.07984165
000020 24 cc 89 3c 25 40 14 3e 3d ac 2b bd f8 cc 2f bb
       0.016820975 0.14477594 -0.041912306 -0.0026825052
000030 56 e0 98 bb 80 9b a2 bd bf 1e 85 3d 31 9f 44 3d
       -0.004665415 -0.079398155 0.06500005 0.04800338
000040 b7 b9 ca bc 3a 5e 6f 3d 1f e4 6e 3d f6 f3 fe bc
       -0.024746759 0.05843947 0.058323022 -0.031122189
000050 90 14 6d bc 13 19 c8 3d b6 a3 bc 3c fa 1e 5a 3a
       -0.0144702345 0.097704075 0.023027282 0.0008320656
000060 6e 61 51 bb e3 df 25 bd b9 7b c4 3d 84 d1 4d 3d
       -0.0031948942 -0.04049672 0.09593911 0.050248638
000070 b2 c9 13 3d 48 8c 96 3d 3b 0e 01 bc be b5 f8 3b
       0.036081024 0.07350975 -0.007876928 0.0075900247
000080 29 6e d1 3a 93 a9 2c bd f7 5c a5 bd 7e 3b 3e bc
       0.0015978265 -0.042153906 -0.08074372 -0.011610864
000090 1e 57 01 3b b2 aa 1a be a1 2c 9a 3a 9b cd b0 bd
       0.0019735764 -0.15104178 0.0011762568 -0.08632966
0000a0 07 ba ce 3c 0b 8f 44 3d dd 72 29 3e de 03 1a 3c
       0.02523519 0.04798798 0.16547723 0.009400336
0000b0 e4 ec 46 3d 80 d6 80 3d aa 27 02 bc c2 23 15 3d
       0.04856576 0.06290913 -0.007944027 0.036411054
0000c0 04 65 04 3d 5f a4 d3 3d d7 ce b5 bc 93 6d 06 3d
       0.0323229 0.10334086 -0.022193355 0.032819342
0000d0 67 d8 09 bd 9c 54 ae bd ed ff a0 bd c8 2c ba 3b
       -0.033653643 -0.08512232 -0.07861314 0.005681608
0000e0 70 ae 13 bc a5 14 49 3c 75 d8 80 3d fa c5 a2 ba
       -0.009013757 0.012272988 0.06291286 -0.0012418621
0000f0 cb 1b 1b 3d 9b 64 6e 3a fb db d5 b8 a7 52 45 3d
       0.037868302 0.0009093971 -0.00010197606 0.048174527
000100 63 53 c3 3b da 07 37 3d 30 f6 1e bc 38 70 3f bc
       0.005960868 0.044685222 -0.00970225 -0.01168447
000110 9a 26 be 3c 8c d8 89 3d 75 4e 9a 3c 36 9e 49 3d
       0.023211766 0.06730756 0.01883624 0.049223147
000120 f1 d1 cd bc 56 2d 90 bd 10 7b d4 3b 9d 95 e3 3d
       -0.025124522 -0.07039897 0.0064843968 0.11112521
000130 e1 8f e2 3d f3 ac 20 3e 59 41 90 b9 7f a1 55 3d
       0.11062599 0.15690975 -0.00027514508 0.052155968
000140 bc 82 e8 3c fa ad 8a 3d 4d 57 54 bc b8 f5 4c bd
       0.028382652 0.06771465 -0.012960267 -0.050039023
000150 0b 10 ce 3a 7f 93 93 bd ef 91 01 bd 31 44 5a 3b
       0.0015721334 -0.07205867 -0.031633314 0.0033304805
000160 4c c6 47 3b b4 d9 b8 3b 7a f0 c0 b6 8b 81 a8 3c
       0.0030483184 0.0056411866 -5.750041e-06 0.020569583
000170 85 54 f9 3c fc 81 da bc a6 17 49 bd 50 38 39 bc
       0.03043581 -0.02667331 -0.04909482 -0.01130493
000180 7f 6e 32 3d 37 2d 27 3d 31 4b 2d bd 5e fd 41 3d
       0.04356241 0.040814605 -0.042308036 0.04736077
000190 ee 7f d0 bd ab 63 e2 bc 6c f4 54 3a 7a 76 2e 3c
       -0.10180651 -0.027635416 0.000812358 0.010648364
0001a0 fa 4c 34 3d bf fc 03 bc db b6 77 be 3f 86 c9 3c
       0.044018723 -0.008055865 -0.24190848 0.024600146
0001b0 10 a5 07 bd 73 7c 24 3d cc 90 9a bb 4a 4a 3d bc
       -0.0331164 0.040157747 -0.004716968 -0.011553356
0001c0 b7 16 30 3e 85 e6 35 bd 20 28 8e 3c a8 aa d8 3b
       0.17196165 -0.044409294 0.017353117 0.0066121407
0001d0 9a 85 f6 3d eb f4 80 bd 78 89 6e 3c 5a 4b 8b bb
       0.12037201 -0.062967144 0.014559142 -0.004250926
0001e0 08 9c 35 bd 8c ce 92 3d b0 f4 3a bd bf e4 9c bb
       -0.044338256 0.07168302 -0.04564351 -0.004788011
0001f0 85 d9 99 38 19 f0 19 be 04 91 c7 bc ef 27 56 3b
       7.336125e-05 -0.15032996 -0.024361141 0.003267761
000200 b8 cc 7d 3f cf 88 88 3f c1 5e 70 3f 1c e5 80 3f
       0.991405 1.0666751 0.93894583 1.0069919
000210 2e 9b 84 3f 76 6b 84 3f ce c1 76 3f 60 df 7d 3f
       1.0359857 1.0345294 0.9638947 0.9916897
000220 16 6c 81 3f 5a 1e 7d 3f 3a b1 86 3f 50 f0 7f 3f
       1.011111 0.9887444 1.0522835 0.9997606
000230 1e 64 7e 3f 9d 21 85 3f 32 1d 80 3f 97 cb 86 3f
       0.99371517 1.0400883 1.000891 1.0530881
000240 38 a8 67 3f 1d cd 81 3f eb 21 88 3f c4 86 75 3f
       0.90491056 1.0140721 1.0635351 0.9590876
000250 bf 95 7d 3f e9 38 79 3f 64 2e 81 3f 10 3a 77 3f
       0.9905662 0.97352463 1.0092282 0.9657297
000260 7c 34 7d 3f 99 a8 79 3f b8 9c 85 3f 2b e2 8e 3f
       0.9890821 0.97522885 1.0438452 1.1162771
000270 83 61 84 3f 9f 6e 87 3f cc 26 7f 3f 5e 97 86 3f
       1.0342258 1.0580634 0.99668574 1.0514944
000280 ca 6c 80 3f d6 3f 82 3f 26 36 7e 3f 55 bb 7f 3f
       1.00332 1.0175731 0.99301374 0.9989522
000290 80 17 75 3f 4e 20 84 3f 7d 77 7f 3f 86 34 82 3f
       0.95738983 1.0322359 0.997917 1.0172279
0002a0 8f a3 74 3f 79 0e 80 3f c8 73 78 3f 74 9d 80 3f
       0.9556207 1.0004417 0.9705167 1.0048051
0002b0 79 2a 6c 3f f7 3d 92 3f fc 08 80 3f 1c d9 82 3f
       0.9225231 1.142516 1.0002742 1.0222507
0002c0 35 b3 80 3f 68 9c 87 3f 70 17 7e 3f e2 5a 7f 3f
       1.005469 1.0594606 0.9925451 0.9974805
0002d0 66 37 7b 3f a4 a6 83 3f ec 28 7b 3f e0 ed 75 3f
       0.98131406 1.028523 0.98109317 0.96066093
0002e0 89 45 77 3f a0 d8 88 3f 7f 31 80 3f 09 0e 83 3f
       0.9659048 1.0691109 1.0015105 1.0238658
0002f0 86 9c 7b 3f 0e ff 7f 3f 72 e8 7f 3f ab e8 77 3f
       0.9828571 0.9999856 0.9996406 0.968394
000300 f6 2b 83 3f 8e 7a 76 3f f5 51 77 3f fa 8c 83 3f
       1.0247791 0.96280754 0.9660943 1.0277398
000310 7e bf 85 3f 4d 2b 86 3f a2 70 84 3f bc 2c 84 3f
       1.0449064 1.0481964 1.0346873 1.0326152
000320 fe c5 80 3f 31 72 81 3f 82 fa 6e 3f cc e7 74 3f
       1.0060422 1.0112973 0.93350995 0.95666194
000330 ae e3 7a 3f 94 fd 7c 3f cb fc 7f 3f 50 4f 71 3f
       0.9800366 0.9882443 0.99995106 0.94261646
000340 25 20 8b 3f 25 72 83 3f 08 ec 7f 3f 28 3c 7d 3f
       1.0869185 1.0269209 0.9996953 0.98919916
000350 4a 00 80 3f da e3 7a 3f aa fd 7f 3f 78 0d 81 3f
       1.0000088 0.98003924 0.99996436 1.0082235
000360 2a 68 83 3f 11 a8 84 3f ff ff 7f 3f a8 c0 81 3f
       1.0266163 1.036379 0.99999994 1.0136919
000370 cc dc 7e 3f 53 aa 79 3f 17 e1 80 3f 54 0a 76 3f
       0.9955566 0.9752552 1.0068692 0.9610951
000380 76 05 84 3f 7e 92 8f 3f 0f 09 81 3f 38 e7 79 3f
       1.0314167 1.1216581 1.008089 0.97618437
000390 f6 5b 87 3f 36 d7 79 3f 99 09 80 3f 59 cd 78 3f
       1.0574939 0.9759401 1.0002929 0.97188336
0003a0 dd b0 81 3f f9 57 85 3f f2 36 83 3f 53 51 80 3f
       1.0132099 1.0417472 1.0251143 1.0024818
0003b0 ea 74 80 3f 92 cd 8d 3f de 35 80 3f ae 76 7f 3f
       1.0035679 1.107836 1.0016439 0.99790466
0003c0 e7 17 83 3f 5a d6 85 3f 71 f0 81 3f 3f 0f 80 3f
       1.024167 1.045604 1.0151502 1.0004653
0003d0 11 7d 8e 3f bf dc 84 3f 39 65 84 3f 93 04 76 3f
       1.1131917 1.0379866 1.0343391 0.9610073
0003e0 d6 50 84 3f 0f d8 6d 3f 14 5b 7b 3f 41 8f 85 3f
       1.0337169 0.92907804 0.9818585 1.0434343
0003f0 0e f7 7d 3f db ba 79 3f 67 bc 85 3f 3d bc 81 3f
       0.992051 0.97550744 1.0448121 1.0135571
